ptdrl_final/scripts/rl/checkpoints/checkpoint_dqn_mdrnn_e_3_best.pt (torch, 221143 bytes, 6 tensors)

layers.0.weight f4 [128, 290]
0.511749 -1.111842 -3.306189 -2.0073907 -1.938168 5.1804185 -1.3925558 0.90794235
-4.2627907 -3.8262343 -0.7990141 1.3703762 -0.66967577 4.4955096 0.43069682 2.2055182
2.634936 -1.738348 1.6556082 -1.0373605 4.4821672 2.9326463 0.4201134 0.33925644
-1.4516332 2.0723286 1.1610721 -0.9153432 4.852626 0.7976139 2.1264029 -0.58861643
-0.1040981 -0.14028671 -1.471624 -1.4328245 -0.42450565 0.9249369 0.12955621 1.4044468
-0.22188516 -0.60901475 -1.2062567 -0.18758269 1.508932 0.8207133 -0.7372612 -2.9057143
3.2775724 -0.4569826 0.33825648 -0.22078967 0.62094516 3.5380137 1.1996281 1.7155432
0.20313688 1.5409231 -1.2538518 0.48174196 1.7726614 1.1153635 -1.5836532 -3.6854908
2.8554137 1.0216061 0.30700973 0.41489306 -4.07349 -0.4417767 0.29591238 0.80782455
1.3602148 0.11505128 2.4336402 -0.5010323 -1.6208657 -1.2982782 -0.86136895 -0.59176004
-1.9766456 0.101057865 2.5370111 -0.92650884 0.6882827 0.6908123 0.05812447 -1.569934
1.121315 -0.14843555 -4.6854243 -1.0949249 -0.16294761 1.7618653 -0.1959102 -0.42060164
1.1163766 -1.8167257 0.53115785 0.58347523 -1.456126 -1.7548796 -0.68699396 -0.91761655
2.0392346 -0.012741759 0.19877973 -0.20226672 0.0045543415 -1.0935371 0.49760586 0.39784786
-0.88728017 0.40103948 0.6614088 -1.4678055 0.37034136 -0.7341469 -0.2848291 -2.4713063
-1.0015538 0.648464 1.128829 0.12633766 0.15121703 1.2183517 1.1680685 -3.2621999
-0.16280468 0.5468725 1.885482 0.61201525 -3.3570764 1.1967984 -0.8531763 -0.9146616
0.08585691 -0.8940942 0.9084822 1.1735301 -0.46008733 0.76463664 1.1529161 -0.37907532
1.8854501 -1.6517291 -1.2704753 1.7203513 1.4762743 -0.5443762 0.8976919 -0.28008536
1.3801726 0.3383762 -1.0115845 0.12534225 1.6145308 -0.097659186 -0.65359414 0.9201047
-1.1595796 0.41976005 -1.8295062 0.034097455 0.32728493 2.54005 -0.3012335 0.80769396
0.69153774 -0.040382925 1.2083431 0.56191325 1.703565 0.74859864 -0.6587259 -1.3350972
-2.3743608 0.34568837 -1.9936025 -0.21781175 0.5166815 -1.6018941 3.7873895 0.7758086
-0.84108806 -1.4386128 -2.2100556 0.63744223 -3.3426127 -2.2274103 1.204886 -1.6805345
-1.4633402 1.4325662 2.1692472 1.3481013 -2.0693233 2.5233274 2.0749834 0.5325735
-1.1477731 0.03097529 -1.1904002 -0.0805993 0.41544193 0.2708607 -1.0392588 -1.2559228
-0.67551947 -0.004354581 -0.87438565 -3.1706991 -0.23294733 -1.3168776 0.8620708 0.06796448
2.422012 -2.9248304 -0.2362725 -0.5318674 0.20735677 1.6172417 -1.6956012 2.0656745
-0.06539257 -1.2891916 -1.3813579 -0.22886045 2.1668494 -0.78246695 -0.6680944 -1.0734035
-0.7205865 -0.25042066 -0.69744354 1.0593662 1.8078223 1.1107278 -0.7804168 3.037753
1.3571448 -0.8867283 -0.6065999 1.134346 1.5770372 1.0439543 -0.80555767 -1.6560392
-0.54659575 0.36884344 1.9086225 -0.5736258 0.3744682 -1.5927857 1.8422354 0.07717077
00000000: fc01 033f d750 8ebf 9a98 53c0 1779 00c0
00000010: e415 f8bf fdc5 a540 453f b2bf e96e 683f
00000020: c868 88c0 06e1 74c0 308c 4cbf 7d68 af3f
00000030: df6f 2bbf 37db 8f40 4b84 dc3e 3627 0d40
00000040: cba2 2840 3082 debf f8ea d33f 3bc8 84bf
00000050: ea6d 8f40 7ab0 3b40 1b19 d73e 05b3 ad3e
00000060: 1ecf b9bf 08a1 0440 039e 943f ef53 6abf
00000070: b648 9b40 6d30 4c3f fc16 0840 91af 16bf
00000080: 6231 d5bd 52a7 0fbe 2d5e bcbf cb66 b7bf
00000090: ce58 d9be aac8 6c3f 62aa 043e eac4 b33f
000000a0: dd35 63be 64e8 1bbf 9f66 9abf ad15 40be
000000b0: af24 c13f 441a 523f 26bd 3cbf 39f7 39c0
000000c0: bfc3 5140 a0f9 e9be f42f ad3e b016 62be
000000d0: 43f6 1e3f d16e 6240 6a8d 993f eb96 db3f
000000e0: 1d03 503e f83c c53f 377e a0bf e2a6 f63e
000000f0: 92e6 e23f 3bc4 8e3f 26b5 cabf 15df 6bc0
00000100: 19bf 3640 fdc3 823f 6130 9d3e dd6c d43e
00000110: 085a 82c0 8e30 e2be d481 973e 97cd 4e3f
00000120: 851b ae3f 01a0 eb3d c3c0 1b40 a743 00bf
00000130: 8778 cfbf fb2d a6bf ad82 5cbf 967d 17bf
00000140: b902 fdbf 6df7 ce3d 645e 2240 af2f 6dbf
00000150: 4c33 303f 13d9 303f ed13 6e3d 99f3 c8bf
00000160: 4087 8f3f 7dff 17be ffee 95c0 8026 8cbf
00000170: bddb 26be cd84 e13f af9c 48be 1959 d7be
00000180: 6ee5 8e3f 788a e8bf f6f9 073f a25e 153f
00000190: 5662 babf e59f e0bf d6de 2fbf ebe8 6abf
000001a0: d282 0240 d0c2 50bc ea8c 4b3e 021f 4fbe
000001b0: 963c 953b 06f9 8bbf 32c6 fe3e b7b2 cb3e
000001c0: cb24 63bf 0c55 cd3e 1652 293f 0de1 bbbf
000001d0: 629d bd3e 0df1 3bbf 1fd5 91be e229 1ec0
000001e0: ea32 80bf bd01 263f 787d 903f a95e 013e
000001f0: a3d8 1a3e f3f2 9b3f 4583 953f e2c7 50c0
00000200: 45b6 26be d6ff 0b3f 7957 f13f 08ad 1c3f
00000210: 57da 56c0 b130 993f c369 5abf 4327 6abf
00000220: bfd5 af3d 5ce3 64bf 4a92 683f 3c36 963f
00000230: 9190 ebbe 3abf 433f c192 933f 2916 c2be
00000240: 6e56 f13f dc6b d3bf ef9e a2bf 7934 dc3f
00000250: 8ef6 bc3f 3d5c 0bbf 23cf 653f 5967 8fbe
00000260: 7fa9 b03f a53f ad3e 9a7b 81bf b859 003e
00000270: f2a8 ce3f 8a01 c8bd f251 27bf fb8b 6b3f
00000280: 1b6d 94bf caea d63e 422d eabf c6a9 0b3d
00000290: e491 a73e 2e90 2240 473b 9abe 08c5 4e3f
000002a0: 9e08 313f 9168 25bd fdaa 9a3f 8cd9 0f3f
000002b0: 6b0e da3f 29a4 3f3f 43a2 28bf 77e4 aabf
000002c0: 87f5 17c0 11fe b03e 5e2e ffbf 0b0a 5fbe
000002d0: 3d45 043f de0a cdbf 9764 7240 649b 463f
000002e0: 8c51 57bf 7724 b8bf 8d71 0dc0 6a2f 233f
000002f0: 5eed 55c0 e48d 0ec0 b439 9a3f c11b d7bf
00000300: bb4e bbbf 545e b73f f2d4 0a40 958e ac3f
00000310: cb6f 04c0 327e 2140 87cc 0440 bd56 083f
00000320: 3bea 92bf e4bf fd3c 095f 98bf 3f11 a5bd
00000330: ceb4 d43e 41ae 8a3e 6f06 85bf 14c2 a0bf
00000340: d8ee 2cbf dfb0 8ebb bdd7 5fbf bcec 4ac0
00000350: bf89 6ebe 728f a8bf acb0 5c3f f630 8b3d
00000360: 3f02 1b40 6c30 3bc0 6bf1 71be 7628 08bf
00000370: 5555 543e c701 cf3f 7609 d9bf 0334 0440
00000380: 8aec 85bd 3b04 a5bf 56d0 b0bf 655a 6abe
00000390: a9ad 0a40 c14f 48bf 3c08 2bbf 4965 89bf
000003a0: 5b78 38bf 2337 80be a98b 32bf 5099 873f
000003b0: b966 e73f 542c 8e3f 65c9 47bf 8c6a 4240
000003c0: ecb6 ad3f a000 63bf 224a 1bbf 4032 913f
000003d0: 5bdc c93f 4ba0 853f 0739 4ebf 18f9 d3bf
000003e0: b3ed 0bbf 0cd9 bc3e be4d f43f 24d9 12bf
000003f0: 4cba bf3e 67e0 cbbf 5fce eb3f b50b 9e3d

layers.0.bias f4 [128]
0.30760837 0.53639466 0.39631042 1.5967793 -0.59140074 0.9515584 7.8349934 0.8881306
-1.5604465 -1.650474 -1.4545522 2.96156 1.3349097 2.0782633 2.23831 -0.5930257
1.9379187 0.5918715 -1.2359353 1.0810179 0.68713135 2.423494 -0.06534057 -0.9484364
-2.7494936 3.3992753 1.1988175 -2.5934427 1.5874026 -0.7543833 2.0644307 -0.5386554
0.08167041 -0.19025165 2.3472164 -2.1246629 0.6958762 -1.058098 1.2726078 0.57499176
0.72953635 0.28874418 2.4340324 2.896157 1.1115909 3.5630903 0.5797102 1.204146
0.7228958 -0.23089309 -0.3728304 -0.37006062 0.017245047 1.5017036 -0.9717706 0.8630132
2.7963753 9.277792 4.0234537 3.3832858 0.47999495 2.0435324 -0.7168303 0.16700636
0.77621806 -0.5846039 -0.30150485 -2.170179 -0.47717097 -0.47255066 3.496576 6.2005997
3.2518203 1.9989473 2.6685739 -0.7928057 0.005450069 0.75985163 -2.170658 -0.703256
0.43443507 -1.3988417 -1.3438321 1.4332378 2.2016323 -0.36907622 -0.48760563 5.7555923
-0.23827392 0.61039007 0.41555384 2.3044028 -2.2214181 0.732672 0.706739 6.614537
0.07099438 -0.9900508 0.14620028 -1.0896329 -0.75821567 3.0973005 -0.6727797 0.71823955
1.6328425 0.09734165 -0.9182585 0.6173425 4.2798295 -1.6326869 -1.439335 -0.40339294
-0.72632813 0.39187747 1.0612242 0.9270717 -1.4048266 0.9590021 -0.19855654 8.404315
0.80879855 1.658222 0.4608038 0.631924 2.2587278 4.5804663 1.1606319 0.2550245
00000000: d87e 9d3e 2951 093f 33e9 ca3e 4463 cc3f
00000010: 0a66 17bf 5599 733f 44b8 fa40 875c 633f
00000020: b6bc c7bf bb42 d3bf c42e babf 338a 3d40
00000030: 52de aa3f 4402 0540 7940 0f40 88d0 17bf
00000040: b80d f83f e484 173f 2133 9ebf cb5e 8a3f
00000050: d7e7 2f3f 871a 1b40 47d1 85bd bacc 72bf
00000060: b4f7 2fc0 ba8d 5940 da72 993f f7fa 25c0
00000070: 0230 cb3f 441f 41bf a21f 0440 52e5 09bf
00000080: d142 a73d 54d1 42be cb38 1640 7afa 07c0
00000090: f124 323f c16f 87bf d0e4 a23f a932 133f
000000a0: e5c2 3a3f 47d6 933e 30c7 1b40 a35a 3940
000000b0: 9c48 8e3f ac09 6440 e367 143f 7521 9a3f
000000c0: b30f 393f 3d6f 6cbe a0e3 bebe 9678 bdbe
000000d0: 7c45 8d3c d337 c03f f5c5 78bf 6fee 5c3f
000000e0: d0f7 3240 d671 1441 22c0 8040 c187 5840
000000f0: e6c1 f53e 3cc9 0240 3182 37bf b703 2b3e
00000100: 3ab6 463f 9aa8 15bf d85e 9abe 36e4 0ac0
00000110: c14f f4be 29f2 f1be e7c7 5f40 506b c640
00000120: d31d 5040 81dd ff3f eac9 2a40 50f5 4abf
00000130: 7e96 b23b a385 423f 10ec 0ac0 9608 34bf
00000140: 466e de3e 3f0d b3bf b102 acbf 5674 b73f
00000150: 8be7 0c40 8ff7 bcbe 72a7 f9be d02d b840
00000160: 14fe 73be 8642 1c3f 79c3 d43e 567b 1340
00000170: b72b 0ec0 6490 3b3f d9ec 343f 49aa d340
00000180: 8065 913d f873 7dbf 87b5 153e 1779 8bbf
00000190: 6c1a 42bf 2c3a 4640 4a3b 2cbf 8cde 373f
000001a0: fc00 d13f 0f5b c73d fd12 6bbf 280a 1e3f
000001b0: 5df4 8840 e2fb d0bf 213c b8bf 8589 cebe
000001c0: a4f0 39bf 2aa4 c83e 32d6 873f 9254 6d3f
000001d0: 5cd1 b3bf 2981 753f 6852 4bbe 1378 0641
000001e0: 6c0d 4f3f 9e40 d43f 7aee eb3e c5c5 213f
000001f0: ff8e 1040 2e93 9240 968f 943f 9292 823e

layers.2.weight f4 [128, 128]
1.6900896 -2.9073963 -8.313401 -1.5789157 3.2043548 1.1240093 2.0210772 2.86889
-1.7959749 -7.1581416 2.4296994 3.8376544 1.0906337 0.4744314 -0.23465447 3.2020566
-7.64725 -4.583431 -5.8831043 -3.0657845 2.0520458 1.468087 1.4589689 2.1292665
-8.8695345 2.9043188 -5.9972234 1.9551449 2.5686014 -9.5736 -0.68704575 -11.112642
2.7300382 -5.5406113 1.8098494 -11.394965 0.962994 -7.5592165 1.0559728 -3.3425765
-6.1643605 1.1214457 0.56049895 -0.6715275 -7.0520053 1.7129222 -5.6809177 -8.949245
5.3990192 -4.6436777 -4.9124184 -6.193719 -2.71057 -5.7947173 2.858869 -0.71093
3.0488973 -2.0927699 -5.1346464 3.859528 -8.653852 -3.1358292 -3.7375236 -11.174364
4.920488 1.7884986 1.1913172 3.1030693 2.0370083 2.2476342 -4.9448223 2.5095894
-6.769949 5.022918 -6.005531 2.184331 3.6851513 -8.399051 6.2305584 5.363465
-1.5368596 5.1159987 0.4401157 -5.25402 0.123107105 -14.211092 -1.6436664 -4.6699457
-4.9763613 5.873427 -2.0498972 1.7513657 -8.683887 -5.0277214 -10.100207 -0.24372742
-4.312015 -6.656944 -0.017705867 -6.5767946 1.46991 -0.22388257 -6.729821 -2.7215173
0.19602877 -6.6863236 -3.1279137 0.1098648 -0.34655002 -8.729834 -0.031069372 -0.7986377
-6.5898094 -0.5868737 2.062525 2.1117585 -5.632167 3.831302 -5.294148 2.4354374
0.91436607 -7.3890967 3.1780276 -6.549355 2.365222 0.020188464 2.196244 -6.150935
2.4912164 -0.15611091 1.7922274 0.93864685 1.6530623 1.0604372 3.737127 3.1078436
0.98909754 -0.8118721 1.670947 3.0654728 3.0516236 4.051021 2.4180489 1.3237346
0.85609686 1.6197155 0.8895065 1.9748502 3.680775 3.419717 2.0652032 1.2604944
1.0655107 2.6348145 0.7838871 1.6107869 3.2498827 -2.5631192 1.4930902 0.36698502
1.5004727 0.34659752 2.4356413 -0.61461264 3.9763167 1.7605625 2.704534 -0.5139001
0.92987996 2.13262 2.6207793 2.3428435 1.6480912 2.684822 -0.06537617 1.429237
2.577598 1.062001 -0.22137159 0.64188427 0.9357098 0.79883575 1.1698925 2.6352885
2.939438 3.6926033 1.7819109 3.065432 0.18554538 0.458581 0.3386368 1.1611398
4.4635844 2.943406 3.04026 2.6937177 1.9227499 1.3469212 3.2220216 2.3900633
1.4181534 1.3473756 2.025056 2.3304584 2.1961205 0.8420552 3.292769 2.6229193
0.32933557 1.4429905 2.448017 0.52861553 1.9363337 0.855498 0.3747933 2.0956953
-0.6152963 2.064827 -0.52926284 3.067259 0.36994672 0.47171086 0.2862715 3.4532945
0.7147999 -0.3058068 2.2083857 -0.008718701 1.2999067 1.6427351 -0.14881524 1.1927515
2.04752 0.72678363 2.9183526 1.6847556 2.9604409 0.14948902 2.5997877 2.9869394
-0.52427983 2.610396 2.0618706 1.877774 0.8152712 3.7309043 1.9684333 2.8273427
0.5751656 1.677999 3.735637 0.8492958 1.4109432 2.853082 3.302378 0.94571835
00000000: db54 d83f c812 3ac0 b103 05c1 e919 cabf
00000010: 2614 4d40 89df 8f3f 5459 0140 e59b 3740
00000020: 81e2 e5bf 7f0f e5c0 3280 1b40 219c 7540
00000030: e399 8b3f ace8 f23e 4349 70be 7fee 4c40
00000040: 46b6 f4c0 77ab 92c0 6442 bcc0 d035 44c0
00000050: b854 0340 46ea bb3f 7ebf ba3f e745 0840
00000060: 9de9 0dc1 5ce0 3940 41e9 bfc0 3042 fa3f
00000070: f763 2440 772d 19c1 3be2 2fbf 62cd 31c1
00000080: f2b8 2e40 b04c b1c0 25a9 e73f c751 36c1
00000090: c686 763f 1ae5 f1c0 1e2a 873f c6ec 55c0
000000a0: 7142 c5c0 888b 8f3f dc7c 0f3f 3ae9 2bbf
000000b0: 07aa e1c0 0941 db3f 14ca b5c0 1c30 0fc1
000000c0: c4c4 ac40 0299 94c0 8832 9dc0 f232 c6c0
000000d0: fb79 2dc0 536e b9c0 b6f7 3640 82ff 35bf
000000e0: 2221 4340 f1ef 05c0 064f a4c0 8202 7740
000000f0: 2e76 0ac1 6db1 48c0 9633 6fc0 32ca 32c1
00000100: a374 9d40 86ed e43f 157d 983f b098 4640
00000110: 585e 0240 3dd9 0f40 fc3b 9ec0 1d9d 2040
00000120: 6ca3 d8c0 bfbb a040 4f2d c0c0 14cc 0b40
00000130: 85d9 6b40 8362 06c1 bc60 c740 81a1 ab40
00000140: d1b7 c4bf 43b6 a340 d856 e13e ef20 a8c0
00000150: 941f fc3d a260 63c1 a963 d2bf 3270 95c0
00000160: 5a3e 9fc0 1df3 bb40 8431 03c0 c02c e03f
00000170: 33f1 0ac1 18e3 a0c0 739a 21c1 ae93 79be
00000180: 07fc 89c0 af05 d5c0 e50b 91bc 1a75 d2c0
00000190: 0326 bc3f 7941 65be b25a d7c0 572d 2ec0
000001a0: c4bb 483e 5df6 d5c0 bd2f 48c0 cc00 e13d
000001b0: 016f b1be 66ad 0bc1 3285 febc 8573 4cbf
000001c0: b8df d2c0 5b3d 16bf 6900 0440 0d27 0740
000001d0: b63a b4c0 0d34 7540 a969 a9c0 35de 1b40
000001e0: e513 6a3f 7b73 ecc0 ce64 4b40 5194 d1c0
000001f0: cc5f 1740 4762 a53c 438f 0c40 76d4 c4c0
00000200: 1770 1f40 8adb 1fbe b567 e53f 294b 703f
00000210: 8c97 d33f 68bc 873f 172d 6f40 e9e6 4640
00000220: 7f35 7d3f dad6 4fbf 97e1 d53f b530 4440
00000230: cd4d 4340 f7a1 8140 50c1 1a40 2370 a93f
00000240: 2a29 5b3f d652 cf3f b3b6 633f e4c7 fc3f
00000250: d191 6b40 a5dc 5a40 4a2c 0440 e157 a13f
00000260: a862 883f cda0 2840 d3ac 483f 442e ce3f
00000270: 14fe 4f40 250a 24c0 941d bf3f 76e5 bb3e
00000280: 7d0f c03f 3b75 b13e 8ce1 1b40 4157 1dbf
00000290: f97b 7e40 1d5a e13f 1617 2d40 f58e 03bf
000002a0: 9d0c 6e3f d97c 0840 d9ba 2740 26f1 1540
000002b0: a7f4 d23f 20d4 2b40 f1e3 85bd 3df1 b63f
000002c0: 5ef7 2440 a6ef 873f 3caf 62be 8752 243f
000002d0: ad8a 6f3f 8080 4c3f 0abf 953f 91a8 2840
000002e0: c11f 3c40 9d53 6c40 a815 e43f 0a30 4440
000002f0: 9cff 3d3e 21cb ea3e cd61 ad3e 3ba0 943f
00000300: afd5 8e40 c460 3c40 9f93 4240 df65 2c40
00000310: ab1c f63f ea67 ac3f 9a35 4e40 ccf6 1840
00000320: 0d86 b53f ce76 ac3f 849a 0140 3b26 1540
00000330: 3d8d 0c40 ee90 573f babc 5240 e9dd 2740
00000340: ac9e a83e eab3 b83f 4fac 1c40 5953 073f
00000350: c8d9 f73f eb01 5b3f e8e4 bf3e df1f 0640
00000360: 0f84 1dbf 2026 0440 c57d 07bf f94d 4440
00000370: a869 bd3e 1684 f13e 2e92 923e c702 5d40
00000380: 20fd 363f b592 9cbe 3156 0d40 e2d8 0ebc
00000390: 5863 a63f 2545 d23f 0663 18be 15ac 983f
000003a0: 910a 0340 7e0e 3a3f 4ac6 3a40 12a6 d73f
000003b0: dd77 3d40 a613 193e ec62 2640 042a 3f40
000003c0: 3437 06bf ba10 2740 b0f5 0340 e65a f03f
000003d0: 9db5 503f 23c7 6e40 9ff5 fb3f 2ff3 3440
000003e0: 0e3e 133f acc8 d63f ad14 6f40 736b 593f
000003f0: c999 b43f e598 3640 295a 5340 991a 723f

layers.2.bias f4 [128]
1.0152719 20.525814 20.735998 1.1373903 1.8734359 0.68112266 1.4239844 -0.1587775
0.14683892 -0.38462117 0.8099832 1.402183 0.27607223 -0.4791924 -1.5426278 2.7100222
0.49897072 0.3076212 0.5358078 -0.088816464 2.9113426 3.4060638 0.98992205 -3.6042578
-0.06084892 -0.1888612 2.4892104 -2.2067366 0.38181296 -10.600205 0.014105786 -2.4194424
0.87123513 -0.0021955587 -0.11658921 13.279989 -0.42508137 -0.26655948 3.625266 -0.18315594
0.6811753 20.467308 0.77148974 20.83792 2.0755937 -1.7616943 1.0370694 -0.8447612
-0.027429951 -0.9848342 -0.11850995 -2.5794828 -0.053708993 0.34228107 0.017006435 -0.1318115
-0.42335284 -0.22617759 -1.0168272 -0.04894576 -0.37496415 -4.165671 -3.6312885 -2.9027903
-0.019973153 1.8114073 5.030465 0.77958834 1.7006503 1.1482044 0.4044047 -0.57503814
6.1974773 0.25388357 0.70138884 0.053233657 0.9721535 -0.11475467 -1.9728476 -0.11688499
-4.6991396 -7.263223 -0.10291018 1.0553592 -3.0806894 0.8222208 0.6053137 0.1797655
-9.574297 0.7721229 0.1533736 0.94092315 1.8134377 -2.1327178 -1.8814604 1.5171632
1.4852662 0.11488455 -4.835188 -4.2867303 2.2147312 -8.675642 -3.1063542 3.0553267
0.27317265 0.17275862 0.38632107 0.57707024 -0.025491279 0.57480884 -9.799665 -0.33881187
0.76440895 -0.46113855 0.39300707 -0.13275969 1.3800457 0.052506946 0.6957456 0.99575603
-0.2137072 0.09276127 -0.53389007 2.8938148 -0.15414362 -1.295419 1.0302557 -0.7888492
00000000: 6ef4 813f de34 a441 53e3 a541 0196 913f
00000010: bfcc ef3f 0e5e 2e3f 1f45 b63f 9296 22be
00000020: f15c 163e 11ed c4be 0f5b 4f3f bc7a b33f
00000030: 5759 8d3e b558 f5be d474 c5bf 0171 2d40
00000040: 1779 ff3e 8780 9d3e b32a 093f 68e5 b5bd
00000050: 7053 3a40 f3fc 5940 886b 7d3f 29ac 66c0
00000060: b83c 79bd d564 41be 394f 1f40 2c3b 0dc0
00000070: fd7c c33e 719a 29c1 f41b 673c 25d8 1ac0
00000080: 4409 5f3f 5de3 0fbb 53c6 eebd d67a 5441
00000090: 44a4 d9be 7c7a 88be 5c04 6840 3b8d 3bbe
000000a0: 8161 2e3f 0cbd a341 5a80 453f 0fb4 a641
000000b0: 87d6 0440 337f e1bf b1be 843f 4542 58bf
000000c0: c7b4 e0bc 181e 7cbf 58b5 f2bd 3f16 25c0
000000d0: f6fd 5bbd 773f af3e 1451 8b3c 98f9 06be
000000e0: b4c1 d8be 199b 67be 6527 82bf 597b 48bd
000000f0: 4dfb bfbe 2d4d 85c0 0867 68c0 51c7 39c0
00000100: bd9e a3bc 32dc e73f 92f9 a040 1a93 473f
00000110: e9ae d93f 5df8 923f 220e cf3e b335 13bf
00000120: bc51 c640 07fd 813e 388e 333f 890b 5a3d
00000130: 0ddf 783f 7f04 ebbd 4586 fcbf 6661 efbd
00000140: 5a5f 96c0 536c e8c0 93c2 d2bd 0316 873f
00000150: 042a 45c0 107d 523f d7f5 1a3f 7214 383e
00000160: 5230 19c1 d9a9 453f f80d 1d3e 57e0 703f
00000170: ba1e e83f 737e 08c0 b2d3 f0bf 6732 c23f
00000180: 341d be3f 9748 eb3d dcb9 9ac0 e52c 89c0
00000190: 28be 0d40 6ecf 0ac1 82ce 46c0 798a 4340
000001a0: 49dd 8b3e a3e7 303e e0cb c53e e0ba 133f
000001b0: 16d3 d0bc ac26 133f 6ecb 1cc1 c078 adbe
000001c0: 4eb0 433f 5a1a ecbe 3938 c93e 28f2 07be
000001d0: 56a5 b03f 8611 573d 621c 323f dee9 7e3f
000001e0: 0fd6 5abe 9ff9 bd3d 05ad 08bf 4334 3940
000001f0: d3d7 1dbe 4ad0 a5bf 6bdf 833f 05f2 49bf

layers.4.weight f4 [8, 128]
7.3234444 1.9730804 1.7199906 8.975212 7.848141 0.8501944 10.76113 0.07171577
9.206143 -11.807932 9.983376 9.697695 -8.086556 -6.1862707 -5.1871004 10.510175
9.302757 2.9114885 8.129348 0.00065457396 7.990824 8.30848 5.337032 -4.4065633
-5.5829053 7.787525 7.668758 -3.2905755 -0.54295796 -5.162717 7.243202 -6.830412
12.547477 -0.096108444 -0.05228213 2.8518438 -4.105856 3.6377337 4.4489 10.962334
10.1236725 1.5386277 8.698441 1.7459009 8.401695 -4.0686154 6.935516 -4.019165
-0.042530503 -8.18978 0.009288047 -7.099678 -0.023158537 8.034923 8.567249 -0.019793136
-5.0729423 0.2861368 -1.5000751 9.568571 6.680265 -3.1768062 -5.182112 -7.9277253
0.07874521 10.692379 4.4949493 8.976658 9.905622 9.732106 2.0748904 1.7537225
3.724959 -10.696305 6.6802373 6.191791 0.37968546 -6.386586 -7.104117 0.08293081
-4.285704 -3.1673527 -7.2708836 6.974269 -4.2512746 7.833788 1.1816537 10.214465
-3.5698612 6.5267005 10.534984 9.779965 7.5252533 -3.7583334 -6.3639493 8.044314
7.2864394 10.534585 -3.484477 -5.3985868 7.0005283 -5.0235376 -6.5278306 7.3870983
-1.7034878 -7.077823 5.975722 11.560673 9.720516 10.93513 -3.2228863 0.601141
8.680649 -6.4720716 -0.7220934 -0.0055588763 5.814281 10.212489 9.638308 10.21932
0.5373012 0.75408316 -2.5737252 9.467028 0.004421195 -0.5645053 -6.4719667 -2.1060517
9.654768 1.7250489 1.8009071 7.3475266 7.870127 0.9938335 9.995092 0.05598159
8.680379 5.1853075 9.679649 9.065479 -8.244924 -6.138006 -5.8049417 11.226565
7.766175 -0.71109986 7.538706 0.043450728 7.9144106 7.9324274 10.821093 -2.3847458
-4.058736 9.251798 9.446015 -7.516008 -3.128958 -5.1774993 9.511706 -6.6759753
12.269615 0.008640002 0.04823881 2.86335 -6.08107 3.193138 5.03825 10.251582
9.082182 1.8285745 7.9244328 1.6497251 6.8426247 -6.5061398 7.9945345 -4.086806
-0.04867236 -9.00139 0.042431463 -4.9063826 0.04713601 9.547698 8.070486 -0.0064035263
-5.783753 -0.19365986 -2.477532 9.135102 5.039735 -2.5761378 -6.5960736 -8.562847
-0.08738088 7.1254325 5.379888 7.611013 9.626276 8.69685 0.43271938 -1.8908441
3.5581589 0.8910824 6.939481 6.498651 5.4195747 -4.6118803 -7.3928375 0.018126411
-3.7110271 -3.1507642 -6.7176633 6.8619475 -3.9212792 7.0109134 3.5500686 10.092359
-3.5390055 4.707876 10.6568365 11.1403885 8.350211 -7.181023 -6.1243105 9.524037
7.0188785 8.723828 -2.9136057 -5.050794 5.6975374 -5.064984 -5.920063 5.7615347
-6.790156 3.3935852 6.839479 12.004743 10.191134 9.496003 -2.5038497 0.7328524
7.9936175 -7.5606265 0.0067378874 0.022398228 3.4624503 8.461853 6.8647757 11.374855
-1.3212693 -0.25199845 -3.8488903 9.576973 0.0287075 -1.370631 -5.941764 0.11155357
00000000: a859 ea40 e68d fc3f a728 dc3f 789a 0f41
00000010: f923 fb40 57a6 593f 972d 2c41 b8df 923d
00000020: 5d4c 1341 4aed 3cc1 e8bb 1f41 c229 1b41
00000030: 8962 01c1 eef5 c5c0 bafc a5c0 ad29 2841
00000040: 18d8 1441 d455 3a40 cf11 0241 b797 2b3a
00000050: d5b4 ff40 89ef 0441 f7c8 aa40 9102 8dc0
00000060: 29a7 b2c0 6833 f940 7766 f540 ca98 52c0
00000070: 4bff 0abf fa34 a5c0 50c8 e740 bc92 dac0
00000080: 77c2 4841 81d4 c4bd c925 56bd 9c84 3640
00000090: 2c63 83c0 a1d0 6840 645d 8e40 b865 2f41
000000a0: 90fa 2141 c1f1 c43f d02c 0b41 ae79 df3f
000000b0: 586d 0641 1932 82c0 bfef dd40 009d 80c0
000000c0: 7734 2ebd 5709 03c1 e52c 183c 9030 e3c0
000000d0: f9b6 bdbc 0b8f 0041 7413 0941 3725 a2bc
000000e0: 8b55 a2c0 8680 923e 7602 c0bf de18 1941
000000f0: bbc4 d540 cb50 4bc0 ddd3 a5c0 edaf fdc0
00000100: 2b45 a13d fc13 2b41 a0d6 8f40 64a0 0f41
00000110: 6d7d 1e41 b5b6 1b41 01cb 0440 fb79 e03f
00000120: ba65 6e40 1124 2bc1 81c4 d540 2723 c640
00000130: 2266 c23e ea5e ccc0 ed54 e3c0 a1d7 a93d
00000140: 7d24 89c0 e8b5 4ac0 14ab e8c0 362d df40
00000150: 710a 88c0 64ae fa40 6e40 973f 736e 2341
00000160: 9b78 64c0 bbda d040 4b8f 2841 bd7a 1c41
00000170: e0ce f040 8988 70c0 79a5 cbc0 83b5 0041
00000180: 832a e940 a98d 2841 ac01 5fc0 39c1 acc0
00000190: 5404 e040 d2c0 a0c0 fde3 d0c0 1c63 ec40
000001a0: e30b dabf 877d e2c0 1d39 bf40 84f8 3841
000001b0: 3c87 1b41 4bf6 2e41 c543 4ec0 60e4 193f
000001c0: f0e3 0a41 361b cfc0 1ddb 38bf 3c27 b6bb
000001d0: 970e ba40 5b66 2341 8236 1a41 5682 2341
000001e0: 928c 093f 980b 413f eab7 24c0 f278 1741
000001f0: acdf 903b 6b83 10bf 5a1a cfc0 8dc9 06c0
00000200: ee79 1a41 67ce dc3f 2084 e63f f01e eb40
00000210: 15d8 fb40 df6b 7e3f e6eb 1f41 f44c 653d
00000220: d5e2 0a41 0aee a540 d8df 1a41 340c 1141
00000230: 35eb 03c1 8c6a c4c0 15c2 b9c0 03a0 3341
00000240: 8184 f840 a40a 36bf 143d f140 64f9 313d
00000250: da42 fd40 72d6 fd40 3223 2d41 ad9f 18c0
00000260: 2ae1 81c0 5d07 1441 e122 1741 2383 f0c0
00000270: d940 48c0 13ae a5c0 f32f 1841 97a1 d5c0
00000280: 5850 4441 cc8e 0d3c 0f96 453d 2041 3740
00000290: 2098 c2c0 5f5c 4c40 5839 a140 7b06 2441
000002a0: 9e50 1141 bb0e ea3f f494 fd40 312a d33f
000002b0: c8f6 da40 4c32 d0c0 3ad3 ff40 1dc7 82c0
000002c0: ab5c 47bd b205 10c1 9dcc 2d3d 1601 9dc0
000002d0: b011 413d 5fc3 1841 b620 0141 acd4 d1bb
000002e0: 8114 b9c0 c54e 46be e28f 1ec0 6129 1241
000002f0: 8245 a140 71df 24c0 0913 d3c0 6c01 09c1
00000300: bff4 b2bd 8b03 e440 0b28 ac40 6b8d f340
00000310: 3a05 1a41 4c26 0b41 658d dd3e 2e07 f2bf
00000320: e0b8 6340 fa1d 643f 3a10 de40 f3f4 cf40
00000330: 286d ad40 8694 93c0 2092 ecc0 d77d 943c
00000340: 7881 6dc0 1fa6 49c0 19f7 d6c0 1395 db40
00000350: 3df6 7ac0 6759 e040 5334 6340 4d7a 2141
00000360: 117f 62c0 eca6 9640 6782 2a41 083f 3241
00000370: 779a 0541 f1ca e5c0 5afa c3c0 7562 1841
00000380: a79a e040 cd94 0b41 8478 3ac0 1ba0 a1c0
00000390: 3a52 b640 5914 a2c0 2871 bdc0 7e5e b840
000003a0: f548 d9c0 8030 5940 03dd da40 6d13 4041
000003b0: e30e 2341 a1ef 1741 133f 20c0 379c 3b3f
000003c0: b7cb ff40 a7f0 f1c0 7fc9 dc3b 7d7c b73c
000003d0: c998 5d40 c063 0741 3eac db40 68ff 3541
000003e0: 5a1f a9bf f105 81be 3854 76c0 483b 1941
000003f0: fe2b eb3c d670 afbf ee22 bec0 3376 e43d

layers.4.bias f4 [8]
6.6649227 8.239176 6.818945 6.0705504 6.220971 7.32858 6.224505 9.27559
00000000: 0c47 d540 aad3 0341 cc34 da40 f341 c240
00000010: 3212 c740 ba83 ea40 252f c740 d168 1441
