ptdrl_final/scripts/rl/checkpoints/checkpoint_dqn_mdrnn_e_3_current.pt (torch, 221143 bytes, 6 tensors)

layers.0.weight f4 [128, 290]
0	0xbeebdb5f	-0.46065804
1	0xbfde979a	-1.7390015
2	0xc0360769	-2.8442023
3	0xc0699482	-3.6496892
4	0xbfffe786	-1.999253
5	0x408a691d	4.325331
6	0x3f25a6f7	0.64707893
7	0x3f323f66	0.6962799
8	0xc0c5222f	-6.160423
9	0xc06ff61f	-3.749397
10	0x3d1c2a2d	0.03812616
11	0x3f9eed3f	1.2416152
12	0xbf93f444	-1.1558919
13	0x40ac4528	5.383442
14	0x3f8d0d96	1.1019771
15	0x3feeb83a	1.8649971
16	0x4038e19c	2.88877
17	0xbfc8e898	-1.5695982
18	0x3f154663	0.58310527
19	0xbf4c022a	-0.796908
20	0x40a09aa9	5.0188794
21	0x400b8f5a	2.1806245
22	0x3ed1a760	0.4094801
23	0x400cd8ad	2.2007248
24	0xbfaaaaa4	-1.3333325
25	0x40178459	2.3674529
26	0x3f8e3bfd	1.1112057
27	0xbfa2d163	-1.272015
28	0x4099522e	4.7912817
29	0xbe2b2809	-0.16714491
30	0x3ff1b011	1.8881856
31	0xbf01dc47	-0.5072674
32	0x3f16e4a6	0.5894264
33	0x3da6c236	0.081425115
34	0xbfb70d76	-1.4300983
35	0xbf9c0ba7	-1.2191056
36	0xbf074df1	-0.52853304
37	0x3f9044ec	1.1271033
38	0xbd86df59	-0.06585569
39	0x3fbe6186	1.4873512
40	0xbee463f2	-0.44607502
41	0xbf58e8c1	-0.84730154
42	0xbfa812ca	-1.3130734
43	0xbea8f0ce	-0.3299622
44	0x3f8fba35	1.1228701
45	0x3fa1c71c	1.2638888
46	0xbf9ec7d3	-1.2404732
47	0xc044d452	-3.075459
48	0x403db9a7	2.9644563
49	0xbdd6db87	-0.1049109
50	0x3ea8cebf	0.32970235
51	0x3f12ffb3	0.57421416
52	0x3f0b0099	0.54297787
53	0x404efa87	3.234041
54	0x3fc2a5c5	1.5206839
55	0x3f9d4ccd	1.2289063
56	0x3e4d108b	0.20025842
57	0x3ec1a4c3	0.37821016
58	0xbf142c07	-0.5787968
59	0x3e8f4390	0.27981234
60	0x40344ca9	2.817179
61	0x3f98308a	1.1889813
62	0xbf3320e2	-0.6997205
63	0xc074fcc0	-3.8279266
64	0x4059a3c5	3.4006207
65	0x3e1582f7	0.1460074
66	0x3e88ff12	0.26757103
67	0xbf51f12a	-0.8200861
68	0xc065defc	-3.591735
69	0xbf27fef4	-0.656234
70	0x3f309ae3	0.6898634
71	0x3f09ac3d	0.5377844
72	0x3f9b2b66	1.2122619
73	0xbfa7d347	-1.3111352
74	0x3fc5e3a6	1.5460098
75	0xbd9a362e	-0.07529865
76	0xbf20ead1	-0.628583
77	0xbfb6ba05	-1.4275519
78	0xbf80792a	-1.0036976
79	0x3f54cfef	0.8312978
80	0xbf6c4921	-0.92299086
81	0x3ec08300	0.37599945
82	0x40233bd2	2.5505261
83	0xbf2f4a2c	-0.6847255
84	0xbd8e6db5	-0.06954519
85	0x3e79fb9a	0.24412385
86	0xbf9143d6	-1.1348827
87	0xbf29547a	-0.66144526
88	0x3fadfbeb	1.3592504
89	0x3f4770fd	0.7790678
90	0xc07537be	-3.8315272
91	0xbfd12808	-1.6340342
92	0xbde8bcea	-0.113641575
93	0x402abcaa	2.6677651
94	0x3e4198fb	0.18906014
95	0xbec36183	-0.38160333
96	0x3f3b729b	0.7322175
97	0xbfbcc430	-1.4747372
98	0x3f91f9b2	1.1404326
99	0x3f84ad63	1.0365413
100	0xbfccfa6b	-1.6013921
101	0xbfb3df35	-1.4052492
102	0x3e979990	0.29609346
103	0xbf82ad14	-1.0209069
104	0x3ff1c115	1.8887049
105	0xbdb7b76e	-0.08970533
106	0x3dfbd7d9	0.12297029
107	0xbcf03af0	-0.029324979
108	0xbc8399ea	-0.016064603
109	0xbedcabf8	-0.43099952
110	0x3f78563a	0.9700657
111	0x3ed88c0c	0.42294347
112	0xbf46bc5f	-0.7763118
113	0x3f003b35	0.5009034
114	0x3f2f5e00	0.6850281
115	0xbfeb0e4e	-1.836374
116	0xbea56f28	-0.32311368
117	0xbfa1a8a5	-1.2629591
118	0xbd6500e1	-0.05590904
119	0xc028d760	-2.6381454
120	0xbfaf67d5	-1.3703562
121	0x3f9b1565	1.2115904
122	0x3f9fc6b1	1.2482511
123	0xbdb2d864	-0.087326795
124	0xbdae0ebb	-0.08498903
125	0x3f3385fc	0.7012632
126	0x3f0eea9e	0.5582675
127	0xc00c9087	-2.1963212
128	0x3deafd49	0.114740916
129	0x3f3f6290	0.7475977
130	0x3f882f80	1.0639496
131	0x3f741c1f	0.9535541
132	0xc0155f0a	-2.3339257
133	0x3f8e0ada	1.1097062
134	0xbf817215	-1.011294
135	0xbf4c953c	-0.79915214
136	0xbdc73a9f	-0.09727978
137	0xbe7b42b7	-0.24537168
138	0x3f44e72b	0.76915234
139	0x400bad53	2.1824539
140	0xbe995e2c	-0.2995466
141	0x3f104f86	0.56371343
142	0x3f705f8a	0.9389578
143	0xbf59ad73	-0.8503029
144	0x3fc8f7e1	1.5700647
145	0xbf89daa7	-1.0769852
146	0xbf8e4f6b	-1.1117986
147	0x4020c1a6	2.5118194
148	0x3fff4496	1.9942806
149	0xbf674751	-0.90343195
150	0xbf495cf1	-0.7865744
151	0xbfa234b6	-1.2672336
152	0x3f7191b1	0.9436293
153	0x3d2251fb	0.039628964
154	0xbfe67594	-1.8004632
155	0xbd790935	-0.060799796
156	0x3fdf6083	1.7451328
157	0xbf698a79	-0.9122692
158	0xbf541dd0	-0.8285799
159	0xbe415bf0	-0.18882728
160	0x3d231894	0.03981836
161	0x3fe7c610	1.8107319
162	0xc00df796	-2.2182364
163	0xbc8c8c6c	-0.017156802
164	0x3f2b9ba8	0.6703439
165	0x40048a2b	2.070933
166	0xbe936e8a	-0.28795272
167	0x3f70f62c	0.9412563
168	0x3ec2483d	0.37945738
169	0x3e5e5808	0.21713269
170	0x3f50201c	0.81298995
171	0x3f946c26	1.1595504
172	0x3fa83099	1.3139831
173	0x3f62e71c	0.88633895
174	0xbe7c3f27	-0.24633466
175	0xbfbc21d7	-1.4697827
176	0xc0118ef8	-2.2743511
177	0x3ec7034d	0.38869706
178	0xbff150b5	-1.8852755
179	0x3ee4803f	0.44629094
180	0x3ec792cc	0.38979185
181	0xbfb6479e	-1.4240606
182	0x4081d5e4	4.0573597
183	0x3f2df52d	0.67952234
184	0xbf971665	-1.1803709
185	0xbfdd1250	-1.7271214
186	0xc007efe4	-2.1240168
187	0x3ea5fb53	0.32418308
188	0xc0192ba4	-2.3932886
189	0xbfdc3288	-1.7202921
190	0x3f8e9e23	1.114201
191	0xbf74d717	-0.956407
192	0xbf046b90	-0.5172663
193	0x3f6bad2a	0.920611
194	0x40000f67	2.00094
195	0x3febc9fd	1.8421017
196	0xbfdf99fb	-1.7468866
197	0x400bff43	2.187455
198	0x402cef0b	2.70209
199	0x3f9612b3	1.1724457
200	0xbd2af549	-0.04173783
201	0x3dab6af1	0.08370007
202	0xbfa91cb2	-1.3211882
203	0x3f1b65d5	0.6070226
204	0x3f98bb3a	1.1932137
205	0x3db6bcda	0.08922739
206	0xbefc7a69	-0.49312142
207	0xbf94d1bb	-1.1626505
208	0xbf03c677	-0.5147471
209	0x3f34f631	0.7068816
210	0xc02ccda6	-2.7000518
211	0xc03ba1d9	-2.9317534
212	0x3e923cff	0.2856216
213	0x3ee13c3b	0.43991265
214	0x3e4bc1dc	0.1989817
215	0xbd04b0ab	-0.032395046
216	0x3f835a53	1.026194
217	0xbfefbae8	-1.8728914
218	0x3f0e716c	0.5564182
219	0x3da76142	0.08172847
220	0x3d47dba0	0.048793435
221	0x3f7ebc1a	0.9950577
222	0xbf902216	-1.1260402
223	0x3ffdc8ac	1.9826865
224	0x3f0d7848	0.5526166
225	0xbef3a70a	-0.47588378
226	0xbffe67bb	-1.9875406
227	0xbdbd23e9	-0.09235365
228	0x4021ebad	2.5300095
229	0xbf763f9d	-0.96190816
230	0xbe9567fc	-0.29180896
231	0xbfcfad5a	-1.6224778
232	0xbee68c9b	-0.45029148
233	0x3dbdf10a	0.0927449
234	0x3d90130b	0.07034882
235	0x3f3d3eb7	0.7392382
236	0x3f8c39c4	1.0955129
237	0x3f9a3ea4	1.2050366
238	0xbf9ca90f	-1.2239093
239	0x4008cd26	2.1375213
240	0x3f9cf9c6	1.2263725
241	0xbda8b6ca	-0.08237989
242	0xbf94e49d	-1.1632267
243	0x3f94d643	1.1627887
244	0x3ffb3d25	1.9628035
245	0x3e8db959	0.27680472
246	0xc005da12	-2.091435
247	0xc008c152	-2.1367993
248	0xbd2eb801	-0.04265595
249	0x3f2aa446	0.6665691
250	0x3fb839d5	1.4392649
251	0xbf9aa336	-1.2081058
252	0x3d0f2979	0.03495166
253	0xbfba0bab	-1.4534811
254	0x3f2a2bcd	0.66473085
255	0xbdd30272	-0.10303201

layers.0.bias f4 [128]
0	0xbef9f20a	-0.48817474
1	0x3f065261	0.5246945
2	0x3d834be4	0.06410959
3	0x3f6a7bc5	0.9159511
4	0xbfa5bb41	-1.294777
5	0x3e743256	0.23847327
6	0x4101649a	8.087061
7	0x3f140c6c	0.57831454
8	0xbfe745b3	-1.8068146
9	0xbffce709	-1.9758006
10	0xc019244c	-2.3928404
11	0x4016fc4c	2.359149
12	0x3ee493ca	0.44644004
13	0x400e76cd	2.226001
14	0x3fd0c9de	1.6311605
15	0xbfdb6f8a	-1.7143414
16	0x3fe8092d	1.81278
17	0x3ec7dbdc	0.39034927
18	0xbff1eb9c	-1.8900027
19	0x3f0283f6	0.50982606
20	0x3e9f14f4	0.31070673
21	0x3fe2bbfb	1.7713617
22	0xbf609f82	-0.8774339
23	0xbfad9b3c	-1.3562999
24	0xc027baf9	-2.620787
25	0x404f362d	3.2376816
26	0x3f6b86ac	0.9200237
27	0xc0471450	-3.1106148
28	0x3f8a0d31	1.0785276
29	0xbf999a92	-1.2000296
30	0x3fdd75fc	1.7301631
31	0xbecf4e1a	-0.40489274
32	0xbe9a7ff3	-0.30175743
33	0xbec0ed2f	-0.37680957
34	0x4007ea14	2.123662
35	0xc0213fc8	-2.519518
36	0x3efe6654	0.49687445
37	0xbfba1234	-1.4536805
38	0x3f0d0109	0.55079705
39	0x3ebc767e	0.36809152
40	0x3f39bc15	0.72552615
41	0xbf100ff8	-0.56274366
42	0x3fd09ba1	1.6297494
43	0x401680a7	2.3516023
44	0x3f140cc7	0.57831997
45	0x403b877f	2.930145
46	0x3ec8e377	0.39236042
47	0x3f95351e	1.1656835
48	0x3d6726b6	0.056433402
49	0xbe19cb56	-0.15018973
50	0xbf25e86a	-0.6480776
51	0xbf7dd678	-0.9915538
52	0x3e980002	0.29687506
53	0x3facf002	1.3510745
54	0xc01d19d0	-2.4547005
55	0xbddaa6d9	-0.10676355
56	0x3ff9b87c	1.9509425
57	0x41127e38	9.155815
58	0x4071b6a5	3.7767727
59	0x404ec418	3.2307186
60	0xbd5bba7c	-0.053644642
61	0x3fe10708	1.7580271
62	0xbf08ce6d	-0.5343998
63	0xbeefce23	-0.46836957
64	0xbe30d352	-0.17268112
65	0xbf8bfeb2	-1.0937102
66	0xbf77642d	-0.9663723
67	0xc03c1dbc	-2.9393148
68	0xbf99b686	-1.2008827
69	0xbf717e89	-0.943337
70	0x40245e7c	2.5682669
71	0x40cb206a	6.347707
72	0x402518e4	2.5796442
73	0x3fbcc3e5	1.4747282
74	0x400eb152	2.2295728
75	0xbff52dcf	-1.9154605
76	0xbf135d9a	-0.575647
77	0x3f1f4339	0.6221195
78	0xc0442336	-3.064649
79	0xbfc1d445	-1.5142905
80	0xbe0c0e07	-0.13677226
81	0xbfcfa5ab	-1.6222433
82	0xbfd3dc49	-1.6551601
83	0x3f73cd19	0.9523483
84	0x3feadea0	1.834919
85	0xbf876140	-1.0576553
86	0xbfa9ca27	-1.3264817
87	0x40b6db13	5.7142425
88	0x3d9faed0	0.07797015
89	0xbeece1ab	-0.4626592
90	0xbefc953a	-0.493326
91	0x3fcaea46	1.5852745
92	0xc02e21dd	-2.7208169
93	0x3ec6c73d	0.38823882
94	0xbf835505	-1.0260321
95	0x40c6697d	6.200377
96	0xbe92d6c1	-0.2867947
97	0xbfc72c18	-1.5560331
98	0x3dbc4215	0.09192292
99	0xbfee6efa	-1.8627617
100	0xbfbd3b79	-1.4783775
101	0x40212ab4	2.5182314
102	0xbec71b2a	-0.38887912
103	0x3ee28919	0.44245222
104	0x3f959cd6	1.1688488
105	0xbe7593e7	-0.23982202
106	0xbfbb98e9	-1.465604
107	0x3d5ff839	0.054680083
108	0x407b0f74	3.9228182
109	0xbffe7435	-1.9879214
110	0xbfd0c26c	-1.6309333
111	0xbfadd848	-1.3581629
112	0xbfb41851	-1.4069921
113	0xbe91ece6	-0.28501052
114	0x3efd4ae0	0.49471188
115	0x3b191a8b	0.0023361768
116	0xbfdb3755	-1.7126261
117	0x3edad743	0.42742357
118	0xbf71152d	-0.94172937
119	0x410abedf	8.671599
120	0x3ed8dec3	0.42357454
121	0x3f859ca2	1.0438426
122	0x3cf4fcc0	0.029905677
123	0x3f32efe9	0.69897324
124	0x3ff8e842	1.944588
125	0x40802427	4.004413
126	0x3f2ec1c1	0.68264395
127	0xbec60c27	-0.38681147

layers.2.weight f4 [128, 128]
0	0x3f949a3b	1.1609567
1	0xc052ec30	-3.2956657
2	0xc109965a	-8.599207
3	0xbfce2acb	-1.6106809
4	0x40439ced	3.056453
5	0x3f8fdf89	1.1240093
6	0x3fa876a1	1.3161203
7	0x40269b72	2.6032376
8	0xbfffe6d6	-1.999232
9	0xc0ec1ad8	-7.378277
10	0x4006c101	2.10553
11	0x40506d13	3.2566574
12	0x3f78f47f	0.9724807
13	0x3e277bd9	0.16355838
14	0xbec934a4	-0.39297974
15	0x4033ddf0	2.810421
16	0xc0fa7f1b	-7.828016
17	0xc092ab77	-4.583431
18	0xc0c357d5	-6.1044717
19	0xc04653ab	-3.0988567
20	0x3ff25546	1.8932273
21	0x3f892550	1.0714512
22	0x3fbabf7e	1.4589689
23	0x40063d73	2.0975006
24	0xc10f6fbb	-8.964778
25	0x4017e3e8	2.3732853
26	0xc0c1c314	-6.0550632
27	0x3fd74783	1.6818699
28	0x4014c901	2.3247683
29	0xc119af91	-9.605363
30	0xbf6ead01	-0.93232733
31	0xc1330e4c	-11.19099
32	0x40234a92	2.5514264
33	0xc0b85287	-5.760074
34	0x3f87fccf	1.0624026
35	0xc13aa7c3	-11.665957
36	0x3f5b10fe	0.85572803
37	0xc0fcda9d	-7.901686
38	0x3f872a1e	1.0559728
39	0xc05e1ff4	-3.4707003
40	0xc0ce3bc2	-6.4447947
41	0x3f8f8b88	1.1214457
42	0x3ed06c3f	0.40707585
43	0xbf75f474	-0.9607613
44	0xc0e9c053	-7.304727
45	0x3fa75bed	1.3074929
46	0xc0c39584	-6.1120014
47	0xc10f301c	-8.949245
48	0x40a7afba	5.240201
49	0xc0971a6e	-4.7219763
50	0xc0a6305c	-5.1934032
51	0xc0c632f2	-6.193719
52	0xc03f6605	-2.9906018
53	0xc0c10b2f	-6.032615
54	0x4034d9e3	2.8257987
55	0xbf35ff82	-0.71093
56	0x40432122	3.0488973
57	0xc025867c	-2.5863333
58	0xc0afa866	-5.4893064
59	0x405cfcc7	3.4529283
60	0xc10cf95a	-8.810877
61	0xc0542487	-3.3147295
62	0xc089c5dc	-4.3054028
63	0xc132ca30	-11.174362
64	0x409d74a6	4.9204893
65	0x3fccb2c6	1.5992057
66	0x3f905be8	1.1278048
67	0x403b3e41	2.9256747
68	0x400055e4	2.0052423
69	0x400bc85c	2.184104
70	0xc0a5dc3f	-5.1831355
71	0x3ff3c038	1.9043036
72	0xc0dcbf00	-6.8983154
73	0x409fb789	4.991154
74	0xc0c6467f	-6.1961055
75	0x4009c3a6	2.1525664
76	0x4063b7c5	3.5580914
77	0xc106e49d	-8.430814
78	0x40c55853	6.167032
79	0x40a879da	5.2648745
80	0xbfde4b20	-1.7366676
81	0x40a2b20d	5.0842347
82	0x3ee156d8	0.4401157
83	0xc0ae0e29	-5.4392285
84	0xbdd5fe87	-0.10448938
85	0xc165c16a	-14.35972
86	0xbfec2909	-1.8450023
87	0xc0a91f22	-5.2850504
88	0xc0a5c374	-5.180109
89	0x40b8570b	5.7606254
90	0xc007425f	-2.113426
91	0x3fbeb324	1.4898419
92	0xc10fefdc	-8.996059
93	0xc0a4fce0	-5.1558685
94	0xc1229e9f	-10.163726
95	0xbf58de89	-0.8471456
96	0xc08c4b06	-4.384158
97	0xc0d609e5	-6.688708
98	0xbdccc967	-0.09999352
99	0xc0d2751a	-6.5767946
100	0x3fae5f6e	1.3622873
101	0xbf14e1b8	-0.5815692
102	0xc0df233a	-6.97305
103	0xc04a221c	-3.1583319
104	0x3e07aea1	0.1325021
105	0xc0d5f65d	-6.6863236
106	0xc04c1df0	-3.1893272
107	0xbc3802bb	-0.01123112
108	0xbf10a07c	-0.5649488
109	0xc10d33b2	-8.825121
110	0xbe8cece6	-0.2752449
111	0xbf820755	-1.0158488
112	0xc0d5c52d	-6.6803193
113	0xbf163d5b	-0.5868737
114	0x3fd9af6e	1.7006662
115	0x400300a2	2.0469136
116	0xc0b64322	-5.695695
117	0x4057043c	3.3596334
118	0xc0ab7213	-5.357675
119	0x3fda5b27	1.7059067
120	0x3f3e948c	0.74445415
121	0xc0ec737b	-7.3890967
122	0x40390478	2.8908978
123	0xc0d19452	-6.5493555
124	0x400d9075	2.211942
125	0xbf153cb6	-0.5829576
126	0x40046d7c	2.0691824
127	0xc0c6dcd0	-6.2144547
128	0x4021251f	2.5178907
129	0xbe41a354	-0.18909961
130	0x3feb64a8	1.8390093
131	0x3f862abe	1.0481794
132	0x3fd73808	1.6813974
133	0x3f7580ff	0.9589996
134	0x404e44f7	3.2229593
135	0x403b7bb8	2.9294262
136	0x3f735c87	0.9506306
137	0xbf5f7dd6	-0.87301385
138	0x3feff9e8	1.874814
139	0x4039602d	2.896495
140	0x40398e2d	2.8993027
141	0x4076c521	3.8557818
142	0x4016e4fe	2.3577266
143	0x3fbeda34	1.491034
144	0x3f422251	0.7583361
145	0x3fbd0e76	1.4770038
146	0x3f339f25	0.7016471
147	0x3fe7a60a	1.8097546
148	0x406c7718	3.694769
149	0x4051ce23	3.2782066
150	0x3fefbf1c	1.8730197
151	0x3f924414	1.1427026
152	0x3f810956	1.0080974
153	0x4028c2f3	2.6368988
154	0x3f3a92e0	0.72880363
155	0x3fc6ebad	1.5540673
156	0x4050058d	3.2503388
157	0xc0210545	-2.5159466
158	0x3fa95492	1.3228934
159	0x3de23a31	0.110462554
160	0x3fa07b99	1.2537719
161	0x3ec79c71	0.38986543
162	0x40171ff8	2.3613262
163	0xbf41263e	-0.7544898
164	0x407f29bb	3.986922
165	0x3fe85705	1.8151556
166	0x40170c3d	2.360122
167	0xbf30d223	-0.69070643
168	0x3f7bf826	0.9842552
169	0x40050715	2.0785573
170	0x4023d60e	2.5599399
171	0x400ceb28	2.2018528
172	0x3fc83278	1.5640402
173	0x401f20d1	2.486378
174	0xbe892727	-0.26787683
175	0x3fb85211	1.4400045
176	0x4018b9e3	2.3863456
177	0x3f55956d	0.8343113
178	0xbe260dc4	-0.16216189
179	0x3f26cd0b	0.6515662
180	0x3f474d96	0.7785276
181	0x3f2eeba2	0.683283
182	0x3f8b5b91	1.0887319
183	0x401778e6	2.366754
184	0x40405c58	3.0056362
185	0x40555b38	3.3336926
186	0x3fd80bf1	1.6878644
187	0x403da9c8	2.9634876
188	0xbc8f7166	-0.017510127
189	0x3ed7b384	0.42129147
190	0x3e661709	0.22469725
191	0x3f8158fb	1.010528
192	0x408d70f4	4.420038
193	0x403d0331	2.9533198
194	0x4042fff2	3.0468717
195	0x40198fb8	2.399397
196	0x3fe3f2d0	1.7808475
197	0x3f8b8364	1.0899472
198	0x4045ee04	3.0926523
199	0x4007c9e1	2.1216967
200	0x3f973e4f	1.181589
201	0x3fb21774	1.3913407
202	0x3ffa1475	1.9537493
203	0x4008dab0	2.1383476
204	0x3ffbc9fd	1.9671017
205	0x3f260aea	0.64860404
206	0x404c3c1e	3.1911693
207	0x4022b935	2.5425541
208	0x3e9dfeda	0.308585
209	0x3fbead53	1.4896644
210	0x400da1f2	2.2130094
211	0x3f074c4e	0.52850807
212	0x3fe5e2a1	1.7959787
213	0x3f72191b	0.9456956
214	0x3eb95fa9	0.36205795
215	0x3fefb8f2	1.8728316
216	0xbf27d871	-0.6556464
217	0x3ff63f3c	1.9238048
218	0xbf024b28	-0.5089593
219	0x4045f681	3.0931704
220	0x3eb5d7d3	0.35516223
221	0x3ee83ca4	0.45358765
222	0x3e5cb4a6	0.21553287
223	0x4047a366	3.119348
224	0x3f13bae2	0.57707036
225	0xbebb31b9	-0.36561373
226	0x40082af2	2.1276212
227	0xbd42187f	-0.047386643
228	0x3faee9d1	1.3665105
229	0x3fbe3c2f	1.4862117
230	0xbe3a7137	-0.1820725
231	0x3f9f7137	1.2456425
232	0x40156913	2.3345382
233	0x3f5cc33d	0.8623541
234	0x40311aff	2.7672727
235	0x3fd1bd16	1.638583
236	0x402ba5f2	2.6820035
237	0x3c9f9051	0.019477995
238	0x40285ddc	2.6307287
239	0x4035c196	2.8399405
240	0xbedd4bc5	-0.4322187
241	0x401eb3a6	2.4797149
242	0x3ffa4538	1.9552374
243	0x3fe76795	1.8078486
244	0x3f5bbd59	0.85835797
245	0x406c0e72	3.6883817
246	0x3feca9ca	1.8489316
247	0x401e280b	2.471194
248	0x3f357c9c	0.70893264
249	0x3fd69db9	1.6766883
250	0x4061d23c	3.5284567
251	0x3f4eca53	0.8077747
252	0x3fa7ad0d	1.3099686
253	0x402b72cf	2.6788824
254	0x40471cec	3.1111403
255	0x3f5a87ea	0.8536364

layers.2.bias f4 [128]
0	0x3e90c6f2	0.28276783
1	0x41abf0f1	21.492647
2	0x41ad9a5b	21.700369
3	0x3f919601	1.1373903
4	0x3f57648a	0.84137785
5	0x3ed33ec5	0.41258827
6	0x3f979df6	1.1845081
7	0xbe2848d2	-0.16434029
8	0x3e165cf1	0.14683892
9	0xbf148167	-0.5800995
10	0x3f3f1780	0.74645233
11	0x3faf69da	1.3704178
12	0x3d143181	0.036180023
13	0xbf00a526	-0.50251997
14	0xc000a90a	-2.0103173
15	0x4017813c	2.3672628
16	0x3eff7917	0.49897072
17	0x3e7725d6	0.24135527
18	0x3f092ab3	0.5358078
19	0xbdf6f3cc	-0.12058219
20	0x402dc2ff	2.7150266
21	0x4018c67e	2.387115
22	0x3f65edf9	0.8981624
23	0xc066f91d	-3.6089547
24	0xbed39b67	-0.413295
25	0xbe6200d1	-0.22070624
26	0x401f4f39	2.4892104
27	0xc01d56e9	-2.4584296
28	0xbcdd44e2	-0.027010385
29	0xc13e5a1d	-11.897
30	0x3c671bf4	0.014105786
31	0xc0326931	-2.7876704
32	0x3f2d780e	0.67761314
33	0xbb0fe35d	-0.0021955587
34	0xbdeec653	-0.11658921
35	0x4167ee98	14.49575
36	0xbed9a444	-0.42508137
37	0xbee1a676	-0.44072312
38	0x405504a3	3.328408
39	0xbe3b8d3b	-0.18315594
40	0x3f2e6181	0.6811753
41	0x41ab384f	21.402494
42	0x3f45805a	0.77148974
43	0x41ae7e51	21.811678
44	0x3fee3890	1.8611012
45	0xc01536c3	-2.3314674
46	0x3f4ff155	0.8122762
47	0xbf9d53c9	-1.2291194
48	0xbd7263f8	-0.05917737
49	0xbf945521	-1.1588479
50	0xbdf2b558	-0.11850995
51	0xc03c8aeb	-2.9459789
52	0xbeff1ef3	-0.498283
53	0x3dce0334	0.10059205
54	0x3c8b5114	0.017006435
55	0xbe277f6e	-0.16357204
56	0xbf299704	-0.66246057
57	0xbface5de	-1.350765
58	0xbf860540	-1.0470352
59	0xbd487b59	-0.04894576
60	0xbf8a3953	-1.0798744
61	0xc090240d	-4.5044007
62	0xc0855ec8	-4.16782
63	0xc05114e4	-3.2669
64	0xbd53eb6d	-0.05173819
65	0x3fb5f8f2	1.4216597
66	0x409a8c83	4.8296523
67	0x3f47931a	0.77958834
68	0x3fd9aee9	1.7006503
69	0x3f839fe3	1.0283169
70	0x3ec4b01d	0.38415614
71	0xbedfc89c	-0.4370774
72	0x40d11ea4	6.5349903
73	0x3e1a1051	0.15045287
74	0x3ee87607	0.45402548
75	0x3d5a0b89	0.053233657
76	0x3f766895	0.9625333
77	0xbf0a1bbf	-0.5394859
78	0xc00a42dc	-2.1603308
79	0xbdef6166	-0.11688499
80	0xc0aace36	-5.337672
81	0xc0f29366	-7.580493
82	0xbef04f6b	-0.4693559
83	0x3f871603	1.0553592
84	0xc04cdad7	-3.200857
85	0x3e32a244	0.17444712
86	0x3efc8665	0.49321285
87	0x3e381472	0.1797655
88	0xc128da31	-10.553269
89	0x3f45a9d9	0.7721229
90	0x3e1d0df8	0.1533736
91	0x3f587afc	0.8456266
92	0x3fdcfec4	1.7265248
93	0xc011cfc7	-2.2783067
94	0xc0041d7d	-2.0642998
95	0x3fc23267	1.5171632
96	0x3fae2abf	1.3606795
97	0x3deb4897	0.11488455
98	0xc0a03fc9	-5.0077863
99	0xc08d8652	-4.4226465
100	0x3fa92b7c	1.3216395
101	0xc11b4780	-9.704956
102	0xc052b3de	-3.2922282
103	0x402146cb	2.5199459
104	0xbd3e3957	-0.046441402
105	0xbcf3b818	-0.029750869
106	0x3d936fdc	0.0719907
107	0x3f13bae0	0.57707024
108	0xbcd0d316	-0.025491279
109	0x3f1326ac	0.57480884
110	0xc11b0017	-9.687522
111	0x3ee04633	0.43803558
112	0x3f43b04e	0.76440895
113	0xbf893f14	-1.0722375
114	0x3ec2c7f5	0.3804318
115	0xbe07f228	-0.13275969
116	0x3f99f5d9	1.2028152
117	0x3d571186	0.052506946
118	0x3f321c62	0.6957456
119	0x3f7ee9de	0.99575603
120	0xbeb5bb43	-0.35494432
121	0x3dbdf99f	0.09276127
122	0xbf8b468b	-1.0880903
123	0x40393443	2.8938148
124	0xbe1dd7d3	-0.15414362
125	0xbfaee61e	-1.3663976
126	0x3f504822	0.81360066
127	0xbf747bd6	-0.9550146

layers.4.weight f4 [8, 128]
0	0x40e69405	7.205569
1	0x3fe81d4a	1.8133938
2	0x3fd744c6	1.6817863
3	0x410f9a78	8.975212
4	0x40f71386	7.721133
5	0x3f59a657	0.8501944
6	0x412c2d97	10.76113
7	0x3d92dfb8	0.07171577
8	0x41134c5d	9.206143
9	0xc13c6b30	-11.776169
10	0x411f39ce	9.951612
11	0x411b29c2	9.697695
12	0xc0be553b	-5.947904
13	0xc0a6612b	-5.1993613
14	0xc09ee10b	-4.964971
15	0x4124c9d9	10.299279
16	0x4114d818	9.302757
17	0x403644fb	2.8479602
18	0x410211cf	8.129348
19	0x3a2b97b7	0.00065457396
20	0x41010f04	8.066166
21	0x4102e96d	8.181989
22	0x40affca7	5.4995914
23	0xc065e297	-3.591955
24	0xc0ad85cd	-5.422583
25	0x40f93368	7.787525
26	0x40f56677	7.668758
27	0xc03cc39c	-2.949439
28	0xbef36ffd	-0.47546378
29	0xc0a22c3a	-5.0678988
30	0x40e7c850	7.243202
31	0xc1029a8d	-8.162732
32	0x41473c2d	12.452191
33	0xbdc4d481	-0.096108444
34	0xbd5625c9	-0.05228213
35	0x4028bee6	2.6366515
36	0xc083632c	-4.105856
37	0x4064bfe6	3.5742126
38	0x4096247c	4.6919537
39	0x412f65b8	10.962334
40	0x4121fa90	10.1236725
41	0x3fc82c98	1.5638609
42	0x410b2cd0	8.698441
43	0x3fdbade1	1.7162439
44	0x4105eb3e	8.369932
45	0xc0633d16	-3.5506034
46	0x40dbe5bd	6.871794
47	0xc0809d00	-4.019165
48	0xbd2e3477	-0.042530503
49	0xc0c35ff8	-6.105465
50	0x3c182ce5	0.009288047
51	0xc0de8456	-6.9536543
52	0xc02358b8	-2.55229
53	0x41008f0b	8.034923
54	0x41091374	8.567249
55	0x3c44238c	0.011971366
56	0xc09ba886	-4.8643217
57	0xbf8ae05a	-1.0849717
58	0xbfb6f3a7	-1.4293107
59	0x411918de	9.568571
60	0x40c8db71	6.2767873
61	0xc04e773d	-3.2260277
62	0xc0a5d3dd	-5.182112
63	0xc0fbd930	-7.870262
64	0x3da1452b	0.07874521
65	0x412a91e2	10.660616
66	0x408e266d	4.4421906
67	0x410fa064	8.976658
68	0x411e7d6d	9.905622
69	0x411bb6b5	9.732106
70	0x4004cb01	2.0748904
71	0x3fc46174	1.534224
72	0x40791f49	3.8925345
73	0xc12b2411	-10.696305
74	0x40d5c481	6.6802373
75	0x40c62327	6.191791
76	0x3ec26622	0.37968546
77	0xc0cc5eea	-6.386586
78	0xc0e354ed	-7.104117
79	0x3da9d7a1	0.08293081
80	0xc089247d	-4.285704
81	0xc04ab5e8	-3.1673527
82	0xc0e8ab14	-7.2708836
83	0x40df2d36	6.974269
84	0xc071c08a	-3.7773767
85	0x40f8a179	7.769711
86	0x3f897ff8	1.0742178
87	0x41236e73	10.214465
88	0xc055ce63	-3.3407218
89	0x40d0dabb	6.5267005
90	0x41288f4b	10.534984
91	0x411c7abd	9.779965
92	0x40f0cee0	7.5252533
93	0xc06c77fa	-3.6948228
94	0xc0caa143	-6.3321853
95	0x4100b583	8.044314
96	0x40e92a83	7.2864394
97	0x41288da9	10.534585
98	0xc0421da6	-3.0330596
99	0xc09a3894	-4.8194065
100	0x40cabad4	6.335306
101	0xc09b577c	-4.8544292
102	0xc0d0e3fd	-6.5278306
103	0x40ea5ade	7.323592
104	0xbfda0be3	-1.7034878
105	0xc0dfe072	-6.996148
106	0x40bf391d	5.975722
107	0x4138f884	11.560673
108	0x411b873c	9.720516
109	0x412ef64b	10.93513
110	0xc04a8b72	-3.164761
111	0x3f8b92c7	1.0904168
112	0x410ae3f0	8.680649
113	0xc0cc5e75	-6.3865304
114	0xbf777869	-0.96668106
115	0xbbb6273c	-0.0055588763
116	0x40b08d4f	5.5172496
117	0x4123665b	10.212489
118	0x411a3682	9.638308
119	0x41238256	10.21932
120	0x3fcacfef	1.5844706
121	0x3f410b98	0.75408316
122	0xc00d3464	-2.2063227
123	0x411778f2	9.467028
124	0x3b90dfac	0.004421195
125	0xbed48604	-0.41508496
126	0xc08af74f	-4.342689
127	0xc002b8ac	-2.0425215
128	0x411871ab	9.527751
129	0x3fd6217f	1.6728972
130	0x3fdf312d	1.7436882
131	0x40eb1ef0	7.3475266
132	0x40f82b95	7.75532
133	0x3f9267cb	1.1437925
134	0x411febe6	9.995092
135	0x3d654cf4	0.05598159
136	0x410ae2d5	8.680379
137	0x40a1d72b	5.0575156
138	0x411adfd8	9.679649
139	0x41110c34	9.065479
140	0xc0c905fd	-6.281981
141	0xc0a5a25d	-5.1760697
142	0xc0b9c215	-5.8049417
143	0x4126ad15	10.417256
144	0x40f88481	7.766175
145	0xbf360aa4	-0.71109986
146	0x40f13d14	7.538706
147	0x3d31f964	0.043450728
148	0x40fdfe5a	7.937299
149	0x40f98efd	7.7987046
150	0x412ca115	10.789327
151	0xc0269f50	-2.6034737
152	0xc07b65c8	-3.9280872
153	0x4114075d	9.251798
154	0x411722e1	9.446015
155	0xc0ec38d3	-7.3819366
156	0xc04840d9	-3.128958
157	0xc0a260d1	-5.0743184
158	0x41182ff3	9.511706
159	0xc0b04b2c	-5.5091763
160	0x41445058	12.269615
161	0x3c0d8ecc	0.008640002
162	0x3d45960f	0.04823881
163	0x4028ba08	2.6363544
164	0xc0c29820	-6.08107
165	0x404c5c5f	3.193138
166	0x40b96355	5.7933755
167	0x4124067b	10.251582
168	0x4111509e	9.082182
169	0x3fd9664b	1.6984342
170	0x40fd94f4	7.9244328
171	0x3fd3e535	1.6554323
172	0x40daf6c8	6.8426247
173	0xc0d8a81e	-6.770522
174	0x40ffd33a	7.9945345
175	0xc082c71d	-4.086806
176	0xbd475cab	-0.04867236
177	0xc0bbe72f	-5.8719707
178	0x3d2dcc9d	0.042431463
179	0xc091376f	-4.538017
180	0xbfd6ea8c	-1.6790328
181	0x41184145	9.515935
182	0x410120b6	8.070486
183	0xbbd1d4ac	-0.0064035263
184	0xc0b91481	-5.783753
185	0xbf8be3c6	-1.0928886
186	0xc01e8fe2	-2.477532
187	0x41122961	9.135102
188	0x409d9c97	4.925365
189	0xc024df71	-2.5761378
190	0xc0d31309	-6.5960736
191	0xc107667c	-8.462521
192	0xbdb2f4bf	-0.08738088
193	0x40e2ff55	7.0936685
194	0x40b21400	5.5649414
195	0x40f38d6b	7.611013
196	0x411a053a	9.626276
197	0x410a6c6c	8.65147
198	0x3edd8d65	0.43271938
199	0xbff2075c	-1.8908496
200	0x406987e5	3.6489193
201	0x3f641dfa	0.8910824
202	0x40de103a	6.939481
203	0x40cff4f3	6.498651
204	0x40ad6d28	5.4195747
205	0xc093fd65	-4.624682
206	0xc0ec9220	-7.3928375
207	0x3c947dd7	0.018126411
208	0xc06c7595	-3.6946766
209	0xc0479dab	-3.1189983
210	0xc0d6f719	-6.7176633
211	0x40db9513	6.8619475
212	0xc0a363af	-5.1059184
213	0x40de50fb	6.9473853
214	0x405d1af9	3.4547713
215	0x41217a4d	10.092359
216	0xc054192f	-3.314037
217	0x4096a6ec	4.707876
218	0x412a8267	10.6568365
219	0x4131bcee	11.108625
220	0x4105782e	8.341841
221	0xc0e5caf1	-7.181023
222	0xc0c36826	-6.1064634
223	0x41186275	9.524037
224	0x40e09aa7	7.0188785
225	0x410b94cd	8.723828
226	0xc073f887	-3.812044
227	0xc0c362d4	-6.105814
228	0x40b7547d	5.7290635
229	0xc09af4d2	-4.8423853
230	0xc0bd7128	-5.920063
231	0x40b85e7e	5.7615347
232	0xc0d7ea56	-6.7473555
233	0x4050f432	3.2649045
234	0x40dade01	6.8396
235	0x4140136d	12.004743
236	0x41230ee3	10.191134
237	0x4117efa1	9.496003
238	0xc060ee2b	-3.5145366
239	0x3f812996	1.0090816
240	0x40ffcbb7	7.9936175
241	0xc0ed3081	-7.412171
242	0xbf6eb5e5	-0.932463
243	0x3cb77c7d	0.022398228
244	0x405b9037	3.4306772
245	0x410763c0	8.461853
246	0x40dbac3e	6.8647757
247	0x4135ff68	11.374855
248	0xc004e22d	-2.0763047
249	0xbe8105f1	-0.25199845
250	0xc058ecd7	-3.3894556
251	0x41193b48	9.576973
252	0x3ceb2bfe	0.0287075
253	0xbfaf72df	-1.3706931
254	0xc09653c5	-4.697726
255	0x3e4f454f	0.20241283

layers.4.bias f4 [8]
0	0x40eec0c2	7.46103
1	0x4104dc05	8.303716
2	0x40e97dee	7.2966223
3	0x40d2fc31	6.593285
4	0x40d44e22	6.6345377
5	0x40fc7b5d	7.890059
6	0x40dc35f6	6.881587
7	0x411b7d4e	9.718092
