ptdrl_final/scripts/rl/checkpoints/checkpoint_e_0_best.pt (torch, 221143 bytes, 6 tensors)

layers.0.weight f4 [128, 290]
000000 45 03 a1 3f d7 52 88 c0 66 ed aa bf 92 f3 6b 40
       1.2579123 -4.2601123 -1.3353698 3.6867414
000010 46 ae 09 bf 55 c1 17 40 fa 2d ec c0 a1 4a 23 bf
       -0.53781545 2.371175 -7.3806124 -0.6378575
000020 9c 22 21 40 1b 69 16 40 38 cd 19 c0 cf b8 94 3f
       2.5177374 2.3501651 -2.4031506 1.1618899
000030 af d0 11 40 c3 62 06 40 b0 dc 61 3f 9c b1 bc c0
       2.278362 2.099778 0.8822737 -5.896681
000040 e2 ff 45 40 cd 1d 84 bf 6d 49 3e bd 65 a2 03 3f
       3.0937428 -1.0321594 -0.046456743 0.5141967
000050 aa 4f 3e c0 7a 4d 85 3f 9d 88 ea 3f 11 38 db bf
       -2.9736123 1.0414269 1.8322941 -1.7126485
000060 9b 79 62 3d ab 1f 71 3f ee 93 2d 40 af 3f b8 bf
       0.055291753 0.94188946 2.712154 -1.4394435
000070 4e 71 ef bf af 21 8d bf be f9 26 40 43 cf b0 3f
       -1.8706453 -1.1025904 2.608993 1.3813251
000080 1a 05 94 3f 82 31 10 40 06 41 82 bf 94 88 bd be
       1.1564057 2.2530217 -1.0176094 -0.37018263
000090 93 f4 95 bf 23 ef d3 3f 82 61 9f 3f 8b 99 01 3d
       -1.1715263 1.6557354 1.2451632 0.03164057
0000a0 e5 dd 84 3e 32 23 2a be ed 45 14 40 d1 d9 89 bf
       0.25950542 -0.16614988 2.316768 -1.0769597
0000b0 10 f7 1a bf f0 c8 d2 3f ea f6 8d bf ed 99 a7 be
       -0.6053324 1.6467571 -1.1090977 -0.32734624
0000c0 25 c7 61 3f eb 4c 2e 40 ff 37 05 bf b7 8a 0b 40
       0.88194495 2.7234447 -0.5203857 2.1803415
0000d0 15 e7 27 bf 03 f9 29 3f 0f e6 4e bf 63 8b ee 3f
       -0.6558698 0.66395587 -0.8081979 1.8636287
0000e0 c8 fd 10 3d a7 78 08 40 ae 92 b6 3f 41 40 24 bf
       0.035398275 2.132364 1.4263513 -0.64160544
0000f0 cc e7 25 40 3e 9a b7 3f 26 b0 09 bf a1 b5 e1 3f
       2.5922728 1.4343946 -0.53784406 1.7633554
000100 14 f2 19 40 c2 18 48 40 9c 00 a6 3f b0 48 9c 3f
       2.4054003 3.126511 1.2968936 1.2209682
000110 8a 03 8a 3e 0c 40 77 be 32 1c 70 40 f8 f0 23 c0
       0.26955825 -0.24145526 3.751721 -2.5615826
000120 d6 4b 98 bf a0 0c da bf 39 b5 8b bf 9f ee 98 3e
       -1.1898143 -1.7035103 -1.091468 0.29869553
000130 b2 7e 36 bf 68 e1 7f bf ae 23 84 bf 37 7c e9 3e
       -0.7128707 -0.9995332 -1.0323389 0.4560258
000140 e9 20 1d 3f 28 42 52 3e 62 42 82 3e 96 f9 51 bf
       0.6137834 0.20533049 0.2544127 -0.8202146
000150 47 50 e3 be 36 67 10 c0 a0 db 50 bc 6b d5 44 c0
       -0.44397184 -2.2562995 -0.012747675 -3.075526
000160 c6 64 62 3f 3b 28 a8 be 81 08 02 40 ca 2d 05 3f
       0.8843502 -0.32843193 2.031769 0.52022994
000170 83 1b fc bf 89 be 2c bf b9 13 22 40 e7 3b 8f 3e
       -1.9695896 -0.67478234 2.5324538 0.2797539
000180 4d df 4a c0 a1 03 bd 3f 6c 51 06 c0 1b 0d c3 bf
       -3.1698792 1.4766732 -2.0987196 -1.5238374
000190 eb 94 be 3f f4 e4 92 c0 67 bb a3 bf ae 62 9c 3f
       1.4889196 -4.5904484 -1.2791566 1.2217615
0001a0 fb 29 f0 3f 2b 4c 34 3e 44 f3 96 3f 38 af 44 bf
       1.8762811 0.17607181 1.1792989 -0.7682986
0001b0 ec ec 44 bb 6b 70 50 40 94 1a 4f bf 97 19 d2 3f
       -0.0030048443 3.2568614 -0.8089993 1.6414059
0001c0 42 d8 85 bf ab e5 99 bf 68 61 43 bf af fb 2b 3f
       -1.0456622 -1.2023214 -0.76320505 0.67180914
0001d0 1c d3 c4 bf 26 ff 93 3f c9 77 07 bf 5d 82 b8 bd
       -1.5376925 1.156224 -0.5291715 -0.0900924
0001e0 16 90 39 3f 6e c6 cf be e8 37 c9 be 98 ac 08 c0
       0.7248548 -0.40581077 -0.39300466 -2.1355343
0001f0 0f c0 01 c0 37 c4 39 bf 91 fb 8c be c7 6f 87 bf
       -2.0273473 -0.72565025 -0.2753568 -1.0580987
000200 78 5f 01 3f 8f 28 97 be 13 93 8b bf 70 ea 04 3f
       0.505363 -0.2952313 -1.0904258 0.51920223
000210 06 4c dc 3f 7c e5 6c be c8 0a e6 3f 18 c1 57 bf
       1.72107 -0.23134416 1.797204 -0.8427901
000220 f8 20 fe bf 1b c5 03 3f 55 23 f1 be 5c ae 20 40
       -1.9853811 0.51472634 -0.4709727 2.510642
000230 66 6d 3f be da f4 bb bf 58 23 e0 3e 76 1b 23 be
       -0.18694076 -1.4684098 0.43776965 -0.15928444
000240 f9 ce 0f c0 4a a6 d8 3d 87 3e 95 3f cb 37 7c 3f
       -2.2470076 0.10578592 1.1659707 0.98522633
000250 26 58 a3 bf fa 83 ab bf 01 1b 96 bf 94 e3 82 3e
       -1.2761276 -1.3399651 -1.1726991 0.25564253
000260 c0 c6 57 be b0 51 82 3f c5 e9 4d bf 7b 24 dc bf
       -0.21071911 1.0181179 -0.8043483 -1.7198633
000270 8b 1c 8a bf bf ed f9 bf f1 98 de 3f 10 a9 c7 bf
       -1.0789961 -1.9525679 1.7390424 -1.5598469
000280 3d 13 05 3d 30 f1 18 40 c3 c4 53 3f e7 c6 07 40
       0.03248905 2.389721 0.8272211 2.121515
000290 1b b7 fb 3f 16 80 28 bf 26 43 13 3d bd 08 09 bf
       1.9665254 -0.65820444 0.03595271 -0.5352896
0002a0 f6 a4 00 be e1 46 3a 3f ce 97 8d 3e ce ed 1a bf
       -0.12562928 0.727644 0.2765488 -0.6051911
0002b0 18 c8 3a bf 65 a5 12 bf 51 48 cc bf c4 49 7a 3f
       -0.7296157 -0.5728362 -1.5959569 0.9776881
0002c0 42 54 89 3f e7 2c 9a 3f 81 0a 84 3f e5 79 ce 3f
       1.0728838 1.2044953 1.0315706 1.6130949
0002d0 6f 1d a6 bf d2 8a c7 3f 91 12 11 40 9f a9 00 c0
       -1.2977732 1.558924 2.2667582 -2.0103528
0002e0 66 91 c9 bf e9 04 85 3f 3c 2b 33 3f a5 82 37 bf
       -1.5747497 1.0392123 0.69987845 -0.7168372
0002f0 7a 85 ef 3d cf ec 4a 40 11 11 5c 3f 4e 23 c1 3f
       0.116953805 3.1707036 0.8596354 1.5088899
000300 fe 40 1a 40 c8 ce d7 3e 1d db ae bf 2c 5a 94 3f
       2.4102168 0.4214995 -1.3660618 1.1590018
000310 9d 92 be 3e 04 e3 cd bf 3e 27 8e 3f 9a 36 8a bd
       0.37221232 -1.6084905 1.1105726 -0.06748696
000320 d2 b2 e7 be 94 26 9c be 9a a5 84 c0 41 75 81 bf
       -0.45253617 -0.30498183 -4.145215 -1.0113908
000330 26 6d 15 c0 4d 24 3f c0 b6 40 e9 3e 10 63 8c be
       -2.334787 -2.9865906 0.45557183 -0.2741933
000340 b1 15 d7 3e 55 51 0d c0 7d f0 af bf 97 e5 9d 3f
       0.42008737 -2.208089 -1.3745266 1.233569
000350 8a 7e b3 3e 3f e9 66 be 55 8e 45 be 10 94 58 40
       0.3505748 -0.22549914 -0.19292577 3.384037
000360 00 46 d5 bf 63 df 0b bf 1a 4c 65 3f 86 15 0b c0
       -1.6661987 -0.54637736 0.89569247 -2.1731887
000370 31 60 e1 bf af eb 3a c0 6a 27 0d 40 d2 6b a8 3f
       -1.760748 -2.920635 2.2055306 1.3157904
000380 cb 91 c1 bf 55 39 7c 40 a5 0f ad be 80 b5 01 c0
       -1.5122617 3.9409993 -0.33800998 -2.026703
000390 7d d4 a6 3e 1a 16 c1 bf eb 42 07 40 1d 54 00 40
       0.3258399 -1.508487 2.1134593 2.0051339
0003a0 0d 38 ec be 4a 18 2f 40 8a 3e 5e 3f a0 b8 8a be
       -0.46136513 2.7358575 0.8681418 -0.27093983
0003b0 e6 63 ef be 67 08 93 40 62 86 3b bf f0 1f ed 3f
       -0.46755904 4.5947757 -0.73251927 1.8525372
0003c0 fb a5 c7 3e 3e bf 87 3f 57 3d ad be 65 99 2d c0
       0.3899382 1.0605237 -0.3383586 -2.7124875
0003d0 2d b8 17 40 0d a4 19 bf 5e d0 b7 3f 8a 78 db bf
       2.3706162 -0.60015947 1.4360464 -1.7146161
0003e0 8a 00 aa 3f b1 22 09 bf 3f 4c 92 3f 71 2a 95 3f
       1.3281415 -0.5356856 1.1429518 1.1653577
0003f0 5b 8f b3 3e 33 d9 bb bf 8e 57 82 bf 13 97 13 40
       0.3507031 -1.4675659 -1.018297 2.3060958

layers.0.bias f4 [128]
000000 ba 6d f8 bd 55 5d 9d bd e5 3e 28 c0 7a 49 be bf
       -0.12130304 -0.07683817 -2.6288388 -1.4866173
000010 2c 5e c9 bf d6 ff c6 3e 79 7c 9c 3f 72 45 8c 3e
       -1.5731864 0.38867062 1.2225486 0.27396733
000020 22 8c 07 40 91 1f a3 3f eb d7 99 3f 39 32 82 3f
       2.117928 1.2744008 1.2019018 1.0171577
000030 32 db ef be 33 86 98 bf aa 25 53 bf 79 a8 a8 3f
       -0.4684692 -1.1915954 -0.82479346 1.3176414
000040 53 aa 31 bf b4 98 5f be 1b 58 cd be d6 b7 cd 3e
       -0.6940052 -0.21835595 -0.40106282 0.40179318
000050 fd 22 e5 3f 98 d8 38 bf 98 8a a3 bf 82 1a 78 40
       1.7901303 -0.72205496 -1.277667 3.876618
000060 a2 01 7a 40 f6 24 ec bf 7d 9f 54 40 75 7e 70 3f
       3.9063497 -1.844878 3.3222344 0.9394296
000070 f4 e3 bd 3e b9 6d 95 3f a2 d7 4c bf 17 44 a0 bf
       0.37087977 1.167411 -0.8001653 -1.2520779
000080 33 f2 44 be 6a c4 e4 bf ff 2a a1 3f 0f 7b 8c 3f
       -0.19233017 -1.7872441 1.2591246 1.0975055
000090 84 e8 81 bf de a7 24 3f 68 a3 4c 3f 3d 3a 80 3f
       -1.0149083 0.64318645 0.7993684 1.0017773
0000a0 cc 51 f4 bf 85 59 74 3f 46 c9 22 bf 82 2a c9 be
       -1.9087462 0.95449096 -0.6358837 -0.39290243
0000b0 6d 30 34 3f f6 f6 c0 3e a4 a9 39 be dc 7f 44 bf
       0.7038639 0.37688416 -0.18131119 -0.767576
0000c0 e3 6a af 3f e7 04 26 3d a2 db c7 40 12 95 25 3f
       1.3704494 0.04053202 6.2455606 0.6468059
0000d0 d5 69 25 c0 b3 69 96 bf 62 5f e5 bf 46 4d 82 be
       -2.5845845 -1.1751007 -1.7919734 -0.2544958
0000e0 2c ad 18 3f cf 3f 78 bf 33 dd 70 bf d1 3f c6 bf
       0.5963924 -0.96972364 -0.94087523 -1.5488225
0000f0 0f 42 6a be 6e a2 6c 3f db 10 8d bf 5f c4 88 3e
       -0.22876762 0.9243535 -1.1020769 0.2671232
000100 b3 f8 5f 40 ec ec 29 3f 0d 86 d9 3f f9 5b db 3f
       3.4995544 0.6637714 1.6994034 1.7137443
000110 cd 54 61 40 33 25 d2 bf 5a 8f b5 bc d8 ab 0f c0
       3.5208008 -1.6417602 -0.022163082 -2.2448635
000120 e2 9b 97 3d ca 63 a3 bf 08 e9 2f be fc 3d 00 40
       0.07402779 -1.2764828 -0.17178738 2.0037832
000130 8f b7 e8 bd ea 0f 92 3f 79 fa 1f 3f d4 fa 00 c0
       -0.11363136 1.1411107 0.62491566 -2.0153093
000140 f5 fa 9c 3f 05 31 a7 40 18 8d 04 bf a4 62 3c 40
       1.2264086 5.224734 -0.5177779 2.9435205
000150 1f d0 8a bf 10 94 af bf c3 0c 00 c0 0b 19 71 40
       -1.0844764 -1.371706 -2.000779 3.7671535
000160 b8 58 85 3f da c9 19 c0 65 a5 5a 40 dc 75 68 3f
       1.04177 -2.402945 3.416345 0.9080484
000170 93 37 74 bf aa 6a 0f bf 52 0b fa 3f f7 01 1d 40
       -0.953973 -0.5602213 1.9534705 2.453245
000180 6c 72 82 3f 84 fa 91 bf b9 0a 99 bf ce 85 79 3f
       1.0191169 -1.1404576 -1.1956397 0.97469795
000190 1f 37 9a bf 49 7b 82 3f ba ac 3b bd 7c de bc bf
       -1.2048072 1.0193874 -0.04581902 -1.4755397
0001a0 5a 63 01 c0 37 bc 2a bf d4 10 d5 3e aa 12 02 bf
       -2.021689 -0.66693443 0.416144 -0.5080973
0001b0 2d 2a 42 be de e5 fd 3f 01 c4 ed be 67 01 07 40
       -0.18961401 1.9835775 -0.46438602 2.1094606
0001c0 0d 3c c1 bf 6c ea 41 bf f7 b4 2f 40 64 0e a4 3f
       -1.5096451 -0.75748324 2.7454202 1.2816892
0001d0 c5 4a 15 40 8f 65 03 bf 3a 24 5b bf 64 52 00 3f
       2.3326886 -0.5132684 -0.8560215 0.5012572
0001e0 1f 32 1a c0 4b 37 d1 3e 78 fb 68 3f 8e 81 78 3e
       -2.4093091 0.40862498 0.9100871 0.24268171
0001f0 92 63 39 be 37 2b 68 bf 73 89 9b bf 01 1b 34 be
       -0.1810439 -0.9069094 -1.2151321 -0.17588426

layers.2.weight f4 [128, 128]
000000 68 98 b9 bd 0d f4 70 3d ba e5 9d bf d2 75 b5 bf
       -0.09062272 0.058826495 -1.2335732 -1.4176581
000010 ea ca cd bf 55 85 a7 be 5e 19 06 c0 6c 65 62 be
       -1.607755 -0.32718912 -2.0952983 -0.22109002
000020 96 c2 08 bf c7 5e 14 bf 91 60 a2 3d 75 f0 82 bd
       -0.53421915 -0.5795712 0.07928575 -0.0639352
000030 19 e4 1f bf 27 63 03 c0 c9 ca e0 be c9 e7 b6 be
       -0.62457424 -2.0529268 -0.43904713 -0.35723713
000040 21 b2 ff bf d2 48 51 bf 34 7b b5 3e 92 d3 f2 be
       -1.9976236 -0.8175174 0.3544556 -0.4742704
000050 6f 54 db bd 5f f2 ca bf 97 91 b4 3f 51 b8 09 c0
       -0.10709464 -1.5855216 1.410693 -2.1518748
000060 7f bb 92 bf ef 11 15 c0 c3 52 8c bf 72 3c 12 3f
       -1.1463469 -2.3292196 -1.0962757 0.5712348
000070 5b 8f 32 bf 18 96 46 bf 05 65 5a 3f 5d 5b 0c bf
       -0.69749993 -0.77572775 0.85310394 -0.5482691
000080 0d 23 a5 be 0c df a0 bd af 82 6f 3e 52 4a c7 bf
       -0.32253304 -0.07855043 0.23389696 -1.5569556
000090 c9 b2 dd bf 40 04 e5 3e d6 be 77 bf 31 42 35 bf
       -1.7320186 0.44729805 -0.9677557 -0.70804125
0000a0 e3 13 f4 be 42 3a 65 bf 46 cb 19 3e 67 4c 86 bf
       -0.47671422 -0.8954202 0.15018949 -1.0492066
0000b0 ae d0 81 3e 0c a3 61 bd 36 0d d9 bf 20 c9 85 bf
       0.25354522 -0.055087134 -1.6957157 -1.0452003
0000c0 6e 95 a7 be a7 38 9d bf 93 ea a0 be eb 74 8e be
       -0.32731193 -1.2282914 -0.31428966 -0.27823576
0000d0 2f 60 91 3e 12 7e d5 bf 08 95 d0 bf aa 85 8d bf
       0.28393695 -1.6679099 -1.6295481 -1.1056416
0000e0 6e 64 94 3f ba f0 36 bf e0 67 5b be e2 84 b4 bf
       1.1593149 -0.7146107 -0.21426344 -1.4103053
0000f0 aa 05 ce 3e 9b 8d 04 be 66 87 ab bf 52 70 51 bf
       0.40238696 -0.12944643 -1.3400695 -0.8181201
000100 82 2a e5 bf e1 2b ba 3e e6 17 73 bf 56 d7 f9 be
       -1.7903597 0.36361602 -0.9495834 -0.487971
000110 ff 63 53 3e 75 42 8b 3f 3e 92 40 bf 56 10 5c bf
       0.20643614 1.0879656 -0.7522315 -0.85962427
000120 23 65 2b 3f 87 51 6a bf 51 d5 a2 bd ca f5 00 bf
       0.669512 -0.9153065 -0.07950843 -0.50375044
000130 09 bf 60 bf 84 82 d6 be 6a 69 27 3f 10 34 22 bf
       -0.87791497 -0.4189645 0.65395224 -0.6336069
000140 dd 34 35 bf 88 18 83 bf 0e a4 a6 bf ef db 29 bf
       -0.7078379 -1.0241861 -1.3018816 -0.6635122
000150 a9 66 04 c0 2f d3 6c be 43 58 f9 bf a4 ba c5 bd
       -2.0687659 -0.23127435 -1.948006 -0.096547395
000160 c1 e5 aa bf 0f f3 ee bf c4 b4 2f 3e 80 a0 4c bf
       -1.3351365 -1.8667926 0.171588 -0.79932404
000170 87 3f 9c 3e 14 f0 a1 bf ec f5 63 3d a0 30 11 3e
       0.30517218 -1.2651391 0.05565445 0.14178705
000180 34 47 ce 3e ef 17 88 3f 77 6a fb be c9 a5 2e bf
       0.402887 1.0632304 -0.49104664 -0.6822172
000190 3f e3 d6 3f da 4c 9e be ae ac d0 3e 06 69 d9 bf
       1.67881 -0.30918008 0.40756744 -1.6985176
0001a0 db 41 15 c0 ab 9b d0 be 52 a6 6e bf 6d 13 99 be
       -2.3321445 -0.40743765 -0.93222535 -0.29897633
0001b0 a6 a1 0f c0 6d 6a 5f bc be 51 68 3e 7a f1 04 3e
       -2.2442412 -0.013636214 0.22687432 0.12982741
0001c0 4d 48 ee bf 72 93 4d bf 79 06 92 3f e6 c7 17 c0
       -1.8615814 -0.8030311 1.1408225 -2.3715758
0001d0 29 1e 0c bf 49 56 b0 bf 70 79 d3 3e fa d3 8e 3e
       -0.5473352 -1.3776332 0.41303587 0.278961
0001e0 f0 e9 85 bd 5e 71 d3 bd 5d 4c c2 bf 8b 95 41 c0
       -0.06538761 -0.103243575 -1.5179554 -3.0247524
0001f0 7a cf e7 be 36 99 a6 bf e6 b4 a8 3e 63 0c 1b 3f
       -0.4527548 -1.3015506 0.32950515 0.60565776
000200 a0 bb 4f bf 6e bd 1b be be cc 6d be e5 e8 1b 3f
       -0.8114567 -0.1520898 -0.23222634 0.60902244
000210 b7 93 e4 be 44 bd 48 be 24 24 b4 3d 78 aa 64 be
       -0.44643947 -0.19603449 0.08795956 -0.22330654
000220 ca 19 5e bf 4b 47 75 3d 37 05 71 be 4f e2 2a 3f
       -0.867581 0.059882443 -0.23537146 0.6675157
000230 87 cd 0a be cb 66 01 bf 48 66 df 3e ec 14 22 bf
       -0.13554965 -0.50547475 0.43632722 -0.63313174
000240 77 6d cc 3f f0 ae d3 be 97 7a 10 be 38 ff ea be
       1.5970906 -0.41344404 -0.14109264 -0.4589784
000250 a5 5d 12 be 37 4b 39 3e 09 ff 54 bf 26 e8 77 bf
       -0.14293535 0.18095098 -0.8320165 -0.96838605
000260 7c 10 7e 3e 34 6b 0c bf 3a 47 31 c0 3e 0e 57 bf
       0.24810976 -0.5485108 -2.7699723 -0.84006107
000270 e8 3a 50 3f fb b0 3b 3f 17 96 c5 3e 11 9b f4 be
       0.81339884 0.73316926 0.38591072 -0.47774556
000280 db ad d5 be 7e 1a 0b bf 6d 14 3b 3f e4 39 9e bf
       -0.41734204 -0.543373 0.7307804 -1.2361417
000290 51 b2 5c 3e 36 ef cc 3d 19 39 6c 3f f4 49 87 bf
       0.21552397 0.10006563 0.92274624 -1.0569444
0002a0 de 24 40 3f 1d 90 31 bf 11 aa d5 be f8 ce fe bc
       0.75056255 -0.69360524 -0.41731313 -0.03110455
0002b0 e1 ff c4 be 37 58 48 bd 6e f8 8f 3d 6e 46 04 bf
       -0.3847647 -0.048912253 0.07029806 -0.5166997
0002c0 e4 60 84 bf e3 18 13 bc 9f f7 12 bf 1f bc 90 3e
       -1.0342069 -0.008978101 -0.5740909 0.28268525
0002d0 c2 84 06 bf 42 e9 02 3f c1 c1 bd bf 9f 12 93 3f
       -0.5254632 0.51137173 -1.4824754 1.1490058
0002e0 95 4e 93 3e 06 f7 29 bf 10 9e ef bf 73 94 2c bf
       0.2877089 -0.6639255 -1.8720112 -0.67414016
0002f0 ff a7 b1 3e 0b b6 4d be 3c 2d 9e 3e f1 79 95 3e
       0.34698483 -0.20088975 0.30893886 0.29194596
000300 3d e2 9c 3c b0 d8 24 bf de 00 2f 3d dd 97 4e 3e
       0.019150848 -0.6439314 0.042725436 0.20175119
000310 aa c7 26 bf 27 23 52 3f fc e0 3b bf 89 9d 89 3f
       -0.65148413 0.8208489 -0.73390174 1.0751201
000320 18 24 8b bf c2 ca 8c 3f ef 75 9e 3d 16 91 80 be
       -1.087039 1.0999377 0.07737338 -0.25110692
000330 09 08 2d c0 7b 74 8a bf 94 87 11 be 97 98 72 bf
       -2.7036154 -1.0816797 -0.14211875 -0.94764084
000340 66 4b d5 3d b7 74 ea be b6 cf 23 bf f8 00 dc bf
       0.10414772 -0.4579217 -0.63988817 -1.7187796
000350 b7 05 e3 3e 79 82 8a 3e bb 91 04 3f 81 ce c5 bf
       0.44340298 0.27052668 0.5178487 -1.5453645
000360 31 32 02 c0 4f ae 89 3e f7 e5 d1 bd 39 3f c0 3e
       -2.0343134 0.268908 -0.102489404 0.37548235
000370 84 a6 29 3f 29 db 45 c0 28 c5 ed be 78 ab d2 bc
       0.6626971 -3.0915015 -0.4643948 -0.025716528
000380 59 32 89 bf 94 84 49 bf 37 08 87 bf 9d d9 cd be
       -1.071849 -0.78717923 -1.0549382 -0.40205088
000390 ee 7c b8 be 51 dc fd bf 25 35 04 c0 70 33 94 3f
       -0.36032814 -1.983286 -2.0657437 1.1578197
0003a0 6a 66 70 bf f0 3a 19 3e 40 85 c5 be db 28 67 bf
       -0.9390627 0.14963889 -0.38578224 -0.90296715
0003b0 ea d0 21 c0 32 09 ee be d3 a7 23 bf 37 8f ea 3e
       -2.528376 -0.4649139 -0.63927954 0.4581239
0003c0 ee d4 94 3e b3 79 4b 3f 7b f4 b3 bf 69 ec 2b 3f
       0.29068702 0.79482573 -1.4058985 0.6715761
0003d0 85 07 d5 bf 1c 1d e3 3e 53 ce 79 bf a6 7d 83 be
       -1.664292 0.44358146 -0.9758045 -0.256818
0003e0 92 e6 74 bf 5e 3c 84 3e ab 7c 9d bf 1c 5f d8 be
       -0.9566432 0.25827307 -1.2303671 -0.42260063
0003f0 3d 95 2e 3d c0 e8 f4 bd 99 a8 f5 3e 11 1a 0d c0
       0.042622793 -0.11958456 0.47980192 -2.204716

layers.2.bias f4 [128]
000000 cf 7c d9 be ff ba c7 bf 68 0d 59 40 a5 8d 8d bf
       -0.42478034 -1.5603942 3.3914433 -1.1058851
000010 e6 4f 68 bf c3 29 95 3e 12 5a 06 3e b3 fc 00 3e
       -0.90746915 0.29133424 0.13120297 0.12596397
000020 1b 42 40 bf 3f e9 15 bd b4 31 c4 3e 16 5d 26 3d
       -0.7510087 -0.036599394 0.3831917 0.040616117
000030 f8 61 c4 be f8 19 c4 bf dc ba 33 40 c0 96 71 3d
       -0.38355994 -1.5320425 2.80828 0.058981657
000040 ea 0f 94 3f 86 4b a5 be c4 8a bd 3d 14 ca 82 3e
       1.1567357 -0.32284182 0.09254983 0.25544798
000050 b6 3d 33 c0 da 07 b0 3e a3 82 4b bf fe 47 b3 3e
       -2.8006415 0.3438099 -0.7949621 0.35015863
000060 74 b0 a3 3e 3e 89 90 bd 89 9f fc 3f d7 16 c3 be
       0.3197056 -0.07057427 1.9736186 -0.38103363
000070 38 10 bf c0 4e e1 45 bc 0e 61 8d bd 2f d3 ac 3f
       -5.97073 -0.012077643 -0.06903277 1.3501948
000080 69 40 8d be 48 c8 2f bf c7 77 f4 bf 1a 3c 78 3e
       -0.27588204 -0.6866498 -1.9099053 0.24241677
000090 b7 1a 06 40 68 ab 94 be 8f 39 2a bd d3 7a 0b bf
       2.0953805 -0.29037023 -0.0415588 -0.5448429
0000a0 76 c9 5a 3e be 48 0a c0 94 f2 18 3d 08 72 23 41
       0.21365914 -2.1606898 0.037340716 10.21534
0000b0 2e a7 0d 3f 6a 9a 8d bc ff 24 da 3e 1a ed b4 3d
       0.5533322 -0.017285544 0.4260635 0.08834286
0000c0 00 fe e3 bd d0 55 80 be ad 9c 8d bd 75 6b bb 3d
       -0.11132431 -0.2506547 -0.06914649 0.09151355
0000d0 6f 83 47 3f c0 35 a9 bf a0 86 48 3e e8 dc 62 be
       0.77934927 -1.3219528 0.19582605 -0.22154582
0000e0 9e 08 a7 3e b7 b5 1c 3f a9 2d b4 3e 5d 7f c6 be
       0.32623762 0.61214775 0.35191086 -0.38769045
0000f0 8d ec 8a bd a7 97 4c be ef d0 25 3f a7 57 4f 3f
       -0.067834 -0.19979726 0.6477193 0.8099312
000100 a2 1c 88 bd 6b 58 61 3e 57 3e 03 c0 7a 34 2b be
       -0.06646086 0.22006385 -2.05068 -0.16719237
000110 84 e8 04 bf a0 42 11 bf b4 67 4f 3f 0e 7c 0d c0
       -0.5191729 -0.56742287 0.81017613 -2.2106967
000120 07 9e c6 3c 76 ff a0 bf 16 c1 32 3f e4 f7 26 bf
       0.024245275 -1.257796 0.69825876 -0.65222
000130 30 8a 81 3f 2a f4 b2 3e 43 d8 54 c0 f1 b4 42 3f
       1.0120296 0.34951907 -3.3256996 0.76057345
000140 cf a7 07 c0 6b b4 7d bf 38 a5 91 3e 5a ac ee be
       -2.1196172 -0.9910342 0.28446364 -0.4661587
000150 b7 9e a5 bf c4 bc 9b bf f6 b7 9a bf a8 09 ec be
       -1.2939061 -1.2166982 -1.208739 -0.46101117
000160 57 80 16 3d f5 f9 d0 3e 30 24 0f 40 9c 52 3c bf
       0.03674349 0.40815702 2.2365837 -0.7356355
000170 dd 9d 17 3f 2e 57 16 bd a0 9d 49 40 d5 a5 cc bf
       0.59225255 -0.036704235 3.1502457 -1.5988108
000180 db e2 e5 bd 07 45 81 bf 62 89 24 c0 56 4f d9 be
       -0.1122491 -1.009919 -2.5708852 -0.4244334
000190 94 d2 01 3f 78 a3 43 bf 01 e9 9c 3e cd 23 3b be
       0.5071194 -0.7642131 0.30646518 -0.18275376
0001a0 21 6a f6 be d5 e2 92 bf c2 ab 11 bf 3f a1 e0 3c
       -0.48127845 -1.1475474 -0.56902707 0.027420638
0001b0 2e f7 8d be 8d 69 8f bf 9d c9 55 3f 8e a6 86 be
       -0.27727646 -1.1204087 0.8351076 -0.26298946
0001c0 f5 35 9d bc 16 05 6c 3f c9 b7 14 bd 87 1f 44 bf
       -0.019190768 0.9219526 -0.036308084 -0.76610607
0001d0 a3 6c 61 bf a0 0c 32 be 1e bb 38 3f 75 1d f5 3f
       -0.8805639 -0.17387629 0.7216052 1.9149615
0001e0 6b ec a5 bd eb 3e e9 bd 5a e6 43 3d d5 03 96 bf
       -0.08101734 -0.11388954 0.047827102 -1.171992
0001f0 24 7a d7 3f a7 74 e7 3d b0 8b 16 40 f1 da db be
       1.6834149 0.113015465 2.3522758 -0.42940477

layers.4.weight f4 [8, 128]
000000 25 7d e5 3f 1c ed 8d be ed 98 00 40 bd 8f 89 bf
       1.7928816 -0.27719963 2.0093338 -1.074699
000010 3f 55 5e bf 27 d7 1c 40 3c 2f 15 40 a2 ad 7b 40
       -0.86848825 2.4506319 2.331008 3.9324727
000020 50 f8 80 bf ac 1e 16 40 5b 7c 14 40 df 41 3e 40
       -1.0075779 2.345622 2.32009 2.9727705
000030 d4 1c a1 bf 01 19 de 3f 9a c4 29 40 86 c3 06 40
       -1.2586923 1.735138 2.6526246 2.1056838
000040 a2 f0 24 40 bd c6 3b 40 4d 6a 20 40 d9 df 1f 40
       2.577187 2.934005 2.506488 2.4980376
000050 c9 b3 13 40 c6 57 86 3f 5c bf 35 bf f8 c2 0a 40
       2.3078482 1.0495536 -0.70995116 2.16815
000060 c2 f9 27 bf e0 4a 17 40 6b 97 8d 3f 13 3c ed 3f
       -0.65615475 2.363945 1.1061834 1.8533958
000070 30 a9 88 bf 7c 03 c3 3c 0a 0f 08 40 15 89 f0 3f
       -1.0676632 0.023805372 2.125918 1.8791834
000080 07 20 06 40 26 a8 ca 3f 4c 10 bc bf f9 77 f3 3f
       2.0957048 1.5832565 -1.4692473 1.9020988
000090 e3 6e 2b 40 5d d3 15 bf 3f 46 be 3f f4 01 34 40
       2.678643 -0.5852564 1.4865187 2.8126192
0000a0 b9 32 1d 40 52 6c 7c bf 65 ac 2e 3f 66 1e 04 40
       2.4562209 -0.98602784 0.68231803 2.0643554
0000b0 1d 4d 12 bf 41 4f 64 bf 8a 2f 32 40 e2 3e d3 3f
       -0.57148916 -0.8918343 2.7841516 1.6503565
0000c0 16 30 f5 bd 32 17 dd 3f 10 d7 36 40 f0 f9 19 40
       -0.11972062 1.7272704 2.8568764 2.40588
0000d0 26 21 94 bf df 9c 24 40 84 4e e8 3f c5 28 32 40
       -1.1572616 2.5720747 1.8148961 2.7837384
0000e0 e8 55 40 40 bc e1 5e 3f f4 3b 11 40 29 5a f2 3f
       3.0052433 0.87063193 2.2692842 1.8933765
0000f0 3f 59 87 3d c8 0b a3 bf 66 45 1c 3f 9a 1c ec 3f
       0.06608819 -1.273797 0.61043394 1.8446229
000100 58 19 f3 3d 4e 9d 1e 40 85 08 d7 be b7 4f 87 3c
       0.11870068 2.478351 -0.41998687 0.016517503
000110 0f e9 3f 40 87 9a 0b 40 de 15 03 bf ff 94 7f 3f
       2.9985998 2.1813066 -0.5120524 0.99836725
000120 9d b0 13 40 39 4e cb bf 40 6b 10 bf f7 47 47 40
       2.3076546 -1.5883247 -0.5641365 3.1137674
000130 53 31 a0 bf 79 9b a6 3e 9e 4d 37 bf 5c 70 f0 3f
       -1.2515053 0.3254049 -0.7160281 1.8784289
000140 19 e8 e7 be d8 0f 2c 40 36 ca f8 3f 53 ac 2d 40
       -0.45294264 2.688467 1.943671 2.7136428
000150 10 9a bf 3f ed d8 fe bf 3a 3d c2 3f e9 5a f1 3f
       1.4968891 -1.990995 1.5174935 1.8855869
000160 92 4e 61 40 ea 05 44 bf 83 e1 22 40 20 2b 16 40
       3.5204206 -0.76571524 2.5450141 2.3463821
000170 cd 3d 10 40 14 29 17 3d c2 42 0f 40 e9 d6 68 bf
       2.253772 0.03690441 2.2384496 -0.90952927
000180 5b 59 f6 3c 01 52 e9 be 39 0a 5e 3f 72 53 df bf
       0.030071905 -0.45570377 0.8673435 -1.744734
000190 b9 57 b9 bf 97 06 ae bf 98 d3 ff 3e d1 36 08 40
       -1.4479896 -1.3595761 0.4996612 2.1283457
0001a0 3b 46 2b c0 f7 c1 d0 be bf b8 26 bf e1 0f 22 40
       -2.6761615 -0.40772983 -0.6512565 2.5322192
0001b0 16 af 0c 40 69 33 e0 3f 48 f4 98 3f cd 2e 96 3f
       2.1981864 1.7515689 1.1949549 1.1733032
0001c0 c5 e5 36 40 98 c4 3b bf ea 84 85 3f ca b7 07 40
       2.857774 -0.73346853 1.0431187 2.1205926
0001d0 be d8 91 be d0 c2 85 3f fc 9f 8a 40 08 5b 23 40
       -0.28485674 1.0450077 4.3320293 2.552431
0001e0 da 6b 05 40 aa 85 47 40 a0 0f 1a 40 ba 48 d0 bf
       2.0847077 3.1175332 2.4072037 -1.6272194
0001f0 75 52 e7 3f a7 11 31 40 ef c4 1a 40 37 96 f0 be
       1.8072039 2.7667024 2.4182699 -0.46989605
000200 20 36 c4 3f 27 45 9d be 81 89 e6 3f 77 ed 02 c0
       1.5329018 -0.30716822 1.8010713 -2.0457437
000210 56 56 68 bf 47 36 29 40 3c 58 1f 40 36 a8 62 40
       -0.9075674 2.6439378 2.4897604 3.5415168
000220 fb 01 2d bf 2d 1e 38 40 c3 7a 07 40 49 47 44 40
       -0.67581147 2.8768418 2.1168678 3.066851
000230 69 f1 8c bf aa 8c e3 3f 21 c8 1f 40 ae ee eb 3f
       -1.1011173 1.7777302 2.49659 1.8432214
000240 c4 09 08 40 92 25 61 40 dc 24 12 40 f3 06 15 40
       2.125596 3.517918 2.2834997 2.3285491
000250 62 10 22 40 41 3e b4 3f 4f 74 e5 be ed 6d 28 40
       2.53225 1.4081498 -0.448153 2.6317093
000260 60 32 29 bf 96 7a ff 3f d0 92 90 3f bc cb 26 40
       -0.6609249 1.9959285 1.1294804 2.606185
000270 9e 9f 91 bf 30 75 5a bf 09 ac 0e 40 3a 89 fe 3f
       -1.1376836 -0.85335064 2.2292502 1.9885628
000280 2b 50 fd 3f 00 cc 77 3f 8b 2c 42 bf 41 fa bc 3f
       1.979009 0.96795654 -0.7584922 1.4763871
000290 b7 e2 42 40 7a ed c5 bf 24 5d e2 3f 54 a2 12 40
       3.0450876 -1.5463097 1.7684674 2.2911577
0002a0 cf c6 21 40 9f 49 87 bc 71 93 c5 3f 77 ff 13 40
       2.5277593 -0.016514597 1.543562 2.3124673
0002b0 a7 e5 81 bf 74 25 3b 3f 25 c4 4d 40 e5 8c 1e 3f
       -1.0148209 0.73104024 3.2150967 0.6193374
0002c0 e8 35 fc 3d 69 88 e1 3f d3 9e 36 40 de e6 07 40
       0.12314969 1.7619754 2.8534439 2.123466
0002d0 7c e3 42 be 10 15 28 40 33 02 ec 3f 2d 0d 3a 40
       -0.19032091 2.6262856 1.8438171 2.9070542
0002e0 76 ef 05 40 32 0a 9a 3f d0 77 f8 3f 02 b8 08 40
       2.0927405 1.2034361 1.9411564 2.136231
0002f0 b8 d8 cd 3c 58 b2 7d bf df d9 07 3f 4d 62 13 40
       0.025127754 -0.99100256 0.5306682 2.3028748
000300 90 b8 08 bd 56 1e 08 40 bf b3 68 bf 90 49 86 bb
       -0.033379138 2.1268516 -0.9089927 -0.004098125
000310 0b bd 4e 40 e3 7b fc 3f 0a 8c fb be ae 20 94 3f
       3.2302883 1.9725307 -0.4913028 1.1572473
000320 4e ef 28 40 ec ff 8f bf 79 52 30 bf 88 bd 2b 40
       2.639606 -1.1249976 -0.68875843 2.683443
000330 97 b0 fd bf d5 a6 a9 3e 2e 19 2e be 02 e0 1c 40
       -1.9819516 0.33135095 -0.17001793 2.4511724
000340 c6 ec b7 be 82 f3 1b 40 c3 82 6e bf 9b 97 11 40
       -0.3592283 2.4367375 -0.93168277 2.2748783
000350 13 73 9a 3f c5 1f cb be d6 81 db 3f f9 1e b1 3f
       1.2066368 -0.39672676 1.7148998 1.3837577
000360 8d dc 5c 40 9f aa b0 bf 28 3e 34 40 06 d6 42 40
       3.4509614 -1.380207 2.8162937 3.044313
000370 56 d0 0c 40 66 a0 50 bd c2 80 eb 3f a1 ee 9f be
       2.2002158 -0.050934218 1.8398669 -0.31236747
000380 56 a9 d9 3d 66 92 29 bf ca bd 94 3f 43 ab b4 bf
       0.106280014 -0.6623901 1.1620419 -1.4114765
000390 50 f4 db bf ee cb cf bf bf 34 61 bf 39 a7 23 40
       -1.7183933 -1.6234109 -0.8797111 2.5570815
0003a0 ec 8b e4 bf 85 95 77 be df 5e 87 bf 4c d1 35 40
       -1.7855201 -0.24178131 -1.0575827 2.8408995
0003b0 1c a9 0f 40 6f a2 dd 3f ed d4 e1 3f b0 d9 98 3f
       2.2446966 1.7315196 1.7643105 1.1941433
0003c0 c0 78 50 40 4d ae 49 be 1a 91 83 3f d8 5d d9 3f
       3.25737 -0.19695397 1.0278656 1.6981764
0003d0 14 22 7c bf c2 43 92 3f c3 0b 82 40 9f 17 42 40
       -0.984895 1.1426928 4.0639358 3.0326917
0003e0 2e d3 16 40 60 7a 07 40 3d bb 0d 40 a1 19 e5 bf
       2.3566394 2.1168442 2.214553 -1.7898446
0003f0 68 e0 c7 3f c4 1c 26 40 e7 f2 2f 40 fe 27 95 bf
       1.5615358 2.5955057 2.7492006 -1.165283

layers.4.bias f4 [8]
000000 5a a5 22 c2 57 25 22 c2 45 ce 21 c2 d0 52 22 c2
       -40.661476 -40.536465 -40.451435 -40.58087
000010 7f ec 22 c2 e5 05 22 c2 52 2f 22 c2 7a 58 22 c2
       -40.730953 -40.505756 -40.54621 -40.586403
