ptdrl_final/scripts/rl/checkpoints/checkpoint_a_3_best.pt (torch, 219095 bytes, 6 tensors)

layers.0.weight f4 [128, 290]
-2.908867 3.0459228 4.0775356 2.3725603 0.15219706 2.7158203 -2.9683437 -2.215625
-11.014637 0.961619 1.1223706 -2.5285068 0.7144684 -2.162436 -1.5199752 0.62754446
-4.2654023 -0.13030414 -0.82278407 1.0641395 0.19507287 1.8066114 -5.445314 -3.606079
2.846766 -1.0205152 -0.23658946 11.398684 -0.16766576 -0.9050164 -3.5483067 4.9898057
-0.38841483 -0.13816302 0.68370974 -0.057316404 0.9667004 -0.2557278 1.4668231 -1.0709283
0.06443545 -0.38138568 0.15316628 -0.69185144 1.8112978 -1.269268 1.1203599 0.6562991
0.34606117 -0.34279063 -0.6048169 0.078987636 -0.36098722 -0.3725721 0.41577846 -0.35171482
-0.42053044 -2.3077233 -0.39905116 -0.7918989 0.75456136 1.2957113 -0.68996596 -0.13806863
-1.1582086 1.3419185 -0.85393584 -3.0566745 -1.2969513 -2.6339695 0.7684661 0.98212826
1.3795687 1.0106611 1.8732835 -0.37378004 2.7863915 -0.5002043 1.6718318 1.6277072
-0.3955828 0.050072055 0.33610213 -1.3192236 -0.23620357 -0.79478824 0.9656935 -1.0334325
0.30029786 -1.2309799 0.5406479 0.8614907 -1.3226607 -0.9177092 0.19018485 -1.1990136
-0.9439642 1.3705769 -2.4373624 -0.522033 -3.2161222 -0.9765853 0.7667071 1.4095241
-0.10766254 0.09172238 -0.5794463 -1.3846202 1.7597389 0.8738393 0.051677052 -0.8848001
0.044128563 -1.0667715 1.2618332 0.4890585 -1.0007609 2.90609 -0.03666832 0.5328733
-0.59745884 1.7980845 2.075523 -0.89235747 -1.1379577 -0.67665535 -0.78059757 0.062021635
0.19086705 0.80608696 -0.18753946 0.58349746 0.4387598 1.52094 1.712845 0.121765606
-0.66245204 -0.017685456 1.0625664 1.3554118 0.37726265 0.9054622 -1.2071025 -1.193384
1.2611268 1.2402446 0.19211157 0.9251354 -0.47431636 -0.27622133 -1.0560143 -0.6161841
1.5205964 4.0906234 -0.11230185 -0.26350546 -0.031378496 -1.1925632 -1.3740978 0.14422734
-0.074904546 -1.2709931 -0.7268096 -0.8439054 -1.0726881 -0.7359596 0.42316133 -1.8629878
-0.6655648 1.4033989 -1.5227029 2.9925425 -1.7290224 0.790092 0.013428741 -0.6598971
0.014768312 0.48467562 -1.5101913 0.7137419 -1.6606876 0.3917633 -0.6496394 -1.6193519
0.24314132 -0.8131241 2.1791112 -0.84663016 2.8453834 1.4219669 -0.06795484 -0.84585494
-1.3456706 0.2331363 0.048767984 -2.0998 -0.4784323 0.15351568 -0.326793 0.120783165
0.9416353 -0.77155215 -1.1123183 0.5132941 -0.12500158 -1.960391 0.36375183 -1.9261135
0.3419459 3.2035832 -1.5444645 0.3947099 0.31361607 1.8262203 0.13373718 0.89358526
0.98935986 0.4563226 0.32189026 0.042369753 0.29441395 -1.3997617 -0.17680411 -0.1479202
-1.2455055 -0.86894494 -1.9972879 1.067077 0.54772425 -1.6044408 -1.6572008 0.7736348
-2.1610472 -0.3203676 1.5147989 -0.20522472 0.27402875 1.5706915 -2.043111 1.0603851
0.6075075 -0.22532474 1.3334669 1.2437245 -0.08368046 -0.76923907 -1.687125 -2.7048743
1.7856085 1.0443298 0.3803129 3.8548248 0.59130794 0.38003144 -0.41202733 0.11253567
00000000: e02a 3ac0 66f0 4240 2c7b 8240 07d8 1740
00000010: 8cd9 1b3e 00d0 2d40 58f9 3dc0 cdcc 0dc0
00000020: f43b 30c1 aa2c 763f d7a9 8f3f 0ed3 21c0
00000030: 67e7 363f 5a65 0ac0 8c8e c2bf c1a6 203f
00000040: 2d7e 88c0 736e 05be faa1 52bf b935 883f
00000050: 2fc1 473e 0b3f e73f 0340 aec0 00ca 66c0
00000060: 6a31 3640 3ea0 82bf 8244 72be 0261 3641
00000070: 93b0 2bbe 28af 67bf 7517 63c0 7dac 9f40
00000080: 4fde c6be 9b7a 0dbe 9a07 2f3f 9bc4 6abd
00000090: ad79 773f c1ee 82be dcc0 bb3f 2e14 89bf
000000a0: bcf6 833d fc44 c3be 9fd7 1c3e 2d1d 31bf
000000b0: 9bd8 e73f 6077 a2bf f467 8f3f 3803 283f
000000c0: ee2e b13e 4182 afbe 48d5 1abf 45c4 a13d
000000d0: 51d3 b8be c5c1 bebe eae0 d43e f713 b4be
000000e0: c44f d7be bdb1 13c0 6f50 ccbe e3b9 4abf
000000f0: ef2a 413f ded9 a53f 9ca1 30bf dd61 0dbe
00000100: 2e40 94bf fcc3 ab3f 8a9b 5abf 8ea0 43c0
00000110: 8002 a6bf f592 28c0 32ba 443f c26c 7b3f
00000120: b595 b03f 585d 813f c1c7 ef3f 1960 bfbe
00000130: 3d54 3240 640d 00bf 96fe d53f b658 d03f
00000140: d489 cabe 5b18 4d3d 9415 ac3e 52dc a8bf
00000150: 59df 71be 3e77 4bbf b037 773f 8447 84bf
00000160: a4c0 993e c090 9dbf e767 0a3f a88a 5c3f
00000170: f24c a9bf fdee 6abf d1bf 423e 4779 99bf
00000180: a3a7 71bf 106f af3f bffd 1bc0 f4a3 05bf
00000190: f2d4 4dc0 7f01 7abf eb46 443f 496b b43f
000001a0: 2e7e dcbd f1d8 bb3d 9856 14bf 3c3b b1bf
000001b0: 203f e13f efb3 5f3f 51ab 533d 4282 62bf
000001c0: 27c0 343d f88b 88bf c083 a13f e065 fa3e
000001d0: ef18 80bf 61fd 3940 8531 16bd 626a 083f
000001e0: 10f3 18bf a227 e63f 5ed5 0440 8a71 64bf
000001f0: 99a8 91bf 4939 2dbf 3ed5 47bf 660a 7e3d
00000200: a772 433e b75b 4e3f 580a 40be 1760 153f
00000210: 20a5 e03e 29ae c23f 813e db3f 3f60 f93d
00000220: 7596 29bf 17e1 90bc 2d02 883f 227e ad3f
00000230: 9228 c13e 5fcc 673f 5682 9abf cfc0 98bf
00000240: 9a6c a13f 56c0 9e3f e5b8 443e acd5 6c3f
00000250: 98d9 f2be e26c 8dbe 7a2b 87bf 3ebe 1dbf
00000260: e7a2 c23f 63e6 8240 83fe e5bd 30ea 86be
00000270: bd86 00bd e9a5 98bf 70e2 afbf 55b0 133e
00000280: 8e67 99bd e7af a2bf 3210 3abf 2f0a 58bf
00000290: d84d 89bf d967 3cbf 9aa8 d83e 6276 eebf
000002a0: 7462 2abf 93a2 b33f eee7 c2bf d185 3f40
000002b0: 9b50 ddbf 7843 4a3f 3904 5c3c 04ef 28bf
000002c0: caf6 713c 6727 f83e f34d c1bf cab7 363f
000002d0: 6991 d4bf 3395 c83e c54e 26bf ec46 cfbf
000002e0: 0afa 783e e728 50bf 8f76 0b40 c1bc 58bf
000002f0: c31a 3640 0303 b63f e82b 8bbd f389 58bf
00000300: ef3e acbf 48bb 6e3e f0c0 473d 2063 06c0
00000310: 14f5 f4be 3733 1d3e 6951 a7be 2a5d f73d
00000320: 030f 713f 7184 45bf 7260 8ebf 3e67 033f
00000330: 6a00 00be 18ee fabf ae3d ba3e e38a f6bf
00000340: 8813 af3e 8207 4d40 03b1 c5bf 6a17 ca3e
00000350: 4992 a03e 96c1 e93f 66f2 083e 01c2 643f
00000360: b046 7d3f 1ea3 e93e cdce a43e e88b 2d3d
00000370: 6dbd 963e 642b b3bf 230c 35be 6578 17be
00000380: b96c 9fbf 2d73 5ebf 21a7 ffbf fb95 883f
00000390: a837 0c3f 515e cdbf 281f d4bf ee0c 463f
000003a0: 994e 0ac0 3907 a4be eee4 c13f 6e26 52be
000003b0: 7f4d 8c3e 6b0c c93f 55c2 02c0 b3ba 873f
000003c0: 9d85 1b3f 87bb 66be 0baf aa3f 5d32 9f3f
000003d0: a960 abbd daec 44bf b6f3 d7bf a91c 2dc0
000003e0: d28e e43f 99ac 853f 5fb8 c23e 73b5 7640
000003f0: f55f 173f 7b93 c23e 3ff5 d2be 1a79 e63d

layers.0.bias f4 [128]
-2.079529 -1.4973944 -0.44906437 -2.4653032 -2.5873914 -0.59075403 0.91975534 -2.21799
2.369114 -1.397123 -1.0066442 -2.248956 -2.2906246 -0.41706303 -1.8489708 -1.2411858
-1.925399 -0.66845703 -0.3514778 -2.935521 -0.47421506 -1.9916527 -4.318137 -2.077921
-0.20087492 -2.421165 -1.7846148 -1.007396 -0.4273393 -1.7553059 -0.10160947 -2.7033532
-1.3538882 -1.1388026 -0.0218936 -0.059450343 -0.8608545 -2.9649374 -9.575293e-05 -1.8388329
-1.7885029 -1.3744467 0.67563206 -0.7062164 -3.119057 -0.1607741 0.3179369 -2.0998273
-0.76432055 -1.4771031 -1.9090319 -2.6396308 -1.6601503 -4.0574408 -0.04865454 -0.8360365
-0.15117498 -0.12044636 -0.6917335 -1.6773795 -2.4557624 -1.1584239 -0.64042294 -0.51846325
1.0593338 -0.52382845 -1.3417524 -0.6604665 0.43207437 -1.1101053 0.011588919 -3.0400732
-1.6024698 -1.3397303 -2.0778453 -1.818497 -0.16048439 -3.1321785 -0.17911893 -1.2819208
-1.6445616 1.8678007 -2.1477349 -1.7231569 -1.1014756 -1.9853662 -2.1241019 -0.0832909
-1.3233523 -1.3002065 -0.9274441 -1.3592167 0.5993965 -4.1284866 -0.59114105 -0.3514249
-0.8925033 -1.4586194 0.23424569 -1.1736615 -3.2840626 -2.5099945 -1.0185758 -0.61925405
-2.9446547 -2.6124864 -3.1001956 -0.47090903 -2.6432745 -0.81748635 -0.007982166 -1.9986461
0.8819483 -1.9257597 -2.3426056 5.2224355 -1.1518134 -1.4929897 11.177669 -0.38827986
-0.86902803 -0.6250262 -0.44002697 -1.188833 -2.7092686 -0.8745764 -1.4385729 -0.049940877
00000000: 0117 05c0 9faa bfbf c4eb e5be 87c7 1dc0
00000010: d297 25c0 a83b 17bf 1675 6b3f 8cf3 0dc0
00000020: 909f 1740 edd4 b2bf b8d9 80bf e5ee 0fc0
00000030: 9899 12c0 4989 d5be 13ab ecbf 2ddf 9ebf
00000040: 7973 f6bf 0020 2bbf e6f4 b3be 93df 3bc0
00000050: 51cc f2be 7aee febf 2e2e 8ac0 a8fc 04c0
00000060: 28b2 4dbe 5ef4 1ac0 426e e4bf 5af2 80bf
00000070: 37cc dabe ddad e0bf a018 d0bd bd03 2dc0
00000080: 354c adbf 49c4 91bf 355a b3bc 3482 73bd
00000090: f660 5cbf 89c1 3dc0 f6ce c8b8 e05e ebbf
000000a0: aaed e4bf dfed afbf 39f6 2c3f 99ca 34bf
000000b0: a19e 47c0 f7a1 24be a0c8 a23e 9263 06c0
000000c0: 83aa 43bf b711 bdbf 285b f4bf b6ef 28c0
000000d0: ce7f d4bf 8ed6 81c0 fc49 47bd 7d06 56bf
000000e0: 9dcd 1abe 95ac f6bd 7215 31bf 5fb4 d6bf
000000f0: 362b 1dc0 3c47 94bf c2f2 23bf 02ba 04bf
00000100: 4098 873f 9f19 06bf 8bbe abbf 5514 29bf
00000110: da38 dd3e ee17 8ebf 73df 3d3c 8f90 42c0
00000120: bb1d cdbf 487c abbf 6bfb 04c0 82c4 e8bf
00000130: 0556 24be 9d75 48c0 f46a 37be fb15 a4bf
00000140: ff80 d2bf 1814 ef3f 7d74 09c0 6890 dcbf
00000150: 27fd 8cbf 7b20 febf 49f1 07c0 6b94 aabd
00000160: 9c63 a9bf 2b6d a6bf fa6c 6dbf d0fa adbf
00000170: 0d72 193f 901c 84c0 0555 17bf f7ed b3be
00000180: 197b 64bf 0ab4 babf 1ade 6f3e 8a3a 96bf
00000190: 152e 52c0 c0a3 20c0 b160 82bf 6f87 1ebf
000001a0: 3975 3cc0 fa32 27c0 9b69 46c0 fd1a f1be
000001b0: 692b 29c0 c946 51bf a1c7 02bc a3d3 ffbf
000001c0: 5dc7 613f 4b7f f6bf 40ed 15c0 311e a740
000001d0: 9f6e 93bf 491a bfbf bbd7 3241 9ecc c6be
000001e0: 9f78 5ebf b801 20bf 374b e1be ae2b 98bf
000001f0: a864 2dc0 3de4 5fbf 2823 b8bf ce8e 4cbd

layers.2.weight f4 [128, 128]
0.67240596 -1.8542411 0.066116124 1.9903618 0.9186262 0.6980854 0.2957538 1.761876
-0.5823038 1.9311991 -0.6259566 0.29558206 -1.03457 -0.8046034 0.3697675 -0.8637511
1.0991794 0.49389237 0.05564787 2.7910852 1.353097 0.51873976 -0.08236053 1.3111757
-2.1515508 -1.845189 -0.7796929 -0.9862589 -0.24999376 -0.53315043 -0.14530994 -0.7257866
-2.6821954 0.556353 1.1715279 -1.3525357 0.8571015 -1.1317174 -0.14774798 -1.6001971
1.4694154 -0.5211239 -2.2026136 -0.46239537 -1.5447433 -0.29943684 -0.544296 -1.3976576
-1.3349956 0.42289835 0.14963682 0.11804786 1.4498115 2.2480512 0.4683807 0.60239154
-0.51549774 -1.5145799 -2.413339 0.17093416 -0.3392284 -0.79069614 -0.8252885 0.058480423
-0.337649 0.039661895 0.6600205 0.47671816 0.64275944 1.9404416 0.9608813 -2.495976
-0.19668913 -0.41210815 0.12356037 -0.52974254 0.20204248 -0.26344666 -1.8714821 -0.29454803
2.0334992 -1.4408065 -1.615889 -0.32776713 0.650674 -0.41420817 1.2285503 0.8315394
0.19509304 -0.77403015 -2.049025 -0.07728061 -0.44170824 0.21791552 -0.8933595 -0.14062837
-0.2683307 -1.1941763 1.0342157 -0.050572764 2.4005234 0.010896044 -1.2615315 0.5687067
-1.8090316 0.010844792 0.3288236 0.28519496 0.5488806 -0.9909743 0.73442495 1.7971185
-0.18009482 0.64765066 0.58360666 1.704556 0.5886337 0.18878317 -1.067476 0.15632851
-1.5409632 -2.9772549 0.45402434 0.7262039 0.9944865 -0.5869092 0.08190065 -4.2532682
0.22120018 -0.57663625 0.2846711 -0.15527588 -0.38075733 -0.6032076 0.56210226 0.22489277
0.62963676 -0.43700036 0.025217498 -0.45574734 -0.14845125 0.4200827 -0.3625904 -0.28591418
-0.12638955 -1.4018515 -0.055492327 -1.7663832 -1.1295428 0.02701089 -0.25575536 -1.2836179
-0.37861755 -0.44117665 -0.31222382 0.17981122 1.0833222 -0.6816142 -0.4779331 -0.5320412
-0.26801467 0.6840928 0.73538154 -2.1528308 -0.15342738 -0.2518549 0.08604599 -0.23797275
0.037931602 -1.3641201 0.41024032 -0.238212 -0.02036419 0.060472865 -0.015525526 0.27519488
0.4158713 0.12417477 0.53328204 -1.4111978 0.08498358 -0.3277325 0.7651785 -0.5010132
-0.6376407 -0.22191277 -0.3686946 -0.53293824 -0.23256962 0.2978246 -0.22395371 -1.0410358
-0.21839987 0.57001054 0.7107155 -0.6758474 -0.49396878 -1.5059149 -1.6793299 -1.960094
0.110223144 -1.5687804 -0.07356196 -0.84895927 -0.6865493 -1.1961426 -0.36113945 -1.1211381
-0.47489932 0.73648655 -0.37334105 -0.6376917 0.11110924 -1.29789 0.6403795 0.5645605
0.77973944 -0.2211582 -0.4133994 0.33650175 -0.24806982 -1.0727336 0.34001255 -0.10120043
-0.520344 -0.9276733 -0.02600425 -0.87356 -1.5108994 -0.28368524 -0.10383408 -0.3648453
0.022680007 -0.61433375 -0.39942938 -0.15865237 -0.1459665 -0.57191557 0.5142716 0.43441424
0.30145237 0.76007 -1.1223269 0.670059 1.161683 -0.29834932 -0.107056625 -1.369649
0.3688596 0.35975108 0.078816816 -0.23324394 -0.1106501 0.93374825 -0.04668981 -0.040100984
00000000: cc22 2c3f c657 edbf e467 873d 2dc4 fe3f
00000010: 162b 6b3f bab5 323f 0b6d 973e 2785 e13f
00000020: dd11 15bf 8831 f73f b13e 20bf 8856 973e
00000030: ca6c 84bf 7dfa 4dbf 2a52 bd3e cb1e 5dbf
00000040: e9b1 8c3f 76df fc3e 05ef 633d 24a1 3240
00000050: 4832 ad3f 21cc 043f a3ac a8bd 9bd4 a73f
00000060: 02b3 09c0 272f ecbf f499 47bf 777b 7cbf
00000070: 5dfe 7fbe 8c7c 08bf 21cc 14be 27cd 39bf
00000080: 17a9 2bc0 266d 0e3f a0f4 953f e41f adbf
00000090: 016b 5b3f 1edc 90bf 3f4b 17be 42d3 ccbf
000000a0: ce15 bc3f 6068 05bf 9ff7 0cc0 16bf ecbe
000000b0: 26ba c5bf c94f 99be fc56 0bbf 72e6 b2bf
000000c0: 23e1 aabf 2286 d83e 653a 193e 14c3 f13d
000000d0: 6c93 b93f 12e0 0f40 98cf ef3e 5536 1a3f
000000e0: a9f7 03bf c1dd c1bf 2574 1ac0 5d09 2f3e
000000f0: 58af adbe 106b 4abf 1b46 53bf 2b89 6f3d
00000100: 54e0 acbe 8374 223d 1af7 283f 6714 f43e
00000110: e28b 243f 6460 f83f 51fc 753f 12be 1fc0
00000120: e068 49be d7ff d2be 380d fd3d 359d 07bf
00000130: 39e4 4e3e 7be2 86be ba8c efbf 00cf 96be
00000140: da24 0240 596c b8bf 73d5 cebf 18d1 a7be
00000150: 9292 263f 1813 d4be 2341 9d3f c4df 543f
00000160: 78c6 473e d726 46bf 3a23 03c0 4c45 9ebd
00000170: 9527 e2be 3f25 5f3e 35b3 64bf e200 10be
00000180: a462 89be c5da 98bf 2e61 843f 6325 4fbd
00000190: 2da2 1940 5285 323c dd79 a1bf c396 113f
000001a0: 598e e7bf 5bae 313c 915b a83e 1305 923e
000001b0: 7083 0c3f 7eb0 7dbf 4603 3c3f fb07 e63f
000001c0: c76a 38be 6fcc 253f 3f67 153f e42e da3f
000001d0: b3b0 163f 6050 413e 0ea3 88bf 9514 203e
000001e0: 483e c5bf 588b 3ec0 e175 e83e 80e8 393f
000001f0: ab96 7e3f ae3f 16bf 87bb a73d c61a 88c0
00000200: 4d82 623e 6f9e 13bf 69c0 913e a400 1fbe
00000210: a0f2 c2be d06b 1abf efe5 0f3f 4a4a 663e
00000220: e02f 213f 83be dfbe ed94 ce3c b757 e9be
00000230: 9b03 18be 1415 d73e 73a5 b9be 5863 92be
00000240: 436c 01be df6f b3bf ec4b 63bd d818 e2bf
00000250: dc94 90bf f145 dd3c 5ef2 82be 974d a4bf
00000260: 29da c1be e8e1 e1be cddb 9fbe 6f20 383e
00000270: 4daa 8a3f 457e 2ebf a6b3 f4be da33 08bf
00000280: 3839 89be b520 2f3f f741 3c3f fbc7 09c0
00000290: 111c 1dbe 20f3 80be e138 b03d 21af 73be
000002a0: 2b5e 1b3d 7d9b aebf 050b d23e d9ed 73be
000002b0: cdd2 a6bc 65b2 773d c75e 7ebc 58e6 8c3e
000002c0: 15ed d43e 584f fe3d 2c85 083f 21a2 b4bf
000002d0: df0b ae3d 8ecc a7be bde2 433f 6742 00bf
000002e0: 6c3c 23bf 1a3d 63be 8ac5 bcbe a46e 08bf
000002f0: bb26 6ebe 777c 983e 1f54 65be a940 85bf
00000300: 37a4 5fbe 36ec 113f 73f1 353f 5604 2dbf
00000310: 7ae9 fcbe d2c1 c0bf 48f4 d6bf 5ce4 fabf
00000320: acbc e13d cccd c8bf a7a7 96bd 6555 59bf
00000330: b2c1 2fbf 331b 99bf 45e7 b8be 7481 8fbf
00000340: 0126 f3be 628a 3c3f 8f26 bfbe c33f 23bf
00000350: 3e8d e33d 4221 a6bf e9ef 233f 0987 103f
00000360: 019d 473f 4c77 62be 16a9 d3be f549 ac3e
00000370: 0406 7ebe 564f 89bf 2016 ae3e 2c42 cfbd
00000380: 4435 05bf ff7b 6dbf dd06 d5bc a1a1 5fbf
00000390: 2765 c1bf 313f 91be f6a6 d4bd 01cd babe
000003a0: 6ccb b93c fa44 1dbf 0282 ccbe c475 22be
000003b0: 3e78 15be 0f69 12bf 4ea7 033f 8b6b de3e
000003c0: f757 9a3e f393 423f 68a8 8fbf fd88 2b3f
000003d0: 07b2 943f 3ec1 98be 8140 dbbd a950 afbf
000003e0: 2adb bc3e 4b31 b83e b66a a13d 80d7 6ebe
000003f0: 859c e2bd 200a 6f3f d03d 3fbd ee40 24bd

layers.2.bias f4 [128]
1.8723303 11.141527 1.905218 2.1719446 -1.3624405 4.975952 -1.665744 -1.6996778
-0.45584148 1.7647575 4.873682 1.8608104 3.017635 0.26529655 0.81076807 -0.01619563
1.7277062 2.631318 0.017691422 -0.52465415 2.4801805 1.6520716 2.5256827 0.50689614
8.598146 1.3884988 1.2620937 0.7986335 1.8733532 0.20744441 -0.35441956 -0.5040097
-0.14345184 -0.28884137 0.27551803 -0.58965033 -0.896997 1.4475511 2.0987322 0.7927945
0.6307612 4.129441 0.34636664 5.282813 -1.4849033 -1.2584367 3.7641091 -0.5969975
2.8876197 -0.26056108 0.22328953 -0.52595633 -0.54970706 -1.2307545 1.1569616 2.091745
-0.45168722 0.7241282 1.7157264 -0.5127324 -1.2920036 2.0434833 7.1907654 -1.3612063
-0.34170294 -1.3891189 0.7398882 1.7982311 1.3773862 0.049084127 -1.6015635 -0.108099
-0.16485237 -0.66618264 4.9494843 -0.33058736 6.7114797 1.9250644 -0.022436047 0.122424364
7.958891 1.2212394 -0.5242735 -0.47899857 3.277939 -0.224399 1.7106819 -1.1230745
-1.4719574 13.452056 -2.1717296 -0.6930509 -2.3194487 -0.9384399 8.067227 0.274559
-1.2507802 -0.5128396 0.6545094 -0.99582773 -1.167543 0.86863315 -2.664035 -1.1249201
4.119493 0.89588684 1.2262036 0.0013831533 1.019605 -0.27099803 0.33083078 0.62145454
0.035493806 1.1644031 0.8036433 -0.53717643 6.141227 0.19770151 1.306479 -1.2617894
0.017801793 -1.9866041 -0.08569348 -0.45165437 -1.9023092 -1.5921285 -0.42568338 -0.36701736
00000000: 85a8 ef3f b243 3241 2fde f33f 2401 0b40
00000010: 7364 aebf 003b 9f40 1937 d5bf 0b8f d9bf
00000020: 0e64 e9be 93e3 e13f 34f5 9b40 092f ee3f
00000030: ef20 4140 f3d4 873e 7f8e 4f3f b3ac 84bc
00000040: 7a25 dd3f 8467 2840 9aed 903c bc4f 06bf
00000050: 47bb 1e40 1577 d33f c9a4 2140 f2c3 013f
00000060: 0292 0941 54ba b13f 498c a13f 3f73 4c3f
00000070: 0aca ef3f 4f6c 543e 7b76 b5be c806 01bf
00000080: 0ae5 12be 04e3 93be b310 8d3e 53f3 16bf
00000090: 98a1 65bf 5b49 b93f a151 0640 95f4 4a3f
000000a0: 9179 213f 6124 8440 f856 b13e ce0c a940
000000b0: 5011 bebf 7414 a1bf 2ae7 7040 d4d4 18bf
000000c0: c3ce 3840 4368 85be 03a6 643e 13a5 06bf
000000d0: 9ab9 0cbf 5d89 9dbf 5117 943f 26df 0540
000000e0: 8c43 e7be 7760 393f ec9c db3f 6e42 03bf
000000f0: 6060 a5bf 6ec8 0240 c01a e640 023c aebf
00000100: b0f3 aebe a6ce b1bf 5069 3d3f 702c e63f
00000110: 314e b03f 700c 493d 0800 cdbf 0263 ddbd
00000120: 0fcf 28be f28a 2abf 2d62 9e40 bf42 a9be
00000130: 71c4 d640 8368 f63f cdcb b7bc a0b9 fa3d
00000140: 3caf fe40 9351 9c3f ca36 06bf 4d3f f5be
00000150: c1c9 5140 dac8 65be a0f7 da3f e8c0 8fbf
00000160: 1a69 bcbf 9f3b 5741 9efd 0ac0 c96b 31bf
00000170: d971 14c0 993d 70bf 5d13 0141 ff92 8c3e
00000180: 9119 a0bf 7549 03bf ee8d 273f 91ee 7ebf
00000190: 0d72 95bf be5e 5e3f 8d7f 2ac0 62fd 8fbf
000001a0: e3d2 8340 d758 653f 3df4 9c3f ec4a b53a
000001b0: 6b82 823f 41c0 8abe a762 a93e a517 1f3f
000001c0: f461 113d 290b 953f 91bb 4d3f 6584 09bf
000001d0: ee84 c440 4472 4a3e b43a a73f 5182 a1bf
000001e0: 11d5 913c 0b49 febf 1080 afbd 3e3f e7be
000001f0: de7e f3bf deca cbbf 2cf3 d9be b3e9 bbbe

layers.4.weight f4 [4, 128]
-0.13498466 -0.11511217 -1.1016256 0.7644103 0.6263454 0.5322939 0.49181426 0.68160707
0.8757906 0.9244388 -0.16572353 0.4961758 -0.20207609 0.46636522 1.1468295 0.49246362
-0.44711226 -0.7517838 -0.66213554 1.5475926 0.4305707 -0.116990626 -1.1639594 -0.63763463
-0.17443554 -0.28131428 -0.78802663 -0.36031577 -0.3847245 -0.25413334 -0.13683635 0.80402523
0.5863929 -0.42623648 -0.6059271 0.7464962 -0.48859876 -0.7640543 -0.09471407 0.1115172
0.43699723 -0.39848834 0.78731513 -0.2160714 2.1703682 0.63619363 -0.35291272 1.1121697
0.5166279 0.926626 0.6031749 -0.5913645 -0.4629604 1.3634517 -0.3578041 -0.42063603
-0.9092961 -0.5028374 -0.3966785 0.53757304 1.0502325 -0.16767208 -0.16375422 -0.19582427
1.6221188 1.249471 -0.5501402 -0.35031307 -0.59522456 -0.2964421 0.7320471 0.03260912
1.3580203 0.8376725 -0.18668681 0.83985275 -0.060609058 -0.71782 -0.52324146 -0.5484776
-0.11033419 0.6088362 1.1070355 -0.53078556 -0.10836403 0.013378793 -0.47141054 0.77629256
1.0919881 -0.47852126 0.49003494 1.1804116 1.6328574 1.3485171 -0.10719874 -0.38047305
0.80983156 -0.54277253 -0.27405235 1.5295941 1.0689884 0.30051786 0.694024 1.2724142
-0.16566405 -0.80885696 -0.2975298 -1.1362739 0.088931695 0.012737655 0.5610223 0.51558083
-0.3256395 -0.937142 -0.5283393 0.99138075 -0.10060727 0.42240947 0.025620956 1.6235197
-0.41822466 0.5515104 -0.1468288 -0.69117516 0.70727646 1.4447992 -0.6741302 0.21491675
-0.12475043 -0.124634184 -0.6123469 0.77868235 0.92944986 0.5486149 0.6395055 0.95683134
0.5877524 1.0467551 -0.22708528 -0.67135257 -0.38664326 0.5135637 1.0633594 0.49786228
-0.45478898 -0.46721467 -0.56883234 0.83100796 0.47680295 -0.13567753 -1.3771396 -0.22750363
-0.18621987 -0.28147516 -0.68359756 -0.088829815 -0.472055 -0.28859717 -0.08349334 1.086669
0.5020359 -0.71009845 -0.21685997 0.8050978 -0.5201051 -0.33873534 -0.0785396 -0.022215491
0.5708655 0.3729687 0.9808702 -0.1761028 1.8385375 1.0480984 -0.3338385 1.1096984
-0.017341807 0.38646653 0.5803869 -0.43137676 -0.44232243 1.1954347 -0.44062993 -0.7072661
-1.2999593 -0.3555683 -0.8284107 0.75464505 1.157865 -0.13082373 -0.15120739 0.3908912
1.300795 0.8763569 -0.89714813 -1.064547 -0.7336385 -0.5876955 0.8131098 -0.030990649
1.3441389 0.6282422 -0.15282527 0.797193 -0.089952774 -0.6925213 -0.1703825 -0.07351102
-0.122778386 0.6204404 1.3345244 -0.42893118 -0.08824505 0.024759145 -0.29028785 0.9377579
1.5356154 -0.4855517 0.24507262 0.92408913 1.5375569 1.3821917 -0.092352875 -0.41472778
0.85727495 0.063134596 -0.092244275 1.6976525 0.93109643 -0.25012916 0.7455761 1.4974074
-0.11953519 -0.48306125 -0.058242794 -0.8867079 -0.20223583 -0.036577653 0.6371972 0.52834094
-0.41457748 -0.52699625 -0.30287284 0.91602296 -0.1204018 0.38066417 0.48319504 0.83099145
0.08273989 0.57834625 -1.0589694 -0.72735435 0.46845642 1.3061323 -0.3253897 0.7666519
00000000: 6b39 0abe eebf ebbd 1102 8dbf 65b0 433f
00000010: 2c58 203f 6a44 083f 14cf fb3e cd7d 2e3f
00000020: d033 603f 05a8 6c3f 6eb3 29be c10a fe3e
00000030: 09ed 4ebe 6cc7 ee3e 4fcb 923f 3124 fc3e
00000040: e6eb e4be e774 40bf b781 29bf 8417 c63f
00000050: c373 dc3e c898 efbd 9ffc 94bf 063c 23bf
00000060: 3b9f 32be 6d08 90be 1dbc 49bf 4f7b b8be
00000070: 9cfa c4be c41d 82be d41e 0cbe 99d4 4d3f
00000080: d81d 163f ab3b dabe 0a1e 1bbf 601a 3f3f
00000090: 9e29 fabe 1099 43bf 73f9 c1bd 2163 e43d
000000a0: 1abe df3e aa06 ccbe 7c8d 493f d241 5dbe
000000b0: 50e7 0a40 96dd 223f fab0 b4be 945b 8e3f
000000c0: ba41 043f 5d37 6d3f ac69 1a3f aa63 17bf
000000d0: 2509 edbe 9685 ae3f 1932 b7be 9b5d d7be
000000e0: a1c7 68bf f4b9 00bf 7219 cbbe 639e 093f
000000f0: 056e 863f 3bb2 2bbe 30af 27be 2886 48be
00000100: 97a1 cf3f aaee 9f3f fdd5 0cbf 3c5c b3be
00000110: a360 18bf 42c7 97be 7067 3b3f 2491 053d
00000120: 9cd3 ad3f b471 563f d42a 3fbe 9700 573f
00000130: 3441 78bd 0dc3 37bf 27f3 05bf 0769 0cbf
00000140: e4f6 e1bd b0dc 1b3f 57b3 8d3f 90e1 07bf
00000150: f6ed ddbd ba32 5b3c b95c f1be 1cbb 463f
00000160: 44c6 8b3f bd00 f5be dce5 fa3e ba17 973f
00000170: 7901 d13f 359c ac3f 038b dbbd 5dcd c2be
00000180: 1f51 4f3f 24f3 0abf 9750 8cbe bdc9 c33f
00000190: 9dd4 883f 7add 993e 8fab 313f 78de a23f
000001a0: d6a3 29be 4011 4fbf d355 98be 6c71 91bf
000001b0: d221 b63d 99b1 503c 289f 0f3f 1bfd 033f
000001c0: 38ba a6be 8ae8 6fbf 3f41 07bf 21cb 7d3f
000001d0: 2f0b cebd 0e46 d83e 0ae3 d13c 7ecf cf3f
000001e0: 8b21 d6be c92f 0d3f 4a5a 16be dbf0 30bf
000001f0: 1210 353f 2eef b83f cc93 2cbf 2313 5c3e
00000200: 277d ffbd 3540 ffbd c4c2 1cbf ba57 473f
00000210: 6df0 6d3f 0772 0c3f a2b6 233f e6f2 743f
00000220: f176 163f 12fc 853f 0b89 68be c3dd 2bbf
00000230: 1bf6 c5be e978 033f 291c 883f cee7 fe3e
00000240: 1ada e8be c336 efbe ff9e 11bf f0bc 543f
00000250: 841f f43e 0def 0abe 1c46 b0bf b6f6 68be
00000260: 6cb0 3ebe 831d 90be 4000 2fbf 68ec b5bd
00000270: 31b1 f1be 02c3 93be 8efe aabd f817 8b3f
00000280: 6d85 003f 03c9 35bf 8a10 5ebe e41a 4e3f
00000290: 9c25 05bf b86e adbe 5fd9 a0bd 43fd b5bc
000002a0: 3e24 123f c1f5 be3e 4f1a 7b3f 4b54 34be
000002b0: 3255 eb3f 1728 863f e1ec aabe 990a 8e3f
000002c0: 6810 8ebc f1de c53e 3c94 143f 6add dcbe
000002d0: 1678 e2be 0104 993f 3f9a e1be 640f 35bf
000002e0: 1165 a6bf 0c0d b6be b912 54bf 6b30 413f
000002f0: ec34 943f a8f6 05be 1cd6 1abe e422 c83e
00000300: 7380 a63f ed58 603f 80ab 65bf 1343 88bf
00000310: bccf 3bbf 3673 16bf f727 503f 1ae0 fdbc
00000320: be0c ac3f 7bd4 203f 3a7e 1cbe d714 4c3f
00000330: 2939 b8bd 1349 31bf c078 2ebe f28c 96bd
00000340: 3c73 fbbd 2fd5 1e3f b2d1 aa3f de9c dbbe
00000350: d2b9 b4bd b1d3 ca3c 9ca0 94be e710 703f
00000360: 0c8f c43f 3c9a f8be 51f4 7a3e 1b91 6c3f
00000370: aace c43f a8eb b03f 8123 bdbd 3357 d4be
00000380: 5f76 5b3f b64c 813d 91ea bcbd ad4c d93f
00000390: 565c 6e3f ee10 80be 13de 3e3f 0cab bf3f
000003a0: dece f4bd ce53 f7be ff8f 6ebd 4aff 62bf
000003b0: e916 4fbe 73d2 15bd 5b1f 233f 5a41 073f
000003c0: 8043 d4be 3ae9 06bf 2612 9bbe 7b80 6a3f
000003d0: 3895 f6bd 6ae6 c23e 5765 f73e dbbb 543f
000003e0: 8873 a93d 800e 143f 4f8c 87bf e533 3abf
000003f0: 85d9 ef3e 582f a73f 7b99 a6be 4d43 443f

layers.4.bias f4 [4]
-9.215869 -8.956102 -9.612269 -9.800591
00000000: 3374 13c1 324c 0fc1 dbcb 19c1 39cf 1cc1
