ptdrl_final/scripts/rl/checkpoints/checkpoint_e_0_current.pt (torch, 221143 bytes, 6 tensors)

layers.0.weight f4 [128, 290]
00000000: 6b76 a13f 9d22 88c0 2c2c abbf d8fb 6b40
00000010: 35e4 08bf c892 1740 4c31 ecc0 cc7b 23bf
00000020: 24dd 2040 6b3a 1640 d308 1ac0 e00f 953f
00000030: 9bd8 1140 600d 0640 5fda 633f 0ad4 bcc0
00000040: e63d 4640 203a 83bf 88aa 18bd 6568 043f
00000050: 9ea0 3ec0 8f0f 863f a00a ea3f 63fa dbbf
00000060: d391 843d c0ef 703f a8d0 2d40 7b7f b7bf
00000070: 49a8 efbf 5a85 8dbf b6eb 2640 d7e2 b13f
00000080: 330d 943f c9bd 0f40 7afb 82bf 1173 bbbe
00000090: d80b 95bf 35f5 d23f 072d a03f 3411 da3c
000000a0: a27a 873e 934e 30be 83cc 1440 2cd7 8abf
000000b0: b748 1abf 67e0 d33f 37c5 8ebf 19e0 a6be
000000c0: 7338 5f3f fb18 2e40 1204 04bf b821 0b40
000000d0: d8aa 28bf 53ca 283f 310f 50bf f7c8 ed3f
000000e0: 01ac 033d a12d 0840 3b50 b73f cea9 24bf
000000f0: 8890 2540 4f26 b83f bb0b 0abf 1189 e13f
00000100: a906 1a40 38b2 4840 3604 a53f 72d5 9b3f
00000110: 091d 8b3e 70dd 7ebe 81f3 6f40 5096 23c0
00000120: fe5f 98bf 3e7f dabf 9489 8bbf 1e57 993e
00000130: cd1e 35bf 5dc5 80bf bf62 84bf ef7d ee3e
00000140: 8a51 1b3f 458d 593e 9016 833e 29cc 52bf
00000150: 6702 e6be 37a9 10c0 4e74 0fbc c1af 44c0
00000160: 4968 613f ed67 a5be 93b8 0140 47e7 033f
00000170: b132 fdbf 32f0 2dbf e75e 2240 4c8f 903e
00000180: 3da1 4ac0 be76 bd3f 3140 06c0 6182 c2bf
00000190: 89b7 bd3f 61ea 92c0 0ead a2bf 035c 9b3f
000001a0: 2597 ef3f d5dc 343e 4a2a 973f 2fb7 45bf
000001b0: c541 77bc 8dd2 5040 b5f7 4cbf 8b0a d33f
000001c0: 94ba 86bf 60ce 9abf de6f 42bf 78d1 2e3f
000001d0: 8013 c5bf ca46 953f 2aa9 04bf 0352 b7bd
000001e0: 301d 3b3f fec7 d1be 0bd8 cabe aa15 09c0
000001f0: 7ead 01c0 e5f6 39bf d0f7 89be 301e 88bf
00000200: 55c5 013f b088 98be 993f 8cbf 1e0a 033f
00000210: 0c7b dd3f 5c90 70be 47df e43f 19a5 58bf
00000220: 547f fdbf a4fc 033f 18c0 edbe 24f3 2040
00000230: 0048 40be 1485 bcbf aecf e03e 89da 29be
00000240: 2ac6 0fc0 071b da3d 74a0 953f fc43 7d3f
00000250: d8b6 a4bf 0817 abbf bb9b 96bf 0d4b 803e
00000260: 611a 5fbe ce95 823f 9d47 4fbf 169f dbbf
00000270: 0e71 89bf 603d fabf 7581 df3f be50 c8bf
00000280: 77f4 e83c 1d19 1940 d231 513f a83d 0840
00000290: d6a4 fb3f 2dfb 29bf 39f5 163d 468a 08bf
000002a0: 28c7 07be 8956 3a3f 1cd9 8b3e 4e3c 1abf
000002b0: cecd 3abf 2cd1 11bf 0a16 cdbf fa88 7b3f
000002c0: d5ed 893f 04db 9a3f 7361 843f d0fe ce3f
000002d0: 1178 a5bf 1b31 c73f 946b 1140 0c35 01c0
000002e0: 614d c9bf ddcb 853f 6362 323f eb75 35bf
000002f0: 4a2a fd3d 2963 4b40 454e 5e3f 4a6e c13f
00000300: 4bbd 1940 b912 da3e 9036 afbf 0259 953f
00000310: 3021 c53e deec ccbf 12c9 8d3f 63c1 7abd
00000320: 3599 e9be 49a9 9cbe a04f 84c0 0b33 82bf
00000330: d627 15c0 eba4 3fc0 d105 ec3e 072d 8bbe
00000340: 0f62 d53e 295c 0dc0 f2ab afbf b49e 9d3f
00000350: 00bf b13e 61f0 6abe e2ea 41be 1635 5840
00000360: ca4c d5bf 62cb 09bf edba 633f e2d5 0ac0
00000370: 4647 e1bf 3730 3bc0 3d4a 0d40 1471 a73f
00000380: 3ff1 c1bf face 7b40 89ac abbe fffb 01c0
00000390: 879f a23e da13 c2bf 5ebd 0640 29f9 0040
000003a0: cfa9 eabe 33f9 2e40 b920 5f3f 0d92 87be
000003b0: 9520 efbe 78b5 9240 4c68 3bbf dd4f ed3f
000003c0: 39b8 c83e b36f 873f 7fa8 acbe 310d 2dc0
000003d0: 8426 1740 8d95 17bf 4327 b73f 76f0 dabf
000003e0: 84c1 aa3f 6d30 08bf 1d0e 933f 669e 953f
000003f0: c9ae b73e 388b bcbf fb1d 81bf b99a 1340
1.2614263 -4.2542253 -1.3372855 3.6872463 -0.53473216 2.3683338 -7.3810177 -0.63860774
2.5134974 2.3473155 -2.4067886 1.164547 2.2788455 2.0945663 0.8900508 -5.9008837
3.097528 -1.0252113 -0.037272006 0.51721793 -2.9785533 1.0473498 1.8284492 -1.7185787
0.06473126 0.9411583 2.7158604 -1.4335779 -1.8723232 -1.1056321 2.6081367 1.3897351
1.1566528 2.2459586 -1.0232995 -0.36611226 -1.164424 1.6481081 1.2513741 0.026619531
0.2646075 -0.17217474 2.3249824 -1.0846915 -0.60267204 1.6552857 -1.1153935 -0.32592848
0.8719551 2.7202747 -0.5156871 2.173933 -0.65885687 0.6593372 -0.8127318 1.8576955
0.032146458 2.127785 1.4321359 -0.643216 2.5869465 1.4386691 -0.5392415 1.7619954
2.4066565 3.1358776 1.289191 1.2174513 0.2717059 -0.24889159 3.7492373 -2.5560493
-1.1904294 -1.7070081 -1.090136 0.29949278 -0.70750123 -1.006023 -1.0342635 0.46580455
0.60671294 0.21245296 0.2560315 -0.82342774 -0.44923708 -2.260328 -0.008755757 -3.0732272
0.8804975 -0.32305852 2.0268905 0.51524776 -1.9781095 -0.67944634 2.5370424 0.28234327
-3.1660912 1.4801862 -2.097668 -1.5196038 1.4821635 -4.5911107 -1.2709062 1.2137455
1.8718001 0.17662366 1.1809781 -0.7723264 -0.015091364 3.262851 -0.8006547 1.6487592
-1.0525689 -1.2094231 -0.75951946 0.68288374 -1.5396576 1.1662228 -0.51820624 -0.08951189
0.7309141 -0.40972894 -0.39617953 -2.1419473 -2.0262141 -0.72642356 -0.26946878 -1.0634212
0.5069173 -0.29791784 -1.0956908 0.5118731 1.7303176 -0.23492569 1.7880639 -0.8462692
-1.9804482 0.51557374 -0.46435618 2.5148401 -0.18777466 -1.4728112 0.43908447 -0.16587271
-2.24647 0.10649686 1.1689591 0.9893186 -1.28683 -1.3366404 -1.1766275 0.2505726
-0.21787407 1.0201967 -0.8096865 -1.7157924 -1.0737627 -1.954998 1.7461382 -1.564964
0.028436882 2.3921578 0.81716645 2.1287632 1.9659679 -0.6639889 0.036854956 -0.5333599
-0.13259566 0.7278829 0.2731408 -0.6024827 -0.72970283 -0.56959796 -1.6022351 0.98255885
1.0775706 1.2098088 1.0342239 1.6171513 -1.2927266 1.5561861 2.272191 -2.0188627
-1.5726739 1.0452839 0.69681376 -0.70883054 0.123615816 3.1779273 0.8683818 1.5111783
2.4021785 0.4259241 -1.3688526 1.1667788 0.38501883 -1.6009786 1.1076987 -0.061219584
-0.456247 -0.30597904 -4.13472 -1.0171827 -2.3305564 -2.9944408 0.46098188 -0.2718279
0.41676375 -2.20875 -1.3724349 1.2314057 0.34716034 -0.2294326 -0.18937257 3.37824
-1.6664059 -0.5382596 0.889571 -2.1693044 -1.7599876 -2.9248178 2.2076561 1.3081384
-1.5151747 3.9345078 -0.3353007 -2.0310056 0.31762335 -1.5162308 2.105308 2.0152075
-0.4583268 2.73396 0.87159306 -0.26478615 -0.46704546 4.584652 -0.7320602 1.8539997
0.3920305 1.0580963 -0.33722302 -2.7039301 2.3617258 -0.5921257 1.4308857 -1.7104633
1.3340306 -0.5319889 1.1488682 1.1688964 0.35875538 -1.4729986 -1.0087274 2.3063185

layers.0.bias f4 [128]
00000000: 06d1 01be 47ea 9dbd 0eee 27c0 d154 bebf
00000010: f824 c9bf e3e8 c63e ef61 9c3f bf93 8d3e
00000020: 2f99 0740 6b49 a33f 71d8 993f 7832 823f
00000030: 1914 f0be 79d9 98bf 69a1 53bf 43f8 a83f
00000040: bc98 32bf daf6 5cbe 2f40 cabe 1135 cd3e
00000050: 2de4 e43f b2e4 38bf ebe3 a3bf 2b87 7840
00000060: fd1d 7a40 7a2a ecbf 0ea1 5440 7191 703f
00000070: 1399 c23e 5a23 963f eb91 4cbf 18f1 9fbf
00000080: 933b 40be 79b8 e4bf 4852 a13f 127e 8c3f
00000090: 4c0d 82bf 82a3 243f fb6b 4f3f e33c 803f
000000a0: a77b f4bf ec64 743f ca88 23bf 1db1 c9be
000000b0: 4200 343f 7939 c23e 781c 36be ff69 45bf
000000c0: ec67 af3f 8f81 253d 5cda c740 5351 253f
000000d0: 485e 25c0 5255 96bf a984 e5bf ea45 82be
000000e0: 0249 183f 4a94 78bf 8536 70bf 0bcb c5bf
000000f0: 74c8 6dbe 9782 6c3f b028 8dbf 72a5 863e
00000100: d80b 6040 17e3 293f cb7c d93f ec09 db3f
00000110: 4b57 6140 56f1 d1bf a5b9 c9bc 792b 10c0
00000120: 6242 893d 10c4 a3bf 08e9 2fbe 983f 0040
00000130: 1cdf e9bd 1b59 923f 151d 1f3f 410b 01c0
00000140: e2a9 9c3f 3330 a740 1b8c 04bf f637 3c40
00000150: 90cb 8abf b053 afbf 1e0c 00c0 e219 7140
00000160: 70cd 853f 24d4 19c0 949d 5a40 8380 683f
00000170: f353 73bf 53f4 0ebf 8902 fa3f 0609 1d40
00000180: f7c9 823f 14f7 91bf 1f0e 99bf 8a76 793f
00000190: 4c80 9abf 20d7 813f 3501 2ebd d72e bdbf
000001a0: bf50 01c0 7b04 29bf 8318 d53e c6df 01bf
000001b0: dfe4 44be fbd3 fd3f aac8 ebbe 10fe 0640
000001c0: e0e3 c1bf 9de2 41bf aeaa 2f40 ac35 a43f
000001d0: c744 1540 a01c 03bf edf8 57bf 794a 003f
000001e0: bb45 1ac0 9225 d13e 1d05 683f 540f 783e
000001f0: f745 37be 81d0 67bf 31a3 9bbf 3292 3dbe
-0.12677392 -0.077107005 -2.6239047 -1.4869634 -1.5714407 0.38849553 1.2217387 0.27651784
2.1187246 1.275678 1.2019178 1.0171652 -0.46890333 -1.1941367 -0.8266817 1.3200763
-0.69764304 -0.21578541 -0.39502093 0.4007955 1.7882134 -0.7222396 -1.280393 3.88325
3.9080803 -1.8450463 3.32233 0.93971926 0.3800741 1.1729538 -0.79910153 -1.2495451
-0.18772726 -1.7868797 1.2603235 1.0975974 -1.0160308 0.64311993 0.8102414 1.0018581
-1.9100236 0.95466495 -0.638806 -0.3939294 0.70312893 0.37934473 -0.17784297 -0.7711486
1.370359 0.04040676 6.245405 0.64577216 -2.5838795 -1.1744788 -1.793111 -0.25443965
0.594864 -0.9710127 -0.9383319 -1.5452589 -0.23220998 0.92386764 -1.1028042 0.262981
3.500723 0.66362137 1.6991209 1.7112403 3.520953 -1.6401775 -0.024624655 -2.2526534
0.06702115 -1.2794209 -0.17178738 2.0038815 -0.11419508 1.1433443 0.6215375 -2.016312
1.2239344 5.2246337 -0.51776284 2.9409156 -1.0843372 -1.3697414 -2.0007396 3.7672048
1.045332 -2.403573 3.4158678 0.90821093 -0.9504997 -0.5584156 1.9532024 2.4536757
1.0217885 -1.1403527 -1.1957434 0.974465 -1.2070403 1.0143776 -0.04248162 -1.4779919
-2.0205534 -0.6602246 0.41620263 -0.50732076 -0.19227932 1.9830316 -0.46051532 2.1092567
-1.5147667 -0.7573641 2.7447925 1.2828879 2.3323228 -0.51215553 -0.84364206 0.50113636
-2.410506 0.40848976 0.906328 0.24224597 -0.17897783 -0.90552527 -1.2159177 -0.185128

layers.2.weight f4 [128, 128]
00000000: 6898 b9bd 0df4 703d bae5 9dbf d275 b5bf
00000010: eaca cdbf 5585 a7be 5e19 06c0 6c65 62be
00000020: 96c2 08bf c75e 14bf 9160 a23d 75f0 82bd
00000030: 19e4 1fbf 2763 03c0 c9ca e0be c9e7 b6be
00000040: 21b2 ffbf d248 51bf 347b b53e 92d3 f2be
00000050: 6f54 dbbd 5ff2 cabf 9791 b43f 51b8 09c0
00000060: 7fbb 92bf ef11 15c0 c352 8cbf 723c 123f
00000070: 5b8f 32bf 1896 46bf 0565 5a3f 5d5b 0cbf
00000080: 0d23 a5be 0cdf a0bd af82 6f3e 524a c7bf
00000090: c9b2 ddbf 4004 e53e d6be 77bf 3142 35bf
000000a0: e313 f4be 423a 65bf 46cb 193e 674c 86bf
000000b0: aed0 813e 0ca3 61bd 360d d9bf 20c9 85bf
000000c0: 6e95 a7be a738 9dbf 93ea a0be eb74 8ebe
000000d0: 2f60 913e 127e d5bf 0895 d0bf aa85 8dbf
000000e0: 6e64 943f baf0 36bf e067 5bbe e284 b4bf
000000f0: aa05 ce3e 9b8d 04be 6687 abbf 5270 51bf
00000100: 822a e5bf e12b ba3e e617 73bf 56d7 f9be
00000110: ff63 533e 7542 8b3f 3e92 40bf 5610 5cbf
00000120: 2365 2b3f 8751 6abf 51d5 a2bd caf5 00bf
00000130: 09bf 60bf 8482 d6be 6a69 273f 1034 22bf
00000140: dd34 35bf 8818 83bf 0ea4 a6bf efdb 29bf
00000150: a966 04c0 2fd3 6cbe 4358 f9bf a4ba c5bd
00000160: c1e5 aabf 0ff3 eebf c4b4 2f3e 80a0 4cbf
00000170: 873f 9c3e 14f0 a1bf ecf5 633d a030 113e
00000180: 3447 ce3e ef17 883f 776a fbbe c9a5 2ebf
00000190: 3fe3 d63f da4c 9ebe aeac d03e 0669 d9bf
000001a0: db41 15c0 ab9b d0be 52a6 6ebf 6d13 99be
000001b0: a6a1 0fc0 6d6a 5fbc be51 683e 7af1 043e
000001c0: 4d48 eebf 7293 4dbf 7906 923f e6c7 17c0
000001d0: 291e 0cbf 4956 b0bf 7079 d33e fad3 8e3e
000001e0: f0e9 85bd 5e71 d3bd 5d4c c2bf 8b95 41c0
000001f0: 7acf e7be 3699 a6bf e6b4 a83e 630c 1b3f
00000200: a0bb 4fbf 6ebd 1bbe becc 6dbe e5e8 1b3f
00000210: b793 e4be 44bd 48be 2424 b43d 78aa 64be
00000220: ca19 5ebf 4b47 753d 3705 71be 4fe2 2a3f
00000230: 87cd 0abe cb66 01bf 4866 df3e ec14 22bf
00000240: 776d cc3f f0ae d3be 977a 10be 38ff eabe
00000250: a55d 12be 374b 393e 09ff 54bf 26e8 77bf
00000260: 7c10 7e3e 346b 0cbf 3a47 31c0 3e0e 57bf
00000270: e83a 503f fbb0 3b3f 1796 c53e 119b f4be
00000280: dbad d5be 7e1a 0bbf 6d14 3b3f e439 9ebf
00000290: 51b2 5c3e 36ef cc3d 1939 6c3f f449 87bf
000002a0: de24 403f 1d90 31bf 11aa d5be f8ce febc
000002b0: e1ff c4be 3758 48bd 6ef8 8f3d 6e46 04bf
000002c0: e460 84bf e318 13bc 9ff7 12bf 1fbc 903e
000002d0: c284 06bf 42e9 023f c1c1 bdbf 9f12 933f
000002e0: 954e 933e 06f7 29bf 109e efbf 7394 2cbf
000002f0: ffa7 b13e 0bb6 4dbe 3c2d 9e3e f179 953e
00000300: 3de2 9c3c b0d8 24bf de00 2f3d dd97 4e3e
00000310: aac7 26bf 2723 523f fce0 3bbf 899d 893f
00000320: 1824 8bbf c2ca 8c3f ef75 9e3d 1691 80be
00000330: 0908 2dc0 7b74 8abf 9487 11be 9798 72bf
00000340: 664b d53d b774 eabe b6cf 23bf f800 dcbf
00000350: b705 e33e 7982 8a3e bb91 043f 81ce c5bf
00000360: 3132 02c0 4fae 893e f7e5 d1bd 393f c03e
00000370: 84a6 293f 29db 45c0 28c5 edbe 78ab d2bc
00000380: 5932 89bf 9484 49bf 3708 87bf 9dd9 cdbe
00000390: ee7c b8be 51dc fdbf 2535 04c0 7033 943f
000003a0: 6a66 70bf f03a 193e 4085 c5be db28 67bf
000003b0: ead0 21c0 3209 eebe d3a7 23bf 378f ea3e
000003c0: eed4 943e b379 4b3f 7bf4 b3bf 69ec 2b3f
000003d0: 8507 d5bf 1c1d e33e 53ce 79bf a67d 83be
000003e0: 92e6 74bf 5e3c 843e ab7c 9dbf 1c5f d8be
000003f0: 3d95 2e3d c0e8 f4bd 99a8 f53e 111a 0dc0
-0.09062272 0.058826495 -1.2335732 -1.4176581 -1.607755 -0.32718912 -2.0952983 -0.22109002
-0.53421915 -0.5795712 0.07928575 -0.0639352 -0.62457424 -2.0529268 -0.43904713 -0.35723713
-1.9976236 -0.8175174 0.3544556 -0.4742704 -0.10709464 -1.5855216 1.410693 -2.1518748
-1.1463469 -2.3292196 -1.0962757 0.5712348 -0.69749993 -0.77572775 0.85310394 -0.5482691
-0.32253304 -0.07855043 0.23389696 -1.5569556 -1.7320186 0.44729805 -0.9677557 -0.70804125
-0.47671422 -0.8954202 0.15018949 -1.0492066 0.25354522 -0.055087134 -1.6957157 -1.0452003
-0.32731193 -1.2282914 -0.31428966 -0.27823576 0.28393695 -1.6679099 -1.6295481 -1.1056416
1.1593149 -0.7146107 -0.21426344 -1.4103053 0.40238696 -0.12944643 -1.3400695 -0.8181201
-1.7903597 0.36361602 -0.9495834 -0.487971 0.20643614 1.0879656 -0.7522315 -0.85962427
0.669512 -0.9153065 -0.07950843 -0.50375044 -0.87791497 -0.4189645 0.65395224 -0.6336069
-0.7078379 -1.0241861 -1.3018816 -0.6635122 -2.0687659 -0.23127435 -1.948006 -0.096547395
-1.3351365 -1.8667926 0.171588 -0.79932404 0.30517218 -1.2651391 0.05565445 0.14178705
0.402887 1.0632304 -0.49104664 -0.6822172 1.67881 -0.30918008 0.40756744 -1.6985176
-2.3321445 -0.40743765 -0.93222535 -0.29897633 -2.2442412 -0.013636214 0.22687432 0.12982741
-1.8615814 -0.8030311 1.1408225 -2.3715758 -0.5473352 -1.3776332 0.41303587 0.278961
-0.06538761 -0.103243575 -1.5179554 -3.0247524 -0.4527548 -1.3015506 0.32950515 0.60565776
-0.8114567 -0.1520898 -0.23222634 0.60902244 -0.44643947 -0.19603449 0.08795956 -0.22330654
-0.867581 0.059882443 -0.23537146 0.6675157 -0.13554965 -0.50547475 0.43632722 -0.63313174
1.5970906 -0.41344404 -0.14109264 -0.4589784 -0.14293535 0.18095098 -0.8320165 -0.96838605
0.24810976 -0.5485108 -2.7699723 -0.84006107 0.81339884 0.73316926 0.38591072 -0.47774556
-0.41734204 -0.543373 0.7307804 -1.2361417 0.21552397 0.10006563 0.92274624 -1.0569444
0.75056255 -0.69360524 -0.41731313 -0.03110455 -0.3847647 -0.048912253 0.07029806 -0.5166997
-1.0342069 -0.008978101 -0.5740909 0.28268525 -0.5254632 0.51137173 -1.4824754 1.1490058
0.2877089 -0.6639255 -1.8720112 -0.67414016 0.34698483 -0.20088975 0.30893886 0.29194596
0.019150848 -0.6439314 0.042725436 0.20175119 -0.65148413 0.8208489 -0.73390174 1.0751201
-1.087039 1.0999377 0.07737338 -0.25110692 -2.7036154 -1.0816797 -0.14211875 -0.94764084
0.10414772 -0.4579217 -0.63988817 -1.7187796 0.44340298 0.27052668 0.5178487 -1.5453645
-2.0343134 0.268908 -0.102489404 0.37548235 0.6626971 -3.0915015 -0.4643948 -0.025716528
-1.071849 -0.78717923 -1.0549382 -0.40205088 -0.36032814 -1.983286 -2.0657437 1.1578197
-0.9390627 0.14963889 -0.38578224 -0.90296715 -2.528376 -0.4649139 -0.63927954 0.4581239
0.29068702 0.79482573 -1.4058985 0.6715761 -1.664292 0.44358146 -0.9758045 -0.256818
-0.9566432 0.25827307 -1.2303671 -0.42260063 0.042622793 -0.11958456 0.47980192 -2.204716

layers.2.bias f4 [128]
00000000: cf7c d9be ffba c7bf 680d 5940 a58d 8dbf
00000010: e64f 68bf c329 953e 125a 063e b3fc 003e
00000020: 1b42 40bf 3fe9 15bd b431 c43e 165d 263d
00000030: f861 c4be f819 c4bf dcba 3340 c096 713d
00000040: ea0f 943f 864b a5be c48a bd3d 14ca 823e
00000050: b63d 33c0 da07 b03e a382 4bbf fe47 b33e
00000060: 74b0 a33e 3e89 90bd 899f fc3f d716 c3be
00000070: 3810 bfc0 4ee1 45bc 0e61 8dbd 2fd3 ac3f
00000080: 6940 8dbe 48c8 2fbf c777 f4bf 1a3c 783e
00000090: b71a 0640 68ab 94be 8f39 2abd d37a 0bbf
000000a0: 76c9 5a3e be48 0ac0 94f2 183d 0872 2341
000000b0: 2ea7 0d3f 6a9a 8dbc ff24 da3e 1aed b43d
000000c0: 00fe e3bd d055 80be ad9c 8dbd 756b bb3d
000000d0: 6f83 473f c035 a9bf a086 483e e8dc 62be
000000e0: 9e08 a73e b7b5 1c3f a92d b43e 5d7f c6be
000000f0: 8dec 8abd a797 4cbe fbcc 253f a757 4f3f
00000100: a21c 88bd 6b58 613e 573e 03c0 7a34 2bbe
00000110: 84e8 04bf a042 11bf b467 4f3f 0e7c 0dc0
00000120: 079e c63c 76ff a0bf 16c1 323f e4f7 26bf
00000130: 308a 813f d112 b33e 43d8 54c0 f1b4 423f
00000140: cfa7 07c0 6bb4 7dbf 38a5 913e 5aac eebe
00000150: b79e a5bf c4bc 9bbf f6b7 9abf a809 ecbe
00000160: 5780 163d f5f9 d03e 3024 0f40 9c52 3cbf
00000170: dd9d 173f 2e57 16bd a09d 4940 d5a5 ccbf
00000180: dbe2 e5bd 0745 81bf 6289 24c0 564f d9be
00000190: 94d2 013f 78a3 43bf 01e9 9c3e cd23 3bbe
000001a0: 216a f6be d5e2 92bf c2ab 11bf 3fa1 e03c
000001b0: 2ef7 8dbe 8d69 8fbf 9dc9 553f 8ea6 86be
000001c0: f535 9dbc 1605 6c3f c9b7 14bd 871f 44bf
000001d0: a36c 61bf a00c 32be 1ebb 383f 751d f53f
000001e0: 6bec a5bd eb3e e9bd 5ae6 433d d503 96bf
000001f0: 247a d73f a774 e73d b08b 1640 f1da dbbe
-0.42478034 -1.5603942 3.3914433 -1.1058851 -0.90746915 0.29133424 0.13120297 0.12596397
-0.7510087 -0.036599394 0.3831917 0.040616117 -0.38355994 -1.5320425 2.80828 0.058981657
1.1567357 -0.32284182 0.09254983 0.25544798 -2.8006415 0.3438099 -0.7949621 0.35015863
0.3197056 -0.07057427 1.9736186 -0.38103363 -5.97073 -0.012077643 -0.06903277 1.3501948
-0.27588204 -0.6866498 -1.9099053 0.24241677 2.0953805 -0.29037023 -0.0415588 -0.5448429
0.21365914 -2.1606898 0.037340716 10.21534 0.5533322 -0.017285544 0.4260635 0.08834286
-0.11132431 -0.2506547 -0.06914649 0.09151355 0.77934927 -1.3219528 0.19582605 -0.22154582
0.32623762 0.61214775 0.35191086 -0.38769045 -0.067834 -0.19979726 0.647659 0.8099312
-0.06646086 0.22006385 -2.05068 -0.16719237 -0.5191729 -0.56742287 0.81017613 -2.2106967
0.024245275 -1.257796 0.69825876 -0.65222 1.0120296 0.34975293 -3.3256996 0.76057345
-2.1196172 -0.9910342 0.28446364 -0.4661587 -1.2939061 -1.2166982 -1.208739 -0.46101117
0.03674349 0.40815702 2.2365837 -0.7356355 0.59225255 -0.036704235 3.1502457 -1.5988108
-0.1122491 -1.009919 -2.5708852 -0.4244334 0.5071194 -0.7642131 0.30646518 -0.18275376
-0.48127845 -1.1475474 -0.56902707 0.027420638 -0.27727646 -1.1204087 0.8351076 -0.26298946
-0.019190768 0.9219526 -0.036308084 -0.76610607 -0.8805639 -0.17387629 0.7216052 1.9149615
-0.08101734 -0.11388954 0.047827102 -1.171992 1.6834149 0.113015465 2.3522758 -0.42940477

layers.4.weight f4 [8, 128]
00000000: 257d e53f 1ced 8dbe ed98 0040 bd8f 89bf
00000010: 3f55 5ebf 27d7 1c40 3c2f 1540 a2ad 7b40
00000020: 50f8 80bf ac1e 1640 5b7c 1440 df41 3e40
00000030: d41c a1bf 0119 de3f 9ac4 2940 86c3 0640
00000040: a2f0 2440 bdc6 3b40 4d6a 2040 d9df 1f40
00000050: c9b3 1340 c657 863f 5cbf 35bf f8c2 0a40
00000060: c2f9 27bf e04a 1740 6b97 8d3f 133c ed3f
00000070: 30a9 88bf 7c03 c33c 0a0f 0840 1589 f03f
00000080: 0720 0640 26a8 ca3f 4c10 bcbf f977 f33f
00000090: e36e 2b40 5dd3 15bf 3f46 be3f f401 3440
000000a0: b932 1d40 526c 7cbf 65ac 2e3f 661e 0440
000000b0: 1d4d 12bf 414f 64bf 8a2f 3240 e23e d33f
000000c0: 1630 f5bd 3217 dd3f 10d7 3640 f0f9 1940
000000d0: 2621 94bf df9c 2440 844e e83f c528 3240
000000e0: e855 4040 bce1 5e3f f43b 1140 295a f23f
000000f0: 3f59 873d c80b a3bf 6645 1c3f 9a1c ec3f
00000100: 5819 f33d 4e9d 1e40 8508 d7be b74f 873c
00000110: 0fe9 3f40 879a 0b40 de15 03bf ff94 7f3f
00000120: 9db0 1340 394e cbbf 406b 10bf f747 4740
00000130: 5331 a0bf 7996 ab3e 9e4d 37bf 5c70 f03f
00000140: 19e8 e7be d80f 2c40 36ca f83f 53ac 2d40
00000150: 109a bf3f edd8 febf 3a3d c23f e95a f13f
00000160: 924e 6140 ea05 44bf 83e1 2240 202b 1640
00000170: cd3d 1040 1429 173d c242 0f40 e9d6 68bf
00000180: 5b59 f63c 0152 e9be 390a 5e3f 7253 dfbf
00000190: b957 b9bf 9706 aebf 98d3 ff3e d136 0840
000001a0: 3b46 2bc0 f7c1 d0be bfb8 26bf e10f 2240
000001b0: 16af 0c40 6933 e03f 48f4 983f cd2e 963f
000001c0: c5e5 3640 98c4 3bbf ea84 853f cab7 0740
000001d0: bed8 91be d0c2 853f fc9f 8a40 085b 2340
000001e0: da6b 0540 aa85 4740 a00f 1a40 ba48 d0bf
000001f0: 7552 e73f a711 3140 efc4 1a40 3796 f0be
00000200: 2036 c43f 2745 9dbe 8189 e63f 77ed 02c0
00000210: 5656 68bf 4736 2940 3c58 1f40 36a8 6240
00000220: fb01 2dbf 2d1e 3840 c37a 0740 4947 4440
00000230: 69f1 8cbf aa8c e33f 21c8 1f40 aeee eb3f
00000240: c409 0840 9225 6140 dc24 1240 f306 1540
00000250: 6210 2240 413e b43f 4f74 e5be ed6d 2840
00000260: 6032 29bf 967a ff3f d092 903f bccb 2640
00000270: 9e9f 91bf 3075 5abf 09ac 0e40 3a89 fe3f
00000280: 2b50 fd3f 00cc 773f 8b2c 42bf 41fa bc3f
00000290: b7e2 4240 7aed c5bf 245d e23f 54a2 1240
000002a0: cfc6 2140 9f49 87bc 7193 c53f 77ff 1340
000002b0: a7e5 81bf 7425 3b3f 25c4 4d40 e58c 1e3f
000002c0: e835 fc3d 6988 e13f d39e 3640 dee6 0740
000002d0: 7ce3 42be 1015 2840 3302 ec3f 2d0d 3a40
000002e0: 76ef 0540 320a 9a3f d077 f83f 02b8 0840
000002f0: b8d8 cd3c 58b2 7dbf d3d4 073f 4d62 1340
00000300: 90b8 08bd 561e 0840 bfb3 68bf 9049 86bb
00000310: 0bbd 4e40 e37b fc3f 0a8c fbbe ae20 943f
00000320: 4eef 2840 ecff 8fbf 7952 30bf 88bd 2b40
00000330: 97b0 fdbf 1d12 a93e 2e19 2ebe 02e0 1c40
00000340: c6ec b7be 82f3 1b40 c382 6ebf 9b97 1140
00000350: 1373 9a3f c51f cbbe d681 db3f f91e b13f
00000360: 8ddc 5c40 9faa b0bf 283e 3440 06d6 4240
00000370: 56d0 0c40 66a0 50bd c280 eb3f a1ee 9fbe
00000380: 56a9 d93d 6692 29bf cabd 943f 43ab b4bf
00000390: 50f4 dbbf eecb cfbf bf34 61bf 39a7 2340
000003a0: ec8b e4bf 8595 77be df5e 87bf 4cd1 3540
000003b0: 1ca9 0f40 6fa2 dd3f edd4 e13f b0d9 983f
000003c0: c078 5040 4dae 49be 1a91 833f d85d d93f
000003d0: 1422 7cbf c243 923f c30b 8240 9f17 4240
000003e0: 2ed3 1640 607a 0740 3dbb 0d40 a119 e5bf
000003f0: 68e0 c73f c41c 2640 e7f2 2f40 fe27 95bf
1.7928816 -0.27719963 2.0093338 -1.074699 -0.86848825 2.4506319 2.331008 3.9324727
-1.0075779 2.345622 2.32009 2.9727705 -1.2586923 1.735138 2.6526246 2.1056838
2.577187 2.934005 2.506488 2.4980376 2.3078482 1.0495536 -0.70995116 2.16815
-0.65615475 2.363945 1.1061834 1.8533958 -1.0676632 0.023805372 2.125918 1.8791834
2.0957048 1.5832565 -1.4692473 1.9020988 2.678643 -0.5852564 1.4865187 2.8126192
2.4562209 -0.98602784 0.68231803 2.0643554 -0.57148916 -0.8918343 2.7841516 1.6503565
-0.11972062 1.7272704 2.8568764 2.40588 -1.1572616 2.5720747 1.8148961 2.7837384
3.0052433 0.87063193 2.2692842 1.8933765 0.06608819 -1.273797 0.61043394 1.8446229
0.11870068 2.478351 -0.41998687 0.016517503 2.9985998 2.1813066 -0.5120524 0.99836725
2.3076546 -1.5883247 -0.5641365 3.1137674 -1.2515053 0.3351324 -0.7160281 1.8784289
-0.45294264 2.688467 1.943671 2.7136428 1.4968891 -1.990995 1.5174935 1.8855869
3.5204206 -0.76571524 2.5450141 2.3463821 2.253772 0.03690441 2.2384496 -0.90952927
0.030071905 -0.45570377 0.8673435 -1.744734 -1.4479896 -1.3595761 0.4996612 2.1283457
-2.6761615 -0.40772983 -0.6512565 2.5322192 2.1981864 1.7515689 1.1949549 1.1733032
2.857774 -0.73346853 1.0431187 2.1205926 -0.28485674 1.0450077 4.3320293 2.552431
2.0847077 3.1175332 2.4072037 -1.6272194 1.8072039 2.7667024 2.4182699 -0.46989605
1.5329018 -0.30716822 1.8010713 -2.0457437 -0.9075674 2.6439378 2.4897604 3.5415168
-0.67581147 2.8768418 2.1168678 3.066851 -1.1011173 1.7777302 2.49659 1.8432214
2.125596 3.517918 2.2834997 2.3285491 2.53225 1.4081498 -0.448153 2.6317093
-0.6609249 1.9959285 1.1294804 2.606185 -1.1376836 -0.85335064 2.2292502 1.9885628
1.979009 0.96795654 -0.7584922 1.4763871 3.0450876 -1.5463097 1.7684674 2.2911577
2.5277593 -0.016514597 1.543562 2.3124673 -1.0148209 0.73104024 3.2150967 0.6193374
0.12314969 1.7619754 2.8534439 2.123466 -0.19032091 2.6262856 1.8438171 2.9070542
2.0927405 1.2034361 1.9411564 2.136231 0.025127754 -0.99100256 0.5305912 2.3028748
-0.033379138 2.1268516 -0.9089927 -0.004098125 3.2302883 1.9725307 -0.4913028 1.1572473
2.639606 -1.1249976 -0.68875843 2.683443 -1.9819516 0.33021632 -0.17001793 2.4511724
-0.3592283 2.4367375 -0.93168277 2.2748783 1.2066368 -0.39672676 1.7148998 1.3837577
3.4509614 -1.380207 2.8162937 3.044313 2.2002158 -0.050934218 1.8398669 -0.31236747
0.106280014 -0.6623901 1.1620419 -1.4114765 -1.7183933 -1.6234109 -0.8797111 2.5570815
-1.7855201 -0.24178131 -1.0575827 2.8408995 2.2446966 1.7315196 1.7643105 1.1941433
3.25737 -0.19695397 1.0278656 1.6981764 -0.984895 1.1426928 4.0639358 3.0326917
2.3566394 2.1168442 2.214553 -1.7898446 1.5615358 2.5955057 2.7492006 -1.165283

layers.4.bias f4 [8]
00000000: e48d 22c2 671f 22c2 4dcc 21c2 0845 22c2
00000010: 5ae4 22c2 4efe 21c2 ac26 22c2 8a4b 22c2
-40.638565 -40.530666 -40.449512 -40.567413 -40.723 -40.498344 -40.537766 -40.57377
