ptdrl_final/scripts/rl/checkpoints/checkpoint_a_3_current.pt (torch, 219095 bytes, 6 tensors)

layers.0.weight f4 [128, 290]
00000000: 0ae6 4bc0 01ca 5c40 97e2 bc40 543f a140
00000010: 637a 5bbe 2993 8b3f dd51 88c0 9fc0 edbf
00000020: 450f 84c1 7722 0640 0047 483f c0f9 7bc0
00000030: 60ad 253f b0a2 86bf 6a50 ffbf f802 f23e
00000040: 2278 c3c0 8686 3f3f 5a89 34bf b3dc 9b40
00000050: f6f7 da3d 313e 873f e37d e6c0 b4fe 79c0
00000060: a5a2 4640 6e8a 64c0 5a6c adbf 7a3b 6b41
00000070: 0f44 183f ad28 b8be 12ee 0bc1 71d6 c140
00000080: 95e9 023f fdb0 7dbf f118 7140 68af 13bf
00000090: 993d 0a40 8feb 843f 71d5 f83f d289 b0bf
000000a0: 3ba3 c53f 33f0 9f3f c0c4 16bf 5f9c d6bf
000000b0: c0fd c53f 3eec d4bf e22b 783f 3bc2 f0bd
000000c0: d06e 843f 21a1 ab3d c900 e4bf f73a d2be
000000d0: 7a85 9ebd ca5d 9d3f 06a4 0b40 588b 203f
000000e0: 593c 23bf f9e5 423f 0535 4abe ca66 e53d
000000f0: 6d64 53bf 2db2 643f c64e 1fbf 95b5 413e
00000100: 3312 47bf a59f 223f 7775 5fbe 0604 25c0
00000110: 3c9d 8fbc 4e26 b4bf ebaf a03e 20dc 8f3f
00000120: d6d1 753e baeb b03f 117f b63f 1b10 28be
00000130: e915 0f3f acd2 f6bd 5dc4 f83f e583 813f
00000140: ee75 88bf 4071 22bf cd14 123f 3c16 60bf
00000150: 4018 99be 957a efbf 3710 5f3f 990d 0ac0
00000160: 34ca a73e 5c86 d23d 4da0 adbf 5e2d b53f
00000170: 95ca 0bc0 03f7 07c0 8d10 dbbe 0d1e aebf
00000180: 25d9 fdbe 4616 3d40 5752 a9bf ce05 953e
00000190: f2c9 66c0 7e72 01c0 39c1 4fbe 4ec1 b23f
000001a0: c359 25be f746 8d3d 6108 edbf d99f 3dc0
000001b0: 4187 693f 761b 3cbe b730 4cbf 2e5f e8be
000001c0: fbde ba3f c720 16bf 0894 fc3f 0a68 47bf
000001d0: 1a17 c1bf 8cc9 2840 4d9c 2dbf b6a4 e0bf
000001e0: 4d80 fbbf d365 473f e161 2040 992c 29bf
000001f0: 6189 afbf 21e1 9ebf 3c2d 12c0 a175 2fbf
00000200: eea7 923e 9cd2 ae3f 1f2c 9a3f a7cc bc3e
00000210: 5f70 5cbf 1502 2240 fc31 793f 30f3 203d
00000220: 4038 3fbf a67f 47be b1af 033e ca9f 573f
00000230: c6d4 583d 8e59 3240 77d5 88bf d058 53bf
00000240: 9d47 9640 7adf 1b40 9cb8 b9bd 4fe2 b03f
00000250: 6ec7 07bf 76f1 173d c65b 90bf 7f71 3d3f
00000260: b5e7 0940 41b6 6040 5b33 2440 82d9 0c3f
00000270: 4915 54bf 3a6b f4bf ab05 38bf d96e 2cbf
00000280: 3dd4 c03e 5a65 53bf 6587 753e 240a c3bf
00000290: 77cb 1bbd 312d 7cbe ae60 19be f931 553f
000002a0: 613d ddbb 5aac 1140 0aaa 9e3e 1dfc 3340
000002b0: 1799 81bf 1ccb a53e 8773 0d3f eb3a 96bf
000002c0: 5cfe 14bf f19b 65be 98bc 9abf 24ae 763e
000002d0: f316 42c0 4d76 123f a424 e2bf 8d47 efbe
000002e0: 5bca 6dbf 13d9 ddbf 4072 2c40 c5b2 04c0
000002f0: 6b52 0c40 5ee1 a73e bf94 6fbf baab bebf
00000300: c5f9 0bc0 c95e 73bf d2d8 8a3f 03f9 0ac0
00000310: e1e0 35be 283a 84bf 70b0 fabe 62e0 aa3f
00000320: e84e bf3f c9e3 5c3f 1a0a fabf 8439 5abf
00000330: 0152 8cbf e09d ebbf bfd5 3e3f f624 3bc0
00000340: 2454 dc3f 17e4 3740 0885 e3bf db10 90bf
00000350: f4ba 873f 8832 b43e 3990 57bf 59cb 06bf
00000360: 0eba f13f acbf 5040 e7db b83f 7258 7c3e
00000370: ff3f cc3f ec5d 9fbf 2e8c df3e a186 72bf
00000380: fb2d 04c0 713c bdbe 82f6 25c0 691e 003f
00000390: be77 173d 938b 9fbf 08ed 05be cc43 f93f
000003a0: 915c b8bf c130 a93f cbe2 fe3e 0c71 65bf
000003b0: 4c0f 993e 4ead 613f 6119 dcbf 2d28 fb3f
000003c0: b904 b3be e590 413f 5d7d 763e c2b2 e63e
000003d0: f6b5 9c3f 7500 e7bf e876 f6bf 56d3 03c0
000003e0: 0226 8f3f 994c 0140 e87d b13e 6751 7640
000003f0: 2de9 9f3f 3cd8 3e3f 7612 f8bf 7105 d93f
-3.1859155 3.4498293 5.90266 5.0389805 -0.21433406 1.0904285 -4.259993 -1.8574408
-16.507456 2.0958536 0.7823334 -3.9371185 0.64717674 -1.0518398 -1.9946415 0.4726789
-6.1084146 0.7481464 -0.7052208 4.870691 0.10691826 1.0565854 -7.202867 -3.9061708
3.103677 -3.570949 -1.3548691 14.702021 0.5947885 -0.35968533 -8.745623 6.057427
0.5113767 -0.9909819 3.7671473 -0.57689524 2.1600096 1.0384387 1.9440137 -1.379206
1.5440439 1.2495178 -0.58893967 -1.6766471 1.5468063 -1.6634595 0.9694196 -0.117557965
1.0346317 0.08380342 -1.781274 -0.41060612 -0.077403024 1.2294247 2.1818862 0.6271262
-0.6376396 0.7613216 -0.19746788 0.11201246 -0.8257511 0.89334375 -0.62229574 0.18916924
-0.77762145 0.6352485 -0.21822153 -2.5783706 -0.01753103 -1.407419 0.31384215 1.1239052
0.24005827 1.3821938 1.4257528 -0.16412394 0.5589281 -0.12051901 1.9434925 1.0118376
-1.0660989 -0.63454056 0.5706299 -0.87533927 -0.29901314 -1.8709284 0.87134117 -2.15708
0.32771456 0.10279533 -1.3564545 1.415447 -2.1842396 -2.1244514 -0.42786065 -1.3602921
-0.4957973 2.9544845 -1.3228253 0.2910599 -3.6060758 -2.022613 -0.20288552 1.3965242
-0.16147523 0.06898301 -1.8518182 -2.9628813 0.91222006 -0.1836985 -0.7976183 -0.45385116
1.4599298 -0.58643764 1.9732676 -0.77893126 -1.5085175 2.6373014 -0.6781662 -1.7550266
-1.9648529 0.77889746 2.505974 -0.66083676 -1.37138 -1.2412454 -2.284011 -0.6853886
0.28643745 1.3658023 1.2044715 0.36874887 -0.86108965 2.531377 0.97341895 0.03929442
-0.74695206 -0.19482288 0.1285999 0.84228194 0.05293729 2.786716 -1.0690144 -0.8255739
4.696242 2.435515 -0.090684146 1.3819064 -0.5303868 0.03709551 -1.1278007 0.74001306
2.1547673 3.511124 2.5656345 0.5501939 -0.8284498 -1.9095223 -0.7188365 -0.6735664
0.37661925 -0.82576525 0.2397743 -1.523747 -0.038035836 -0.24626614 -0.14978287 0.8327938
-0.0067517017 2.2761445 0.30989105 2.8122628 -1.0124844 0.32381523 0.55254406 -1.173673
-0.5820062 -0.22422768 -1.2088804 0.24089867 -3.0326507 0.5721176 -1.7667432 -0.46734276
-0.92886895 -1.7331871 2.6944733 -2.0734112 2.1925304 0.3278913 -0.93586344 -1.4896157
-2.1871197 -0.95066506 1.0847418 -2.1714485 -0.17761566 -1.0330248 -0.48962736 1.3349726
1.4945955 0.8628507 -1.9534333 -0.8524401 -1.0962526 -1.8407555 0.745449 -2.924131
1.7213178 2.8732965 -1.7774973 -1.1255144 1.0603929 0.35194802 -0.8420444 -0.52654034
1.8884904 3.2616987 1.4442109 0.24643114 1.595703 -1.2450538 0.43661636 -0.9473668
-2.0653064 -0.36960176 -2.5931706 0.500464 0.03697943 -1.246447 -0.13078701 1.9473815
-1.4403249 1.3218004 0.49782404 -0.8962562 0.29894483 0.88155067 -1.7195245 1.9621636
-0.3496454 0.75611717 0.2407126 0.45058256 1.224303 -1.8047014 -1.9255037 -2.059774
1.1183474 2.0203001 0.3466637 3.8487184 1.2493035 0.745487 -1.9380634 1.6954786

layers.0.bias f4 [128]
00000000: cfe6 07c0 c9ae 15c0 ff84 2cbf efa8 51c0
00000010: 7c53 29c0 7e74 f4be 0b0e 2b3f 09c4 42c0
00000020: 8730 ec3f f129 09c0 2d72 b6bf be92 47c0
00000030: 1ac9 3ec0 b5f4 18bf cb08 1ac0 a882 8bbf
00000040: 0d61 24c0 df95 98bf e6f4 b3be 0857 64c0
00000050: 1561 7bbf 5896 28c0 e9cf c2c0 a3f2 48c0
00000060: c471 0ebf da4b 41c0 6546 1fc0 aea3 d0bf
00000070: 4d36 8e3f 65f1 22c0 5ef1 7abf 4373 5ec0
00000080: 9b07 afbf 82e7 d0bf b360 d83e 8c3a 953c
00000090: db33 a0bf 5ddb 59c0 edf2 19bf c31e 34c0
000000a0: c6ce 01c0 2641 f7bf 6ba0 8d3d 4c2c 05bf
000000b0: 0340 8fc0 69c6 16be 9d95 983e 01ef 30c0
000000c0: a57b 71bf a954 c5bf d85e 2cc0 ab94 04c0
000000d0: a173 1dc0 121a a3c0 1647 35bf 4fa3 cebf
000000e0: 0285 40be 4c56 b7be 5679 c0be 7908 07c0
000000f0: 7614 83c0 7a0f b9bf 5b01 bdbf 1df2 6cbf
00000100: c0e6 063f 9bdf b3be 5fb4 03c0 9ec3 a7bf
00000110: e5dd 483e 9708 9cbf 9c72 1e3e ffc1 92c0
00000120: b208 0fc0 a7c9 d6bf b1ea 54c0 5ae4 18c0
00000130: e80c d73d 8e5e 7fc0 10a8 073e 95b0 c8bf
00000140: 8fec e5bf da60 0240 04c4 20c0 f083 fbbf
00000150: d1ba edbf 1806 4ac0 9ebe 1dc0 4544 043f
00000160: 3571 ccbf 7444 8fbf bdd7 6ebf 3cc6 04c0
00000170: ed05 973f 1425 b1c0 95fd a9be 5545 3dbf
00000180: be0e b5bf e213 ffbf f534 ef3e b410 a1bf
00000190: 8c0c a8c0 ae3e 6cc0 35b7 88bf caac 34bf
000001a0: 0dce 5dc0 4ddf 87c0 5953 60c0 ebea 54be
000001b0: fd7a 8ac0 8471 50bf 7216 4b3e 8fe0 19c0
000001c0: 3032 ba3f b35f e4bf 61bb 4cc0 1d2b c840
000001d0: ebc3 c7bf 7e3b dabf 295b 6b41 0879 d0be
000001e0: 9d19 aabf 1250 9fbf f071 4bbf f284 d2bf
000001f0: b139 46c0 53b7 25bf 8891 0ac0 57f0 ccbe
-2.1234624 -2.338793 -0.67390436 -3.275936 -2.6457205 -0.47745126 0.668183 -3.043215
1.8452309 -2.143185 -1.4253594 -3.1183314 -2.9810243 -0.59748393 -2.4067867 -1.0899248
-2.5684235 -1.1920737 -0.3514778 -3.567812 -0.9819501 -2.6341763 -6.0878797 -3.1398094
-0.5564234 -3.0202546 -2.4886715 -1.6299951 1.1110321 -2.5459836 -0.9802455 -3.475785
-1.3674196 -1.632065 0.42261276 0.018216394 -1.2515825 -3.4040139 -0.601363 -2.8143775
-2.0282454 -1.9316757 0.06915363 -0.52020717 -4.476564 -0.14724125 0.29801646 -2.7645876
-0.9432929 -1.5416461 -2.6932888 -2.071574 -2.4601824 -5.0969324 -0.70811594 -1.6143588
-0.18800738 -0.35808027 -0.37592572 -2.1098921 -4.0962477 -1.4457848 -1.4766039 -0.92556936
0.52695847 -0.35131535 -2.057884 -1.3106573 0.19615896 -1.2190121 0.15473408 -4.586181
-2.2349057 -1.678029 -3.3268244 -2.3889375 0.105005085 -3.9901462 0.13247705 -1.5678889
-1.7962817 2.0371614 -2.5119638 -1.9649639 -1.8572637 -3.156622 -2.4647593 0.5166667
-1.5972048 -1.1192765 -0.9329794 -2.0745993 1.1798683 -5.535776 -0.3320128 -0.7393392
-1.4145124 -1.9927943 0.4672009 -1.2583222 -5.2515316 -3.6913257 -1.068091 -0.70576155
-3.4657013 -4.2460084 -3.5050871 -0.20792739 -4.327513 -0.8142321 0.19832781 -2.404331
1.4546566 -1.7841705 -3.1989367 6.255263 -1.5606664 -1.7049406 14.709756 -0.4071734
-1.3289067 -1.244631 -0.7947073 -1.6446822 -3.0972712 -0.64732856 -2.1651325 -0.40027115

layers.2.weight f4 [128, 128]
00000000: c857 9d3e 0330 c6bf 348e 393f c7d7 de3f
00000010: 9466 813f b3ad de3e 3f3d a3bf 483b 8b3f
00000020: 690f cfbf a381 8b40 86e3 06c0 d3c8 5bbf
00000030: c1ca c2bf 8c17 9ebf 35d8 a5be 7c05 97bf
00000040: eed9 8a3f b5b1 343f 05ef 633d 766e 4d40
00000050: dddd 9d3e 88e2 853f 83be 513f 8b72 5a3f
00000060: a042 4bc0 f2a0 e7bf ef1a 25c0 8ef7 02c0
00000070: 24fa 62bf c5e8 03c0 6f50 60bf 6712 093f
00000080: 9e78 8bc0 604c 1dbe fa65 083f 5b71 87bf
00000090: 7a13 e73e c84f d33d ede6 4ebf d9a8 05c0
000000a0: 5023 f73f 62f4 b3bf f515 36c0 4be8 cd3d
000000b0: 6c1e 8bbe 497f a4bf 2ba5 e4be 2a54 a1bf
000000c0: 7928 27c0 5fd0 0cbf 6c11 133f 8fc8 843f
000000d0: cf0b 843d bfa3 1940 810e 3f3f 1e68 2abf
000000e0: 0269 1bbe 4064 22bf 05f3 53c0 bc48 843f
000000f0: ec96 703e 95e0 1dc0 544d f2bf 94ea 813e
00000100: 3dee 93bf 1688 1fbf d756 26bf 1da4 eabd
00000110: e5ac ae3f 461a 8e3e 745b 5d3f 49d2 8bc0
00000120: e155 313e 6a4a 93be 3d43 cb3f a679 c33f
00000130: 2971 4bc0 8f1d 67be ba46 a5bf a7eb 03bf
00000140: 1ab2 a9be a3b9 d8bf f731 b4be 9a9e f5bf
00000150: e448 793e 515e 74bf 4583 763f f750 3d3e
00000160: e0cf 5fbf fe15 e4be cb7e 8cc0 40b5 48bf
00000170: 0101 22bf da7c 4d3e 8991 663d 44b2 dbbe
00000180: ef47 833e f2d5 47bf 2b79 aabe 059a e93d
00000190: c43f 7640 553f b0be e0c3 513d 5349 ce3e
000001a0: 74f2 21c0 24aa fbbe b59d dd3d 5708 27c0
000001b0: 6192 5b3e 096c b1be 5d2d 613e 13b3 b73f
000001c0: 0bf3 adbf 5aee 38bf ffbd a03f 60de 973f
000001d0: ed9d fbbe 9c7c 5c3f 74f1 2ec0 ae7a 02bf
000001e0: 34c7 8abf 16b5 77c0 e40a 46bf 0e41 ebbf
000001f0: f819 b63c 945f 07c0 523a febe e804 ddbf
00000200: 9b09 9b3e 6dbf 05bf d310 5d3c fa64 923f
00000210: 1a26 6ebe e421 02bf 029e 383f f375 fabe
00000220: c417 9f3e e910 873e 4283 7cbf 6802 0ec0
00000230: a539 15bf 041a 7f3d cfd6 cebe a800 bfbf
00000240: 086e 593d de8f a4bf ec4b 63bd 3593 583e
00000250: 7b6a f5be e78d 95bf 3668 e13f 1a36 a1bf
00000260: 606d dd3e e325 0fbf 0116 c43e e714 1dbf
00000270: fb6e 3abc 80a6 403e d142 a4bf 84ee 12bf
00000280: a02d 21be 57cc f03e b018 d03f c9c8 85bf
00000290: 3b6e d8bf 5903 8dbe 81cc b13e dc33 103f
000002a0: c34c 923f f161 dabf e104 813d f29c 863e
000002b0: 6368 9a3f cfa5 cbbf 5111 ad3c b76b 61bf
000002c0: 26c7 d7be 1485 67be f4c1 143f a284 ebbf
000002d0: d40f 833f e1ff ab3e f2e0 9d3f 8beb b7bf
000002e0: efe4 22be 5b03 91bd 1953 d1be be9a e63e
000002f0: 291e 043e 2480 b8bf 0796 be3e cb12 64bf
00000300: deb0 e33d ab2b 59be ca9c 1cbf 5ad6 933b
00000310: 4b35 803f af51 8d3f 073c d7be 34c2 06c1
00000320: a05b 343e 9750 5d3f 3ad6 0e3f 5add 5a3f
00000330: 74e2 9f3c 0a2d 06c0 e99f bcbf 8834 67bf
00000340: 6009 ca3c 2191 f13e 7764 b43e 47d4 31bf
00000350: 2c6b a0be 863c 72bf db30 823f 2110 ddbe
00000360: 17a9 bd3e 2b3e f9be d8c8 dcbe dcb4 8bbf
00000370: 13b4 35bf c91a 97bf 462c 7abe e377 9e3f
00000380: f70e c3bf fd24 3fbf 3133 e23e 2ee7 933d
00000390: f6f3 593f f621 4ec0 0a2f 2b3e 14a0 523e
000003a0: 6dfc c43f 6d26 89bf 76e2 69bf 0616 eeba
000003b0: 522e a1bd 238a e23e 4813 5d3f b715 2e3e
000003c0: 8e48 3b3e a781 5cbf 025a cebd 6f24 14bf
000003d0: 3a12 1a3e 66e6 063f 3265 30bf ba1a e43e
000003e0: 51ec 4b3d 4d41 a03f b96a 1ebf 366b 49bf
000003f0: 32b7 91bf 5a1b 7cbe 2b95 08bf 2131 9abf
0.30731034 -1.5483402 0.7248261 1.74096 1.0109429 0.43491897 -1.2753066 1.0877466
-1.6176578 4.359575 -2.107637 -0.8585331 -1.5218126 -1.2350936 -0.32391515 -1.1798549
1.0847757 0.7058366 0.05564787 3.209867 0.3083333 1.0459757 0.8193132 0.8533103
-3.1759415 -1.8095992 -2.579769 -2.0463595 -0.88662934 -2.0610821 -0.8762273 0.53543705
-4.358474 -0.15361166 0.53280604 -1.0581468 0.45132047 0.103179514 -0.80821115 -2.0884306
1.9307652 -1.4058955 -2.8450902 0.10054072 -0.27171648 -1.2851344 -0.44657263 -1.260381
-2.6118453 -0.5500545 0.5744846 1.0373706 0.06447565 2.4006193 0.74631506 -0.6656512
-0.15176776 -0.6343422 -3.3117077 1.0334697 0.23495072 -2.4668324 -1.8929849 0.2537428
-1.155708 -0.62317026 -0.6497626 -0.114570834 1.3646513 0.2775442 0.8646767 -4.3694196
0.17317916 -0.2876771 1.5879894 1.5271499 -3.1787817 -0.2256987 -1.2912209 -0.5153145
-0.33143693 -1.6931652 -0.3519437 -1.9189026 0.24344212 -0.95456415 0.9629405 0.18487917
-0.8742657 -0.4454803 -4.3904777 -0.78401566 -0.6328278 0.20067158 0.056291137 -0.42909443
0.25640818 -0.7806083 -0.3329557 0.1140633 3.847642 -0.34423319 0.05121219 0.40290317
-2.5304232 -0.49153244 0.10821096 -2.609884 0.21442558 -0.34652737 0.21989961 1.4351524
-1.3589796 -0.72238696 1.2557982 1.1864738 -0.49143925 0.8612764 -2.7334871 -0.50968444
-1.0842042 -3.8704276 -0.7736037 -1.8379228 0.02222918 -2.1152086 -0.4965387 -1.7267122
0.30280766 -0.5224522 0.013492781 1.1437066 -0.23256722 -0.50832963 0.721161 -0.48918113
0.3107282 0.2638009 -0.98637784 -2.2188969 -0.58291084 0.06228067 -0.4039826 -1.4922075
0.05308345 -1.2856405 -0.055492327 0.21149905 -0.479328 -1.168393 1.7609928 -1.2594635
0.4324751 -0.55917186 0.38298038 -0.6136002 -0.011378999 0.18813515 -1.2832891 -0.57395196
-0.15740061 0.470309 1.6257534 -1.04519 -1.690864 -0.27541617 0.34726337 0.5632913
1.1429676 -1.7061139 0.06299759 0.26291615 1.2063106 -1.5909976 0.021126421 -0.88054985
-0.42144126 -0.22609359 0.5810845 -1.8399851 1.0239205 0.33593658 1.2334273 -1.4368757
-0.15907644 -0.07080718 -0.4088371 0.45039934 0.1290213 -1.4414105 0.37223837 -0.89091176
0.11117719 -0.21208064 -0.6117674 0.0045116367 1.0016264 1.1040553 -0.42037985 -8.422413
0.17613077 0.86451095 0.55795634 0.85494006 0.019517161 -2.096499 -1.4736301 -0.9031453
0.024662673 0.47181037 0.352329 -0.69464535 -0.31331766 -0.946236 1.017116 -0.43176368
0.37043068 -0.48680243 -0.43121982 -1.0914569 -0.70977896 -1.1805049 -0.24430951 1.2380337
-1.5238942 -0.74665815 0.4417968 0.072218284 0.8513788 -3.2208228 0.16717163 0.20568877
1.5389534 -1.0714852 -0.91361177 -0.0018164522 -0.07870163 0.44246015 0.86357546 0.17000471
0.18289396 -0.86135334 -0.100757614 -0.57868093 0.15046015 0.5269531 -0.6890441 0.4455164
0.049785916 1.2519928 -0.61881596 -0.78679216 -1.1384032 -0.24619809 -0.5335261 -1.2046243

layers.2.bias f4 [128]
00000000: 6c98 0e3e 6fd5 3541 4dcd ef3f b950 0040
00000010: 1d58 85bf aa14 9e40 6720 e9bf e79f ddbf
00000020: f336 55bf 057d aa3f e3a7 8540 6d2a ad3f
00000030: 952f 2540 2e70 b93c bd6c 473f 7c99 d0be
00000040: 7208 783f b67d 1640 9aed 903c bc4f 06bf
00000050: 7221 0c40 0987 3c3f 04e0 2b40 a61f c33e
00000060: 1b7b 0041 33dd 693f 3416 dd3f ffbc 5fbe
00000070: 5c0d 0c40 087b 1f3d 7b76 b5be fb5b 19bf
00000080: b57b 3bbe 431f 12bf 7eb0 043e 0b15 1fbf
00000090: 7744 f5bf cf1e b03f 0b0f 5e3f 8789 843f
000000a0: b646 8f3f b725 8840 3e56 4e3e 70ba 9140
000000b0: 3222 c2bf 894d b6bf 4bba 5a40 d4d4 18bf
000000c0: c50e 4340 c2bf 07be 436c 093f 13a5 06bf
000000d0: 8666 42bf a1d4 a9bf b231 983f 102b fe3f
000000e0: 2287 f7be bc3e 313f dd92 c43f db8f 70be
000000f0: 1982 adbf 3df1 4d3f 5618 d940 0471 c3bf
00000100: 9a92 dfbe 85df b5bf a619 423f 4736 9c3f
00000110: 3e43 ac3f 7405 e7bd 0800 cdbf 0263 ddbd
00000120: 0fcf 28be f28a 2abf b0eb ab40 be25 0b3e
00000130: c17d b640 10de f13f 1807 803d 7795 863e
00000140: c714 0641 30d9 bc3f e724 0fbf fee1 0abf
00000150: 511a 5640 dac8 65be bdd8 db3f 2401 a0bf
00000160: c5a6 c5bf b6a4 7841 9083 1ac0 8c68 2ebf
00000170: fcea 12c0 993d 70bf 904b e540 635e af3e
00000180: df8b a7bf 7549 03bf b0a8 083f 91ee 7ebf
00000190: d064 96bf f93c 563f 0d46 3bc0 62fd 8fbf
000001a0: a4f5 6840 d758 653f 3df4 9c3f ec4a b53a
000001b0: 4180 873e 41c0 8abe 61b0 413e 73fa 443f
000001c0: f461 113d 60fa 903f 47d7 3b3f 6584 09bf
000001d0: c583 ce40 e48f 503f 3c18 9f3f 748c a6bf
000001e0: 589f 9dbd 70dc 0fc0 a565 73be bebe 28be
000001f0: 1b54 0ec0 ec4e d7bf 2cf3 d9be ed2c ccbe
0.13925332 11.364608 1.8734528 2.004927 -1.0417515 4.9400225 -1.8213013 -1.7314423
-0.8328697 1.3319403 4.176744 1.3528572 2.5810292 0.0226365 0.77900296 -0.407421
0.96887887 2.3514228 0.017691422 -0.52465415 2.1895413 0.7364355 2.6855478 0.38110083
8.030055 0.9135315 1.7272401 -0.2184944 2.1883154 0.03893569 -0.35441956 -0.59905976
-0.18308909 -0.5707895 0.12957951 -0.62141484 -1.9161519 1.3759402 0.86741704 1.035447
1.1193454 4.254604 0.20150086 4.5540085 -1.5166686 -1.4242412 3.4176204 -0.5969975
3.0477765 -0.13256744 0.5368082 -0.52595633 -0.7593769 -1.3268014 1.1890166 1.9856892
-0.48345286 0.6923635 1.5357319 -0.23492377 -1.3555328 0.80446225 6.7842207 -1.5268865
-0.43666536 -1.4208838 0.75820386 1.2204064 1.3458021 -0.11280337 -1.6015635 -0.108099
-0.16485237 -0.66618264 5.3725204 0.13588616 5.702851 1.8895893 0.06251353 0.26285908
8.380073 1.475378 -0.55915684 -0.54251087 3.3453562 -0.224399 1.7175518 -1.2500348
-1.5441519 15.540213 -2.41428 -0.68128276 -2.2955923 -0.9384399 7.165474 0.342517
-1.308956 -0.5128396 0.53382397 -0.99582773 -1.1749516 0.83686787 -2.9261506 -1.1249201
3.6399927 0.89588684 1.2262036 0.0013831533 0.26465037 -0.27099803 0.1891494 0.76944655
0.035493806 1.1326408 0.7337536 -0.53717643 6.453585 0.8146956 1.2429271 -1.3011613
-0.07696408 -2.2478294 -0.23769243 -0.16479012 -2.2238834 -1.682096 -0.42568338 -0.39878026

layers.4.weight f4 [4, 128]
00000000: 1eda 9cbe e76a 6ebe 2ff1 88bf 6b26 1d3f
00000010: 7e5e 503f 6a44 083f 0572 c03e 085c 263f
00000020: ae5f 353f f36a 5b3f b86f 2a3e b5fd a2be
00000030: f719 23bf fce8 d63e 4fcb 923f 9988 2d3e
00000040: 2f42 edbe fa1b 8cbf b781 29bf 8417 c63f
00000050: dee6 f53e f559 32be 2bb8 d7bf 3e1a 1bbf
00000060: 26d9 64be 3f3b 15be 6aba 35bf 7e09 36bf
00000070: 1afc b6bd 6b71 dfbe d41e 0cbe 99d4 4d3f
00000080: d81d 163f ac18 48bf 4e2b f9be 601a 3f3f
00000090: 8e87 ddbe 4d77 3bbf 44be 5bbd a7ca 893e
000000a0: db48 4c3f ad7e 11bf 7c8d 493f 1e1f 27bd
000000b0: 50e7 0a40 c293 183f c055 17be 945b 8e3f
000000c0: 8229 7f3f 8fce 813f 7920 1d3f aa63 17bf
000000d0: 621f c5be 9685 ae3f 8439 823e 9281 0ebf
000000e0: dea5 60bf f4b9 00bf 7219 cbbe b651 a83f
000000f0: 2b5d 823f a994 c8be a79a 15be 221b 47be
00000100: 97a1 cf3f aaee 9f3f 16bf e9be 78b2 ce3d
00000110: 6655 10bf 1461 97bd 7067 3b3f 2491 053d
00000120: 9cd3 ad3f b471 563f b3e6 0cbe 9ad3 173f
00000130: eea2 0dbf 3ee8 dcbe 2cb5 fdbe db40 b2bf
00000140: 1c3e cabc ecc1 023f ea53 bd3f 90e1 07bf
00000150: 6e7c 0440 ba32 5b3c b95c f1be 101e 733f
00000160: 44c6 8b3f c1c1 d0be 4c43 563f d9fd 663f
00000170: b2a5 d53f 359c ac3f 99d2 1abe e997 11be
00000180: 609e 4f3f 24f3 0abf 6b80 88be bdc9 c33f
00000190: 323c 853f 7add 993e 37f5 e63e 78de a23f
000001a0: dfc9 f4be 4011 4fbf d355 98be 6c71 91bf
000001b0: 06b9 02be 99b1 503c 525b d63e 9e84 033f
000001c0: 38ba a6be 8ae8 6fbf c19c 35be 21cb 7d3f
000001d0: f985 48be 711d ae3e a191 243c 4ff7 c73f
000001e0: 47ec f4bc 04e5 a23e c3b7 1abe 0fb3 28bf
000001f0: ee26 853f 17ac b53f cc93 2cbf 3095 3b3e
00000200: 2167 a9be 65e7 2e3d c4c2 1cbf 1fbd 4d3f
00000210: 9f9b bd3f 0772 0c3f 13a0 133f e6f2 743f
00000220: b1df 053f 85c8 763f b6d8 603f 410c a4be
00000230: 0911 23bf a52c eb3e 291c 883f 1a15 2a3e
00000240: 38e8 03bf 2f27 8ebe ff9e 11bf f0bc 543f
00000250: 80e4 b43e 30dc aebe a64b c5bf a3af ccbd
00000260: 35f8 54be f2cd 45be faae 5dbf 3a07 45be
00000270: 959a c5be 9286 f4be 8efe aabd f817 8b3f
00000280: 6d85 003f 95c9 1ebf a242 3dbe 5af9 453f
00000290: 7c95 0cbf b86e adbe 1f5d 88be 0233 6d3f
000002a0: e022 d63f 8a83 2f3f b4e0 6a3f 5dba 90bf
000002b0: 3255 eb3f 3be2 663f b895 ecbe 990a 8e3f
000002c0: dcc7 1e3f 75c7 9d3f 585f 2e3f 6add dcbe
000002d0: da67 9dbe 0104 993f 5467 063f c0fb cdbe
000002e0: 1165 a6bf eec9 a5be b6cf 43bf 295b c13f
000002f0: 1c24 903f 9af0 2bbf 6263 19be 6e25 453f
00000300: 7380 a63f 2837 583f 5f48 68bf d6a6 213e
00000310: bccf 3bbf 94d2 cdbe f727 503f 1ae0 fdbc
00000320: be0c ac3f 7bd4 203f c4fb 2dbe 5c24 423f
00000330: 5ea3 e3be 2d9b 30bf 82f3 16bf d3ac 47bf
00000340: d2df 4b3d a6b3 023f 231b 983f 8859 cbbe
00000350: 7b2f c93f b1d3 ca3c e34f c9be 9641 353f
00000360: 1572 c03f 28cb d5be cef2 3a3f cad5 8b3f
00000370: aace c43f a8eb b03f c8f1 42be 490b 6dbe
00000380: e868 2c3f b64c 813d 00a1 66bc ad4c d93f
00000390: 565c 6e3f a39a 5fbe 657f 153f 0cab bf3f
000003a0: 4281 70be ce53 f7be ff8f 6ebd 4aff 62bf
000003b0: 9f76 e2be 73d2 15bd 8ca6 cc3e 4bd9 f93e
000003c0: 8043 d4be 3ae9 06bf 09f5 d7be 7b80 6a3f
000003d0: 5496 5ebe b407 d23e a091 61bd 3e26 243f
000003e0: a280 2e3f fc95 173f 27a0 83bf e735 1dbf
000003f0: 084b 943f 93d7 9c3f 7b99 a6be 4d43 443f
-0.3063516 -0.23282968 -1.0698603 0.61386746 0.81394184 0.5322939 0.3758699 0.6498418
0.7084912 0.85710067 0.1664418 -0.31834188 -0.63711494 0.41974628 1.1468295 0.16946639
-0.46339557 -1.0946038 -0.66213554 1.5475926 0.480277 -0.17417128 -1.6853079 -0.6058692
-0.2234846 -0.14573382 -0.7098757 -0.71108234 -0.08934803 -0.4364122 -0.13683635 0.80402523
0.5863929 -0.78162646 -0.4866585 0.7464962 -0.43267483 -0.73228914 -0.05364825 0.26912424
0.7979867 -0.56833917 0.78731513 -0.04080116 2.1703682 0.5960046 -0.14778805 1.1121697
0.9967271 1.0141162 0.61377674 -0.5913645 -0.38500506 1.3634517 0.25434506 -0.5566646
-0.87753093 -0.5028374 -0.3966785 1.3149936 1.0184683 -0.3917592 -0.14609776 -0.19443944
1.6221188 1.249471 -0.456536 0.10092634 -0.5638031 -0.07391563 0.7320471 0.03260912
1.3580203 0.8376725 -0.1375988 0.59307253 -0.55326736 -0.43145937 -0.49552286 -1.3926042
-0.02468782 0.5107715 1.4791234 -0.53078556 2.0700946 0.013378793 -0.47141054 0.94967747
1.0919881 -0.40772822 0.83696437 0.9023109 1.6691191 1.3485171 -0.15119399 -0.14218105
0.81101036 -0.54277253 -0.26660475 1.5295941 1.0408995 0.30051786 0.4510896 1.2724142
-0.47810265 -0.80885696 -0.2975298 -1.1362739 -0.12765893 0.012737655 0.41866547 0.5137423
-0.3256395 -0.937142 -0.17735578 0.99138075 -0.19582357 0.34006837 0.010044486 1.5622348
-0.029897822 0.3181535 -0.15109162 -0.6589822 1.0402505 1.4193143 -0.6741302 0.1831863
-0.33086494 0.042701144 -0.6123469 0.803667 1.4813117 0.5486149 0.5766613 0.95683134
0.5229445 0.9639972 0.87830675 -0.320406 -0.6369787 0.459325 1.0633594 0.16609612
-0.5152621 -0.2776427 -0.56883234 0.83100796 0.35330582 -0.34152365 -1.5413711 -0.099944375
-0.20797808 -0.19316843 -0.8659512 -0.19241038 -0.385945 -0.4775892 -0.08349334 1.086669
0.5020359 -0.6202634 -0.1848245 0.77333605 -0.54915595 -0.33873534 -0.26633546 0.92655957
1.6729393 0.6856009 0.9174912 -1.1306874 1.8385375 0.9018895 -0.46207976 1.1096984
0.6202371 1.2326494 0.68114233 -0.43137676 -0.30743295 1.1954347 0.52501416 -0.40231133
-1.2999593 -0.32380623 -0.76488817 1.5105945 1.126102 -0.67164004 -0.14979318 0.7701024
1.300795 0.8445916 -0.9073543 0.15786299 -0.7336385 -0.4019972 0.8131098 -0.030990649
1.3441389 0.6282422 -0.16990572 0.7583673 -0.44460577 -0.6898678 -0.58965313 -0.77998084
0.049774 0.5105537 1.1883281 -0.39716744 1.5717615 0.024759145 -0.3931876 0.708032
1.5034815 -0.41756558 0.7302674 1.0924618 1.5375569 1.3821917 -0.19037545 -0.23148836
0.67347574 0.063134596 -0.014076471 1.6976525 0.93109643 -0.21836333 0.58397514 1.4974074
-0.23486808 -0.48306125 -0.058242794 -0.8867079 -0.44231126 -0.036577653 0.39970815 0.48798594
-0.41457748 -0.52699625 -0.42179134 0.91602296 -0.21737033 0.41021502 -0.05507052 0.6412085
0.6816503 0.59213233 -1.028325 -0.61410373 1.1585398 1.2253288 -0.3253897 0.7666519

layers.4.bias f4 [4]
00000000: b56a 39c1 93b0 29c1 e8da 35c1 6a5b 3ac1
-11.5885515 -10.605609 -11.365944 -11.647318
