ptdrl/scripts/rl/checkpoint.pt (torch, 133505 bytes, 12 tensors)

encoder.LSTM1.weight_ih_l0 f4 [128, 12]
00000000: 7b48 85be 431c c33e e068 b4be dac8 82bd
00000010: 4ac5 d93d 03b4 71bd a874 263d 4ffc 6e3c
00000020: e8e6 eabe 0da3 073e f9ce 79be df04 053e
00000030: a7a6 a6be c099 ba3c d1d3 973d 22ef a0bd
00000040: 9046 2ebe 9dd5 053e 947e a23d cb34 adbe
00000050: 07bd 78be ec31 833e 89a3 8c3d bccf f33c
00000060: 5210 623e 1c69 b9bd d611 79bd b143 85be
00000070: 44a9 15bd 859c efbc 19e9 c7bb 9d88 e53e
00000080: cf7b 06be 92bb 2fbe adb1 1e3c a45c 7cbe
00000090: 4a75 3bbe 2504 a33d 775c e83d ca89 17be
000000a0: dbad 4a3e 50b8 0bbd c6df 91be 6116 07bf
000000b0: d08a 01bd c79b babe f47e e23c 4cb4 963e
000000c0: 6950 0e3c 9efa b1be 1065 963e 96fa bf3e
000000d0: 9429 cdbd 8201 9abc 30ed 933c 8264 86bd
000000e0: 47b3 5cbe ebbe 2ebf 4f97 163e 44d7 143e
000000f0: 6e1b 24bd ca3a 4abe 83ba c3be 2677 4e3e
00000100: e6f2 ad3e c1c1 89be a4e8 1b3e 240e af3e
00000110: 57bf 093f b885 33be 0357 c6bd ed6e 9ebe
00000120: 9598 b6bd c844 943e 4229 fe3d bf70 c93e
00000130: 725a 523e 58dc 0b3c be78 8bbc b8f0 0a3e
00000140: 6099 ccbc c377 923e 8991 09bc f832 e63a
00000150: a1d9 f8be b382 193d 5d36 123d 2738 483d
00000160: 82ca 023f 1a68 5fbe 62c8 503e 0973 a7bd
00000170: 660c bb3e 0ac4 a73e acb7 09bf 0829 debe
00000180: be1e c0be fcc2 163e b88f 1abe 635e 0bbe
00000190: 7cf2 59be 5bc4 87bc 8a7e 183e 6af3 f8bd
000001a0: ff79 f0bd 3f53 32be ad59 773d f47b e9bd
000001b0: 9f30 86bd 31e6 03be de00 bc3d fe48 4dbd
000001c0: 2f55 20be ccdd 1d3e e35e ad3e 0299 ccbe
000001d0: 9882 dbbe 7af5 ef3c ee50 c6bc 5679 1e3e
000001e0: d601 493e 1d1a 593d 5add 91be 86a8 9dbe
000001f0: 4390 fcbd ec48 62be 63ee 3fbd cb39 c9bd
00000200: 60d4 32be ffe7 d23e 8826 e43d 5d6a b93e
00000210: 2d64 853e 2487 8abe d990 7d3c 71b1 cb3d
00000220: 2808 9bbe 8102 073e 43a5 993e f178 913e
00000230: f4f1 603e af78 343e ccef 533e 55f9 fcbd
00000240: 4e3f 723a 946a c7bd 5a62 c73d f83c c63e
00000250: 8456 34be 0416 10be fd80 c6bd b842 08ba
00000260: d2e5 c8be 6a97 1abe 307b 62be c984 043e
00000270: b867 02be ad52 1c3e 3972 e7bd fce9 ce3e
00000280: 99b9 8ebd 2f98 573e 96b0 95be 3ee4 393e
00000290: bd0e d8bc 9465 60be 9373 54be a819 883e
000002a0: b3fc 9fbe 86b1 373e b22f ee3e 7442 a0be
000002b0: f606 993e 79bc e43d e033 92be 41f8 0dbc
000002c0: 6ec8 9abd c881 90bd e75b d93d 711b 5fbe
000002d0: 7592 76bd 9f32 9c3d cbd3 adbe 9406 c5bd
000002e0: edf9 3e3d 8f68 51be bf79 b63b 30fa 10be
000002f0: b8bb ffbd 1d6e b43d 063e af3e b022 80bc
00000300: 1e63 85be c22a 3c3e 43d6 de3b 1b4d f2be
00000310: c1fb 2c3e 21b0 26bd 804f 33bd 8d6e 49be
00000320: 1e7a 223e 42e6 b93d a23f 24be dded bcbd
00000330: 91af 2c3e 1815 483e f5c0 9b3d 29cd d13e
00000340: 2a0d 24bc 679a 8abe 2b6d 01be d9dc a2bc
00000350: e78c a63e b80a d5bd d3e1 8fbc 6ce2 c03e
00000360: e27c 0dbf 7d18 733e 3315 043f 35f8 42be
00000370: d72c 43bd 3c6d 373e 4fdb 89bd 7683 e0bd
00000380: 69e8 fabe bfbe 5ebe 97fa 8ebe f129 f6bd
00000390: 0961 8d3e ed2f 253d 414f dcbd 60d0 11bd
000003a0: 852a 093f a953 ff3d 9261 b0bc 0b94 f83c
000003b0: 0aa2 87bd 9675 64be 9f74 a6be 993d 173e
000003c0: 4eba 1c3e ad64 003d 5ef5 513d f67d 8b3e
000003d0: c7b3 103e a569 343e bf70 603e 3fea 4ebf
000003e0: d041 94bd 3bfb 693e 108b 3639 eb27 ed3d
000003f0: 8e35 883e c6e6 bdbd 36a9 8dbe bb7c 3d3c
-0.2603186 0.381075 -0.35236263 -0.06385966 0.10633333 -0.059009563 0.040638596 0.014586522
-0.45879292 0.13245793 -0.2439536 0.1299014 -0.3254902 0.022778392 0.07413448 -0.07858111
-0.17019105 0.13069768 0.07934299 -0.3382934 -0.24290858 0.25624025 0.06867129 0.029762141
0.22076538 -0.09053251 -0.060808025 -0.26028207 -0.036538377 -0.029249439 -0.0061007855 0.4483079
-0.13133167 -0.17161396 0.009685916 -0.24644715 -0.18306461 0.07959775 0.11345761 -0.14798656
0.19792883 -0.03411132 -0.28491038 -0.5276852 -0.031626523 -0.36446974 0.027648427 0.2943443
0.008686163 -0.34761518 0.2937398 0.3749587 -0.10017696 -0.018799547 0.018057436 -0.06562139
-0.21552764 -0.6826007 0.14706157 0.14535242 -0.04006522 -0.19748989 -0.38228235 0.20162639
0.3397438 -0.26905635 0.15225464 0.34190476 0.53807586 -0.17531478 -0.09684565 -0.30944005
-0.089158215 0.28958726 0.12410213 0.3934383 0.20542315 0.008536421 -0.017025348 0.1356839
-0.024975479 0.28606996 -0.008396515 0.0017562797 -0.48603538 0.03747816 0.035696376 0.048881676
0.5109025 -0.21817055 0.2038894 -0.08176238 0.36532897 0.32766753 -0.53795886 -0.4339068
-0.37523454 0.14722818 -0.15093887 -0.13610224 -0.21283907 -0.016573122 0.14892021 -0.121558025
-0.11742019 -0.17414568 0.060388256 -0.11400595 -0.065522425 -0.1288078 0.09179853 -0.05011844
-0.15657495 0.1541664 0.33861455 -0.39960486 -0.42873073 0.029291857 -0.024208512 0.15475973
0.19629607 0.05300342 -0.2848919 -0.30792636 -0.12332203 -0.2209813 -0.046858203 -0.09825476
-0.17463827 0.41192624 0.11140162 0.3621396 0.2605299 -0.2705623 0.015476429 0.09945954
-0.3027966 0.13184549 0.30008897 0.28412583 0.21967298 0.17624162 0.20696944 -0.12352244
0.00092410005 -0.09737125 0.09735556 0.3871839 -0.17611128 -0.14070898 -0.09692571 -0.000519793
-0.3923784 -0.15096822 -0.22117305 0.12941279 -0.12734878 0.15265913 -0.11301083 0.4041289
-0.06968994 0.21054147 -0.29236287 0.18153474 -0.026374215 -0.21913749 -0.20747213 0.26582074
-0.31247482 0.17938814 0.46520764 -0.313007 0.29888123 0.11168761 -0.28555202 -0.008665145
-0.0755776 -0.07056004 0.10613232 -0.21787812 -0.060198266 0.07626843 -0.33950648 -0.09620395
0.046625067 -0.20450042 0.0055687125 -0.14157939 -0.124869764 0.08810065 0.34227008 -0.01564154
-0.26052183 0.18375686 0.0068004443 -0.47324452 0.16892911 -0.040695313 -0.04377699 -0.19671078
0.15866897 0.09077121 -0.16039899 -0.09225056 0.16863848 0.19539297 0.07605163 0.40976837
-0.010012904 -0.27070925 -0.126393 -0.019880699 0.32529375 -0.10402435 -0.017563736 0.37672746
-0.5526868 0.2373981 0.5159485 -0.19039996 -0.047650184 0.17912763 -0.06731283 -0.10962574
-0.4900544 -0.21752451 -0.2792556 -0.120197184 0.27613094 0.04032891 -0.10757304 -0.035599113
0.53580505 0.12467129 -0.0215309 0.03034403 -0.066227034 -0.2231048 -0.3251085 0.14769591
0.15305445 0.031346012 0.05125939 0.27244538 0.1413108 0.17618425 0.21918009 -0.8082618
-0.07239115 0.22849743 0.00017408677 0.115798794 0.2660336 -0.09272532 -0.2766816 0.011565383

encoder.LSTM1.weight_hh_l0 f4 [128, 32]
00000000: 8e68 3a3e 2cdc 6ebd 76d4 453d a6b5 cd3d
00000010: 588b dc3c 0f98 16bf 4638 313e 3062 ae3e
00000020: 9995 d6be 4692 32be 36cc 37bf 7728 a7bd
00000030: 43ca df3e b6df ca3e d44f 8d3b 42eb cdbd
00000040: 69b5 423d 5c1d 073d 8ad4 9dbe c3e1 64be
00000050: 2b64 e6bd 75ff 60be 7b3b a3be 6474 4bbe
00000060: 0e33 a2be 5308 273e d9be eebe 4ada 86be
00000070: 282d 18be d62d ef39 e758 bf3e d452 183f
00000080: e237 cdbe a859 473d d6d9 0e3e 9ce2 c43d
00000090: 35d5 d53d 4545 ddbe 63d0 363e 68ca 893d
000000a0: 5c1c 603e 90e8 09bf 3c45 1cbe c8ff acbe
000000b0: ad9d 8cbd 3982 69bc 4c93 49bb 1f77 2e3f
000000c0: d3fa a2bd 893b 2dbe cee1 c9be 3fd4 6e3e
000000d0: 0573 58bd 4a87 aa3d 8e92 813e f8ba b53e
000000e0: 4c6c 66bd a592 f8bd 9c03 2cbc 125f babe
000000f0: b49a 0bbf 1611 b23e 1494 8e3e 16a5 963e
00000100: a37b 0fbf a203 233e 511f 0e3e 7861 88be
00000110: 8769 d2be 06e2 c0be c811 4f3f c88a 863e
00000120: df1f 4cbe be27 1cbf a052 3cbe 9b53 1bbe
00000130: 50de 93bd a272 0bbf 0584 f0be 6015 d6bd
00000140: 2acd f63e 6edf 4bbc 0848 f8be ad7d 983d
00000150: 9b3d fbbe 6706 943e 8ba1 d93e 0a51 133f
00000160: 741b 883e 5c16 47be 7419 a63e e8da 08be
00000170: f422 60be 8d41 ca3e 6641 983e 5a9b 233e
00000180: dd7a 18be f0f8 ab3e 3586 4a3e 48d1 143d
00000190: 90a8 a2be 1673 83be 9ed2 093f 9bcf 883e
000001a0: 0a74 81be 1c57 32bf bd53 0abf c7d1 e2be
000001b0: be59 2d3f fb13 2abe 2b9f 81be 32c3 003f
000001c0: 9dd5 6bbd 7d9e d6be 9f4e 2ebe 742e aa3e
000001d0: 25e8 91bd 7ab6 be3d dc6a bb3e 5a71 673e
000001e0: cf08 d6be 928b 03bf 090e ecbd e364 acbe
000001f0: f881 b7be 9fa6 a03e 3fb8 cc3e 11af ed3e
00000200: b892 f6be cb66 4e3e 1c13 563d 0161 203f
00000210: ee35 843e 2cd6 d6bd 8f6f 593f 5f5c ae3e
00000220: a056 563d 24d4 32be 36c1 0c3f 416f 8dbe
00000230: c0d6 7d3e 40a9 4cbf 1d5b cd3d 2f86 043e
00000240: edb4 88bd c0b2 183d ef6c 25bf c74a 0c3d
00000250: 6196 03bf 5ca7 b6bd 5aee 273e 1183 a63e
00000260: c1fd ad3e bd85 aa3d 80d8 433e afac dabc
00000270: adc3 54be 5b66 34bc 3a50 6dbd 438f 4f3f
00000280: 5c62 04bf 82d9 b03e 76bb 313e e2ee a33e
00000290: 7175 bfbe 68f6 e2be 340b b03e 7364 3f3e
000002a0: 9d1f 723e ed00 03bf c6a0 a0be 02b3 36bf
000002b0: f0a6 833e 35fc c6bd 749a 143f e0d7 f43e
000002c0: 1127 753d b612 463e 54c5 10be 81b1 b83d
000002d0: feb2 c2ba c8ed 063f 67fb e53e e81c 033e
000002e0: 9779 07bf a424 f5be 1b36 7c3e 8656 833d
000002f0: dcfe acbe fd4a 033f 6fb2 e03e dad8 783e
00000300: cb2e 2bbe a041 b63e 2501 ec3c aeb8 b43e
00000310: f1e2 4bbe 2cf4 c4be 35e8 a4bd d1f8 ef3e
00000320: c002 a8be 676e 07bf cebe 00bf 0c0c c5be
00000330: 1392 703e 3bf8 aa3e 2b17 2a3f 754c b4bd
00000340: 90d8 f33d bd01 ffbe 1ea4 923d b485 083f
00000350: 4204 9dbd 4d9c c33c bb0a 0c3f 248d ee3e
00000360: a7ee 0bbf a0e7 01bf 8f3b 953e fb66 53be
00000370: ce34 61be a528 d03e 3f49 133f 0a60 aabd
00000380: d58d a3be 5c26 d13e 843b 96be a0d5 983e
00000390: 8ed7 cc3d 4186 3dbe 6d71 c63e d4be 3d3e
000003a0: c274 b8be 531d 17bf 9662 58be dbb3 88bd
000003b0: ca5b 9b3d c510 613e 0335 283c 9a2f febd
000003c0: cbe8 993e 2242 92be f844 e93c 519d 883e
000003d0: cc6d 833d 72a7 8a3e 8137 c93e fd64 da3c
000003e0: e23b d0be 7185 073f 8881 603c e661 2abd
000003f0: 6220 29bf dcf0 9c3e 211e d83e d5dc 0b3f
0.18203947 -0.05831544 0.04829832 0.10044412 0.026921913 -0.58825773 0.17306623 0.34059286
-0.4191101 -0.17438611 -0.71795976 -0.08162015 0.43709 0.39623803 0.004312495 -0.100546375
0.047536287 0.032986984 -0.30826217 -0.22351746 -0.11249574 -0.21972449 -0.31881317 -0.19868618
-0.31679577 0.16311769 -0.4662998 -0.26338416 -0.14860976 0.00045619783 0.37372515 0.59501386
-0.40081698 0.048669487 0.13950285 0.09613535 0.10441057 -0.4321691 0.1785293 0.06728059
0.21885818 -0.5387049 -0.15260786 -0.33788896 -0.06866012 -0.014252239 -0.0030757962 0.68150514
-0.07957997 -0.16917242 -0.39430088 0.23323153 -0.052844066 0.083265856 0.25307125 0.35494208
-0.056255624 -0.12137345 -0.010498907 -0.36400658 -0.54532933 0.3477866 0.2784735 0.29422826
-0.5604803 0.15919355 0.13879134 -0.26636863 -0.41096136 -0.37672442 0.8088651 0.26277757
-0.19934033 -0.6099814 -0.18390894 -0.15168612 -0.07220137 -0.5447179 -0.46975723 -0.10453296
0.48203403 -0.0124434065 -0.48492455 0.07445846 -0.4907044 0.28911135 0.4250606 0.5754553
0.26583445 -0.19442123 0.32441294 -0.13364756 -0.21888334 0.39503136 0.29737395 0.1597723
-0.14890619 0.33588362 0.19777758 0.0363324 -0.31769228 -0.2567374 0.53837 0.2672089
-0.25283843 -0.6966417 -0.54034024 -0.44300672 0.6771506 -0.16609184 -0.25316748 0.50297844
-0.057576764 -0.41917792 -0.17022179 0.33238566 -0.07124356 0.093121484 0.36604965 0.22601834
-0.41803595 -0.5138484 -0.115261145 -0.3367072 -0.35841346 0.31377122 0.3998432 0.46422628
-0.48158813 0.201564 0.052264318 0.62648016 0.25822395 -0.10490069 0.8493585 0.3405485
0.052328706 -0.17463738 0.54982316 -0.27623942 0.24788952 -0.79945755 0.10027144 0.12941812
-0.06675134 0.037279844 -0.64619344 0.034251 -0.51401335 -0.0891864 0.16399518 0.3252187
0.3398266 0.0832629 0.19125557 -0.02669367 -0.2077777 -0.011010732 -0.057937838 0.81077975
-0.51712584 0.34540945 0.17356667 0.3201819 -0.37394288 -0.44328618 0.34383547 0.18690662
0.23644872 -0.5117329 -0.3137266 -0.71366894 0.257133 -0.097160734 0.58048177 0.4782095
0.05985171 0.19343075 -0.14137775 0.09018231 -0.0014854369 0.52706575 0.44918367 0.12803996
-0.52919906 -0.47879517 0.24630015 0.064129874 -0.33788192 0.512863 0.43886134 0.24301472
-0.16717069 0.35596943 0.02880914 0.3529715 -0.1991079 -0.38467538 -0.080521025 0.4686952
-0.32814598 -0.52902836 -0.50291145 -0.38485754 0.23493223 0.3339251 0.664416 -0.088036455
0.119065404 -0.49806014 0.07160209 0.53329015 -0.07666828 0.023878241 0.54703873 0.46592057
-0.5466103 -0.50744057 0.29147002 -0.20644753 -0.219928 0.4065601 0.5753364 -0.08319099
-0.31944147 0.40849578 -0.29342282 0.29850483 0.10002051 -0.18508245 0.38758412 0.18529826
-0.3602658 -0.5902912 -0.21131358 -0.0667493 0.07585867 0.21979053 0.010266545 -0.12411423
0.3006042 -0.2856608 0.02847527 0.26682523 0.064174265 0.27080876 0.3930016 0.026659483
-0.40670687 0.5293799 0.013702758 -0.04159727 -0.6606504 0.3065251 0.42210487 0.5463384

encoder.LSTM1.bias_ih_l0 f4 [128]
00000000: 3fa5 d43e 8dfe 8e3e fab9 a13e c6a7 8c3e
00000010: 05a7 d13d b082 803e 32f7 5a3e 82ce 583e
00000020: be06 823e ec75 7a3e 2bbe 5e3e 85f3 833e
00000030: 9b8f a13d d91f f43e 1ae7 9b3e fc34 ab3e
00000040: 667a a93d df99 653d 616a 933e 84b5 4f3e
00000050: 71f0 383e a00b c03e d2da 353e 725e 633e
00000060: f707 923e 4eb4 9e3e 1bd1 f23d 86cd ac3d
00000070: ab27 3e3e bb67 023f 0799 873e eadc f73e
00000080: 0e55 f9bd 3b17 cdbd 0a34 7e3d 4c95 3039
00000090: a535 36be 388c 4e3e 981f 193d e2ac 333e
000000a0: 0e61 253e 66ef 373d 60c2 0fbe 5a6c 2ebe
000000b0: 5599 1ebe 3537 b7bd 14a8 ccbd 3f09 ab3d
000000c0: 01be 8bbd 4a23 ff3d 56c1 b73d ed82 383d
000000d0: faba ec3c ecbb c93c 6df9 9a3c c328 25be
000000e0: be26 093d cc1d dd3d 5f0a 173e 8363 10bd
000000f0: e8e4 93bc 7f83 733e 22b4 0abe f1cf 4f3e
00000100: 4255 41bd c86e 9a3e 21a8 2b3e 6ab8 bc3e
00000110: aa87 39be eac7 b4be 32d4 523d cb8e 0b3f
00000120: 8341 7cbe 2326 9abe 40f5 3b3d e0b5 8fbe
00000130: 2de3 5c3e ee43 9ebe b1b4 e23d 9f60 253e
00000140: 5ed5 293e 2670 11be c1c7 93be 8ad9 1a3e
00000150: d36c 9fbe 5ae9 a53e eec0 0a3e c97d 263e
00000160: 1dd7 06be 5d92 7fbd 840a b2be 9026 35be
00000170: 14f9 c4be ec40 a93e 4430 a73e b240 9a3e
00000180: 8fdd ad3e 7199 a33e 7dbb 9e3e 2498 603e
00000190: c847 213e f71d df3d 119d 593e 5a18 bb3e
000001a0: 4cda 8d3e 78eb d13e 57e8 993e 2fee 3a3e
000001b0: 11f1 b53e 76d3 a13e b5fd 383e 3241 723e
000001c0: 78c8 2d3e 22d9 ad3e e07f 9b3e 6324 363e
000001d0: a979 9a3e daf2 b83e f94b e83d a7bc ba3e
000001e0: 3c68 6d3e 0c83 bf3e c5c3 b33e 1989 ca3d
000001f0: ce60 ca3d 644a 823e c222 ac3e ff12 893e
0.41532323 0.27928582 0.315872 0.2747175 0.102369346 0.25099707 0.2138336 0.21172526
0.2539577 0.24459046 0.21752231 0.25771728 0.07888719 0.47680548 0.30449754 0.3343886
0.08275299 0.056054946 0.28792098 0.20284086 0.18060471 0.3750887 0.17759255 0.22203997
0.28521702 0.30996937 0.1185629 0.08437638 0.1856982 0.5093953 0.26483938 0.48410732
-0.12174426 -0.100141965 0.062061347 0.00016840285 -0.17793901 0.20170677 0.037383646 0.17546418
0.16150305 0.044906043 -0.14038992 -0.1703352 -0.15488179 -0.08946077 -0.09992996 0.08351373
-0.0682335 0.12457903 0.08972423 0.045046736 0.028897751 0.024625741 0.018917764 -0.1612883
0.033484213 0.10796699 0.1475005 -0.03525115 -0.018053487 0.2378063 -0.13545278 0.20294167
-0.04720045 0.30162644 0.16763355 0.36859447 -0.18118158 -0.35308772 0.051471896 0.5451476
-0.24634366 -0.3010722 0.045888186 -0.28068447 0.21571036 -0.309112 0.110696204 0.1615014
0.165853 -0.14202937 -0.28863338 0.15122047 -0.31137714 0.32404596 0.1355016 0.1625892
-0.13167997 -0.062395442 -0.34773648 -0.17690492 -0.38471282 0.33057344 0.3265401 0.30127484
0.33958098 0.31953004 0.31002417 0.21933037 0.15750039 0.10894387 0.21251322 0.36542016
0.2770561 0.4099996 0.30060074 0.18254922 0.35535482 0.31606644 0.18065532 0.23657683
0.16971004 0.33954722 0.30370998 0.17787318 0.30170944 0.3612278 0.11342616 0.36472055
0.23184294 0.37404668 0.35110298 0.098894306 0.09881745 0.2544738 0.33620268 0.26772305

encoder.LSTM1.bias_hh_l0 f4 [128]
00000000: 419c e43d 406d ae3e d55b 513e 9818 a33e
00000010: a14d aa3e 856e 673e 5463 a53e 71b6 b13e
00000020: 1b40 533e 0420 8f3e f89a af3e 9d14 ce3e
00000030: 6d30 1d3e 4785 e13e 19f7 083e 776e 5e3d
00000040: 8b93 203e bab7 943d 1ee6 523e d0ae 7b3e
00000050: 41e8 133e e4ce 2a3e 49db 843e 3f81 833e
00000060: d911 0b3e 29de 4c3e a9b2 6b3e 6931 043e
00000070: fa46 6d3e fd06 9b3e dbd5 cf3e aabe c03e
00000080: c7f4 45be d4d0 443e 1242 abbc 9b8a b33d
00000090: 8041 4abd 2e1a 913d c80f 453e a8c5 883e
000000a0: 6a82 e03c 2b85 31be 2a21 373d 66d2 0bbe
000000b0: 99ab 03be 85b9 0c3e 3855 39be a1a5 24bd
000000c0: f11b 81bc 2a1d 583d e958 9bbd db31 8b3d
000000d0: 073c 56bd 87df 0a3e fac3 83bd 8820 16be
000000e0: 516a 96bc 452b ec3d 9c02 223d 7ec8 433c
000000f0: 6eb4 5f3e 7039 663e 797a 6d3b dfa3 45bd
00000100: b968 a6be 5831 9d3e c80c 903e 9faa 303e
00000110: 32c4 41be 965d 33be 200c 083e 13a1 0c3f
00000120: 34eb 24be 6c69 29be c0f3 20be 1e73 efbd
00000130: bc2d 653e 18ee 1ebe 1cc7 393e 27f8 873e
00000140: 484b 123e 250f 73be 6f37 87be 5f04 be3e
00000150: b5e3 3dbd 5859 343e f42f c03e 85a3 803e
00000160: b318 91bd ccbf 4f3e 82e8 1bbe 0162 26be
00000170: 9c2f 6dbe 11e5 c23e 5116 3e3e 75aa b63e
00000180: a592 853e d699 9a3e 2632 b53e 3918 ba3e
00000190: c48a a03e d3cf 9a3e 16f3 263e 29f1 c53e
000001a0: e8b1 d83e 60b9 d93e b845 c43d ee0a 463e
000001b0: e042 0f3e 0297 853e 7cef c93e 5143 163e
000001c0: 20f5 6f3e 3416 8c3e 591c 9b3a 67d8 563e
000001d0: 4bfc 293e ff7e 383e ee07 203e 1514 ae3e
000001e0: a329 623e 1d6d 4f3e 1f33 283e 5569 7d3e
000001f0: 9903 4a3e dcbd 2c3e 17ab b53e 0b24 963e
0.111626156 0.34067726 0.20445187 0.318547 0.3326235 0.22600754 0.32302344 0.34709504
0.20629923 0.27954113 0.3429792 0.40250102 0.15350504 0.44046995 0.1337551 0.054304566
0.15681283 0.072616056 0.20595595 0.24578404 0.14444067 0.16680485 0.2594855 0.25684544
0.13581027 0.20006622 0.23017372 0.12909473 0.23171607 0.3027877 0.40592846 0.37645465
-0.19331656 0.19220287 -0.020905528 0.08766671 -0.049378872 0.070850715 0.19244301 0.267133
0.027405936 -0.17335956 0.044709362 -0.1365448 -0.12858428 0.13742645 -0.18098915 -0.04019702
-0.015760394 0.052762188 -0.07585318 0.067966186 -0.05230334 0.13561831 -0.06433864 -0.14660847
-0.018361242 0.115316905 0.03955327 0.0119496565 0.21846172 0.22482848 0.003623633 -0.048251983
-0.32501772 0.3070171 0.2813475 0.17252587 -0.18922499 -0.17516169 0.13285875 0.5493328
-0.16105348 -0.16544122 -0.15717983 -0.11691879 0.22380728 -0.15520513 0.1814236 0.26556513
0.1428653 -0.23736246 -0.2640948 0.3711271 -0.046359736 0.17612207 0.37536585 0.25124756
-0.07084789 0.20288008 -0.15225413 -0.16248323 -0.23162693 0.3806539 0.185632 0.35676923
0.26088443 0.30195493 0.35389823 0.36346605 0.3135587 0.30236682 0.16303667 0.38660553
0.42323232 0.42524242 0.0958361 0.19340107 0.13990355 0.26091772 0.39440525 0.14674117
0.23433352 0.2736069 0.001183401 0.20980988 0.16600148 0.18017195 0.15628025 0.33999696
0.22086196 0.20256467 0.16425751 0.24747212 0.19727935 0.168693 0.35482094 0.29324374

decoder.LSTM1.weight_ih_l0 f4 [256, 32]
00000000: 37d1 8ebe 16b0 953e 0026 24bd be61 783e
00000010: e230 76be d97b 8cbe 3b8d 873d 7f6c 483e
00000020: b569 adbd ddb6 c4be bbcc 3bbe a5c1 1a3e
00000030: defa 643e 820f 9fbe c704 b03d c992 c7bc
00000040: 345f b5bd bda6 8cbe e185 8abe 6e91 6c3e
00000050: 39c3 363e d6e6 363e ebae e43d eaef 0abe
00000060: 8787 9cbe 40bd b43c df98 5bbe 76c4 38bd
00000070: 6ac1 a9be c9e5 a23e 9f7b ee3e 4a36 933e
00000080: 013f f7bd b312 c23e 5142 043f ac1f 693e
00000090: 1f28 96be 0ff6 ddbd 9580 a33e 7abb 8e3e
000000a0: 576a 0a3e 1435 7fbe d0d6 0a3f 5346 60be
000000b0: edea 7e3e bddb 023e 51f0 953e 64e5 123e
000000c0: dfd2 993e 4122 7cbd a9ed 93be 0fa8 1f3e
000000d0: 868a cdbe 508b 8c3e 6eb0 8d3e 1236 163e
000000e0: e32e 75bc 7aca e83d 93e7 a4be 390e 14bf
000000f0: 0512 08be edb5 153e fe17 d13e f3bd 5d3e
00000100: 3b17 68be 90f9 843e e64f 313e 7674 cf3e
00000110: 5156 6dbe 9187 68be d5dd ae3e a156 613e
00000120: 1b2e 65be 03f4 70be 9764 29bf a086 7cbe
00000130: 0f34 b33e d92a 9fbe f675 c23e 14dc 3c3e
00000140: 5b4b c13e d387 5dbe 5364 91be d315 263e
00000150: 46f0 21bd 0e8c 933e 04d3 ab3e 17e6 5a3e
00000160: 1f83 803d 67b2 43be 8c54 09be 2cc0 8fbe
00000170: 5fe1 debe 7abc a13e 959a c83e b07a d93e
00000180: 5b07 6fbe 1421 c53e 4bfb b93e 4b56 6e3e
00000190: d06b 3ebe 54b2 bcbe 6ad5 4c3d 942f 063e
000001a0: 5624 a4be bd2e 34be 2887 a2be 5542 c4be
000001b0: dac2 423d cc69 ccbe 9f13 3e3e a17c 953e
000001c0: d601 c23e 1636 31be d7cd 90be ccc0 b33e
000001d0: 645b e2be a95e 833e 646f 2e3f 4d2f 983e
000001e0: 5762 5cbd 52db afbe 0690 9bbe 7cc1 7cbe
000001f0: 789f cabe cb62 a13e c312 d13d fb8c 523e
00000200: ddbd d8be b03f b63e e826 4b3e c1d2 043f
00000210: 43e5 19bf ac4c a5be 9610 993e 938c 8c3e
00000220: f4fe 2e3c a56d 58be 478c 5e3e b596 b9bd
00000230: d91b e93e 472b 16be 8457 b73e a0a9 5a3c
00000240: 6787 883e 8e43 98be 4699 9dbe 456e 083f
00000250: e00c 76bd 794c 9d3e 6164 683e 7581 8a3e
00000260: 291f 5bbc 658e acbe e077 9cbe c4da 48be
00000270: dd15 b5be 4ffd c63e b709 9e3e e5d6 c23e
00000280: f5fc 17be 7922 cc3e 765a 133e 23c1 663e
00000290: 64d7 79be 8617 63be 4599 e23e 9c8c 983e
000002a0: e684 92be 94df ffbd dad5 7a3d 3b01 e4bd
000002b0: 8001 cf3d 061a a0bd 5c5f 7e3e 8629 ad3e
000002c0: c807 a93e 2fc3 e9be efdb c0be e211 7e3e
000002d0: 54f3 abbe b39d e53e 8ab9 1b3f 433f 8d3e
000002e0: 43d6 11bf af2a d7be 5979 84be 12bd 48be
000002f0: f3f3 33be 3a50 a03e cdc9 813e a4e5 9e3e
00000300: d81d d6bd e79a b43e 617f a43e 7858 1d3e
00000310: 8cda 7ebe 9852 f6be d106 8c3e 6eb5 983e
00000320: d73e 12be fb0c 5cbe 96ea 71be 814a b4be
00000330: 2fa7 583e 2396 08be 9cc9 9e3d 293e b43e
00000340: 017e 9c3e 0201 43bd f36b 8dbe 282e 323e
00000350: 9294 a3be ff1d d93e 17af b83d b14e 963e
00000360: de37 3dbe 8c8b a73d 9312 99bd a98b 2a3e
00000370: 9484 a6be da9d 933e 9570 993e ec8c b43e
00000380: 545b d5bd 8881 c43e 0816 a73e 9e34 ce3e
00000390: 5be3 99be c05a 0fbe 0a8f e53d 9c83 963e
000003a0: 87b6 64be df3e 82be 4c42 ac3b 9149 babe
000003b0: 4485 1f3e 9cba 5dbe cba5 2b3e 7040 50bc
000003c0: e711 9f3e 134c 81be f9bf a6be 3dcf 1c3d
000003d0: a901 0fbd 781b 4c3e f1e9 513e 9404 253e
000003e0: e784 973e ae8f ecbe 2478 b0be b4ea f0bd
000003f0: c1b6 e0bd e703 f83d 1c01 fd3e 1225 6a3e
-0.27893993 0.29235905 -0.040075302 0.24256036 -0.24042085 -0.27438238 0.066187344 0.19572638
-0.08467428 -0.38420764 -0.18339817 0.15112932 0.22361323 -0.3106652 0.08594661 -0.024361985
-0.08856049 -0.2747096 -0.27055266 0.23102352 0.17847909 0.17861494 0.111661755 -0.13568082
-0.3057215 0.022062898 -0.21445034 -0.045109235 -0.33155376 0.31815937 0.4657869 0.28752357
-0.12072564 0.3790489 0.5166369 0.22765988 -0.29327485 -0.108379476 0.31934038 0.27877408
0.13517128 -0.24922591 0.5423403 -0.21901827 0.24894305 0.12779136 0.2928491 0.14345318
0.30043694 -0.061556105 -0.28892258 0.15591453 -0.40144747 0.27450037 0.27673668 0.14669064
-0.014964792 0.11366744 -0.32207927 -0.578342 -0.13288124 0.1462018 0.40838617 0.21654491
-0.22665112 0.2597165 0.17315635 0.4051854 -0.23177458 -0.22707964 0.3415362 0.22005703
-0.22380869 -0.23530583 -0.6616911 -0.2466073 0.35000655 -0.31087378 0.37980622 0.18443328
0.37752804 -0.21633844 -0.28396854 0.16219263 -0.039535783 0.2881779 0.3355943 0.21376835
0.06275009 -0.19111024 -0.13411158 -0.28076303 -0.4353132 0.3158911 0.39180437 0.42476416
-0.2334265 0.385018 0.36324534 0.23275106 -0.18595815 -0.36854804 0.050008215 0.13104087
-0.32058972 -0.17595954 -0.3174374 -0.38331857 0.047549106 -0.39924467 0.18562172 0.29196647
0.37892026 -0.17305788 -0.28282043 0.3510803 -0.4421035 0.25658157 0.6813872 0.29723588
-0.05380472 -0.34347016 -0.3038332 -0.24683183 -0.3957479 0.31520686 0.10208657 0.20561592
-0.42332354 0.35595465 0.1983906 0.51884085 -0.6011545 -0.32285058 0.29895467 0.27451
0.010680903 -0.21135576 0.21733199 -0.09061948 0.4552906 -0.14664946 0.35808957 0.013346106
0.26665804 -0.2973904 -0.30781 0.5329326 -0.060070872 0.30722407 0.22694542 0.27051893
-0.013374128 -0.33702388 -0.30560207 -0.19614702 -0.35368243 0.38865134 0.30866787 0.38054577
-0.14842589 0.3987005 0.14389977 0.22534613 -0.24398571 -0.22176942 0.4425756 0.29794776
-0.28617018 -0.12493816 0.0612391 -0.11133047 0.10107708 -0.078174636 0.24841064 0.33820742
0.3301375 -0.45656726 -0.37667796 0.24811509 -0.33584082 0.44846877 0.60829985 0.27587327
-0.5696756 -0.42024752 -0.2587383 -0.19603375 -0.17573528 0.31311208 0.25349274 0.31034577
-0.10454911 0.3527443 0.32128432 0.1536578 -0.24888057 -0.4810989 0.2734895 0.2982592
-0.14281784 -0.21489327 -0.23624644 -0.35213092 0.21157525 -0.13338523 0.07753298 0.35203674
0.30564883 -0.047608383 -0.2762142 0.1740042 -0.31949288 0.42405698 0.09017771 0.29356912
-0.18478343 0.08180913 -0.07474246 0.16654839 -0.32523024 0.2883137 0.29968706 0.35263765
-0.1041781 0.38380075 0.32633996 0.4027452 -0.3005627 -0.13999462 0.11208923 0.29397285
-0.22335254 -0.25438592 0.0052569266 -0.36384252 0.1557818 -0.21653217 0.16762464 -0.012710676
0.31068346 -0.25253353 -0.3256834 0.038283575 -0.034913693 0.19932353 0.20499398 0.16115028
0.29593584 -0.4620337 -0.3446666 -0.11763516 -0.109723575 0.12110119 0.4941491 0.22865704

decoder.LSTM1.weight_hh_l0 f4 [256, 64]
00000000: 600c 19be 1296 7abd 1d6c 0e3e 2df7 103f
00000010: c877 0bbe 1b67 87bd 089a c73d e582 e43e
00000020: 8e75 08be 9197 82bd 0f48 c83e 50b7 6d3e
00000030: bccd 973e 552e 0bbe e06b 38bf 2584 863e
00000040: deaf a63e b4aa 913e ca98 c1be a35c d4be
00000050: e761 a33e d433 ad3d ede5 62bb 9c86 e3bd
00000060: 5107 823e cdd6 a1be f35f 843e 2ed3 973e
00000070: d5df 1cbf 7be0 dd3e 82d6 143f bdc5 1f3e
00000080: 152b 73bd 3235 263e 5048 b9bd 3a30 babe
00000090: bdcf 04bf 923d ef3e c612 09be a94e 853e
000000a0: fdb6 d1be 443f 2e3f a0a1 0abe ef80 b7be
000000b0: a649 cf3d a0d3 a9be 1af9 acbe 6590 a03e
000000c0: 010b 2fbe 84ac 933e 8d4a 8b3e d01d c13d
000000d0: 8845 d53e d39a 843e 6067 37be 5556 933c
000000e0: 188e bf3e ac3a 30bd 82c7 d8be afad 153f
000000f0: 57d8 f4bd e848 5bbe f504 8bbd 87b4 0abe
00000100: e5e1 353e 504d c9bd 038f a2be e159 ffbe
00000110: 085f bbbe 6cf1 83bd a9fa 12bf b542 debe
00000120: 53e4 4b3e 5c14 d33d 1425 633d 494e 35be
00000130: e954 5dbe 802e 06be 2621 e9be 50d1 0d3e
00000140: 7410 173f 57ac a9bc 9b71 81be b108 453f
00000150: 2f37 843e 29f4 4f3e 797b e1bd ee11 4f3e
00000160: df98 1bbe 4c11 5b3e 7a2d 2cbf e73b cebe
00000170: 537f 22bd 5ae4 bdbe 4225 6abe 1377 3fbe
00000180: a1ca 1bbf 7a5c 713e 84c5 a6be 199e 053f
00000190: 9886 b63e f238 38bd 49a7 913e b03f c6be
000001a0: 23e3 a33e e5b0 f23d 141d 89be 3503 823d
000001b0: 801d 393d 398b c33e 4162 143f 4e01 5b3e
000001c0: 232a bc3d f45c 503d fb21 0fbf 0a59 0cbf
000001d0: 9d9c 98be 3811 4d3e 8948 90be f236 7e3e
000001e0: 0c4e d4bd 37c9 47bf d151 6a3e 0f7d a0be
000001f0: 80a3 043f 52d6 9b3c fa2a cfbe 3936 50be
00000200: aba8 463d 8e54 1ebf f03c c23e 8cbc c43d
00000210: 5689 133d d8d9 213f 0433 823d 72f1 9bbe
00000220: 76e0 8fbe e3b5 593c 7a48 b13c e891 6ebe
00000230: cda3 c43e 0da9 d4be 334d 3d3e 4a49 3cbb
00000240: 59c0 753e 386e 71bc 0edd c13e d001 cdbe
00000250: 4053 1fbc 41b8 97be f508 32be 79a3 c2be
00000260: 2f9b 4e3e 8fe1 1fbe 0344 4ebe fe68 8c3e
00000270: e526 a63e bdfb b9be e4a0 823e d256 dc3d
00000280: 7b51 73be 8383 4b3e 6958 073e c95f ab3e
00000290: 6212 d4bd 663d b73c 733c ac3d 20c0 43bf
000002a0: 1bc4 123f 91db ae3e 8d34 ca3e f295 603e
000002b0: 7f75 0bbf f122 5cbe fd4f 04be 7e03 6cbe
000002c0: 201c 9ebe 953d b03d 254c e13e fa66 593e
000002d0: d0e4 a6be 288e 323d 18c3 b53d 3659 c0be
000002e0: 2aac 90bd 3603 a83d 6690 2fbe a7c1 2abe
000002f0: a9ec 4e3e 2c69 b03d 6bd2 c4be 9f02 d1be
00000300: 12f8 0bbf d005 db3c 2a86 f93e 9554 c8be
00000310: 0883 b2be 576e 21be f2e4 6cbe 2f7b cfbd
00000320: 149a b5bd 0631 b1bd 6836 3b3d 3b44 0a3e
00000330: bbb4 553f 6b33 2fbe 92aa a33e 881d 32bc
00000340: 76b1 d7bd 05eb c33e 50e6 a5be 2910 f23e
00000350: cce4 b3bd f17b 083e 67fd babd 49ef cbbe
00000360: 0cb1 d4be 2f4b 9c3e 2621 46be e95e e1be
00000370: 4371 a43c 5963 1bbe f219 3dbd 9428 96be
00000380: 4b6e d1be 638c 7a3d 05a3 7d3d f4fb 9a3e
00000390: 75b7 c63e ac76 dabe a46c ff3e 3a88 10bf
000003a0: 2b1c 3abe d95a 07be ad17 36bd e5c8 a03c
000003b0: 1dc5 34bc 6a11 673e 01f0 993c f115 d53e
000003c0: 5207 1c3f f45e 973e 0e21 72bb 43cd 2f3e
000003d0: ae2d bbbd ac34 d3be d8e8 a13e 1bd1 443c
000003e0: 5a4d f53d 70b7 82be 6c4e 3d3f 03c1 9abe
000003f0: f001 f43e f648 eabe 7cb8 863d 8791 febe
-0.14946127 -0.061178274 0.1390843 0.5662716 -0.13619912 -0.06611463 0.09746176 0.44631115
-0.13326094 -0.06376565 0.39117476 0.2321446 0.2964915 -0.13591893 -0.72039604 0.26272693
0.3255605 0.2845055 -0.3781188 -0.41476926 0.3191063 0.08457151 -0.003462191 -0.11109659
0.25396207 -0.31609192 0.25854453 0.29653305 -0.6127904 0.43335328 0.5813981 0.15602775
-0.059367258 0.1623123 -0.09046996 -0.3636492 -0.51879483 0.46726662 -0.13386068 0.26036575
-0.4095992 0.68065286 -0.13538218 -0.35840556 0.10121469 -0.3316927 -0.337838 0.31360164
-0.17094041 0.28842556 0.27205315 0.094295144 0.4165461 0.25899372 -0.17910528 0.017985502
0.37413096 -0.043024704 -0.42339712 0.58468145 -0.11955326 -0.2141453 -0.06788055 -0.13545428
0.17761953 -0.09829199 -0.31749734 -0.4987326 -0.3659594 -0.06442532 -0.5741373 -0.43410268
0.19911318 0.103066176 0.055455282 -0.17705645 -0.21614422 -0.13103676 -0.45533103 0.13849378
0.5900948 -0.02071206 -0.25281987 0.7696639 0.25823352 0.20307983 -0.11009879 0.20221683
-0.15195034 0.21393317 -0.6725689 -0.40280077 -0.039672207 -0.3708828 -0.22865775 -0.18697767
-0.6085606 0.23570433 -0.32572567 0.5219436 0.35649562 -0.044976182 0.2844794 -0.38720465
0.3200923 0.11850146 -0.26779997 0.06348268 0.04519415 0.38192156 0.57962424 0.21387216
0.091877244 0.050869897 -0.55911225 -0.5482336 -0.29806986 0.200261 -0.2818034 0.24825647
-0.10366449 -0.78041404 0.22882773 -0.31345412 0.5181198 0.019023094 -0.40462476 -0.20333184
0.048500698 -0.6184777 0.37937117 0.09606275 0.036019646 0.6322303 0.06357387 -0.30457646
-0.28100938 0.013287994 0.021641005 -0.23297846 0.3840622 -0.41535226 0.1848648 -0.0028730207
0.23999156 -0.014735751 0.37863964 -0.40040445 -0.009724438 -0.29632762 -0.1738623 -0.38015345
0.20176385 -0.15613388 -0.20143132 0.27423853 0.3245155 -0.36324874 0.25513375 0.10758747
-0.23761551 0.19874386 0.1321732 0.33471516 -0.10355069 0.022368144 0.08409967 -0.76465034
0.57330483 0.3415189 0.39493218 0.219322 -0.5447616 -0.21497704 -0.12921138 -0.23048207
-0.30880833 0.08605496 0.44003406 0.21230689 -0.32596445 0.043592602 0.08875102 -0.37568063
-0.07064088 0.082037374 -0.17144927 -0.16675435 0.20207466 0.0861381 -0.38441786 -0.40822312
-0.546754 0.02673617 0.48735172 -0.3912703 -0.34865594 -0.15764748 -0.2313421 -0.10130917
-0.08867279 -0.086519286 0.045706183 0.1350259 0.834789 -0.17109458 0.31966072 -0.010871299
-0.10531895 0.38265243 -0.32402277 0.47277954 -0.08783874 0.1332853 -0.09130364 -0.39830998
-0.41541326 0.3052611 -0.19348583 -0.44017723 0.020073539 -0.15174617 -0.04616732 -0.29327834
-0.4090446 0.06116904 0.061923046 0.3027035 0.38811842 -0.42668664 0.49887574 -0.56457865
-0.18174808 -0.1321825 -0.044456173 0.019627044 -0.011033324 0.22565237 0.0187912 0.41618302
0.6094867 0.2956463 -0.0036945972 0.17168145 -0.09139572 -0.41251123 0.31622958 0.012012745
0.11977644 -0.25530577 0.7394779 -0.3022538 0.47657728 -0.4575879 0.06578156 -0.49720404

decoder.LSTM1.bias_ih_l0 f4 [256]
00000000: 1fe3 633e dad5 983e cc6d a93e 7511 933e
00000010: a36d 253e ccc2 223e ae6b 5d3e 690b 793e
00000020: 55eb 553e ad0d 973e 78cb ac3e 489f 023e
00000030: 9a6c 153e 218b 773e bc7a 143e ce2d 223e
00000040: e850 c43d c891 863e 5c02 a13e 6fc3 873e
00000050: 1c27 b13d 2f02 7c3e fbfb 6c3e 5ec0 7d3e
00000060: 50cc 923e b158 293e e4f9 8c3e d14c 883e
00000070: 04e2 f63d 00a4 a43e 5004 8a3e 3728 8d3e
00000080: 72cc 8b3e 0946 843e 9d26 303e d76a 303e
00000090: e986 403e 6a50 773e f27b 3a3e 7804 f23d
000000a0: 8c96 623e f2ee 253e ce0b d73d b454 e53d
000000b0: 7735 653e 2c26 9a3e 5540 d43d 9994 a13e
000000c0: 1145 503e 916b 0e3e 4b78 a13e 81f6 273e
000000d0: a2c4 ae3e c8d8 823e ab67 6b3e 0660 a53e
000000e0: e0dd 6b3e c597 523e 18fd 1c3e 3eba 8a3e
000000f0: 6638 4e3e 5013 a33e a447 913e 6c7a 023e
00000100: 5bf3 6b3d 6dce aa3d 5a66 c33d 28cc 93bd
00000110: 07fc 173e 8458 533e c7e3 9cbc 704a 3d3d
00000120: f55a 20bd 35d2 ae3d e5ae 00bd 6cfb 153e
00000130: d307 7c3d 2ac0 413e a326 813d a00b 663e
00000140: 49c6 d83d 3f9b 813d 375c 0b3e 1c7f b23d
00000150: ee95 893c 4edb 803e 1a58 893d 8fb8 d3bc
00000160: ed83 89bc c386 9f3d f2f7 d63d 10e6 47bd
00000170: c52c 6e3d ed7a 093e 9dd4 723e c2c0 b4bd
00000180: fb8e b5bd da8b 033e f948 e83c c89f 663e
00000190: 10bf 2c3e b06e 8c3e 2b1f ad3d 28ac 443e
000001a0: e53d 9e3d b8f0 1f3e d91c 8d3d d33c d73d
000001b0: fe76 90bd 2826 c53d 6089 653e 6c11 423d
000001c0: fdea 8a3d e9f3 203e 4856 b0ba 7b71 a6bc
000001d0: 3d99 0c3e 2197 af3d d9e9 183e 6ff4 413d
000001e0: 021a 0fbd ce0a 213e 1781 503c d359 193b
000001f0: cc5d 12be 1864 1c3c cd6d 3b3d b811 96bb
00000200: e2ad ff3d a413 6ebd c859 abbd 6903 81bd
00000210: 2cc1 333c 151a a93d 0583 583d abdd d9bd
00000220: 1836 103e 72ed 16bd 6348 203d 8173 93bb
00000230: f51f 2a3e 2aec 33be 8c9e c5bc 80bc 32be
00000240: 65aa 61bd 567a 0d3e dbea 723e 168d 8ebe
00000250: a36f 333e cabd f33d 453f a2bc e8e0 753d
00000260: 796c d73d c19c 22be cd5c 84bd 829d 3abd
00000270: 2fd2 31bd ca63 afbd 7138 e4bd bfa1 073e
00000280: 7932 213d 5cb5 443c d14f 91bb 976d 183d
00000290: 5ad1 00be c770 12be 4ebc 1bbd 80cb 2dbc
000002a0: 90b7 773d 1525 93bc 9292 6c3d e1b7 63be
000002b0: a2e3 95bd 35f3 ae3d a1b6 163e e637 ac3d
000002c0: 66da b53d 5acd 6abd 2631 453e 81a3 e5bd
000002d0: 55f4 113d e944 d0bd 4f00 42bd 2778 1bbc
000002e0: 05e0 4e3d 1d4a a63c d86b 49be 4c55 343d
000002f0: 4e61 b6bb 9414 993c 46cd 583c 834e 193c
00000300: b917 0f3e 729b 383e c030 6c3e 1d4b d13d
00000310: 4cc0 b83e d6c3 8e3e ffc6 253e 14a9 873e
00000320: 2381 a33e 8c7e a03e 60d6 a23e a567 e93d
00000330: b56b aa3e 7a07 103e 80e7 8d3e a117 883e
00000340: 484c a33e 29ac 423e 64b3 433e 1bbc 353e
00000350: 3151 3f3e 8f45 933e 541a a23e ced6 bb3d
00000360: d48f 413e 7db9 2d3e 12e5 293e a0e5 ce3d
00000370: 59c2 ae3e b16d aa3e 36d8 483e 39f5 8a3e
00000380: f46c 733e 7e1d 8f3e 7abd 313e 0e16 6d3e
00000390: e25c 813e fe7d 9b3e 31e3 333e 7985 2c3e
000003a0: 98a9 753e 8352 403e 2e66 923e ae54 0c3e
000003b0: 53c3 6b3e 124c b13e 4415 8f3e 4334 303e
000003c0: 796c 8b3e 4cbc 9a3e 28d9 f73d 845e 0f3e
000003d0: a7b5 563e 62e9 043e 5ef6 773e 2132 503e
000003e0: 5082 823e 8952 533e 5fcb 4d3e 4e4a 493e
000003f0: d47b 803e 4bbd 513e 5673 4d3e ddc2 963e
0.22254609 0.29850656 0.3309158 0.28724256 0.16155104 0.15894622 0.21623108 0.24320759
0.20890553 0.2950262 0.33748984 0.12756073 0.1459221 0.24174167 0.14499944 0.15837786
0.09585744 0.26283097 0.31447113 0.26516291 0.08650038 0.24610208 0.23142998 0.24780414
0.28671503 0.1653774 0.275344 0.26621106 0.12054828 0.32156372 0.26956415 0.27569744
0.27304417 0.25834683 0.1720223 0.17228256 0.18801464 0.2415177 0.18211344 0.118172586
0.22127742 0.16204432 0.105002984 0.111977965 0.22383676 0.30107248 0.10363833 0.31558684
0.20338847 0.13908221 0.3153709 0.16402628 0.34134394 0.25556016 0.22988765 0.32299823
0.23033857 0.20565708 0.15330923 0.27095217 0.20138702 0.31850672 0.2837497 0.12742013
0.05760513 0.08340154 0.095410064 -0.07216674 0.14842235 0.20639235 -0.019151581 0.046213567
-0.039149243 0.085361876 -0.031416792 0.14646691 0.0615309 0.18920961 0.063061975 0.22465372
0.10584695 0.06328439 0.13609396 0.087156504 0.016795125 0.25167316 0.06706257 -0.02584484
-0.01678654 0.07789376 0.104965106 -0.04880339 0.058148164 0.13425799 0.23713918 -0.08825828
-0.08865162 0.12846318 0.028355109 0.22521889 0.1686976 0.27428198 0.084532104 0.19206297
0.07726649 0.1561917 0.06890268 0.10509648 -0.07053946 0.09626418 0.22415686 0.047379896
0.06783102 0.15718044 -0.0013453448 -0.020317784 0.13730331 0.085737474 0.14932956 0.04735225
-0.034936912 0.15726778 0.01272609 0.0023399487 -0.14293593 0.009545349 0.04575901 -0.004579749
0.124843374 -0.0581242 -0.08366734 -0.062994786 0.010971349 0.08256928 0.052859325 -0.10637983
0.14083135 -0.03684754 0.039131533 -0.004499853 0.16613753 -0.17570558 -0.024123453 -0.1745472
-0.05509414 0.13816199 0.23722403 -0.27842015 0.17523055 0.11901434 -0.01980556 0.06002894
0.105187364 -0.1588011 -0.06463013 -0.045560367 -0.043413337 -0.08563955 -0.11143578 0.13245295
0.039354775 0.01200613 -0.0044345637 0.037213888 -0.12579861 -0.14300834 -0.03802138 -0.0106076
0.060477793 -0.017962018 0.057756968 -0.22238113 -0.07318808 0.08542482 0.14718105 0.08409099
0.08879547 -0.057324745 0.1925703 -0.112128265 0.035633404 -0.101693936 -0.047363576 -0.009489096
0.05050661 0.020299012 -0.19670045 0.044026658 -0.005565799 0.01868657 0.013232535 0.009357098
0.13973893 0.18028048 0.23065472 0.10219405 0.3608421 0.27883786 0.16189192 0.26496184
0.3193446 0.31346548 0.3180418 0.11396722 0.332853 0.14065352 0.27715683 0.26580527
0.31894135 0.19010986 0.19111401 0.17747538 0.18683316 0.28764006 0.31660712 0.0917183
0.18902522 0.1696529 0.1659129 0.10102391 0.3413265 0.33286813 0.19613728 0.27140215
0.23772031 0.27952188 0.17357436 0.23152944 0.25266176 0.30369562 0.17567135 0.16847791
0.23990476 0.18781476 0.28593582 0.13704178 0.23023729 0.3462835 0.27945912 0.17207436
0.27231196 0.30221784 0.12101966 0.14000899 0.20967732 0.12979653 0.24215075 0.20331623
0.25490046 0.20636953 0.20097111 0.19657251 0.25094473 0.20482366 0.20063528 0.29445544

decoder.LSTM1.bias_hh_l0 f4 [256]
00000000: 95bf d93d 206f 803e 7a70 ee3d ff93 073e
00000010: 4728 723e c542 6c3e 6a83 203e d948 a43d
00000020: 98fb 613e 335b 0a3e 2382 903e f914 e63d
00000030: 2b3d 1a3e 7a87 5c3e f284 e23d cb1e 5e3e
00000040: 5581 bb3d 27e3 bc3d 2f09 923e ff19 163e
00000050: 5a02 8f3e 93c3 443e d2ea a33e 873b 353e
00000060: b482 053e d65f 673e 8bd4 733e 8521 953e
00000070: 553c 1d3e 79ef eb3d 9735 c53d e6ce 573e
00000080: 1baf 8f3e 2ad5 2c3e 3299 403e 6776 3f3e
00000090: 75e3 283e bb3f 593e f28b 573e c4ed 553e
000000a0: 083e 6f3e fecb 8d3e 6f09 2e3e 256c 7c3d
000000b0: 2e05 363e c861 8d3e 037c 463e bb96 783e
000000c0: 95c9 343e 8199 973e 63ef 0e3e 4fec 563e
000000d0: 1365 973e 821e 5d3e d2e1 093e ef8f 883e
000000e0: 106d 1e3e 813e a83e 1963 0f3e cd9e 693e
000000f0: 2e20 073e 9f4f 233e ba23 833e 8689 083e
00000100: 17b1 873d 4e81 143c c378 c23d 494e afbd
00000110: 0edc 86bd fece 1e3e e88a 82bd f5ff c6bc
00000120: ddaa 1f3d e4d9 1d3e da77 3bbc 88b8 283c
00000130: 332a 92bd b2cf 693e dc9e 0c3e dc6d 603e
00000140: 3efb 2d3e 87f8 d63c 2a97 223d 7a0d 903d
00000150: f9f4 603e d8f2 7b3e b4f6 033e 26af 3a3e
00000160: d0e6 db3c 7180 1a3d 053a 5e3e 8441 913d
00000170: bed9 263e f280 4e3e 1117 193e 2532 ca3d
00000180: a880 e23d 946c 223e 5fd4 1abc 4d38 893c
00000190: 43c8 d53d fb6a 333e 6d34 193a 52e3 de3c
000001a0: 739d 2e3e d753 633e e1fa b83d d4f4 dc3d
000001b0: 84cf d03d df63 003d 9abc 0b3e 4e63 153e
000001c0: 0867 413e 4f66 3cbc 55d4 333e 6f3e 133e
000001d0: f7e8 533e ba77 ee3d d880 313e d0dc 133e
000001e0: 1a4e 0bbc 4a13 04bd 2fb5 363e 2c1b c8bc
000001f0: 0ed6 a1bc 6de1 733e ec8e 9e3d 4351 043e
00000200: f9ab ad3d d8d3 f6bd fed3 6a3b 5e3b 9c3d
00000210: b09d 523e 356d 51bd f20c 313e c3aa 1a3d
00000220: 7424 8abd eaff 1abe 06e4 4f3c f872 dcbd
00000230: fdbb dc3d bec8 42be 5602 bbbd f526 123d
00000240: 51a4 edbd 6d24 d23c 63c7 7f3d ff35 83bd
00000250: 76f2 833b ae47 2f3e 0f4a 3b3d e3b4 ed3d
00000260: 82c4 1c3e 4419 86bd 2ecf b0bd cdfa 033e
00000270: 3623 513d 0875 a6bd f1a9 01bd 1ef5 1e3d
00000280: d915 563c a19e a03c 5989 0a3c e072 193d
00000290: d9cf 3abc 7755 68bd 560a 53bd 12be ae3c
000002a0: 92dc 933d 8022 d23d 5992 673d f0e9 28be
000002b0: 411a 8fbd 8dd4 f0bd 228d 74bc 5b99 2e3e
000002c0: 9da4 833d a8f8 e7bd 8cf1 b1bc 6ab4 36bd
000002d0: ee4e 0b3e fde1 21be 44bd 6c3d 3097 093e
000002e0: a9bd e0bc cf10 82bd 3bac e3bd aa5d b3bc
000002f0: 96f7 a73d edff 1b3e c96b 093d a1d2 2b3c
00000300: 6539 583e 21ce 0c3e 535d a03e 6138 a83d
00000310: 2056 813e 6327 8f3e 6149 0f3e 7e03 813e
00000320: 4405 393e acca 813e 218e 8e3e bad5 883e
00000330: 99c5 363e 4d55 a03e 1447 933e 2f37 933e
00000340: 8eca 913e cd52 553e 8b7a 953e 62de 693e
00000350: 5e4e 633e a836 d73d e20a 8e3e 3b14 3d3e
00000360: ff0b b43e 68f7 863e 9bd6 e93d cc12 903e
00000370: 5c5e 2b3e 9f26 963e 5707 403e c0ac d53d
00000380: 0dac 5e3e e1a6 bd3e 1886 2f3e e43b a23e
00000390: 023d 173e 5257 5d3e 96cf 3a3e 3e5a 923e
000003a0: 36f6 553e 0e51 9e3e e1a0 823e 75c7 393e
000003b0: bf94 163e 68df 363e 3022 743e c6c2 9a3e
000003c0: 6b15 9f3e ea5f a03e 8e50 353e 74de 9d3e
000003d0: ad33 033e 900d 393e 9793 ba3e b8b6 8a3e
000003e0: 9766 923e 4533 853e 24bf a83e a663 443e
000003f0: c1f1 6d3e 776c fe3d ae69 f13d 50b8 503e
0.106322445 0.25084782 0.11642547 0.1324005 0.23648177 0.23072346 0.1567513 0.08021707
0.22068632 0.13511352 0.28224286 0.11234469 0.15062396 0.21536055 0.110605136 0.21691434
0.091555275 0.09223013 0.28522632 0.14658354 0.27931482 0.1921523 0.3201509 0.17698489
0.1303814 0.22595152 0.23811547 0.29127136 0.15355046 0.11520285 0.09629362 0.21075019
0.28063282 0.1687819 0.1880844 0.1869751 0.16493018 0.21215717 0.21049479 0.20891482
0.23363507 0.27694696 0.16995786 0.061626572 0.17775413 0.27613664 0.19383244 0.24276249
0.17655022 0.29609302 0.13958506 0.20988582 0.295693 0.21593669 0.1346505 0.26672313
0.15471292 0.32860187 0.14002647 0.22814484 0.1319587 0.15948342 0.25613195 0.13333711
0.06625574 0.009064032 0.0949569 -0.085598536 -0.06584941 0.15508649 -0.063741505 -0.024291972
0.038981307 0.1541515 -0.011442149 0.010297902 -0.07136955 0.22833136 0.13732475 0.21916908
0.16990373 0.026241554 0.039694943 0.070338205 0.2196845 0.24604356 0.12887079 0.18230876
0.026843458 0.037720148 0.2170182 0.07092574 0.16294 0.20166376 0.14950205 0.098728456
0.110596955 0.15861732 -0.009450047 0.01675048 0.104385875 0.17521279 0.0005844299 0.027208004
0.1705225 0.22199951 0.09032226 0.10788885 0.101958305 0.031345244 0.13646165 0.14588663
0.1888696 -0.011499002 0.17561467 0.14379285 0.20694338 0.1164393 0.17334306 0.14439702
-0.008502508 -0.032244958 0.17842554 -0.024427019 -0.01975539 0.23816462 0.07742104 0.12921624
0.08480067 -0.12052125 0.0035831924 0.07628511 0.20567966 -0.05112954 0.17290094 0.037760507
-0.06745234 -0.15136686 0.012688642 -0.10764116 0.107780434 -0.1902189 -0.09131305 0.035681684
-0.116036065 0.025652135 0.06244601 -0.06406783 0.0040267063 0.17117187 0.045724925 0.11606767
0.15309337 -0.06547788 -0.086332664 0.12888642 0.05105897 -0.08127791 -0.03165621 0.03880798
0.013066732 0.01960689 0.008455598 0.03746307 -0.011402094 -0.05672213 -0.05152353 0.021330867
0.07219805 0.102604866 0.056536052 -0.1649549 -0.069874294 -0.11759291 -0.014926227 0.17050688
0.06427882 -0.11326724 -0.021721624 -0.04460565 0.13604328 -0.15808864 0.057797685 0.1343658
-0.027434187 -0.06350862 -0.11116835 -0.021895248 0.0820152 0.15234347 0.033550058 0.01048723
0.21115644 0.13750507 0.313212 0.082138784 0.2526102 0.27959737 0.13992836 0.25197977
0.18068415 0.2534994 0.2784281 0.2672556 0.17848815 0.3131508 0.28765166 0.2875304
0.2847485 0.20832367 0.29195055 0.22838739 0.22197863 0.10508472 0.27742678 0.18464749
0.35165402 0.2636063 0.11417886 0.2813934 0.16735214 0.2932634 0.187528 0.1043334
0.2174532 0.3704138 0.17140996 0.31686318 0.14769366 0.21615341 0.1824325 0.28584474
0.20894703 0.30921215 0.25513366 0.18142493 0.1470518 0.1785866 0.23841166 0.30226725
0.31071028 0.31323177 0.1770651 0.3083378 0.12812681 0.1807158 0.36440727 0.27092528
0.28593895 0.26015678 0.3295833 0.19178638 0.23236753 0.12423032 0.11787735 0.2038281

decoder.fc1.weight f4 [12, 64]
00000000: a402 97be 0073 c8be 306e 1e3e 8fad 0a3e
00000010: f77b 2d3e 1981 db3e 714d 463e 0683 143e
00000020: 9cc8 4cbe f9fc 553e 111c 6ebe 38ed 3f3e
00000030: d67a 983e e12f ca3e 44a9 d6bd 6139 f7be
00000040: 9969 d9be 89c7 ddbe d850 d5be cd9a 05be
00000050: 0dcf 22be 9669 2fbd b121 f0be 1af2 bf3e
00000060: c7d7 5a3e 8d17 1cbe 1f3e dfbe 583f 43bd
00000070: 5887 1c3e c8e4 053f 202a 343e 2b29 a3be
00000080: 6a39 ac3e ed6f ccbe a46e d4bd 861e ff3e
00000090: 3b6b 87be 8725 453e 67ba dbbe f1b4 dbbe
000000a0: 2219 fbbe 302d 1abe 71ce 41be 5918 c43e
000000b0: 74e2 b8be 5797 acbe 7327 8a3e cf1b bfbc
000000c0: 54f0 30bd a11f 95be 0d9b c8be eb0f 093d
000000d0: eb9f 963e e652 423e 7446 39bd c117 78bd
000000e0: 48b9 7d3e 6a3a 84be 554f a93e 96c3 9d3e
000000f0: f14d ef3e ad76 2abe 50c1 81be 4e1d d93e
00000100: 97b2 963e 20f7 2c3d 78c3 9f3e f1c3 76bd
00000110: e767 62be 4759 a7be f526 8bbe 00e2 c5be
00000120: dac6 b7be 9c2d 2d3e 70b9 a03e 5a5b 2c3e
00000130: 2172 90be 9f6a 8abe 3d42 573e 2776 3d3e
00000140: 31d9 85bd b1bc 99bd cf4d 73be 5b9c 223e
00000150: 9a36 343e a635 61be 8dd1 d93e 5bce be3e
00000160: 4b58 b1be d55a 8b3d d116 c3be 84d7 95be
00000170: 7e67 b9bd 34fc a13e 51d5 283e 63ed 71be
00000180: 5c86 9c3e ed99 f0bd d455 bf3e ab60 8dbd
00000190: 8ec4 893e d760 40be 53ca b23e 3563 bb3e
000001a0: 45de f7bd 806e 04bf be2d 02bf 8ffe a1be
000001b0: 2512 4f3e fabd f03e 9940 ac3e fde9 023d
000001c0: ab6b a03e 9287 b5be 31cd adbe c493 62be
000001d0: 40d0 b5be 6bc2 753e c673 c73e 1b1d c5be
000001e0: 8332 1bbe d70f 71be 7709 c43d 7053 85be
000001f0: c8d2 07be e9f7 b33e 4a0a 8bbe 1daf 5ebd
00000200: f623 cd3e 0c66 c13e 6b3c 7a3e 1d56 fabe
00000210: 38f5 80bd c65a 5e3e c1cd 33bd 89dd dbbe
00000220: 767f b3be 9475 273e 5bad 5c3e 0ea7 8ebe
00000230: cf3e 4a3d 7ac3 ea3d e52d 9ebe 0710 cf3e
00000240: 5f2f 953e 925d b3bd cbdd 24bd c3b0 263e
00000250: 79e8 90bd 9703 17be fd88 c8be ca79 d1be
00000260: 9818 2d3e 85d5 b5be 66d0 c7be 438c 86bc
00000270: d9de ddbd e7c8 f33c 2988 ff3e 172f e8be
00000280: 39b1 dabe 4c76 9b3e 48fd bbbe c933 f93e
00000290: 6954 e43e 6a1c 21bd 591c 88be 98a6 fabe
000002a0: 0cfc 85bc 7dbd 1e3e e7c9 f33e bf5a 02be
000002b0: 4a18 b4be c266 b4be d5a3 dd3e 2073 bcbe
000002c0: dcf1 f2be d4cf 413e 771e 7bbe 51fb d7be
000002d0: 08f4 afbe 8381 bdbe 8437 293e 2ac8 64be
000002e0: 4ea7 a93e d402 c5be 9a82 b53e 70d1 e7bd
000002f0: bbb0 d1be 61c3 f43e f528 753e 8ff5 efbe
00000300: f1a0 953e cf26 103e 5841 383e 8802 2fbc
00000310: 8902 94bd 2a89 ffbd 0ccc 903e ce81 173e
00000320: f150 a73e 123e 73bd 984a 71be 16c4 febe
00000330: baad 91be 7817 9f3e 51c5 39bd fa14 9f3e
00000340: d6f9 c33e 409b b33e 3d47 dabd 9e9c 54bd
00000350: 2508 d53e 1df3 2bbe 1d1e 4cbc 2f8b 0e3e
00000360: a2c2 bf3d c81f 353e 45c9 3a3e 9b14 863e
00000370: 0278 a13c bcec 02bd 29a9 863e 7893 27be
00000380: c9c1 1a3e 5d78 9fbe b5ff 61be b709 d9be
00000390: 506d bc3c 97dc af3e cb4f d4be 89b2 b53e
000003a0: 51cc 86be 2c86 af3e e134 0ebe 54d9 35be
000003b0: ff42 0a3e f4f0 b0be dd4a 32bd cd3c 27bd
000003c0: e43f abbe 3387 5bbe 9fd7 043e f8ba dd3e
000003d0: ea45 193e 82d8 313e d892 c63d 7e44 233e
000003e0: 3071 603e 42a4 edbe 2398 a7be 798d 263e
000003f0: 5cde 9b3e 1e18 7b3d 0bc0 a6be 8ebf c13e
-0.29494202 -0.39150238 0.1547172 0.1354277 0.1694182 0.4287193 0.19365479 0.14503106
-0.19998401 0.20897283 -0.23252894 0.18742836 0.29781216 0.39489654 -0.104815036 -0.48285964
-0.42463377 -0.43316296 -0.4166324 -0.13047333 -0.15899296 -0.042825304 -0.46900705 0.37489396
0.21371375 -0.15243359 -0.43602082 -0.04766783 0.15286005 0.5230222 0.17594194 -0.31867346
0.33637553 -0.39929143 -0.103726655 0.49827975 -0.26448998 0.19252597 -0.4291565 -0.42911485
-0.49042612 -0.150563 -0.18926407 0.38299826 -0.3611027 -0.33709213 0.26983222 -0.02332869
-0.043197945 -0.29125693 -0.39180794 0.033462446 0.29418883 0.18976936 -0.045233205 -0.06056953
0.2477771 -0.25825816 0.33068338 0.30813283 0.46739152 -0.16646834 -0.25342798 0.4240517
0.29433128 0.042227864 0.31203818 -0.060245458 -0.22109948 -0.326853 -0.2717816 -0.38648987
-0.358939 0.1691193 0.31391478 0.16831723 -0.28212073 -0.2703447 0.21021362 0.18502103
-0.065355666 -0.07506693 -0.2376015 0.15879957 0.17598954 -0.21993122 0.42542687 0.37266812
-0.34637675 0.06804434 -0.38103345 -0.29265988 -0.09052943 0.31637728 0.16487624 -0.23625712
0.30571258 -0.11748109 0.3737017 -0.069032036 0.26907772 -0.18786941 0.34919986 0.36599126
-0.121029414 -0.5173111 -0.5085105 -0.31639525 0.20221765 0.4701994 0.33643034 0.03196143
0.31332144 -0.35454994 -0.3394561 -0.2212668 -0.35510445 0.23999946 0.38955516 -0.38498768
-0.15155987 -0.23541199 0.09572118 -0.2604022 -0.13264 0.35150078 -0.27156287 -0.05436622
0.400665 0.37773168 0.2443711 -0.48893824 -0.06296772 0.21714315 -0.043897394 -0.42942455
-0.35058182 0.16353446 0.21550505 -0.27861828 0.049376305 0.114630654 -0.3089439 0.40441915
0.29137704 -0.087580815 -0.04025058 0.16278367 -0.07075591 -0.14747463 -0.39167014 -0.4091323
0.16903913 -0.35514465 -0.39026183 -0.016424304 -0.108335204 0.029758884 0.4990857 -0.45348427
-0.42713335 0.3036369 -0.36716676 0.4867232 0.4459565 -0.03933374 -0.26584128 -0.48955226
-0.016355537 0.15501972 0.47614977 -0.1272993 -0.3517478 -0.35234648 0.43289056 -0.36806583
-0.4745015 0.18926936 -0.2452334 -0.42183927 -0.3436587 -0.37012872 0.16525084 -0.22341982
0.33135456 -0.3847872 0.35451204 -0.11319244 -0.40955147 0.47805312 0.23941405 -0.46867034
0.2922435 0.14077304 0.17993677 -0.010681756 -0.07227046 -0.12477334 0.28280675 0.1479561
0.3267894 -0.059385367 -0.23563612 -0.49758977 -0.28452855 0.31072593 -0.04535419 0.3107069
0.38276547 0.35079384 -0.10658119 -0.051907174 0.41607776 -0.16791959 -0.012458351 0.13920282
0.09363295 0.17687905 0.1824084 0.26187596 0.019710544 -0.03196405 0.26300934 -0.16364849
0.15112986 -0.31146517 -0.220702 -0.42390224 0.023001343 0.34347984 -0.41467127 0.35487774
-0.26327756 0.34282053 -0.13887359 -0.17758685 0.1350212 -0.34558833 -0.043528426 -0.04082947
-0.33447182 -0.21438293 0.12972878 0.43306708 0.14968076 0.17367747 0.09695977 0.15944096
0.21918178 -0.4641438 -0.3273326 0.16264905 0.30443084 0.061302297 -0.32568392 0.37841457

decoder.fc1.bias f4 [12]
00000000: 7292 88bd c2a1 1bbc 52b9 383b 547d 9cbd
00000010: 3d78 d63d 2ea8 c13d 4489 f4bc ad6a 0bbd
00000020: 084f 773c 891d cebd d7f9 36bd 660e 81ba
-0.06668557 -0.009499015 0.0028186631 -0.07641092 0.104721524 0.09455906 -0.02985061 -0.03403728
0.015094526 -0.10064227 -0.04467186 -0.000984621
