ptdrl/scripts/rl/checkpoint_dqn.pt (torch, 82839 bytes, 6 tensors)

layers.0.weight f4 [128, 16]
00000000: e03f 32bf ffe6 8b3e 6138 dd3f 72e2 bd3f
00000010: aadb da3e 4f11 5c3f 9d07 453f 892e a63d
00000020: 778e 45c0 868a 4c40 5700 fcbf 60aa 3ac0
00000030: 54a4 c5be a9a1 b6be 8662 e6be e23a e4be
00000040: 6779 b2bf 79d4 083d 1332 273f ae38 84c0
00000050: 34aa d4be d73f b03e d393 c6be 53f8 513b
00000060: 9df7 963f 15eb 4740 b65e 31be c7b1 ccbf
00000070: 2a9b 943e 4c89 0dbe 8605 86bd 44aa 5d3e
00000080: bee5 6240 5187 4340 7e5b eebf 6c1b 22c0
00000090: 4899 c73e 24ed a33f 9a9b 5e3f dab4 243f
000000a0: a573 99c0 1f7b 14c0 f21b 3540 6b50 fcbf
000000b0: cde1 47be 9a72 4abd 89f3 c83d 7435 f7bd
000000c0: 7579 283e 4dc8 9a3f b854 8bbf b721 3340
000000d0: 71af 15bf 2cc9 cf3c 6c3a 643f 5498 c4be
000000e0: ebf4 573f 7100 103f 0b59 9ebf 5539 23c0
000000f0: 2877 f53e 7413 b83e ff53 753e b2e4 903e
00000100: f922 b23f 2333 57bd 1cee 28bd 1c7b 4640
00000110: 59d3 d43e 44e1 b03f 90a3 c2be 7566 19be
00000120: ca5e 3140 2b81 5940 c6af 343f cac1 2440
00000130: 4fba 8e3e 1cbc 0bbf 8dfa 42be f776 80be
00000140: 5c74 72be f676 cf3f 4800 2a40 0c34 28be
00000150: b882 0c3f 3d9f 343f b7c3 a03e fe0f 7cbd
00000160: 35a5 f4bf cd47 a5bf 72aa 353f 0bde 2ec0
00000170: fbc6 3f3f 1eca d13e ed5f 343e 0e88 023f
00000180: 9b67 8b40 64fb 943e 5659 d43f cd50 3040
00000190: 6e97 4fbe 069b 9c3e 5bda 7abe 324e 0cbf
000001a0: b0be 32c0 1929 a9bf 78ad abbf 4e09 1cc0
000001b0: 0891 e63e 9a50 d03d 2677 b33e 6281 fd3e
000001c0: c710 3840 c293 1340 8864 7240 27b3 5cc0
000001d0: 05cf 3abd cf20 38bf 48a3 1bbf 4518 3e3f
000001e0: d31d 893f a7cc 47bf 0e16 d6bf 9b62 b33e
000001f0: ef54 203f e29d 6d3e 090d 3b3f 08be 033f
00000200: c428 c9bc b432 2cbe ff53 dfbd a71f 573d
00000210: cca2 ccbd e082 4b3d 3858 773e cbf9 173d
00000220: 4908 5ebd a5e9 0c3d 24b9 c63d d6aa a13d
00000230: 95ca 983e e7f0 603e 1b13 993e f562 303d
00000240: 80ce 34c0 5d02 b3bf eb85 0ec0 7b67 23be
00000250: 29e6 363f d39c 11bd 60ad 8abc 8f06 093e
00000260: eb9a dcbf d606 aebf 62fc 06c0 70ac e6bf
00000270: c964 7d3f 801f 653f df06 303f 4f80 2a3f
00000280: 4625 923b 323a 86be 4774 a2c0 2137 95c0
00000290: be96 85be 6898 973e 3a1a b0bc cb73 b7bd
000002a0: 8b12 84bf 3b6a f83f 4a21 513f 9322 d5bf
000002b0: 38ef e13e e650 413f 7295 9fbe b16c ba3e
000002c0: ace2 0d3d cdec 44bd a7aa 0b3e 38d5 0dbe
000002d0: c209 b93d f534 373c 35dc 773e a382 083e
000002e0: 12d7 673d 39d8 b43d d303 5f3b 894c 333c
000002f0: 85ea 11be c4c2 4b3e 4427 863e e135 703e
00000300: 0588 e73f dae8 893f 881e 6240 4cd8 ddbf
00000310: b96f 163e 29b1 463f b007 a13e 5335 cfbe
00000320: bea9 903f c50c c1be 2f1b 563f 0873 27c0
00000330: a809 2dbe f17c 2c3f dbe6 81be 9ccf c63e
00000340: 4472 913d 8a14 b6bc 9f7a 503d 40a4 d8bc
00000350: 4b99 a63d a795 ebbb aa5e 3d3d 1f27 a33d
00000360: 0991 22be 3a72 75bd f00e 353e 65ad 25be
00000370: 7e3a 073d d966 983e 4066 103e 019a 6d3d
00000380: 60ed 67c0 c821 0c3f fb94 6b3e 694c e43f
00000390: 5b3b 943e b0fb c43d e944 bb3d 9082 8d3f
000003a0: 542c ebbf eb93 d23f b3da a340 a690 1f3e
000003b0: f8b0 863e 1117 d63d 38f8 3b3d 014a 293e
000003c0: 31e6 3740 035e 91bf 4987 613e 652a 1c40
000003d0: 6969 503f 86a5 47bd 5ae3 7a3f 0077 1bbe
000003e0: 73c2 cbbe e28b d4bf f0fe d2bf a58d bbbf
000003f0: c94a 103e 747b 2c3d 1033 8ebe 8e81 b1be
-0.69628716 0.27324674 1.728283 1.4834731 0.42745715 0.8596391 0.7696474 0.081143446
-3.0868204 3.1959548 -1.9687604 -2.9166489 -0.38601935 -0.35670212 -0.44997042 -0.44576174
-1.3943299 0.033405755 0.6531078 -4.131919 -0.41536105 0.34423706 -0.38784656 0.0032038882
1.1794316 3.1237233 -0.17321286 -1.5991753 0.2902463 -0.13821906 -0.06544022 0.21646982
3.5452724 3.055134 -1.8621671 -2.5329237 0.38984132 1.2806745 0.8695618 0.6433846
-4.795367 -2.3200147 2.8298306 -1.9712042 -0.1951973 -0.0494257 0.09812076 -0.12070742
0.16452582 1.2092377 -1.0885229 2.7989328 -0.5847083 0.02536448 0.89151645 -0.38397467
0.8435809 0.56250674 -1.2370924 -2.5503743 0.47942472 0.35952342 0.23957823 0.2829948
1.3916923 -0.052539002 -0.041242704 3.101264 0.41567495 1.3818746 -0.38015413 -0.1498049
2.7714105 3.3985088 0.7058071 2.574328 0.27876517 -0.5458391 -0.1904089 -0.25090763
-0.236772 1.6208179 2.6562672 -0.16426104 0.5488696 0.7055548 0.3139932 -0.06153869
-1.9112917 -1.2912537 0.70963204 -2.7323024 0.74912995 0.40974516 0.17614718 0.5098885
4.356397 0.29098046 1.6589763 2.7549317 -0.2027261 0.30587023 -0.24497359 -0.54806817
-2.7928886 -1.3215667 -1.3412313 -2.438068 0.45032525 0.101716235 0.3505184 0.49512774
2.876024 2.3058934 3.787386 -3.4484346 -0.045607585 -0.7192506 -0.6079602 0.7425578
1.0712227 -0.7804665 -1.672548 0.35036168 0.626296 0.23204759 0.73066765 0.5146184
-0.024555571 -0.16816217 -0.10904693 0.05252042 -0.099919885 0.04968536 0.24154747 0.037103456
-0.05420712 0.03440251 0.097032815 0.078939125 0.29842058 0.21966897 0.2989739 0.043063123
-2.8251038 -1.3985096 -2.2269237 -0.15957443 0.71444947 -0.03554995 -0.016928375 0.13381408
-1.7234777 -1.3595836 -2.1091542 -1.8021374 0.9898191 0.8950119 0.68760484 0.66602033
0.0044600097 -0.26216274 -5.076694 -4.6629796 -0.2609157 0.29608464 -0.02149688 -0.08957633
-1.0318159 1.9407419 0.8169142 -1.6651176 0.44127822 0.75514066 -0.31168705 0.3641105
0.03464 -0.048077393 0.13639317 -0.13850868 0.09035064 0.0111820595 0.24205096 0.13331084
0.05660159 0.08830304 0.003402938 0.01094354 -0.14249618 0.19898516 0.26201832 0.23458053
1.8088385 1.0774186 3.5331135 -1.7331634 0.14691056 0.77614075 0.31451178 -0.4047037
1.1301801 -0.37705055 0.8363523 -2.616396 -0.16898215 0.67378145 -0.2537144 0.38830268
0.071018726 -0.02222659 0.05089819 -0.026445508 0.08134707 -0.007189471 0.046232857 0.07966446
-0.15875639 -0.059923388 0.1768148 -0.16179426 0.033014767 0.29765967 0.14101505 0.058008198
-3.6238632 0.54739046 0.2300605 1.7835819 0.28951535 0.09618318 0.09144003 1.105547
-1.8372903 1.6451391 5.1204467 0.15582523 0.2630689 0.10453618 0.045891017 0.16532136
2.8734248 -1.1356815 0.22024263 2.4400876 0.81410843 -0.04874184 0.9800316 -0.15182114
-0.3979679 -1.6605189 -1.6484051 -1.4652601 0.14091028 0.04210992 -0.27773333 -0.34669155

layers.0.bias f4 [128]
00000000: a0e4 33bf 635d c33f 762c 16be 117d 723f
00000010: 50f8 eebe f99d cebf 2661 5bbe 5457 033f
00000020: 006a b93f f9aa 89be f736 10c0 3b98 a93f
00000030: 0de0 443f bf72 23bb 549d 43bf 316b 6fbe
00000040: 8a50 ab3f 8e55 aebe 6405 51bf f374 bcbf
00000050: c03c 2cbe 9180 32be ba80 04c0 4a61 22bf
00000060: 889c 6ebf 45bf ad3f 5115 9f3f e8bb 79bf
00000070: 86ea 873f bf45 503e 6da1 0a40 233b ce3f
00000080: 7b52 66be 3f44 68bf 55c6 cbbf 315b 2e3f
00000090: dd10 07bf fb1d 90be 8f23 26be 3abb 713f
000000a0: 52dc eabe 4a6a d4bf bf02 babe d4ff 75bf
000000b0: b956 ba3f c77b 91bf 6e5b 5abf 5d5b 35bf
000000c0: 096c 27bb 6baa a940 47c5 64be d1de 963e
000000d0: 15bc bebf 4c9e 0f3e 5345 2e3e 495b d8bd
000000e0: fd80 b83f 865f 42bc 80bd b5ba a760 47bf
000000f0: aa8a 8f3f 35d2 13be ee03 0b3f 6bcf 0e40
00000100: 2cb8 1d3f 29ec ba3f d8a8 20be 1d25 1440
00000110: 57d8 04bf 1541 e6be 0bf3 31bf 0f71 73bf
00000120: e623 4f3f 75b9 32bf 3604 02bf 7134 ee3f
00000130: 9400 90bd a017 ab3c c86b af3f f1a1 b13f
00000140: f8fe 2640 6371 90be 12f5 fabf d2d3 35bd
00000150: 8247 32bc 3ac1 6840 0d0b 763f 74cb 7abb
00000160: d044 c03f 296b e1bf eeeb 463f 5b0e f6bd
00000170: 89b3 a83f 31ce 8c3f 3f1e 82bf 097a b9bf
00000180: 3ac2 143f a27f 863c 8ff3 1a40 8361 6fbf
00000190: 5b62 0cc0 1deb 1cbf 23a7 d13f 1699 533f
000001a0: 3b50 dcbe e952 64ba 4dc0 023f b069 58be
000001b0: 681c 813f b05a 03c0 6838 0abe 3a87 80be
000001c0: 39d4 873f e304 42bd f333 6cbf c4e4 f33d
000001d0: d46b 54be 6cc9 70bf 26d1 9140 71ca 42bf
000001e0: ce33 4c3f 3382 02c0 a395 86bf bec4 13c0
000001f0: d0c0 113f 0641 4fbb c309 81bf 608c 4dbe
-0.7027073 1.5262874 -0.14665398 0.94722086 -0.46673822 -1.614196 -0.21423778 0.5130513
1.4485474 -0.26888254 -2.2533548 1.3249582 0.76904374 -0.002494022 -0.7641194 -0.23380734
1.3383954 -0.34049648 -0.8164885 -1.472319 -0.1682005 -0.17431857 -2.0703568 -0.634297
-0.932076 1.3573996 1.242838 -0.9755235 1.0618446 0.20339106 2.1661026 1.6111797
-0.22492401 -0.90729135 -1.5919901 0.681079 -0.52760106 -0.28147873 -0.16224502 0.9442631
-0.45871216 -1.6594937 -0.3633022 -0.9609349 1.4557716 -1.1365899 -0.8529576 -0.70842534
-0.0025546572 5.302053 -0.2234088 0.2946687 -1.4901148 0.14025229 0.17018633 -0.10564286
1.4414364 -0.011863595 -0.001386568 -0.77881855 1.1214192 -0.14435656 0.5430287 2.2314098
0.6160915 1.460332 -0.15689409 2.3147652 -0.5189261 -0.4497153 -0.6951148 -0.9509439
0.8091415 -0.69814235 -0.50787675 1.8609754 -0.0703136 0.020885289 1.3704767 1.3877546
2.609312 -0.28211507 -1.960604 -0.04439146 -0.010881307 3.6367936 0.9611061 -0.003826824
1.5021 -1.7610828 0.7770375 -0.12014457 1.317979 1.1000425 -1.016548 -1.4490367
0.58108866 0.016418282 2.4211156 -0.93508166 -2.1935031 -0.61296254 1.6379131 0.82655466
-0.4302996 -0.00087098643 0.5107468 -0.21134067 1.0086794 -2.0524101 -0.1349808 -0.2510317
1.061164 -0.04736794 -0.9226677 0.11908868 -0.20744258 -0.94057345 4.556781 -0.7609015
0.7976655 -2.0391967 -1.0514416 -2.3088832 0.56934834 -0.003162445 -1.0081104 -0.2007308

layers.2.weight f4 [128, 128]
00000000: 1528 363d de8f f5bd e38b f0bd 63d0 dcbc
00000010: b6dd 26bc 5b7e 90bd 785a cb3d dc71 d4bd
00000020: ada0 31bd c2ea ff3c ed3a 65bd 04cf 913c
00000030: 06df 623d 3418 abbc 3bac 9ebd 45ed e73c
00000040: 26e7 bfbc 4a6d 07bd b5a7 dabd 7636 71bd
00000050: 98c1 02bc 1d9c 88bd 7d43 a6bd e201 e5bd
00000060: a735 713d 4d6f 76bd ca17 3f3b ab39 293d
00000070: 217e 49be 3d62 bb3c 8ca8 1fbe 4d2c 94bd
00000080: 35d6 d5bd bcdf 92bd d231 d6bd 2b91 f0bd
00000090: 68f2 a2bc 29cd 00be 0c40 963d 0cd7 02bc
000000a0: 8183 743d 4374 65bd 0089 57be 75a0 07be
000000b0: 2600 8d3d 772b e3bc ec2b 41bb 72a9 53bd
000000c0: 5800 a83c d4ae b8bd 87f6 913d 74f1 85bd
000000d0: 130b b23d fd07 abbd a544 9abc 6e0d 47bc
000000e0: 8e4b d63c 7865 b9bd 255b b1bd bb2b 143d
000000f0: 2512 af3d 2d1f bd3d ccc7 143b be31 17bd
00000100: 1da7 73bd 592e 90bd 3836 9ebd 253b 21be
00000110: 8deb 70bd 40bc 383c 2360 9dbd 3897 6fbd
00000120: 0321 deba 803d 22bd c8ce 3bbd 7947 3f3d
00000130: 37ae 903d 3e99 2c3d f01c b4bd d876 cd3a
00000140: bcbc 30bd edd8 f0bc 12cf edbd db8e a33d
00000150: 9e87 0bbd 585a 90bd f27b d1bb 45f3 4a3b
00000160: 16cd a3bc 138b 23be 3d43 96bd f2ce 8d3c
00000170: 8091 e0bc e4f5 e23c fe01 033c e505 3cbd
00000180: c29a c6bd b9d5 0d3c bf33 a4bd 0464 b7bc
00000190: d6ef 2cbd 5bbe bdbc 683e 0a3d 823f 99bd
000001a0: 87f1 fbbd adfa a8bc a202 17bd 1a32 e6bb
000001b0: 3bed be3c ea6c 60be 85b8 a8bd aa6b 81bd
000001c0: d397 e9bc 45a5 f3bb 640b b1bd bc78 60bc
000001d0: 8064 693d 2461 99bd 4199 31bd 2d28 a9bc
000001e0: 71d0 dcbd c38d 37bd dae3 d03c a43e babd
000001f0: 5cb1 d0bc 7c53 b0bd a96f 31bd feb0 5c3d
00000200: 7a3a 01bf 4082 133e 5e2c a8bf 2149 84bd
00000210: 2f24 6ac0 e381 ea3d 046c e9be e861 7f3f
00000220: 391f 13bf 6e9d 6240 6a72 86bf a33f 0dbf
00000230: f56e 70bf 2db7 63bd a64f a23f 9066 d3be
00000240: ffc5 08bf 336f a2bf 5545 233d c3b7 93bf
00000250: 1386 a0bd f43b f33c 9fe2 73be 6279 bf3f
00000260: 7ccb 1940 bbea ebbe 0a94 8cbf 8441 bd3f
00000270: 4343 163e 4534 c1bf cb50 2140 06d2 1140
00000280: e20a 96bf d4dd 63c0 acea 34bb fc78 2fc0
00000290: ccf9 1f3f 3e7c 023f d086 46bc 005e ebbe
000002a0: 4435 96c0 883e 213f 99e0 cfc0 9dda 37c0
000002b0: a6f4 dcbe 84aa e1c0 787c 9b3e 8c83 bfbf
000002c0: c308 c43c e5c3 7a3d 1390 e0bc 66da 3b3e
000002d0: 345b c1bf 8774 6e3f 97af cdbf e7ad 593d
000002e0: 8a39 03bf 637c 1fc0 37dd 9a3d 2586 b23e
000002f0: e30b 1fbf a88a 29be 7965 9e3e 819f 7f3e
00000300: b3fc e8be 6ddc 00bf 0989 753c 1070 a9bd
00000310: 48cc c3c0 10ae 12bf 19cd a13f 8e57 6bbe
00000320: f86c 0bc0 2865 c7c0 99ee b13e 6ebe c83e
00000330: dd56 9d3d 1cbf afbe b7c8 b73e 3a86 05bf
00000340: dc14 673f dd76 a53b c216 98c0 17c8 1bbe
00000350: dae8 77bf ebfe 42bf e55c 493f 8eda b8be
00000360: ece9 a63f 2b99 17c0 563c aebc 1534 a2bf
00000370: 4dfe e3be b300 7fbf a3f9 f93e 80b7 acbf
00000380: 1e41 93bd e638 6ec0 4580 2f3e 9847 8bbf
00000390: ad88 23c0 5f16 2cbf 3da3 39bf 4bb3 03c0
000003a0: 6412 9bbf c743 fbbc 7b2b 33c0 398b b53d
000003b0: 1e65 ccbe 8a80 82bf c115 0f3d 1820 7d3f
000003c0: 6174 69c0 ac59 483d a2a4 57c0 cef2 1e40
000003d0: 2773 f33b 5960 8ec0 3f57 bb3b 8de5 64c0
000003e0: 50e7 f93f ae45 d1c0 ffd0 82c0 7c54 17be
000003f0: 1ff9 5bbe 5683 9ebb 8d36 db3e 560c fabe
0.04447182 -0.11990331 -0.11745431 -0.026954835 -0.010184696 -0.070553504 0.09929365 -0.103732795
-0.043366123 0.031239871 -0.0559644 0.017798908 0.055388473 -0.020885564 -0.07747694 0.028311381
-0.02342565 -0.03306321 -0.10676519 -0.05888983 -0.007980727 -0.06670401 -0.08118341 -0.11182
0.058889057 -0.06016474 0.0029158466 0.041314762 -0.1967702 0.022873992 -0.1559164 -0.07235012
-0.104412474 -0.0717158 -0.10458721 -0.117464386 -0.019890979 -0.12578262 0.07336435 -0.0079858415
0.059695724 -0.05601908 -0.21048355 -0.13244803 0.06884794 -0.027730687 -0.0029475642 -0.051675268
0.020507976 -0.09017721 0.071270995 -0.06540194 0.086935185 -0.08351133 -0.01883156 -0.012149198
0.026159074 -0.09052557 -0.086599626 0.036174517 0.08548383 0.09234462 0.0022702096 -0.036912672
-0.059485544 -0.0704009 -0.07725185 -0.15745218 -0.05881839 0.011275351 -0.07684352 -0.058493823
-0.0016947094 -0.039609432 -0.0458515 0.04669902 0.07064479 0.04213833 -0.08794582 0.0015675677
-0.04314874 -0.029400313 -0.11611761 0.07986232 -0.03406488 -0.07048482 -0.0063929493 0.0030967754
-0.019995254 -0.15971021 -0.073370434 0.017310593 -0.02741313 0.02770514 0.00799608 -0.04590406
-0.096974865 0.0086569125 -0.08017682 -0.022386558 -0.042220913 -0.023162058 0.03375092 -0.07482816
-0.12301927 -0.020627344 -0.036867745 -0.0070250155 0.02330648 -0.21916547 -0.08238319 -0.063193634
-0.028514778 -0.007435473 -0.08644751 -0.01370066 0.05698061 -0.07489231 -0.043359045 -0.02064904
-0.107819445 -0.04481293 0.025499273 -0.09093979 -0.025475197 -0.086096734 -0.043319378 0.05387973
-0.50479853 0.14405155 -1.313854 -0.06459261 -3.6584585 0.11450555 -0.45590222 0.9975877
-0.57469517 3.5408587 -1.0503666 -0.55175227 -0.93919307 -0.055594612 1.2680557 -0.41289186
-0.5342712 -1.2690185 0.039861042 -1.1540455 -0.07838073 0.029691674 -0.23816918 1.4958918
2.4030447 -0.46077523 -1.0982678 1.4785619 0.14674096 -1.5094076 2.5205562 2.2784438
-1.1722071 -3.5604143 -0.0027605696 -2.7417593 0.62490535 0.5097083 -0.012117103 -0.45970154
-4.694002 0.6298604 -6.4961667 -2.872718 -0.43155402 -7.052065 0.303684 -1.496202
0.02392996 0.061221976 -0.02741245 0.18345031 -1.5105958 0.93146557 -1.6069211 0.05314436
-0.5125967 -2.491967 0.07561725 0.3486797 -0.6212751 -0.165568 0.30936792 0.2496319
-0.45505294 -0.50336343 0.014986285 -0.08273327 -6.1186867 -0.5729685 1.2640716 -0.22982618
-2.178526 -6.231098 0.34752348 0.39207786 0.076825835 -0.34325492 0.3589532 -0.5215794
0.90266204 0.00504957 -4.752778 -0.15213047 -0.9683968 -0.76170224 0.7865737 -0.36104244
1.3040137 -2.3687236 -0.021269005 -1.2672144 -0.44529954 -0.9961044 0.4882327 -1.34935
-0.071901545 -3.7222228 0.17138775 -1.0881224 -2.555217 -0.67221636 -0.72514707 -2.0578182
-1.2114987 -0.030671967 -2.7995288 0.08864445 -0.39920896 -1.0195477 0.034932856 0.98877096
-3.6477282 0.048913643 -3.3694234 2.4835696 0.0074294987 -4.449261 0.0057171877 -3.5765107
1.9523716 -6.539756 -4.088012 -0.14778322 -0.21481751 -0.004837434 0.42815056 -0.48837537

layers.2.bias f4 [128]
00000000: 9a5c 71bd bc85 e73e 0c7a 83bc 0f27 b53d
00000010: 6e1e 6abe f83b 49bd feb5 94be 5151 8abe
00000020: 7aca 003e 3cb0 5abd a047 f2bc 4b50 19be
00000030: 2936 cd3b 55c0 e3bd a040 1abe 23ba 1a3f
00000040: a9a3 bfbe 3c51 cdbd b82b 34be b4e9 20bf
00000050: 2c2f b540 0091 c6bc 6709 983e 2b75 b23e
00000060: a32e 49bd ad95 13bf 154b b5bd 7f87 19be
00000070: 7b34 c7bd edaf 373f 4f6e 25be ba6d 0fbe
00000080: 1e07 93be eaeb bcbe 0914 203e 9913 2b3e
00000090: 8f2b fc3c aecf 36bf 3349 2e3e 9d4d a5bd
000000a0: 5904 0740 59c1 38be 4383 02bf d3ed 23be
000000b0: 5b1c cdbd 2d8c 0a3d 47e3 423d f298 1abf
000000c0: 17ca 503e d6fb fdbd 7697 1e3f f9e2 573e
000000d0: f370 b2bc aa49 abbe 8f45 8fbf 9bed 203f
000000e0: dea8 edbd 3f3e 16bf ce8b 1b3e 1a4f afbe
000000f0: d8ca f0bf 8b4b 62be 28f9 06bd 2ad8 f03b
00000100: 1667 0d3f 5f78 c140 1218 76be 0b20 0cbe
00000110: e50d 30bf 55d4 933d 3317 283f a054 f1bd
00000120: 44bf fe3e d20b efbd fa03 c8bd 249d bb3e
00000130: 6930 fcbd 0123 683c 672b 41bf cc5e edbd
00000140: 4119 39be 53d7 e3ba a01b 0fbe 96bd 33be
00000150: c397 4f3e efdc 2b3d 7824 cb3e 9b15 fabd
00000160: a9ff 16be 96f2 4c3e cb54 18bd bc1c b1be
00000170: 970d 39bd 159d a73e f25d 5d3f 3783 0dbf
00000180: fbdb 96be d86b 523e 5cfc eb3c 00bb 0a3e
00000190: e0a4 c2bc fa38 bbbd db58 a7be 6175 163c
000001a0: f106 8cbe 9d74 c1be 4092 afbd 415f d03d
000001b0: a879 96be 209d d63c 123e d2bd 9990 bc3e
000001c0: 7f9c 803d 3cc1 2c3f 15ad 88be bcc8 81bc
000001d0: af66 b9be cf47 58be baaf 6dbd 55d0 49be
000001e0: 47c5 9c3e 8599 1941 1d05 07bd 289b 90be
000001f0: 7360 aebd 611a 90be 132c f8bd b996 d9bc
-0.058926202 0.4521922 -0.016049407 0.088453405 -0.2286317 -0.049129456 -0.290451 -0.27015164
0.12577239 -0.053390726 -0.02957517 -0.14972036 0.00626256 -0.11120669 -0.15063715 0.6044027
-0.3742955 -0.1002526 -0.17594802 -0.628566 5.6620083 -0.024239063 0.29694673 0.34855017
-0.049116742 -0.5765026 -0.088522114 -0.14993094 -0.09726807 0.71752816 -0.1615536 -0.14006701
-0.28716367 -0.36898738 0.15632643 0.16706695 0.03078249 -0.71410644 0.17020111 -0.08071444
2.1096404 -0.18042506 -0.5098154 -0.16008691 -0.10015174 0.03382509 0.04758003 -0.60389626
0.20389591 -0.124015495 0.6194986 0.21082677 -0.021782374 -0.3345464 -1.1193103 0.6286256
-0.116044745 -0.5868873 0.1519005 -0.34240037 -1.8811903 -0.2209913 -0.032952458 0.0073499875
0.5523542 6.0459437 -0.2403262 -0.13684098 -0.687712 0.072182335 0.656604 -0.11783719
0.497553 -0.116721764 -0.097663835 0.36643326 -0.12313921 0.014168502 -0.7545685 -0.11590347
-0.1807604 -0.0017382897 -0.13975382 -0.1755279 0.20272736 0.041958746 0.3967626 -0.12211152
-0.14745964 0.20014414 -0.03719024 -0.34592235 -0.045178976 0.32737032 0.86471474 -0.5527834
-0.29464707 0.20548952 0.028806858 0.13547897 -0.02376026 -0.09141727 -0.3268498 0.009183259
-0.27349046 -0.3778428 -0.08572817 0.10174418 -0.2938969 0.02619797 -0.10265745 0.3682907
0.06279849 0.6748235 -0.2669455 -0.015842788 -0.36211154 -0.21121143 -0.058028914 -0.19708379
0.3061926 9.59998 -0.03296386 -0.28243375 -0.0851449 -0.28145126 -0.121177815 -0.026561128

layers.4.weight f4 [12, 128]
00000000: ad6f 88bd c452 9840 baeb 0b3f 46e1 95bf
00000010: b23f 9e3f d11e ebbc 739f b8bf 7e05 0f3f
00000020: fe73 d53f e55f f7bf a49c d5bd 1247 1140
00000030: 4017 223d da2e d3be 3fd3 89bc e0aa db3f
00000040: 074a 683f ee96 c43f 1726 bb3e 0431 4e3f
00000050: 2312 afbe b548 553d 1738 83bf 19f8 3ebe
00000060: e9ea a7bf 69cb 8b40 0956 a3bf 823d a6bf
00000070: 00df 3abf 2ff6 e83c 9e01 7240 605d 943f
00000080: 6dae fbbe 1733 02c0 317e 35be 3ac3 0ac0
00000090: e4aa 46bf 8eda 2d40 15df 7640 4c91 3ebf
000000a0: b8a3 cdbe b3ea 7abf 440e 11be a94d 8240
000000b0: 473c 623c c409 e0bd 9a0a 173f f841 56be
000000c0: 253b 8fbf 1120 1b3f b357 dd3e 18dc 0fbf
000000d0: 0da2 ef3f 03ab 14c0 2b42 4f40 aa6b c9bf
000000e0: e78e 69be 1e58 5140 051d 5e3e 527d 983f
000000f0: eb9e de3f fade 46bf f82e d83f 06c9 b03f
00000100: bb6d 08c0 68ce 80be 5d26 bb3f eded 663d
00000110: a633 0e40 2b83 17bf 16d4 d3bf 7bb9 3c3f
00000120: fb9e 003f 2fc7 f4bc 19df 7c3b 0556 babf
00000130: 2119 a4bc cfd0 00c0 5147 71bf 5895 8a3f
00000140: bc25 1140 13b9 913d 1513 543d 976a 9cbf
00000150: b630 7dbf 0634 7a3e ba37 d2bf 250d 2d3d
00000160: 0d84 703e 79d2 ce3f 2194 67bf d249 2a3f
00000170: f836 9140 78d6 92bf 82b6 8040 3356 fc3f
00000180: 2bf4 92bf c6cc de3e 3555 a5bf c9c6 ebbf
00000190: 3960 8f3d 9cf2 6bbf 8de6 93bf c2dc f33f
000001a0: e980 9cbf 773c 0240 a900 be3f 0f25 debf
000001b0: df2c 273f 3187 cabe ae32 a9be 361d c73e
000001c0: a046 42bf 9129 01c0 0180 cd3f 8419 f4bc
000001d0: b480 323f 2dfa 97bf b0d9 c9bf cdb6 abbf
000001e0: e751 0e3e a912 63bf c610 5c3f 53bf 96bf
000001f0: 24f0 41bf 0fe4 4040 6d7f c6be 575d 0340
00000200: dd72 1abd a0c2 6640 5eab c3be c2ca 483e
00000210: ff59 e53f a811 2bbc fcf6 a5bf 78b8 bbbf
00000220: 3a62 c93f 78bf 6ebf 54e2 b3bd c1b4 673f
00000230: e06e a63d 1a0b f6bf af4a 5dbd 07b2 e03f
00000240: 7182 1fbf dda6 093f a972 0a3f 9eec 2c40
00000250: 03de c8be 13ad 463d 7a26 b8bf 16b4 01c0
00000260: 5e91 eebe 07e2 3440 f10f abbf 8e4b c7bf
00000270: ea55 9cbd 344a 56bf b006 7740 ac80 84bf
00000280: c1cf ecbe 3caa 5740 ea38 81bf b88e 22c0
00000290: c3a1 b8bf 9f64 5b40 2739 9e40 663b 5dbf
000002a0: 3e6c cabe 6f04 7fbe 3ff1 433f 7da3 8440
000002b0: 0948 87bd 6058 0240 9711 b03f 6806 8fbd
000002c0: f4ec 6c3f 13fc dabf 08fc dabf 42d1 5f3f
000002d0: 5e59 a33f 0024 483f cea9 7340 36f8 20c0
000002e0: d597 91bf 3213 4540 8c79 0cbd b18e 61bf
000002f0: f982 c03f 1be8 583f 8ab1 433f e482 0640
00000300: 18ae a4be ed7f 93be 0a81 0940 17cb 29bb
00000310: 68ec 5140 5de5 2f3f cb0b 2bc0 3033 823e
00000320: 6632 0cc0 014d 81bd d859 a83d 7a97 693e
00000330: 8af1 ef3c 9f13 95bf c936 90bf ddbc 213f
00000340: e37e 383f 65a3 b1bd bd5b 2b3c 53ab 9fbf
00000350: adbc 12c0 01aa 98bf 2076 1640 c55e c8bc
00000360: 0569 bcbf c404 2640 35a3 2d3f 2ffb b23d
00000370: 9f2b 6240 36c3 11c0 ff96 8a40 c429 5540
00000380: 185d 9fbf 8e00 dd3f d502 d13e df1f 613f
00000390: c39a 193d 0c34 c7bf efd2 0cbf d32f d83f
000003a0: e963 483d d206 0d40 9dfd b6bf c2bf 0a40
000003b0: 940e 083f 47e2 d0bf 76b5 1bbd a5f3 debf
000003c0: 3502 fdbf 1249 f1bf 12ae eb3e f6d4 2c3c
000003d0: f12d 1f3f 2f4b a1bf a194 75bd 03c2 0ac0
000003e0: 8eaf 01bf eeca 5cbf 035a 1540 b2bf d53f
000003f0: 8055 e8be 8fbb 3040 3674 dcbf 7b49 d33f
-0.066619255 4.760103 0.54656565 -1.1709373 1.2363188 -0.028701218 -1.442366 0.55867755
1.6676023 -1.932614 -0.104302675 2.2699628 0.039572954 -0.41246682 -0.016824363 1.7161522
0.90737957 1.535856 0.36552498 0.8054354 -0.34193525 0.052071292 -1.0251492 -0.18649329
-1.3118564 4.3685803 -1.2760631 -1.2987521 -0.7299652 0.028437702 3.7813487 1.1590996
-0.49156514 -2.0343683 -0.1772392 -2.1681657 -0.7760451 2.7164645 3.8573658 -0.74440455
-0.4016397 -0.9801437 -0.14165598 4.07198 0.013808317 -0.10939363 0.5900055 -0.20923603
-1.1189924 0.60595804 0.43230972 -0.5619521 1.8721329 -2.3229377 3.2384136 -1.5735981
-0.22808419 3.2710032 0.21690758 1.1913245 1.7392248 -0.77683985 1.6889334 1.3811347
-2.1316974 -0.25157475 1.4621083 0.056379247 2.2219024 -0.5918452 -1.6549098 0.7372052
0.50242585 -0.029880134 0.0038585125 -1.4557501 -0.020031514 -2.0127447 -0.94249445 1.0826826
2.2679281 0.07115378 0.05177601 -1.2220029 -0.9890245 0.24433908 -1.6423256 0.042248864
0.23487873 1.6157981 -0.904604 0.6651889 4.53796 -1.1471701 4.022279 1.9713806
-1.1480764 0.43515605 -1.2916628 -1.842004 0.07000775 -0.9216707 -1.1554734 1.9051745
-1.222684 2.0349405 1.4843951 -1.7355059 0.6530284 -0.39556268 -0.33046478 0.38889474
-0.75889015 -2.018162 1.6054689 -0.029797323 0.69727635 -1.1873223 -1.5769558 -1.3415161
0.13898431 -0.8870035 0.85963094 -1.1777138 -0.7575705 3.0139196 -0.38769093 2.052572
-0.0377072 3.605629 -0.3821668 0.19608596 1.791809 -0.010441221 -1.2965999 -1.466567
1.5733101 -0.9326091 -0.08783403 0.90510184 0.081266165 -1.9222138 -0.054026302 1.755433
-0.6230841 0.5377024 0.5408121 2.701942 -0.39231881 0.0485049 -1.4386742 -2.0266166
-0.4659528 2.8262956 -1.336424 -1.5569932 -0.07633574 -0.83706975 3.8597832 -1.0351768
-0.46252254 3.3697653 -1.0095494 -2.5399609 -1.4424366 3.4280164 4.9444766 -0.8641876
-0.39535707 -0.24904035 0.7653999 4.144957 -0.066055365 2.036644 1.3755368 -0.06983644
0.9254906 -1.7108177 -1.7108164 0.8742868 1.2761648 0.7817993 3.807239 -2.5151496
-1.137446 3.0792966 -0.034295604 -0.88108355 1.503997 0.84729165 0.7644278 2.101739
-0.32164073 -0.28808537 2.148501 -0.0025908404 3.280054 0.68709356 -2.6725948 0.25429678
-2.190576 -0.063135155 0.08220261 0.2281169 0.02928998 -1.1646613 -1.1266719 0.6317881
0.72068614 -0.08673743 0.010458884 -1.2474159 -2.2927659 -1.1926881 2.3509598 -0.024459252
-1.471955 2.5940409 0.6782716 0.08739316 3.5339124 -2.2775397 4.330932 3.3306742
-1.2450285 1.7265794 0.40822473 0.87939256 0.037501108 -1.5562758 -0.5500936 1.6889595
0.048923407 2.2035413 -1.4296147 2.167954 0.53147244 -1.6319054 -0.03801485 -1.7418104
-1.9766299 -1.8850424 0.46031243 0.010548821 0.62179476 -1.2601069 -0.059956197 -2.1680915
-0.506585 -0.86247146 2.3336189 1.6699126 -0.4537773 2.7614477 -1.7222965 1.65068

layers.4.bias f4 [12]
00000000: d57b 8ec0 73c4 bec0 0640 92c0 f23f 50c0
00000010: 3887 a0c0 c5cd 98c0 dd55 50c0 d8e4 80c0
00000020: 9613 91c0 91ee 9fc0 37e6 70c0 92c3 41c0
-4.452616 -5.9614806 -4.5703154 -3.253903 -5.016506 -4.7751184 -3.2552407 -4.027935
-4.533641 -4.997872 -3.7640512 -3.0275617
