ptdrlhf/ptdrlhf/checkpoints/apple_state_action_reward/checkpoint_supervised_reward100.pth (torch, 220175 bytes, 7 tensors)

layers.0.weight f4 [128, 291]
0.020386463 0.05638327 0.004568818 0.0041294857 -0.0011277442 0.029287968 -0.044606544 -0.041304305
-0.04766895 -0.010114582 0.0066322577 -0.0039264164 0.023872994 0.04826198 0.028382309 -0.020490803
0.05237064 -0.018330256 0.019428216 -0.0178087 0.051163107 -0.039265737 -0.008935084 -0.058201313
0.036654726 -0.0005183896 -0.03615299 0.009536143 -0.031110281 -0.04698352 -0.0030652569 -0.022737857
-0.04396315 0.033554513 -0.04831461 -0.0066962065 -0.023071995 -0.0471521 -0.010873323 0.011369358
0.001588125 -0.011258554 0.023098279 -0.020882301 0.02160429 -0.03286056 -0.030896973 -0.047443744
0.036448315 -0.050378684 -0.04102283 -0.015253112 -0.0018890707 -0.028868357 0.0062062587 -0.005795683
0.014412267 0.0458578 0.03925325 0.0035078598 0.053808108 0.024419937 -0.05364588 0.05777282
-0.005277097 0.023175834 0.026998272 -0.02392535 -0.016827414 0.031085787 -0.041184198 0.033760265
-0.007443745 -0.042793073 0.015204425 0.04165685 0.004405714 0.017338578 0.046421792 -0.038425688
-0.040725175 -0.03488694 -0.024252767 0.022648506 0.00792516 0.04369285 0.032985356 0.02458147
-0.027915051 0.044014856 -0.030115305 -0.04366412 0.046565812 -0.044693876 -0.015940852 -0.051756844
0.05437139 -0.00836719 -0.032953102 0.035681844 0.031465434 -0.0022986894 0.04429455 0.002544764
-0.0065320893 -0.008163904 0.044967387 -0.004502158 -0.013620276 -0.0542528 0.035546694 0.012261867
-0.025342083 0.010741093 0.030212503 -0.025490455 -0.009322704 -0.0327236 0.012463482 -0.027294228
0.0018918101 0.0051309257 0.02860166 -0.053763036 0.027847586 -0.055305395 0.009254282 -0.04041467
-0.0035187614 -0.05635759 0.013474734 0.03438495 0.04782353 -0.03461492 -0.0040894924 -0.041413657
-0.03311845 0.031320043 0.029332567 0.001262623 -0.022165071 0.055078693 -0.04882195 0.008961185
0.03783831 0.009719982 0.024923546 0.008298064 0.046731383 0.033292506 -0.039185178 -0.031109694
0.03170419 0.049560342 -0.022833217 0.045957975 0.019419787 0.0031275426 -0.03124024 0.009581574
0.015557523 -0.04563626 -0.02797505 -0.012631051 -0.0012618053 -0.04642243 0.025870297 -0.045008812
-0.018947275 -0.05108577 -0.017465468 0.0023404367 -0.010491812 -0.031153558 0.010157231 0.050371982
-0.009393222 0.031867262 -0.024088502 -0.028249623 -0.013043381 -0.02076172 0.028816357 0.039422523
-0.04880766 -0.057365395 -0.057323556 0.030182734 -0.027834129 -0.053961165 0.02178279 -0.005265979
0.017477762 -0.024223989 0.0016290967 0.032211218 0.0005519119 0.02382987 -0.043198813 0.03631805
-0.050476693 0.0049763545 0.035965424 0.002818337 0.0036801184 -0.0024738968 0.033654746 -0.0073266444
0.05618542 0.05232292 0.00036859812 -0.041838173 0.049895056 -0.019954426 0.033969235 0.0074990005
-0.0044111093 -0.05055083 0.0072835693 -0.030435182 0.043385852 -0.047398314 0.04497382 0.0013297374
-0.047204886 -0.05769451 0.026810968 -0.02706909 -0.027179448 0.018335957 -0.001635393 0.046374
-0.03075387 -0.048284035 -0.03510718 -0.045311023 0.051673077 0.03083752 0.033096835 -0.025420308
0.01876768 -0.004420676 -0.024084492 0.004180597 -0.029792333 -0.030466432 -0.05329252 -0.040976476
-0.023171522 -0.051115125 -0.05727654 0.01253089 -0.0064829555 -0.046572946 0.0063931225 -0.056749884
00000000: 8301 a73c 25f2 663d 06b6 953b a350 873b
00000010: d1d0 93ba 52ed ef3c 5ab5 36bd b42e 29bd
00000020: 8440 43bd a2b7 25bc 6953 d93b 2ba9 80bb
00000030: 4c91 c33c 5bae 453d 0482 e83c 54dc a7bc
00000040: 9982 563d 5529 96bc ec27 9f3c 8de3 91bc
00000050: 6890 513d 1cd5 20bd 7564 12bc 8064 6ebd
00000060: 4423 163d 8ae4 07ba 2815 14bd 7c3d 1c3c
00000070: fdda febc cb71 40bd 7ae2 48bb be44 babc
00000080: b412 34bd 7570 093d 8ae5 45bd da6b dbbb
00000090: 7b01 bdbc 8f22 41bd 0626 32bc 8b46 3a3c
000000a0: a228 d03a cc75 38bc 9a38 bd3c 5c11 abbc
000000b0: 7bfb b03c cb98 06bd a61b fdbc 5f54 42bd
000000c0: d44a 153d e159 4ebd 8e07 28bd 30e8 79bc
000000d0: b29a f7ba 557d ecbc df5d cb3b b6e9 bdbb
000000e0: 6e21 6c3c 63d5 3b3d 04c8 203d 1fe4 653b
000000f0: e465 5c3d 520c c83c c8bb 5bbd 31a3 6c3d
00000100: 80eb acbb 3fdb bd3c 7b2b dd3c 18ff c3bc
00000110: a5d9 89bc 9fa7 fe3c c3b0 28bd 3448 0a3d
00000120: a9ea f3bb ca47 2fbd fb1b 793c 60a0 2a3d
00000130: cf5d 903b a209 8e3c c724 3e3d 4164 1dbd
00000140: 71cf 26bd 9ce5 0ebd bdad c6bc 5c89 b93c
00000150: 88d8 013c 46f7 323d a71b 073d 145f c93c
00000160: 1bae e4bc ec48 343d 5fb4 f6bc 26d9 32bd
00000170: cbbb 3e3d ed10 37bd 6496 82bc fcfe 53bd
00000180: 89b4 5e3d 8a16 09bc d5f9 06bd 2027 123d
00000190: e6e1 003d 9ca5 16bb 346e 353d 0ec6 263b
000001a0: 230b d6bb e5c1 05bc b92f 383d d786 93bb
000001b0: 9427 5fbc 2f38 5ebd 6999 113d ffe5 483c
000001c0: 339a cfbc 69fb 2f3c 3680 f73c 5cd1 d0bc
000001d0: 41be 18bc 2e09 06bd a233 4c3c 2598 dfbc
000001e0: 9df6 f73a 5321 a83b 074e ea3c a136 5cbd
000001f0: 9f20 e43c e987 62bd 469f 173c da89 25bd
00000200: 059b 66bb 37d7 66bd 21c5 5c3c 3cd7 0c3d
00000210: 9be2 433d 60c8 0dbd 2601 86bb 5ea1 29bd
00000220: 36a7 07bd 7249 003d da4a f03c 997e a53a
00000230: 8693 b5bc 329a 613d 86f9 47bd efd1 123c
00000240: 58fc 1a3d 8f40 1f3c 772c cc3c 9af4 073c
00000250: 6869 3f3d b95d 083d a380 20bd c2d9 febc
00000260: 41dc 013d c9ff 4a3d ba0c bbbc 6e3e 3c3d
00000270: 3f16 9f3c 75f7 4c3b 88eb ffbc 09fc 1c3c
00000280: fbe4 7e3c 16ed 3abd ef2b e5bc 78f2 4ebc
00000290: 2963 a5ba 7225 3ebd f2ed d33c 295b 38bd
000002a0: 5137 9bbc 503f 51bd be13 8fbc 0362 193b
000002b0: d9e5 2bbc bf35 ffbc 846a 263c da52 4e3d
000002c0: 07e6 19bc 3f87 023d 4055 c5bc c16b e7bc
000002d0: e8b3 55bc 7c14 aabc 4810 ec3c 8379 213d
000002e0: 8aea 47bd faf7 6abd 1bcc 6abd c841 f73c
000002f0: 6604 e4bc 6206 5dbd d271 b23c 3c8e acbb
00000300: 862d 8f3c 6371 c6bc 6a87 d53a e9ef 033d
00000310: 2eae 103a dc36 c33c 3df1 30bd 3cc2 143d
00000320: a6c0 4ebd b010 a33b 7b50 133d d9b3 383b
00000330: 242e 713b 1a21 22bb 8fd9 093d 5914 f0bb
00000340: af22 663d 8f50 563d 6740 c139 815e 2bbd
00000350: c25e 4c3d 7777 a3bc 5323 0b3d 2dba f53b
00000360: 118b 90bb 630e 4fbd 02ab ee3b 3453 f9bc
00000370: 5db5 313d bc24 42bd 7836 383d 954a ae3a
00000380: e959 41bd 1451 6cbd ada2 db3c ffbf ddbc
00000390: 6fa7 debc 4a35 963c af5a d6ba aaf2 3d3d
000003a0: 8aef fbbc 7bc5 45bd 8ccc 0fbd 0d98 39bd
000003b0: 26a7 533d f79e fc3c 8c90 073d 403e d0bc
000003c0: adbe 993c 51db 90bb d74c c5bc 64fd 883b
000003d0: 0d0f f4bc bd94 f9bc 4249 5abd f3d6 27bd
000003e0: 34d2 bdbc 185e 51bd ce9a 6abd 5d4e 4d3c
000003f0: f96e d4bb 46c3 3ebd 667d d13b 9172 68bd

layers.0.bias f4 [128]
0.0721442 -0.041770186 -0.029935569 -0.03500898 -0.056815412 0.04006056 0.025274985 -0.025293123
-0.052075785 0.005628459 0.012454444 0.058558486 0.07705628 -0.019395877 -0.05566237 -0.042393357
-0.02299296 -0.0044378736 0.0783665 -0.04242662 -0.03132667 0.05948654 -0.0017877002 -0.046822842
-0.034749582 0.09290394 0.06962654 -0.049122844 0.048442934 0.08427826 -0.027347961 0.07995445
0.09622619 0.047934193 0.07461346 -0.018602299 -0.022837592 0.10040793 -0.0056913174 0.05714185
0.07663445 -0.0056530745 -0.016667265 0.0019548072 0.05790636 0.078290336 0.05360255 0.033958346
0.044015307 0.0992576 0.05358954 -0.0012124777 -0.024005063 -0.05676707 0.017086169 -0.005717988
-0.030645099 -0.03066368 -0.0023257616 -0.011559394 -0.0046524527 0.041756485 -0.050289202 0.06795832
-0.01450667 0.10924265 0.05134556 0.03664662 0.060873058 -0.05290794 0.081713155 -0.03922134
0.07188644 0.06498883 0.062765196 0.06279298 -0.05421617 -0.03888256 0.042836428 0.057605855
0.039034717 0.054402944 -0.055687737 0.0923493 0.11136846 0.09891874 -0.021273443 -0.016258067
0.097100586 0.046425156 -0.04508009 0.016630346 0.077642076 -0.04650247 -0.04482649 -0.04508321
0.04361737 0.08856675 0.008661008 0.096131936 0.07801583 0.039486364 -0.021277322 -0.025535088
-0.036456157 0.104871705 -0.054524228 0.10386333 0.060286712 0.06524182 -0.023409158 -0.030812444
-0.02286741 0.062364824 -0.042728495 0.06514492 -0.017538048 0.075895265 -0.039170045 0.012347586
0.07558864 -0.010746083 0.018749952 -0.05354677 -0.008446888 -0.051141445 -0.003718714 0.0007250737
00000000: 57c0 933d 3717 2bbd 703b f5bc 9465 0fbd
00000010: 47b7 68bd 8b16 243d 7c0d cf3c 8633 cfbc
00000020: 6b4d 55bd f06e b83b b90d 4c3c 06db 6f3d
00000030: afcf 9d3d 1ae4 9ebc 3afe 63bd a8a4 2dbd
00000040: bb5b bcbc 956b 91bb 9e7e a03d 89c7 2dbd
00000050: 6550 00bd 28a8 733d 4451 eaba 4fc9 3fbd
00000060: 9455 0ebd 6c44 be3d 5c98 8e3d 0935 49bd
00000070: 196c 463d 159a ac3d d508 e0bc 29bf a33d
00000080: 3d12 c53d a556 443d f1ce 983d d963 98bc
00000090: e715 bbbc aca2 cd3d 3b7e babb 930d 6a3d
000000a0: 86f2 9c3d 6d3d b9bb ca89 88bc 391c 003b
000000b0: 382f 6d3d af56 a03d 598e 5b3d e817 0b3d
000000c0: 6549 343d 9247 cb3d b580 5b3d 00ec 9eba
000000d0: 44a6 c4bc 9684 68bd 4bf8 8b3c f65d bbbb
000000e0: 6e0b fbbc 6632 fbbc ce6b 18bb 9d63 3dbc
000000f0: 9a73 98bb d908 2b3d 0dfc 4dbd bb2d 8b3d
00000100: 62ad 6dbc 9cba df3d b94f 523d c41a 163d
00000110: 0756 793d ffb5 58bd 3a59 a73d 8ea6 20bd
00000120: 3339 933d dd18 853d 0a8b 803d 9b99 803d
00000130: c611 5ebd 5243 1fbd 4075 2f3d 1ef4 6b3d
00000140: dee2 1f3d 9fd5 5e3d d318 64bd a121 bd3d
00000150: 2615 e43d e995 ca3d a545 aebc a32f 85bc
00000160: acdc c63d 4e28 3e3d e7a5 38bd 5d3c 883c
00000170: cf02 9f3d 6079 3ebd fb9b 37bd 2ca9 38bd
00000180: 21a8 323d 7c62 b53d e7e6 0d3c d2e0 c43d
00000190: c3c6 9f3d 74bc 213d c74d aebc f62e d1bc
000001a0: 0d53 15bd fac6 d63d cc54 5fbd 4cb6 d43d
000001b0: 33ef 763d 819d 853d 90c4 bfbc 616a fcbc
000001c0: 6f54 bbbc 4272 7f3d 1304 2fbd b36a 853d
000001d0: f4ab 8fbc fa6e 9b3d c570 20bd 884d 4a3c
000001e0: 38ce 9a3d 5710 30bc 8099 993c dc53 5bbd
000001f0: d164 0abc b179 51bd abb5 73bb df12 3e3a

layers.2.weight f4 [128, 128]
-0.0044204257 0.042007804 0.07988561 -0.004725062 0.07543623 0.05097049 -0.021545565 0.015701577
0.052505564 0.005373538 0.08317313 0.10551903 0.117001764 -0.044418957 0.03258492 -0.013898545
0.010986018 0.024843702 0.118528396 -0.032228608 0.031478837 0.121120036 -0.05790959 0.04728813
0.014872021 -0.021848103 0.12327264 0.09494044 0.0013517519 0.12566908 -0.04690607 0.085138656
0.03723762 0.023954442 0.08095272 -0.033866573 -0.071342774 0.13666801 -0.034881596 0.021016916
0.12342111 0.053179305 0.054904655 0.08483272 0.064679824 0.13988338 0.06481374 0.043816075
0.06159244 0.119026035 0.050084572 0.0732381 -0.05250357 -0.00844448 -0.010228147 0.0060262405
-0.0011066603 0.048894897 0.012788723 0.029705383 -0.0032738512 0.016953373 0.086536266 0.05840981
0.08323494 0.12534755 0.040057555 0.023529172 0.028327232 -0.05789605 0.109992795 -0.03949835
0.033341773 -0.026041925 -0.0014785005 0.12706052 0.034714535 0.026645869 0.050490025 -0.012655894
0.086572126 0.062267814 -0.01335898 0.108461946 0.015177722 0.0383594 -0.052957967 -0.00017072634
0.11478095 0.07001006 -0.077136606 0.039726038 0.13289629 0.081551895 0.053050607 0.08479797
0.015312389 0.124477096 -0.044940528 0.10248044 0.008668207 0.0033149621 -0.052661505 0.0048351497
-0.078850105 0.09858509 -0.03571764 0.08019197 0.016467134 0.05449792 0.0033112732 -0.048644565
-0.0420185 -0.0027280445 0.004737221 0.07783004 -0.0035476855 0.10133626 0.0071693053 -0.00068799313
-0.03135575 0.035270706 -0.010497191 -0.04120853 0.06848927 0.027577398 -0.07303914 0.06939913
0.052078355 0.05241184 0.021098165 -0.06494709 0.033057544 0.01074789 0.09480668 -0.0853245
0.07872576 0.06286206 0.0085537825 0.03743275 0.04368169 -0.0018665703 0.06244928 0.055043887
0.01077481 0.053724766 -0.0124354465 -0.038951263 0.0010253064 0.1074744 0.060076013 0.02182253
-0.07241059 0.016616747 0.07232805 -0.05045008 -0.029297767 0.078119524 0.012182293 0.03993793
0.034968007 0.0926903 0.057569243 -0.048972983 -0.06457804 0.06459846 0.069770135 -0.03272086
0.11398622 0.08333286 -0.0380053 0.0002071091 0.13574499 0.12126883 0.005606067 -0.040673085
0.011271894 0.10478426 0.05490115 -0.0072479225 -0.0032044458 -0.00024017382 0.0075334916 -0.079553105
0.07976782 -0.047423918 0.061207466 0.0026707298 -0.021788888 -0.042926837 0.05243035 0.04638197
0.07794773 0.12624916 0.08270492 -0.012642182 0.10035502 0.04157527 0.06412584 -0.07580336
0.073078945 -0.027472552 -0.032705933 0.020148413 -0.053705957 0.076006085 0.011506546 0.03380231
0.011291304 -0.0077725444 -0.07574733 0.066516995 -0.026536059 0.077255316 0.056872524 -0.008826635
0.12465929 -0.03802999 -0.03272747 0.004996681 0.0695582 0.006616075 0.010398745 0.057093173
0.018739989 -0.024571992 -0.057645418 0.09175272 0.056009285 -0.008687474 0.035432857 -0.06950205
0.078754164 -0.0034225658 0.015186626 0.09979184 0.031450447 0.015602614 -0.0063911933 -0.0026872093
-0.079780065 -0.011799761 0.07184724 0.12019018 -0.040018372 0.101774074 -0.08524497 0.07648597
0.099467 0.059976198 -0.016624121 0.056610867 -0.008027265 0.006100535 -0.077310406 0.06922971
00000000: 38d9 90bb 6010 2c3d 119b a33d b1d4 9abb
00000010: 4f7e 9a3d 6fc6 503d 5380 b0bc 98a0 803c
00000020: 1310 573d 8114 b03b ad56 aa3d 5c1a d83d
00000030: 9f9e ef3d a7f0 35bd c477 053d b9b6 63bc
00000040: b3fe 333c 0585 cb3c 04bf f23d 2502 04bd
00000050: f4ef 003d c80d f83d 9b32 6dbd 33b1 413d
00000060: c7a9 733c cbfa b2bc 5e76 fc3d 2270 c23d
00000070: 442d b13a 65af 003e 9420 40bd 2d5d ae3d
00000080: 7a86 183d 1b3c c43c 8aca a53d adb7 0abd
00000090: 291c 92bd b3f2 0b3e 01e0 0ebd ab2b ac3c
000000a0: 35c4 fc3d 8bd2 593d b4e3 603d c7bc ad3d
000000b0: db76 843d 973d 0f3e 11bd 843d 7c78 333d
000000c0: 5b48 7c3d ecc3 f33d 7b25 4d3d dbfd 953d
000000d0: fc0d 57bd b75a 0abc f593 27bc c577 c53b
000000e0: 5c0d 91ba 0446 483d cb87 513c b458 f33c
000000f0: 1c8e 56bb cde1 8a3c ed39 b13d 203f 6f3d
00000100: 1577 aa3d 1c5b 003e 6413 243d 40c0 c03c
00000110: 830e e83c 6924 6dbd e743 e13d 06c9 21bd
00000120: 6291 083d e055 d5bc 3fca c1ba 271c 023e
00000130: d430 0e3d 7048 da3c a1ce 4e3d ab5a 4fbc
00000140: ba4c b13d 890c 7f3d a0df 5abc 4c21 de3d
00000150: fbab 783c bf1e 1d3d 74ea 58bd 0105 33b9
00000160: 4612 eb3d 6f61 8f3d ccf9 9dbd c5b7 223d
00000170: f715 083e ae04 a73d 984b 593d 8faa ad3d
00000180: d0e0 7a3c d9ed fe3d 8f13 38bd 44e1 d13d
00000190: 1805 0e3c d63f 593b 97b3 57bd 2d70 9e3b
000001a0: 2a7c a1bd fbe6 c93d a94c 12bd b03b a43d
000001b0: 15e6 863c 3639 5f3d f201 593b 863f 47bd
000001c0: 971b 2cbd fec8 32bb b13a 9b3b 5b65 9f3d
000001d0: 4980 68bb 6389 cf3d 7eec ea3b 705a 34ba
000001e0: e36e 00bd 0478 103d 69fc 2bbc 47ca 28bd
000001f0: 1a44 8c3d ffe9 e13c 8b95 95bd 2221 8e3d
00000200: 1d50 553d ccad 563d 0fd6 ac3c fb02 85bd
00000210: 5967 073d eb17 303c 012a c23d 9dbe aebd
00000220: f93a a13d d3bd 803d 2a25 0c3c 1553 193d
00000230: 92eb 323d b5a7 f4ba d1ca 7f3d b375 613d
00000240: d488 303c 800e 5c3d 0bbe 4bbc 5c8b 1fbd
00000250: 9363 863a 8a1b dc3d 4412 763d 2ac5 b23c
00000260: 014c 94bd d81f 883c bb20 943d bea4 4ebd
00000270: df01 f0bc 21fd 9f3d 3e98 473c f495 233d
00000280: 9d3a 0f3d 69d4 bd3d bacd 6b3d e597 48bd
00000290: 7e41 84bd 334c 843d a5e3 8e3d 4f06 06bd
000002a0: 9b71 e93d 6baa aa3d 72ab 1bbd 6d2b 5939
000002b0: bc00 0b3e cb5b f83d 19b3 b73b d298 26bd
000002c0: c0ad 383c 2199 d63d 07e0 603d fb7f edbb
000002d0: ae01 52bb 2bd7 7bb9 82db f63b bdec a2bd
000002e0: 505d a33d 953f 42bd aeb4 7a3d 6907 2f3b
000002f0: 9c7e b2bc 0dd4 2fbd 35c1 563d 05fb 3d3d
00000300: 0fa3 9f3d 7647 013e 3261 a93d 2821 4fbc
00000310: ef86 cd3d d54a 2a3d 6954 833d cb3e 9bbd
00000320: 6aaa 953d 1e0e e1bc a8f6 05bd 490e a53c
00000330: c7fa 5bbd 14a9 9b3d f485 3c3c 4a74 0a3d
00000340: 29ff 383c d4b0 febb 6b21 9bbd 103a 883d
00000350: 2662 d9bc 0938 9e3d 2af3 683d 979d 10bc
00000360: 5f4d ff3d 56c5 1bbd 3d0d 06bd 33bb a33b
00000370: 8874 8e3d a9cb d83b 7f5f 2a3c 88da 693d
00000380: 9b84 993c 344b c9bc 9a1d 6cbd dae8 bb3d
00000390: fe69 653d e855 0ebc 0b22 113d 1757 8ebd
000003a0: dd49 a13d 204d 60bb 54d1 783c aa5f cc3d
000003b0: 2fd2 003d 1ba2 7f3c 376d d1bb e41b 30bb
000003c0: bb63 a3bd c953 41bc a524 933d 4526 f63d
000003d0: 4eea 23bd ed6e d03d ea94 aebd ada4 9c3d
000003e0: 5bb5 cb3d 9aa9 753d 4f2f 88bc cce0 673d
000003f0: ca84 03bc ffe6 c73b eb54 9ebd 4ec8 8d3d

layers.2.bias f4 [128]
0.114600845 0.10270635 -0.07333124 0.111560345 0.010320098 -0.04479858 0.009436417 -0.08178131
0.0114672575 0.03940793 -0.012310304 -0.0059094103 -0.0575711 0.011056184 -0.006287613 -0.023920422
-0.024431927 0.06880599 -0.0046835802 0.014086017 0.10820707 -0.056534637 -0.028552508 -0.057372406
-0.022692095 -0.046027415 0.01938854 -0.058391098 -0.003743331 0.114963725 -0.07477305 -0.06255717
-0.005825294 -0.052917507 0.031647947 0.11593819 0.0057589873 -0.026036015 -0.049565304 -0.05143775
0.06425976 0.0968085 -0.035786215 0.018201819 0.084169306 0.050979394 -0.005417618 -0.008061228
0.08673272 0.104572944 0.04555826 -0.06109684 0.036342647 0.02996815 -0.056096125 -0.03516725
-0.016861973 0.06057332 0.12997824 -0.045092575 -0.024922833 0.015965419 -0.054136436 0.00517844
0.01857186 -0.053856168 0.05173902 0.11245511 -0.017761819 0.0026303413 0.13271727 0.026423106
-0.08607866 0.04952746 -0.013853317 0.11924185 -0.04842435 0.14186656 0.10314669 0.055990256
-0.05329061 0.0919198 -0.08135549 0.039054945 0.005554397 0.057958886 -0.043511752 -0.04303246
-0.012727642 0.048802897 0.0897009 -0.04470829 -0.0575423 -0.016038425 -0.04233263 0.054724604
0.1327439 -0.018904593 0.027939845 0.089876704 0.0062163332 -0.05935331 0.021498282 -0.012289979
-0.074830614 -0.08672388 0.13070391 -0.039454896 0.046783447 -0.0122955525 -0.08787503 0.044742987
-0.06717418 0.12525962 -0.05091149 0.056034744 -0.06417545 0.10789408 -0.004910795 -0.06297268
-0.034659933 -0.04896975 -0.05449682 0.075613044 0.04221878 0.109091304 -0.06502226 0.10209853
00000000: d9b3 ea3d b557 d23d b02e 96bd c079 e43d
00000010: a115 293c b77e 37bd 349b 1a3c f67c a7bd
00000020: 2ae1 3b3c 366a 213d 28b1 49bc baa3 c1bb
00000030: accf 6bbd ff24 353c 5208 cebb c3f4 c3bc
00000040: 7725 c8bc 28ea 8c3d b878 99bb 0ac9 663c
00000050: ab9b dd3d dd90 67bd f3e6 e9bc 54ff 6abd
00000060: c6e4 b9bc 3e87 3cbd b7d4 9e3c 812b 6fbd
00000070: ac52 75bb 1a72 eb3d 9d22 99bd f91d 80bd
00000080: 1ce2 bebb 07c0 58bd 47a1 013d 0071 ed3d
00000090: e3b5 bc3b 7b49 d5bc fd04 4bbd 64b0 52bd
000000a0: 9f9a 833d 8943 c63d 9194 12bd fb1b 953c
000000b0: f560 ac3d c5cf 503d 4686 b1bb 3e13 04bc
000000c0: eda0 b13d 572a d63d 4c9b 3a3d ae40 7abd
000000d0: 07dc 143d c47f f53c 0dc5 65bd 890b 10bd
000000e0: 1f22 8abc bb1b 783d 0419 053e feb2 38bd
000000f0: f82a ccbc e9c9 823c 2bbe 5dbd e7af a93b
00000100: 0324 983c 4998 5cbd 4bec 533d dd4e e63d
00000110: 3c81 91bc ce61 2c3b 09e7 073e 4575 d83c
00000120: 024a b0bd 4edd 4a3d 06f9 62bc 1235 f43d
00000130: 9c58 46bd 7845 113e 923e d33d 0a56 653d
00000140: 4147 5abd 7340 bc3d b59d a6bd 14f8 1f3d
00000150: a901 b63b 4c66 6d3d 6139 32bd ce42 30bd
00000160: 9a87 50bc 8ce5 473d 1bb5 b73d 0a20 37bd
00000170: 7ab1 6bbd 0463 83bc fb64 2dbd e826 603d
00000180: 04ee 073e cedd 9abc 1ae2 e43c 4711 b83d
00000190: 62b2 cb3b 751c 73bd 2a1d b03c e85b 49bc
000001a0: cb40 99bd 4a9c b1bd 3fd7 053e 759b 21bd
000001b0: 00a0 3f3d 4973 49bc d3f7 b3bd 6c44 373d
000001c0: 9e92 89bd 0f44 003e 9188 50bd b084 653d
000001d0: 6b6e 83bd 92f7 dc3d bcea a0bb d2f7 80bd
000001e0: 93f7 0dbd 8194 48bd 0f38 5fbd 03db 9a3d
000001f0: 99ed 2c3d 436b df3d 642a 85bd 0919 d13d

layers.4.weight f4 [4, 128]
0.06962514 0.06457108 0.030333329 0.04071452 0.0823411 0.08441673 0.079318866 -0.041502044
0.099322386 0.045085516 -0.07236473 -0.01658545 -0.012941379 -0.021542657 -0.07463073 -0.08837202
0.017947646 -0.011093043 -0.052814018 -0.07211134 0.08119626 0.08099783 -0.08689683 -0.086339965
-0.0012845469 -0.011131077 0.024710631 0.085380845 -0.0016235055 0.039781794 -0.016212491 -0.041767463
-0.0551542 0.0049905344 -0.019300915 0.1075902 0.021703878 -0.051025722 0.02227131 0.07757867
0.0735749 0.09549119 0.02725547 -0.045288518 0.111369155 0.025197873 0.046285223 -0.030011456
0.13664433 0.04875751 -0.03731239 0.0823434 -0.068018295 -0.045201015 -0.062396184 0.055954732
0.048315335 0.0410176 0.115657225 0.015388152 0.023286197 0.0023240722 -0.06979402 -0.0024411054
-0.007057996 0.010736815 -0.038636826 0.056147464 -0.009215998 -0.0082770595 0.08171308 0.059981856
-0.04848918 0.0732831 -0.05570521 0.056660097 -0.069775015 0.12831128 0.024561243 0.13498165
0.04124006 0.056108117 0.036049128 0.011208954 -0.054181196 0.032589406 -0.046858456 -0.043914042
-0.016188173 0.013387467 0.08195036 -0.08752668 -0.05552001 0.073781975 -0.07539934 0.062260434
0.057832286 0.028122876 -0.00024377377 0.09553776 -0.04519578 0.05531757 -0.06821381 0.031059003
0.07520955 0.02470802 0.13051927 0.062417638 -0.026126616 0.079134196 0.0077300374 0.009793887
-0.06206051 0.10216805 0.037682876 0.05352258 0.05082466 0.09457725 -0.08067302 0.052318294
0.012272783 -0.0016751054 0.021140901 0.11758053 -0.015742483 0.075915106 -0.07387606 0.10605258
0.019551711 -0.072164044 0.0145962965 -0.084242195 -0.012256472 0.010315399 0.022882966 0.043686714
-0.08233259 -0.014418616 0.06287986 -0.06358372 0.0031371268 0.06509413 0.062151153 0.025093349
0.0134069435 -0.06308516 0.052661568 0.040872317 -0.046572763 0.04668523 0.07625782 -0.0005515547
0.027131453 0.014987124 -0.08456312 -0.04211999 0.04258606 -0.06532169 -0.019702872 -0.06017137
-0.011769487 0.06001845 0.06959948 0.033249468 0.068962105 0.00043732623 0.01731226 -0.0019670355
0.025139678 0.040626053 0.0018059503 0.03306963 -0.024140662 0.033529177 -0.0054505356 -0.019263744
0.0016389856 -0.049822655 0.08597327 0.07468723 0.030799009 0.07495832 0.024111537 -0.08106147
-0.0674053 -0.051252104 -0.0047347136 0.081789516 -0.0053500575 -0.079079255 -0.07596825 -0.06493266
-0.056874305 0.014312869 -0.07511127 0.06293225 -0.05171821 -0.0593498 0.0151716005 0.04920737
-0.02761982 -0.020019332 -0.034839544 -0.05295584 -0.028409177 -0.054080065 -0.015050555 0.019748075
-0.038972948 0.07834921 -0.0782037 0.033150952 -0.079921 0.069218494 -0.07935614 0.020121306
0.013003536 -0.005803052 -0.06638295 -0.038074113 0.011098709 -0.028164314 -0.06268989 0.053409234
-0.0045398264 -0.030621434 -0.06624907 -0.036799625 0.08646087 -0.018695774 -0.057351746 0.078037016
0.05983882 0.018644523 0.036700685 -0.048281446 -0.028625801 0.059496883 -0.077240154 -0.047281936
-0.08285853 0.07215666 0.033789527 0.06744054 0.034397084 0.015348365 0.018443344 -0.05015397
0.053084344 0.023134572 -0.06618957 0.02544773 -0.08190222 0.020732118 -0.031141557 0.03882541
00000000: a097 8e3d d83d 843d 9a7d f83c 45c4 263d
00000010: 73a2 a83d aee2 ac3d ee71 a23d 0cfe 29bd
00000020: 8969 cb3d 97ab 383d f633 94bd 36de 87bc
00000030: 1408 54bc 3a7a b0bc ffd7 98bd 64fc b4bd
00000040: f106 933c 98bf 35bc 8353 58bd 1caf 93bd
00000050: 3a4a a63d 31e2 a53d f7f6 b1bd 02d3 b0bd
00000060: 3e5e a8ba 1f5f 36bc f36d ca3c 27dc ae3d
00000070: cecb d4ba 3cf2 223d 0fd0 84bc 5c14 2bbd
00000080: 5fe9 61bd a387 a33b f41c 9ebc 4058 dc3d
00000090: 55cc b13c 5900 51bd 5372 b63c 91e1 9e3d
000000a0: 70ae 963d e390 c33d dd46 df3c 7480 39bd
000000b0: 8315 e43d c56b ce3c 9395 3d3d 96da f5bc
000000c0: 7eec 0b3e f4b5 473d e0d4 18bd a8a3 a83d
000000d0: 2d4d 8bbd b324 39bd 2493 7fbd ca30 653d
000000e0: 4de6 453d 1202 283d b2dd ec3d 961e 7c3c
000000f0: b2c2 be3c 764f 183b 2bf0 8ebd f4fa 1fbb
00000100: c346 e7bb 77e9 2f3c a641 1ebd e2fa 653d
00000110: b3fe 16bc 819c 07bc 3059 a73d 89af 753d
00000120: 979c 46bd 7315 963d 252b 64bd 6b14 683d
00000130: 34e6 8ebd 0864 033e a934 c93c a138 0a3e
00000140: 56eb 283d a0d1 653d 40a8 133d c3a5 373c
00000150: 1aed 5dbd 787c 053d a7ee 3fbd 36df 33bd
00000160: 0f9d 84bc 1b57 5b3c 97d5 a73d 3041 b3bd
00000170: f368 63bd 011b 973d f86a 9abd cc04 7f3d
00000180: 8ce1 6c3d f261 e63c 869d 7fb9 4da9 c33d
00000190: 361f 39bd ad94 623d afb3 8bbd 736f fe3c
000001a0: 7707 9a3d 7968 ca3c d8a6 053e a3a9 7f3d
000001b0: 7c07 d6bc 1c11 a23d 414c fd3b 8a76 203c
000001c0: 2933 7ebd 7c3d d13d 5c59 1a3d 7e3a 5b3d
000001d0: 852d 503d b8b1 c13d e537 a5bd b54b 563d
000001e0: c813 493c 368f dbba af2f ad3c 10ce f03d
000001f0: 61f6 80bc 6179 9b3d 554c 97bd 1832 d93d
00000200: e92a a03c beca 93bd 4e25 6f3c 2c87 acbd
00000210: 5fcf 48bc eb01 293c 0f75 bb3c d7f0 323d
00000220: fd9d a8bd 0f3c 6cbc 28c7 803d 2e38 82bd
00000230: 4198 4d3b 1250 853d 3592 7e3d 9190 cd3c
00000240: cca8 5b3c cb32 81bd a8b3 573d bb69 273d
00000250: 15c3 3ebd 0339 3f3d 0f2d 9c3d 3696 10ba
00000260: c842 de3c 8e8c 753c 6e2f adbd 0386 2cbd
00000270: b86e 2e3d 61c7 85bd eb67 a1bc 4176 76bd
00000280: ced4 40bc e8d5 753d 2c8a 8e3d 9830 083d
00000290: 013c 8d3d ef48 e539 71d2 8d3c 61e9 00bb
000002a0: baf1 cd3c 8167 263d a3b5 ec3a 0574 073d
000002b0: a3c2 c5bc e455 093d 689a b2bb 00cf 9dbc
000002c0: 3bd3 d63a d712 4cbd c112 b03d 9ef5 983d
000002d0: 344e fc3c bf83 993d 8f85 c53c 8e03 a6bd
000002e0: ca0b 8abd baed 51bd a825 9bbb 4381 a73d
000002f0: 894f afbb 4ef4 a1bd 3e95 9bbd 6afb 84bd
00000300: 08f5 68bd 8680 6a3c f0d3 99bd a0e2 803d
00000310: 79d6 53bd c718 73bd 4e92 783c ab8d 493d
00000320: f642 e2bc 95ff a3bc e9b3 0ebd 39e8 58bd
00000330: 5dba e8bc 0f83 5dbd 9a96 76bc b7c6 a13c
00000340: 19a2 1fbd 8d75 a03d 4329 a0bd 4bc9 073d
00000350: 9fad a3bd 6dc2 8d3d 7985 a2bd 70d5 a43c
00000360: c80c 553c 8727 bebb c9f3 87bd 9af3 1bbd
00000370: 5cd7 353c d9b8 e6bc 8f63 80bd a4c3 5a3d
00000380: d3c2 94bb cdd9 fabc 98ad 87bd 34bb 16bd
00000390: 6612 b13d e127 99bc aae9 6abd dfd1 9f3d
000003a0: 8d19 753d 66bc 983c 7553 163d c4c2 45bd
000003b0: a880 eabc 01b3 733d 1630 9ebd b4aa 41bd
000003c0: bcb1 a9bd dfc6 933d e366 0a3d 441e 8a3d
000003d0: f5e3 0c3d b577 7b3c 7f16 973c 406e 4dbd
000003e0: f86e 593d b784 bd3c 668e 87bd c277 d03c
000003f0: 5abc a7bd 67d6 a93c 941c ffbc 6507 1f3d

layers.4.bias f4 [4]
0.070778474 -0.06539428 0.0061311615 0.13355452
00000000: 4ef4 903d 70ed 85bd e9e7 c83b 84c2 083e

layers.6.weight f4 [1, 4]
0.34515962 -0.35237914 -0.14838025 0.421579
00000000: c3b8 b03e 0a6b b4be fef0 17be 34d9 d73e
