ptdrl_final/scripts/checkpoint_a_2.pt (torch, 219095 bytes, 6 tensors)

layers.0.weight f4 [128, 290]
0	0x3db45bda	0.08806582
1	0xbfe06c61	-1.7533075
2	0x40fc7bde	7.8901205
3	0xc0936464	-4.6060047
4	0x3f11727d	0.5681532
5	0x40943461	4.631394
6	0xbf9c35d7	-1.2203931
7	0xbd1998fd	-0.037499417
8	0xbff1b69b	-1.8883852
9	0x3f18558a	0.5950552
10	0xbef48524	-0.47757828
11	0x4005265e	2.0804667
12	0x400aa2ef	2.1661947
13	0x40ea9178	7.3302574
14	0x4010d1bb	2.262801
15	0x3f531bd4	0.8246434
16	0x410cb29f	8.793609
17	0xbf82192c	-1.0163932
18	0x3e6bc8b6	0.23025784
19	0x3f0351d2	0.5129672
20	0x3f1b0910	0.60560703
21	0xc024186e	-2.563991
22	0x3f9d8ab0	1.2307949
23	0xbf778a3f	-0.9669532
24	0x3fd59b44	1.6688008
25	0xbe7e54aa	-0.24836984
26	0x3f8d5eee	1.1044595
27	0xbee75d36	-0.45188302
28	0xc054852e	-3.3206286
29	0x3f1a11e2	0.60183537
30	0xbfb1bda0	-1.3885994
31	0xc10b3c45	-8.702214
32	0x3e2d3935	0.16916354
33	0x3fb5d50f	1.4205645
34	0x3e821d36	0.2541291
35	0xbf716c9f	-0.9430637
36	0x3f8aea71	1.0852796
37	0xbe4f1f63	-0.20226817
38	0x3f8b4cce	1.0882814
39	0xbd667ef4	-0.056273416
40	0xc0890744	-4.282137
41	0x3f287ea8	0.6581826
42	0x4005cfa4	2.0907984
43	0xbfcbb55e	-1.5914724
44	0xbfa689d0	-1.3010807
45	0x4031ec1e	2.7800364
46	0xbeaeb0fd	-0.34119406
47	0x405d523b	3.458144
48	0xbf3d79f0	-0.74014187
49	0x400ac0d9	2.1680205
50	0x3e7df46f	0.24800275
51	0xbf64240c	-0.89117503
52	0x3e7dc46d	0.24781962
53	0xbf85cc7e	-1.0453031
54	0xbf411e5f	-0.7543697
55	0xbe807552	-0.25089508
56	0x3ebb24ef	0.36551616
57	0xbed39956	-0.41327924
58	0x400d575b	2.2084568
59	0xbf6264fc	-0.8843534
60	0x3f3a71fa	0.72830164
61	0xbf93e8ce	-1.1555421
62	0xbf8c5386	-1.0962989
63	0x3fbe7418	1.4879179
64	0x3ff01f1a	1.8759491
65	0x3f13b764	0.57701707
66	0xbfac7e28	-1.3476
67	0x3f2c0815	0.6719983
68	0xbf105ac7	-0.56388515
69	0xbe025b2a	-0.12730089
70	0x3f41fba7	0.75774616
71	0xbf8f13d2	-1.1177924
72	0xbfa3b58c	-1.2789779
73	0x3ef49ba9	0.4777501
74	0x3f1d0368	0.6133332
75	0x3fe18c50	1.7620945
76	0xbf6bc435	-0.92096263
77	0xbfd06bb0	-1.6282864
78	0x3e6e0854	0.23245364
79	0xbf884fbe	-1.0649335
80	0x400be933	2.1861084
81	0x4074af8b	3.8232143
82	0x3dadf6a1	0.08494306
83	0xbe47a4ef	-0.19496511
84	0x3fef6919	1.8703948
85	0xbfc8a164	-1.5674253
86	0xc00896eb	-2.1342113
87	0xbeec2363	-0.46120748
88	0x3f6e87bf	0.9317588
89	0x3ff4738f	1.9097766
90	0x3f84f87a	1.0388329
91	0x3e8b54f8	0.27213264
92	0xbff52806	-1.9152839
93	0xbda43f8f	-0.08019935
94	0xbf97448e	-1.1817796
95	0x3ed64125	0.41846576
96	0x3dafb472	0.08579339
97	0x3f810778	1.0080404
98	0xbd4d11e3	-0.050065886
99	0x3fdb1073	1.7114395
100	0xc05dc78a	-3.465304
101	0xbf5a1ee8	-0.8520341
102	0xbede0ee6	-0.43370742
103	0x3f98cb62	1.1937068
104	0x3fb20ff6	1.3911121
105	0xbff0cceb	-1.8812536
106	0x3e88ffc7	0.26757643
107	0xc030dec6	-2.763597
108	0xbf2d6a1e	-0.67740047
109	0x3f671c25	0.9027732
110	0x3f5cbba2	0.86223805
111	0xbe8ceb8d	-0.2752346
112	0xbf98e78e	-1.1945665
113	0x3f80982f	1.0046443
114	0x3d4a9098	0.0494543
115	0xc02f68af	-2.7407644
116	0xc0028868	-2.0395756
117	0x3fbdb0d5	1.481959
118	0x3f8f3292	1.1187308
119	0xc03acff7	-2.9189432
120	0x3f447cc7	0.76752895
121	0x3f116ed6	0.5680975
122	0x4022d3dc	2.5441809
123	0x3f990e3b	1.1957468
124	0x3f33aef6	0.70188844
125	0x3fc058c5	1.502709
126	0xc00356f0	-2.0521812
127	0xbfa80144	-1.3125386
128	0x3f00f66c	0.5037601
129	0x3f2be116	0.6714033
130	0x3f471e2c	0.77780414
131	0x3ed32d10	0.41245317
132	0xbf213813	-0.6297619
133	0x40188862	2.3833241
134	0xbf25c57c	-0.6475446
135	0xbfb7f192	-1.4370596
136	0xbf6314b4	-0.88703465
137	0xbdec3261	-0.115330465
138	0xc0173fe1	-2.3632739
139	0x3eb3cc82	0.35116965
140	0xbf5dd86b	-0.8665835
141	0x3ffd6d33	1.979895
142	0xc00c9583	-2.1966255
143	0xbfb615a2	-1.4225352
144	0xc0032161	-2.0489123
145	0xbf13dd2e	-0.5775937
146	0x3ec946d0	0.39311838
147	0x3ff8f665	1.9450194
148	0xbfd04f8e	-1.6274278
149	0xbff1a10f	-1.8877276
150	0xc059e6e8	-3.4047184
151	0xbeb5dcbf	-0.35519978
152	0x40186819	2.3813536
153	0xbf8634b6	-1.0484836
154	0x3e95bcd0	0.29245615
155	0x3f1e9784	0.61949944
156	0xbf74d654	-0.9563954
157	0xbf952466	-1.1651733
158	0xbf24003c	-0.6406286
159	0x4008bdca	2.1365838
160	0xbe931893	-0.28729686
161	0x4007d38a	2.1222863
162	0x3ec9e8ed	0.3943552
163	0x3f7421e4	0.95364213
164	0xbeb2cc6a	-0.3492158
165	0xc031ae91	-2.7762797
166	0x3fd3978b	1.6530622
167	0xbfa888ae	-1.3166711
168	0xbe324d01	-0.17412187
169	0x403cec65	2.9519284
170	0x3fb70a25	1.4299971
171	0x3feaf053	1.8354591
172	0xc0016175	-2.0215733
173	0x3e9bc5e4	0.30424416
174	0x4091254c	4.535803
175	0x3fbcc92d	1.4748894
176	0x3ec6ae59	0.38804892
177	0x3e3a018b	0.18164651
178	0x3f3dd18f	0.74147886
179	0x3ff20881	1.8908845
180	0xbfeed5ba	-1.8658974
181	0x3f6d9c08	0.9281621
182	0x40584a9b	3.3795536
183	0xbf99328a	-1.1968548
184	0x3dbd4ae4	0.092428
185	0xc043f496	-3.0618033
186	0x3fdd2bcc	1.7278991
187	0x3ff91626	1.9459884
188	0xbf9951d1	-1.1978093
189	0x3f9eb3e5	1.239865
190	0x400c9db8	2.1971264
191	0x3e863c31	0.26217797
192	0xbfd65bb6	-1.6746738
193	0xc0268e5c	-2.602439
194	0x3f188f8d	0.5959404
195	0x3fbddee4	1.4833646
196	0xbfea5600	-1.8307495
197	0xbffef847	-1.9919518
198	0x406d05c9	3.703478
199	0x3f657a1d	0.89639455
200	0x40363cec	2.8474684
201	0xbfdecde2	-1.740658
202	0xbfce4f91	-1.6118032
203	0x3e943e1f	0.28953645
204	0x3c933366	0.017968845
205	0xbea12877	-0.31476185
206	0x40696e45	3.6473553
207	0xbec3c3ab	-0.3823522
208	0x3f632b2c	0.8873775
209	0xbe84b6d1	-0.25920728
210	0xc00bb10a	-2.1826806
211	0x3f03eda6	0.515345
212	0x400cca5c	2.199851
213	0xbff42321	-1.907322
214	0xc00b311b	-2.1748722
215	0x3f752307	0.9575657
216	0xbe4b7472	-0.19868639
217	0x3f6fbd20	0.93647957
218	0x3f51e34b	0.81987447
219	0x3e4e7b5d	0.20164247
220	0x3fa062b8	1.2530127
221	0xbf8615a3	-1.0475353
222	0xbee17b1c	-0.44039237
223	0x3f92a89b	1.1457704
224	0xbf007b67	-0.501883
225	0x3fdb7378	1.7144613
226	0xbf9196b6	-1.1374118
227	0x3fa60977	1.2971638
228	0xbf28ff34	-0.6601441
229	0xbf7c9da6	-0.9867805
230	0xbff6a581	-1.9269258
231	0xc0217e46	-2.523332
232	0xbeeb0775	-0.45904127
233	0x3fcad866	1.584729
234	0x3db60def	0.08889376
235	0x3e8ccb4b	0.2749885
236	0x40257f31	2.5858881
237	0xbfbe6dbe	-1.4877241
238	0xc0159f33	-2.3378417
239	0x401bafd6	2.4326072
240	0xbff95250	-1.9478245
241	0x40271cfe	2.6111445
242	0xbf210951	-0.6290484
243	0x408b6239	4.35574
244	0xbe108305	-0.1411248
245	0xbf37ed9b	-0.7184693
246	0xbe40346d	-0.18769999
247	0x3ff81f55	1.9384562
248	0xbe64edd3	-0.22356348
249	0x3f4b047b	0.7930371
250	0x3f8902f5	1.0704027
251	0x3ea26821	0.3172007
252	0x3f70d7bd	0.9407919
253	0xbeefae39	-0.4681261
254	0x3ec8d02e	0.39221328
255	0x3f430794	0.7618344

layers.0.bias f4 [128]
0	0xc013f0e3	-2.3115776
1	0xc09eb73d	-4.959868
2	0xbf746128	-0.9546075
3	0xc08c7188	-4.388859
4	0xbfc96e28	-1.5736742
5	0xbfd30b20	-1.648777
6	0xc06b411b	-3.6758487
7	0xc081eaee	-4.059928
8	0xbfdb3604	-1.7125859
9	0xc04cf469	-3.2024176
10	0xbf3c73c1	-0.73614126
11	0xc0358467	-2.8362062
12	0xbfce8ec3	-1.6137317
13	0xc06859c3	-3.6304786
14	0xc028bb08	-2.6364155
15	0x3de72177	0.1128568
16	0xbf63666e	-0.8882817
17	0xbfba1161	-1.4536554
18	0xc07b7a13	-3.9293258
19	0xbfe86be1	-1.8157922
20	0xbeff840d	-0.49905434
21	0xbf7da5e1	-0.99081236
22	0xc0636c6a	-3.553492
23	0xbfdb4298	-1.7129698
24	0xbf445ffd	-0.76708966
25	0xbf387a71	-0.7206183
26	0xbfc5af24	-1.5444074
27	0xc05af25f	-3.4210432
28	0x3e4d3479	0.20039548
29	0xbf98e9ae	-1.1946313
30	0xbf8ec740	-1.1154556
31	0x3cf0b70c	0.029384159
32	0x3da6a6c3	0.08137276
33	0x3fed4429	1.8536426
34	0xc0125295	-2.2862904
35	0xbf99ac33	-1.2005676
36	0xbf085299	-0.53251034
37	0xc044cec0	-3.075119
38	0xc019d9ce	-2.4039187
39	0xc021e388	-2.5295124
40	0xc043a80f	-3.0571325
41	0xbfb0915c	-1.379436
42	0xbfd58dee	-1.6683939
43	0xbf276ae0	-0.65397453
44	0xbd1c7ba4	-0.03820385
45	0xbf900404	-1.1251225
46	0xbf584513	-0.844804
47	0xbfb61dbf	-1.4227828
48	0xbff9f1fb	-1.9526972
49	0xbfffc645	-1.9982382
50	0x3e9fa4e6	0.31180495
51	0xbf8a90a9	-1.0825397
52	0xc05ce8c2	-3.4517064
53	0xc005920b	-2.0870388
54	0xc050b0fa	-3.2608018
55	0x3ba23151	0.0049497266
56	0xbeb7ce85	-0.3589975
57	0xc00d57d9	-2.2084868
58	0xc00eed7d	-2.2332451
59	0xc023a74d	-2.5570862
60	0xbf6f8b42	-0.93571866
61	0xc08a49ba	-4.3215
62	0x4178fa79	15.561151
63	0xbfad5c2d	-1.3543755
64	0xbf56635b	-0.83745354
65	0xc05c417d	-3.441497
66	0xbf2a6aa6	-0.6656898
67	0xc02ff0a3	-2.7490623
68	0xbf883587	-1.0641335
69	0xbfdf5e03	-1.7450565
70	0xbf6071d0	-0.87673664
71	0x3e042970	0.12906432
72	0xc053df72	-3.310513
73	0xbf249b17	-0.6429915
74	0x4044fcce	3.07793
75	0xc00f1536	-2.2356696
76	0xc0302814	-2.7524462
77	0xc0014b40	-2.020218
78	0xc063f6a7	-3.5619295
79	0xc031a6ad	-2.775798
80	0x3fa8bedd	1.3183247
81	0x3ea7a655	0.3274409
82	0xc02d684f	-2.7094915
83	0x3f1cae6b	0.6120364
84	0x3fe683e1	1.8008996
85	0xbf987bfb	-1.1912836
86	0xbf280674	-0.65634847
87	0xc0133c8b	-2.3005702
88	0xc05c35e9	-3.4407904
89	0x3e97e369	0.29665688
90	0xbf06e573	-0.5269386
91	0xbfe0eecb	-1.7572874
92	0xc00d95be	-2.2122645
93	0xc039316d	-2.8936417
94	0xc05aa1be	-3.416122
95	0x3f802064	1.0009885
96	0xc00254f4	-2.0364351
97	0xbfe7c125	-1.8105818
98	0xbf5656f5	-0.83726436
99	0x3de95dfd	0.1139488
100	0xc0236181	-2.5528262
101	0xc047587c	-3.1147757
102	0xbf55f0a2	-0.835703
103	0xbfa346da	-1.2755997
104	0xc0111663	-2.2669914
105	0xbf8068ee	-1.0032022
106	0xc017858a	-2.3675256
107	0x3fb87298	1.4409971
108	0xbf25e895	-0.64808017
109	0xc032fe49	-2.7967703
110	0xbc842896	-0.016132634
111	0xc0519f3e	-3.2753444
112	0xbfce8448	-1.6134119
113	0xbcb819d0	-0.022473246
114	0xbf9fdc9b	-1.2489198
115	0x3e6a4850	0.22879148
116	0x3f897f4d	1.0741974
117	0xbf83c6c1	-1.029503
118	0xbf87135e	-1.0552785
119	0x3ef47332	0.47744137
120	0xbf2f8ce4	-0.6857436
121	0xc047fb3d	-3.1247094
122	0xbf3d74a8	-0.7400613
123	0x3f0b9bb8	0.5453448
124	0xbfce2040	-1.6103592
125	0xc05148c6	-3.2700667
126	0xc080233f	-4.0043025
127	0xc004bdcb	-2.074084

layers.2.weight f4 [128, 128]
0	0xbdb174e0	-0.0866487
1	0x3c14e3bf	0.009087502
2	0xbf42037a	-0.75786555
3	0xbec9a59b	-0.3938416
4	0xbf68a5b9	-0.9087787
5	0x3ef1326d	0.47108784
6	0x3eb7a989	0.35871533
7	0x3ec30950	0.38093042
8	0xbf32ed24	-0.698931
9	0xbf767d1a	-0.9628464
10	0xbe7cc5bc	-0.24684805
11	0xbffa8076	-1.9570453
12	0x3f1d425e	0.61429393
13	0x3e8c9402	0.2745667
14	0x3ca03e08	0.019560829
15	0xbf19083a	-0.5977818
16	0xc009bd6c	-2.1521864
17	0x3f1d62f6	0.6147913
18	0x3eb7a7a8	0.358701
19	0xbec976e0	-0.39348507
20	0xbf3e502b	-0.74341077
21	0xbe56dc3c	-0.2098245
22	0xc01fd802	-2.497559
23	0xbe8cbb37	-0.27486584
24	0x3e80f028	0.25183225
25	0xbff02c81	-1.8763582
26	0x3ef1d012	0.47229058
27	0xbfb652e2	-1.4244044
28	0xbf0f977e	-0.56090534
29	0xbeb35ede	-0.35033315
30	0xbe8f0b5d	-0.27938357
31	0x3efc215c	0.492442
32	0x3ee2eb95	0.4432036
33	0xbe560e2e	-0.20903847
34	0xbf6abf4f	-0.91698164
35	0xbffd6f4a	-1.9799588
36	0xbeeac4a8	-0.45853162
37	0xbeb46dcc	-0.35240018
38	0xbf2795e4	-0.6546309
39	0xbfea4839	-1.8303291
40	0x3f3a8dbc	0.7287252
41	0xbf98d4e7	-1.1939973
42	0xbede66e2	-0.43437868
43	0xbf789e72	-0.9711677
44	0xbf436588	-0.763268
45	0x3ea6798e	0.32514614
46	0x3f1918b3	0.59803313
47	0x3f203e5c	0.6259515
48	0xbfa668a2	-1.3000681
49	0xbf977370	-1.1832104
50	0xbd9405d2	-0.07227673
51	0xc004e1ac	-2.076274
52	0x3f576466	0.8413757
53	0xbdeb1f6d	-0.11480603
54	0xbf22ecff	-0.6364288
55	0xbe35239f	-0.1768937
56	0xbeeb191e	-0.459176
57	0xbfa0a573	-1.2550491
58	0x3e003bea	0.12522855
59	0xbd1b1620	-0.037862897
60	0xbfd8c9fd	-1.6936642
61	0xbe54ec9c	-0.20793384
62	0xbf8d1922	-1.1023295
63	0xbed60e89	-0.41807964
64	0xbfcdb400	-1.6070557
65	0xc00128c9	-2.0181143
66	0xbe6e8c63	-0.23295741
67	0xbe7cde40	-0.24694157
68	0xbe97fbf4	-0.29684412
69	0xbf1b5d45	-0.60689193
70	0x3ee355b2	0.44401318
71	0xbeaf22ce	-0.3420624
72	0xc037011f	-2.8594434
73	0xbfe1a31c	-1.7627902
74	0xbfcf672f	-1.6203364
75	0xc0470064	-3.1093988
76	0x3fc5f818	1.5466337
77	0xbef68911	-0.48151448
78	0xbf18f81e	-0.59753597
79	0xbe0b7ac7	-0.13621055
80	0xbeaae8c8	-0.33380723
81	0xbeec780a	-0.46185333
82	0xbfdfee1a	-1.7494538
83	0xbf78bb5c	-0.9716089
84	0x3e3f0758	0.18655145
85	0xbf57c354	-0.8428242
86	0xbfec3226	-1.8452804
87	0x3fe473eb	1.7847875
88	0xbedb042b	-0.42776617
89	0xbf9152dc	-1.1353412
90	0x3f223130	0.63356304
91	0x3f5dccc6	0.86640584
92	0xbeb8e635	-0.36113134
93	0xbf3339db	-0.70010155
94	0x3eb0feee	0.34569496
95	0xbf2c8184	-0.67385125
96	0xbf0bd355	-0.5461934
97	0x3dc57bd4	0.09642759
98	0xbea65584	-0.32487118
99	0xbf8a0c56	-1.0785015
100	0xbfff29ce	-1.9934633
101	0xbf58a3a1	-0.8462468
102	0xbd45e9e9	-0.048318777
103	0xbf6ed8cc	-0.93299556
104	0x3ef77f09	0.48339108
105	0x3f7444d0	0.954175
106	0xbf8646e1	-1.049038
107	0xbf903b85	-1.1268164
108	0xbf327704	-0.69712853
109	0x3f5b165d	0.85581
110	0xbfcd94c9	-1.6061031
111	0xbfcce3dd	-1.6007038
112	0x3bec13f1	0.0072045256
113	0xbf61c46b	-0.88190335
114	0xbf4abe99	-0.7919708
115	0x3ee7b227	0.45253107
116	0xc0275418	-2.6145077
117	0xbf9d5c51	-1.2293798
118	0xbd2fac11	-0.042888705
119	0xbf93cb97	-1.1546506
120	0xbdf7b6ec	-0.120954365
121	0x3e7a256d	0.2442834
122	0xbfbf00b5	-1.4922091
123	0xbf533b2c	-0.82512164
124	0xbfc4dd98	-1.5380125
125	0x3dd80d1e	0.10549377
126	0xbea30157	-0.3183696
127	0xbf4b9727	-0.79527515
128	0xbe7604bf	-0.24025248
129	0xbd493b27	-0.049128678
130	0x3e32b17e	0.1745052
131	0xbf685ec9	-0.9076963
132	0xbe371eae	-0.17882797
133	0x3eba2091	0.3635297
134	0xbd5a9490	-0.053364336
135	0xbf462e9b	-0.77414864
136	0x3f409ba7	0.75237507
137	0xbf21e842	-0.6324502
138	0x3ecdcb6e	0.40194267
139	0xbdd150ef	-0.10220515
140	0x3e068f0b	0.13140504
141	0xbf980c75	-1.1878802
142	0x3ef63a39	0.48091295
143	0x3f41918e	0.75612724
144	0x3ea92320	0.3303461
145	0x3b662231	0.0035115595
146	0xbf2aee85	-0.667702
147	0xbe0d9b95	-0.13828881
148	0x3ecfe7dd	0.40606585
149	0x3f84593a	1.033973
150	0xbf6a6baa	-0.9157053
151	0x3e8613f9	0.26187113
152	0xbe83b6ed	-0.257255
153	0x3e6455b8	0.22298324
154	0x3dfca0a6	0.12335329
155	0xbdd8f233	-0.10593071
156	0x3d84d250	0.064854264
157	0xbe137e80	-0.14403725
158	0x3f3f2b52	0.74675477
159	0x3f056db6	0.5212053
160	0x3e2e051b	0.16994135
161	0x3f08c770	0.5342932
162	0xbf19891a	-0.59974825
163	0x3e7b4217	0.2453693
164	0x3e7eb41b	0.24873392
165	0xbefdbcfa	-0.4955824
166	0xbf0a4c0d	-0.54022294
167	0xbf2c364e	-0.6727036
168	0xbf552f29	-0.83275086
169	0xbe397238	-0.18109977
170	0x3e24698a	0.16055885
171	0x3e6caab1	0.23111989
172	0x3ef41f27	0.47680017
173	0x3e0aa722	0.13540319
174	0x3ebfb555	0.37443033
175	0x3eaf5827	0.34246942
176	0xbcc7b97c	-0.024380438
177	0x3d2857d0	0.04109937
178	0x3f11c2eb	0.56938046
179	0xbdff17ff	-0.12455749
180	0x3e97f949	0.29682377
181	0x3dc1ac45	0.09456686
182	0x3cf05b78	0.02934049
183	0x3ef73c50	0.48288202
184	0x3ee68500	0.45023346
185	0x3fbcd7e7	1.4753388
186	0x3e76b074	0.24090749
187	0xbe5e59c6	-0.21713933
188	0x3ddd958c	0.108195394
189	0xbf12f070	-0.5739813
190	0x401d6d42	2.4597936
191	0x3e75a9a4	0.23990494
192	0x3f096f3e	0.5368537
193	0xbf043bb3	-0.51653594
194	0xbd516ed2	-0.051131077
195	0x3dd62c0d	0.10457621
196	0xbe8d84b5	-0.2764031
197	0x3ed458a7	0.41473886
198	0x3e81e094	0.25366652
199	0x3ea8f6d6	0.3300082
200	0xbf33f010	-0.7028818
201	0x3dd0e2a1	0.10199476
202	0x3fb6409e	1.423847
203	0xbf337c3b	-0.70111436
204	0xbe89da88	-0.2692454
205	0x3edd5bb8	0.43234038
206	0xbed4444e	-0.41458362
207	0x3d5efd95	0.054441053
208	0x3e117539	0.14204873
209	0x3d170759	0.03687224
210	0xbe1ee6c0	-0.15517712
211	0x3f3ed249	0.7453962
212	0x3dc93820	0.09825158
213	0xbdfe15e3	-0.12406518
214	0xbbf1801c	-0.007370008
215	0x3ec3ab3e	0.38216585
216	0xbef509c6	-0.4785902
217	0x3e055ec0	0.13024426
218	0x3ed33147	0.41248533
219	0x3ea1e225	0.31617847
220	0x3e121d5c	0.14269012
221	0xbf106484	-0.56403375
222	0xbf190c15	-0.5978406
223	0x3e0e7590	0.13912034
224	0xbd48e1fa	-0.049043633
225	0x3edda685	0.43291107
226	0x3f18360a	0.5945746
227	0x3e966f1a	0.2938164
228	0xbf2f94a4	-0.6858618
229	0x3cf460b3	0.029831266
230	0xbc099d10	-0.008399263
231	0x3e8ed45a	0.27896386
232	0x3cd8a05f	0.026443658
233	0xbeb241ad	-0.34815732
234	0x3e997ac4	0.29976475
235	0x3f1b4e6a	0.60666525
236	0x3f353f8a	0.7080008
237	0xbe585069	-0.21124424
238	0x3e994475	0.2993504
239	0xbf28fae6	-0.6600784
240	0x3e78fbd8	0.24314821
241	0x3e8e00ec	0.27735078
242	0x3da3204e	0.07965146
243	0xbe33f72c	-0.17574757
244	0x3ebb94e1	0.36637023
245	0x3d18c745	0.037299413
246	0xbcd2758d	-0.025690818
247	0x3db07af3	0.08617201
248	0xbd3a8d42	-0.04554487
249	0xbe8d4414	-0.27591002
250	0xbe98d57e	-0.29850382
251	0xbcbd3650	-0.023097187
252	0x3e903ba1	0.28170493
253	0xbf5990e2	-0.849867
254	0xbfb9b3da	-1.4508011
255	0x3dc537d4	0.09629789

layers.2.bias f4 [128]
0	0xbff84416	-1.9395778
1	0x4182b9fc	16.340813
2	0x3f6629d3	0.8990757
3	0x40b12403	5.535646
4	0x3e88ef83	0.26745233
5	0x40a16f57	5.0448413
6	0xbff39f2c	-1.903295
7	0xc00525aa	-2.0804238
8	0x3f8e87fd	1.113525
9	0x3e0210d8	0.12701738
10	0x3f801317	1.0005826
11	0x3e466df7	0.19377886
12	0x3f88644e	1.065561
13	0xbe6940a6	-0.22778568
14	0x3fb569b5	1.4172884
15	0x3f0f4b3b	0.5597417
16	0x3f75088a	0.95716155
17	0x3f3f26b3	0.74668425
18	0xbf4c0cca	-0.79707015
19	0x3f80164f	1.0006808
20	0x3e3d8171	0.18506409
21	0x4038ffc7	2.8906114
22	0x3eb8133d	0.35952178
23	0xbfa7d5a5	-1.3112074
24	0x40e1558e	7.0416937
25	0xbd7427ae	-0.059608154
26	0xbf373da4	-0.7157843
27	0xbd511a8f	-0.05105072
28	0x3e31135a	0.17292538
29	0x3f79fb46	0.9764904
30	0xc05a7a0f	-3.4136999
31	0xbf2c4bf5	-0.673034
32	0x3f52ec9e	0.823923
33	0xbecc34dd	-0.3988408
34	0x3fa8574c	1.3151641
35	0x3fb628be	1.4231184
36	0xbfd90a7d	-1.6956326
37	0x3fa30e9c	1.2738833
38	0xbd8ede97	-0.069760494
39	0x3e81ec79	0.25375727
40	0x3f31637a	0.69292414
41	0x3f5102e1	0.8164502
42	0xbfed296f	-1.852827
43	0x3eb500dc	0.35352218
44	0xbe18130d	-0.14851017
45	0x40dd3d35	6.9137216
46	0x40a819d2	5.253152
47	0x3fff3104	1.9936833
48	0x3fb5d47f	1.4205474
49	0xbe1fb5a9	-0.15596642
50	0xc0219d45	-2.525224
51	0xbfcb81c9	-1.5898982
52	0xbf569023	-0.83813685
53	0x3f5f0a3f	0.8712501
54	0xbf88b605	-1.0680548
55	0xbd555c8a	-0.052090205
56	0x40b4e43f	5.652862
57	0x3d0b84e3	0.034062278
58	0xbf025c8b	-0.5092246
59	0x3fcd137a	1.6021569
60	0xbfe9471d	-1.8224827
61	0x3f1ae6cd	0.60508424
62	0x41193897	9.576316
63	0x40534ab9	3.3014357
64	0xc076b100	-3.8545532
65	0xbf855dc3	-1.0419239
66	0xbf0c21fc	-0.54739356
67	0x3f17b1fe	0.5925597
68	0xbfd52314	-1.665133
69	0xbd5cd89d	-0.053917516
70	0x3ee210f0	0.44153547
71	0xbe56188b	-0.209078
72	0xbf3eae32	-0.7448455
73	0x3ff076d9	1.878627
74	0x3dcdf323	0.1005614
75	0x3b4c0189	0.0031128845
76	0x4038b0a7	2.885782
77	0x400100f3	2.015683
78	0xbc0a1fba	-0.008430416
79	0xbfd9155c	-1.6959643
80	0x3fb68a2d	1.4260918
81	0x3ecb72bf	0.39735982
82	0xc03fe702	-2.9984746
83	0xbeb93593	-0.36173686
84	0x3f1a726e	0.60330856
85	0x3f25a847	0.64709896
86	0x3e054e79	0.13018216
87	0xbf524de4	-0.821501
88	0xbfa7ffab	-1.3124899
89	0x3f137513	0.57600516
90	0x3f8af143	1.0854877
91	0xbe30efda	-0.17278996
92	0xbfbdb96d	-1.4822212
93	0x3f287fb3	0.65819854
94	0x4109b8ba	8.607599
95	0xbe0e83f3	-0.13917522
96	0xbfada132	-1.3564818
97	0xbf580f19	-0.8439804
98	0x40b0f338	5.52969
99	0xbff1cb6c	-1.8890204
100	0xbfd65094	-1.674334
101	0x3f9c02eb	1.218839
102	0xc038b656	-2.886129
103	0xc00c8c8d	-2.1960785
104	0x3c35e852	0.011102753
105	0xbf59d4d2	-0.85090363
106	0x3c5a8feb	0.013339977
107	0xbe776b76	-0.24162087
108	0x3faa3a9b	1.3299135
109	0x3c8ff466	0.017572593
110	0xbf5a420f	-0.8525705
111	0x3ee97ef8	0.45604682
112	0xc04080c4	-3.0078592
113	0xbec08e3c	-0.37608516
114	0xbf507e1f	-0.81442446
115	0xbf0ed289	-0.5579
116	0x4056e45e	3.3576884
117	0xbe41cbf8	-0.18925464
118	0x3f67f1f5	0.9060357
119	0xbf95b504	-1.1695867
120	0x3f61fbc3	0.8827478
121	0xbdcd9907	-0.10038953
122	0x3ca61bf2	0.020276997
123	0x3ea5d582	0.32389456
124	0xbfdd4bcf	-1.728876
125	0xbfb25cd8	-1.3934584
126	0xbf48e310	-0.7847147
127	0xbe7b27f1	-0.24526955

layers.4.weight f4 [4, 128]
0	0x3f9de367	1.2335023
1	0xbf0118cd	-0.5042847
2	0xbf915592	-1.1354239
3	0xbe77a6de	-0.24184749
4	0xbf22b839	-0.6356235
5	0x3f4bb1d2	0.7956821
6	0x3face810	1.350832
7	0x3f8c3f24	1.0956769
8	0x3f16ecb2	0.5895492
9	0x3ec1cc8a	0.37851363
10	0x3f86d6a3	1.0534252
11	0xbee81308	-0.4532702
12	0xbf440429	-0.7656885
13	0xbe0e5912	-0.13901165
14	0xbf6f0b82	-0.93376935
15	0x3f6ef2b0	0.9333906
16	0xbe171409	-0.14753737
17	0xbeaa7dae	-0.3329901
18	0x3f4e8827	0.806765
19	0x3f1893cb	0.59600514
20	0xbf6ac2bc	-0.9170339
21	0xbfafb781	-1.3727876
22	0xbfb26c80	-1.3939362
23	0x3fea0cdc	1.8285174
24	0xbe00daff	-0.1258354
25	0x3c6a10ee	0.014286263
26	0x3faf7613	1.3707908
27	0xbf8396b8	-1.0280371
28	0x3f73903c	0.9514196
29	0xbf0259af	-0.50918096
30	0x3f0a876e	0.541129
31	0x3fb3cb47	1.404641
32	0xbe2b4eea	-0.16729322
33	0xbfab7123	-1.3393902
34	0x3f23f1e5	0.64040977
35	0xbf2e8ad7	-0.681806
36	0x3f612596	0.87947977
37	0xbf29c4a3	-0.6631567
38	0xbf43eefd	-0.7653654
39	0xbf80fe8b	-1.007768
40	0xbfa6af52	-1.3022254
41	0x3da3d440	0.07999468
42	0x3fca2e67	1.5795411
43	0x3e99448e	0.29935116
44	0x3f1f4e1c	0.6222856
45	0xbe052ac6	-0.13004598
46	0xbeabe279	-0.33571222
47	0x3fed9e37	1.8563908
48	0x3de9a5ea	0.11408599
49	0xbf4f8c65	-0.810736
50	0x3f63c095	0.8896573
51	0x3fd1b50d	1.6383377
52	0x3fb0b499	1.3805114
53	0x3f8c166e	1.0944345
54	0x3f54b5d2	0.83089936
55	0x3f8b2e1d	1.0873448
56	0xbe2b0425	-0.167008
57	0xbf0f1aa8	-0.5590005
58	0xbef636ec	-0.48088777
59	0xbeaa4da9	-0.33262375
60	0x3f6febce	0.93719184
61	0xbf221deb	-0.633269
62	0xbe60f063	-0.219667
63	0xbe1f6e11	-0.15569331
64	0x3f7f7f21	0.9980336
65	0x3f07bfcf	0.5302705
66	0xbf383d06	-0.71968114
67	0xbf22fe67	-0.6366944
68	0x3f7282dd	0.9473093
69	0xbf5864b0	-0.84528637
70	0xbf65181a	-0.894899
71	0x4016f84c	2.3589048
72	0x3fb5f2a4	1.4214673
73	0x3f3ded64	0.74190354
74	0xbf8915a5	-1.070973
75	0xbf3bf31a	-0.7341782
76	0xbed53ae2	-0.41646487
77	0xbe7d3fcf	-0.24731372
78	0xbe962e49	-0.29332188
79	0x3fc80cee	1.5628946
80	0xbf043249	-0.5163923
81	0x3ee869a6	0.45393103
82	0x3f594db7	0.8488421
83	0xbf3832f4	-0.7195275
84	0xbec2f3d3	-0.38076648
85	0xbf474145	-0.7783397
86	0x3f1e7236	0.6189302
87	0x3fb79ad5	1.4344126
88	0xbf8363d1	-1.0264837
89	0xbf14223a	-0.57864726
90	0xbf3350d8	-0.7004523
91	0xb98103ee	-0.00024607725
92	0xbf38dbc9	-0.72210366
93	0xbf38fa5c	-0.7225702
94	0xbe1f6a8e	-0.15567991
95	0xbf708af1	-0.9396201
96	0x3f0c5bfd	0.5482786
97	0xbf4beb36	-0.7965578
98	0xbe0a964b	-0.13533895
99	0x3f983c07	1.1893319
100	0x3f7f2420	0.996645
101	0xbe48f258	-0.19623697
102	0x3eb23a8a	0.34810287
103	0x3f65b94d	0.8973587
104	0xbf8e4283	-1.1114048
105	0xbe6e1d83	-0.23253445
106	0x3dff2cb6	0.124597
107	0xbf1b6f12	-0.60716355
108	0xbf59ee24	-0.85129
109	0xbf26df3f	-0.65184397
110	0xbc94f7e0	-0.018184602
111	0x3f650b1b	0.8947007
112	0x3f8965b3	1.0734161
113	0x3eec3fe2	0.4614249
114	0xbf661562	-0.8987638
115	0x3f5fb94a	0.87392104
116	0xbe269bc1	-0.16270353
117	0x3ca9f290	0.020745546
118	0xbea8e43f	-0.32986638
119	0x3f661082	0.8986894
120	0xbe7eaeaf	-0.24871324
121	0x3f41dac0	0.7572441
122	0xbe8e2078	-0.27759147
123	0xbe327dc1	-0.17430784
124	0x3f2c49e6	0.6730026
125	0x3f226bbc	0.6344564
126	0x3fb384ef	1.4024943
127	0x3dd81e35	0.105526365
128	0x3f603b48	0.87590456
129	0xbf018760	-0.5059719
130	0xbefe87bc	-0.49712932
131	0xbef7a81b	-0.48370442
132	0xbef4bb85	-0.47799316
133	0x3f933dd2	1.1503241
134	0x3f879226	1.0591476
135	0x3f8c8b9e	1.0980108
136	0x3f114e05	0.56759673
137	0x3f12182e	0.57068145
138	0x3f703ba2	0.9384099
139	0xbf11a9c6	-0.5689968
140	0xbe9b6465	-0.30350032
141	0x3e4dc922	0.20096257
142	0xbfb8dd63	-1.4442562
143	0x3ebc6b33	0.36800537
144	0xbf03aba0	-0.51433754
145	0x3f509e69	0.81491715
146	0x3f54a31e	0.830614
147	0x3f11d40d	0.5696419
148	0xbf7b38de	-0.9813365
149	0xbfc809e5	-1.562802
150	0xbfa09386	-1.254502
151	0x3fd1a90e	1.6379716
152	0xbe1ba086	-0.15197954
153	0xbca66666	-0.0203125
154	0x3f88e906	1.0696113
155	0xbf62935a	-0.8850609
156	0x3f7983cf	0.9746675
157	0xbf04b527	-0.51838917
158	0x3ed71ce3	0.42014226
159	0xbf9acd84	-1.2093968
160	0xbe297f28	-0.16552413
161	0xbf1270f9	-0.5720363
162	0x3f1fc484	0.62409234
163	0xbea6fb28	-0.32613492
164	0x3f66fcf8	0.9022975
165	0xbd822e38	-0.06356472
166	0xbf5cf828	-0.86316156
167	0xbf16a90c	-0.58851695
168	0xbf4745e3	-0.77841014
169	0xbeb7c837	-0.3589494
170	0x3fa69f61	1.3017389
171	0x3e2743e4	0.16334492
172	0x3f1d59b7	0.6146502
173	0xbe03459e	-0.12819526
174	0x3ed5f555	0.41788736
175	0x3ff6cb59	1.9280807
176	0xbf471594	-0.777673
177	0xbfb158ec	-1.3855262
178	0x3f1eec08	0.62078905
179	0x3fcbfe80	1.5937042
180	0x3fd4c92e	1.6623895
181	0xbd6cd091	-0.057816092
182	0x3f89b882	1.0759432
183	0x3f603451	0.8757983
184	0xbe35e109	-0.17761625
185	0xbf602586	-0.87557256
186	0xbeefc47f	-0.46829602
187	0xbece5989	-0.40302685
188	0x3fb677df	1.4255332
189	0xbf60bf13	-0.87791556
190	0xbe49ec85	-0.19719131
191	0xbe140bed	-0.14457674
192	0x3f7dbff1	0.99121004
193	0x3ecdcff6	0.40197724
194	0xbf938ff7	-1.152831
195	0xbf1e4f9a	-0.6184021
196	0x3ec2b797	0.38030693
197	0xbeb295e3	-0.3487998
198	0xbf132b9e	-0.5748843
199	0xbf0be91b	-0.54652566
200	0x3f706846	0.9390911
201	0x3f09f654	0.5389149
202	0xbf8a8e66	-1.0824707
203	0xbf62aded	-0.8854664
204	0xbeaa6fe2	-0.33288485
205	0xbe5872ec	-0.21137589
206	0xbf2d33ad	-0.67656976
207	0x3fb02ed8	1.3764296
208	0xbfa7d999	-1.311328
209	0x3eec0c06	0.46102923
210	0x3f70a377	0.9399943
211	0xbf934f01	-1.1508485
212	0xbed5f56a	-0.417888
213	0xbec67215	-0.38758913
214	0xbdcb77a4	-0.09934929
215	0x3f6be3dc	0.9214456
216	0xbf360345	-0.7109874
217	0xbf286b73	-0.65788954
218	0xbf2f42a7	-0.6846108
219	0xbd374d2e	-0.04475134
220	0xbf1f3525	-0.6219047
221	0xbe807686	-0.25090426
222	0xbe2c0dfe	-0.16802213
223	0xbf6dfd28	-0.9296441
224	0x3f29c16e	0.66310775
225	0xbea125d1	-0.31474164
226	0xbe9c65bc	-0.30546367
227	0x3f8b09ba	1.0862343
228	0x3f1a2864	0.6021788
229	0xbe8d26f5	-0.27568784
230	0x3e981032	0.29699856
231	0x3f6792aa	0.90458167
232	0xbe85eec3	-0.26158723
233	0xbec8aba2	-0.39193445
234	0x3ede0cdd	0.4336919
235	0xbedbae77	-0.42906544
236	0xbebcb135	-0.36853948
237	0xbf1fd1ed	-0.62429696
238	0x3e010d8e	0.12602827
239	0x3eec23d6	0.4612109
240	0x3f5c3760	0.86021996
241	0x3ec471d0	0.38368082
242	0x3efc1ac6	0.49239177
243	0x3f12d633	0.5735809
244	0xbe3cb2f8	-0.18427646
245	0xbcbac02c	-0.022796713
246	0xbf373e00	-0.7157898
247	0x3fb1d7c2	1.3893969
248	0xbeab176a	-0.334163
249	0x3f3d883b	0.74035996
250	0xbf1fd6b2	-0.62436974
251	0xbe94458d	-0.28959313
252	0x3f3e0942	0.74232876
253	0x3f9aebe7	1.2103242
254	0x3f9a1084	1.203629
255	0xbf56a055	-0.838384

layers.4.bias f4 [4]
0	0xc1332b7b	-11.198115
1	0xc129b5cc	-10.606884
2	0xc138ffd3	-11.562457
3	0xc13b6bde	-11.713835
