ptdrlhf/ptdrlhf/checkpoints/state_action/checkpoint_supervised_dqn58.pth (torch, 219095 bytes, 6 tensors)

layers.0.weight f4 [128, 290]
0	0x3c708d19	0.014682078
1	0xbcdbfc8a	-0.026853818
2	0x3b61e8e2	0.0034471084
3	0xbccbce8a	-0.024878759
4	0x3b86f6f0	0.0041187927
5	0x3b4e8846	0.003151433
6	0x3ca4cd07	0.020117296
7	0xbda316f1	-0.0796336
8	0xbd0bd7ff	-0.034141537
9	0x3d73086d	0.059334207
10	0xbd1f4f9e	-0.03889429
11	0x3da2cca0	0.07949185
12	0xbccb5af5	-0.024823645
13	0x3db3d798	0.087813556
14	0x3d4b44f1	0.049626295
15	0xbd03f473	-0.032215547
16	0xbd801092	-0.062531605
17	0x3c4d539c	0.012532141
18	0x3d7b9321	0.06141961
19	0xbce11d45	-0.027479777
20	0xbb9a9855	-0.0047178664
21	0xbcb37d3a	-0.021910299
22	0x3d1599b2	0.03652353
23	0x3c5f3f7a	0.013625974
24	0x3ceeba6a	0.029141624
25	0x3dc5a81d	0.09651206
26	0xbc619dc1	-0.013770522
27	0xbd22ae2e	-0.039716892
28	0xbb0dade5	-0.0021618542
29	0x3c97abc2	0.018514518
30	0xbc75695b	-0.014978732
31	0xbdc3794d	-0.09544621
32	0xbdbc3ded	-0.09191499
33	0x3d9fee3a	0.0780911
34	0xbb80e599	-0.00393362
35	0xbd9ab6d1	-0.07554401
36	0xbe01d58c	-0.12679118
37	0x3da22cf9	0.07918734
38	0x3d8c99d0	0.06865275
39	0x3d663d2e	0.05621069
40	0x3c475fe4	0.012168858
41	0xbd6779d2	-0.05651266
42	0xbd389c76	-0.045071088
43	0x3c9260e9	0.017868476
44	0xbd84e55c	-0.06489059
45	0xbd1ec7c7	-0.03876474
46	0x3d8be13c	0.068300694
47	0x3c56a41a	0.013100648
48	0xbd09174d	-0.033469487
49	0xbd26e45c	-0.040745124
50	0xbc50621a	-0.012718702
51	0x3cf05cd0	0.029341131
52	0x3ce21901	0.027599813
53	0x3cebb22e	0.028771486
54	0x3cdd46a2	0.02701122
55	0xbd01aafd	-0.031657208
56	0xbd93c552	-0.0721537
57	0x3c08ad49	0.008342096
58	0xbd922994	-0.07136837
59	0x3c8553a6	0.016275238
60	0xbcee289c	-0.029072098
61	0x3d7d9ad2	0.061915226
62	0xbda9f50f	-0.08298694
63	0xbbfb392e	-0.0076667285
64	0xbd19f843	-0.037590276
65	0xbc7168b9	-0.0147344405
66	0xbb8ece1d	-0.0043580667
67	0xbd8a6027	-0.06756621
68	0x3d300238	0.042970866
69	0xbd5eac2a	-0.054363407
70	0xbd4aa7b4	-0.04947634
71	0x3bcc5e61	0.006236837
72	0x3d474869	0.04865304
73	0x3c848dac	0.016180836
74	0x3d04c10c	0.032410666
75	0x3d27a300	0.040926933
76	0x3b3404a4	0.0027468586
77	0xbb894e54	-0.0041902456
78	0x3c2790ac	0.010227364
79	0xbd3e7e9c	-0.046507463
80	0xbc48d563	-0.012257907
81	0xbc19d715	-0.009389658
82	0xbd7132cb	-0.05888633
83	0x3da229d7	0.079181366
84	0x3c5fc002	0.013656618
85	0xbc9a2146	-0.018814694
86	0x3c1d09d3	0.009584862
87	0x3d7910e5	0.060807128
88	0xbce49adb	-0.027905872
89	0x3cd69d0d	0.026197935
90	0x3d5a8eca	0.05335883
91	0xbd959f25	-0.07305745
92	0xbd8eb06f	-0.06967246
93	0xbd1ec876	-0.038765393
94	0xbd94e2f3	-0.0726985
95	0x3d034acc	0.032053754
96	0x3d9822fe	0.07428549
97	0x3c062b5a	0.008189047
98	0x3d27b9cb	0.04094867
99	0xbcde1119	-0.027107762
100	0x3d23dab8	0.04000351
101	0xbd25bd8d	-0.040463973
102	0xbcfddc49	-0.03098883
103	0xbc21894c	-0.009859394
104	0xbcb39c3f	-0.02192509
105	0x3d497024	0.04917921
106	0xbd9a9956	-0.07548778
107	0x3d87f19c	0.0663788
108	0xbda59312	-0.08084692
109	0x3d0e7ec2	0.034788854
110	0x3e0e0c7f	0.13871954
111	0x3d3fd052	0.04682953
112	0xbd596309	-0.053072963
113	0x3d84267d	0.064526536
114	0xbd5e3e67	-0.05425873
115	0x3d0663f4	0.032810166
116	0xbd2c3bb5	-0.04204913
117	0x3d42667a	0.04746101
118	0xbbce8d5a	-0.0063034715
119	0x3bf96e16	0.007612
120	0xbdd4415b	-0.10364028
121	0x3d92cbc4	0.071677715
122	0x3d24a06c	0.040192053
123	0x3da4b4ad	0.08042274
124	0x3b95eff2	0.004575723
125	0xbdbd4332	-0.09241332
126	0xbd39fa90	-0.04540497
127	0x3c152383	0.009102705
128	0xbd414b22	-0.047190793
129	0xbd7fcbd4	-0.062450245
130	0x3d5a4e2e	0.053297214
131	0xbd8e499a	-0.06947632
132	0x3d9501d0	0.07275736
133	0x3d001e78	0.031279057
134	0xbd0618f1	-0.03273863
135	0x3ccd0f5a	0.025031734
136	0x3d45444e	0.048160844
137	0xbd4529fe	-0.04813575
138	0xbd05f057	-0.03269991
139	0x3d1dcbe9	0.038524542
140	0xbda33d4f	-0.07970678
141	0x3d6e5da5	0.058194775
142	0xbdcbab4a	-0.0994478
143	0x3d80ae15	0.062832035
144	0x3d4f20ce	0.050568394
145	0xbcf33879	-0.029690014
146	0x3d84506d	0.064606525
147	0xbd645c44	-0.055752054
148	0xbc1363a6	-0.008995926
149	0x3d019e29	0.031644974
150	0xbe02a8cf	-0.12759708
151	0xbdc2db10	-0.09514439
152	0x3d43ec8f	0.04783302
153	0xbce9af15	-0.028525868
154	0xbcf187ae	-0.029483642
155	0x3dee8477	0.116463594
156	0xbc5bfb9c	-0.013426688
157	0xbcb2cf05	-0.02182723
158	0x3ccdd7cf	0.02512732
159	0xbdd4d389	-0.1039191
160	0x3d109915	0.03530224
161	0x3d879296	0.06619756
162	0x3be50de9	0.0069901836
163	0x3cdfa02b	0.027298054
164	0xbd8c3756	-0.06846492
165	0x3d7f58bb	0.06234048
166	0x3c97a1ef	0.018509833
167	0x3d3392f2	0.04384131
168	0x3d0fca6d	0.035105158
169	0x3c979ce6	0.018507432
170	0x3d094590	0.033513606
171	0x3d3caecf	0.046065148
172	0x3d82507c	0.063630074
173	0x3d94deab	0.07269033
174	0x3bf3a91d	0.0074359314
175	0xbcf1fd72	-0.029539797
176	0x3d84f8f5	0.06492797
177	0x3cdf3c82	0.027250532
178	0x3d9818c2	0.07426597
179	0xbc7583d1	-0.014985041
180	0x3ab0c869	0.0013487461
181	0x3d860181	0.065432556
182	0xbcf74d3c	-0.030188195
183	0xbcb70d8b	-0.022345325
184	0xbb3a3ead	-0.0028418705
185	0xbda3c55d	-0.079966284
186	0x3d2a4179	0.041566346
187	0xbd3d62ac	-0.04623668
188	0xbd5bb71c	-0.053641424
189	0x3d4d1cc5	0.050076265
190	0x3c773fc9	0.015090891
191	0xbc1f175b	-0.009710158
192	0x3ce56682	0.028002981
193	0x3d27bd05	0.040951747
194	0x3c21101b	0.0098305
195	0xbd65171e	-0.05593025
196	0x3d2a130c	0.04152207
197	0x3c5a8296	0.013336798
198	0xbdcc80c4	-0.099854976
199	0x3d4f05ee	0.050542764
200	0xbc3e17b8	-0.011602335
201	0x3d522554	0.05130513
202	0x3da1e3fb	0.07904812
203	0xbc8170d6	-0.015800875
204	0xbd339330	-0.04384154
205	0xb9cc8e7d	-0.00039016074
206	0x3c601fcd	0.013679457
207	0xbd04f6e4	-0.032462016
208	0x3de1806e	0.11010824
209	0xbcb828ad	-0.022480333
210	0xbd15dc52	-0.036587067
211	0xbdff7ed4	-0.124753624
212	0xbda27449	-0.07932336
213	0xbbc49404	-0.00599909
214	0xbd58e681	-0.0529542
215	0xbcc62f6c	-0.024192534
216	0xbcb88310	-0.022523433
217	0x3d46f4cc	0.0485733
218	0xbbae039c	-0.005310489
219	0xbdf0aa72	-0.1175126
220	0x3d8dc01a	0.06921406
221	0x3d3cac36	0.04606267
222	0xbcf3cf7e	-0.029762026
223	0x3d3aad74	0.045575574
224	0x3d9667d5	0.07344023
225	0xbd96f44b	-0.07370814
226	0x3c8b1767	0.016978933
227	0x3cbc8708	0.023013607
228	0x3cc09dd2	0.023512755
229	0x3d85502a	0.06509431
230	0x3aa5d2f2	0.0012651368
231	0x3d84b089	0.06478984
232	0x3c04b59f	0.0080999425
233	0xbdbf07f7	-0.09327691
234	0x3dce0c36	0.10060923
235	0x3a4f269e	0.0007902178
236	0x3d819fef	0.06329333
237	0x3d2da1e8	0.042390734
238	0x3c8662dd	0.016404564
239	0x3d77f8fa	0.060540177
240	0x3d83ed9a	0.06441803
241	0x3c2d0640	0.010560572
242	0xbd07dd20	-0.033169866
243	0x3ca65961	0.020306291
244	0x3e1a690c	0.15079135
245	0xbcf1feed	-0.029540503
246	0xbd6bbb1c	-0.05755149
247	0xbd18c910	-0.037301123
248	0xbc93b3c8	-0.018030062
249	0xbad30967	-0.0016100825
250	0xbd07c976	-0.033151112
251	0x3d1fc86a	0.03900949
252	0xbe107c7a	-0.14109984
253	0x3afa3ec8	0.0019092197
254	0x3b6e635e	0.0036375145
255	0x3be2d319	0.0069221375

layers.0.bias f4 [128]
0	0x3d3c484d	0.04596739
1	0xbcef2f7e	-0.02919745
2	0x3c4c0e5f	0.012454598
3	0x3d305203	0.043046962
4	0xbcfdedad	-0.030997122
5	0x3d129f2b	0.035796326
6	0x3b60b76d	0.0034289018
7	0x3ca82e7b	0.020529976
8	0xbd827b46	-0.06371169
9	0x3cd01834	0.025402166
10	0x3c6accbf	0.014331042
11	0x3cfd1fba	0.030898917
12	0x3d4a8e3a	0.049452044
13	0xbd1b84df	-0.037968513
14	0x3cee98b3	0.029125547
15	0xbd161acb	-0.036646646
16	0xbd137444	-0.03599955
17	0x3d00aeb4	0.03141661
18	0x3d1d5a30	0.038416088
19	0xbd7d99b7	-0.061914172
20	0x399e388a	0.00030178233
21	0x3c1237d5	0.008924444
22	0x3d43b4b5	0.047779758
23	0x3d571e22	0.05251897
24	0xbc51acce	-0.0127975475
25	0xbcee513e	-0.029091474
26	0xbccb1773	-0.024791455
27	0xbd24e806	-0.040260337
28	0x3c81ec77	0.015859826
29	0xbcb38e47	-0.021918429
30	0xbcc75ee4	-0.02433724
31	0xbcf1fdea	-0.029540021
32	0x3d089d32	0.033353038
33	0xbd159fa7	-0.03652921
34	0x3d668e34	0.05628796
35	0xbd5b8efc	-0.053603157
36	0x3a82f456	0.0009991031
37	0xbd3367ad	-0.043800045
38	0xbd4fa504	-0.05069448
39	0x3cd311ab	0.02576526
40	0x3c7c3e85	0.015395765
41	0xbd0fa308	-0.035067588
42	0xbcd09c87	-0.025465263
43	0x3c3e57bd	0.011617598
44	0xbc459b4a	-0.01206095
45	0xbbacf609	-0.005278353
46	0xbd8022c9	-0.06256635
47	0xbc9613e2	-0.018320028
48	0xbd2843e5	-0.041080374
49	0x3c16ea15	0.009211083
50	0x3d530647	0.05151966
51	0xbd0fcd81	-0.035108093
52	0xbd18e9b2	-0.037332244
53	0x3ccb6f58	0.024833366
54	0x3d51f446	0.051258348
55	0x3c86681e	0.016407069
56	0xbd108577	-0.035283532
57	0xbd6365da	-0.055517055
58	0xbd583c17	-0.05279168
59	0xbb46fd37	-0.003036333
60	0x3c809577	0.01569627
61	0xbce18ead	-0.027533853
62	0x3cf7b8ce	0.030239489
63	0x3acd788b	0.0015676183
64	0xbc4488e1	-0.011995525
65	0xbc47961b	-0.012181784
66	0xbd79855b	-0.060918193
67	0x3d64371c	0.05571662
68	0xbb2af8d0	-0.0026088245
69	0x3b51bb91	0.0032002667
70	0x3d44a2b4	0.04800673
71	0x3d0a2e2d	0.033735443
72	0x3cb71d04	0.022352703
73	0x3d476088	0.048676044
74	0xbc82fdb9	-0.015990125
75	0xbd10de96	-0.035368524
76	0x3ce2c6d0	0.027682692
77	0xbd180df6	-0.03712269
78	0xbd83995f	-0.064257376
79	0xbb18266f	-0.0023216268
80	0xb99e9628	-0.00030247984
81	0xbc71dcf0	-0.014762148
82	0x3c2e536d	0.010640007
83	0xbbb10e5a	-0.005403322
84	0x3c59cfba	0.013294155
85	0x3d21a71d	0.039466012
86	0xbc2becf9	-0.01049351
87	0x3c289ba1	0.010291011
88	0x3b201c11	0.0024430791
89	0x3d077fd7	0.033080902
90	0xbb5e1616	-0.0033887676
91	0xbd571593	-0.05251081
92	0xbb472d5e	-0.0030392031
93	0x3bf077fd	0.0073385225
94	0xbd2fd967	-0.04293194
95	0x3c8ddd6d	0.017317498
96	0x3cb46039	0.022018539
97	0xbd423571	-0.047414247
98	0xbbf8dd5d	-0.007594748
99	0x3d0c2eb6	0.034224235
100	0xbd51da2d	-0.05123346
101	0xbd5a6ab6	-0.053324424
102	0xbb70da6b	-0.003675128
103	0x3d3f9efb	0.046782475
104	0xbd36b1d8	-0.0446032
105	0xbbf3e196	-0.0074426634
106	0x3d01f895	0.031731207
107	0x3cc0931f	0.023507653
108	0x3c0ad042	0.008472504
109	0x3d0545d0	0.03253728
110	0xbd560ba3	-0.05225719
111	0xbd398559	-0.045293186
112	0xbbfa7fbc	-0.0076446217
113	0xbb60de80	-0.0034312308
114	0xbcb8ccc4	-0.022558577
115	0x3d05f1b7	0.03270122
116	0xbd37fa48	-0.04491642
117	0xbc4115a9	-0.011784949
118	0x3bf4cbeb	0.007470598
119	0xbc3e8c87	-0.011630184
120	0x3db4c6b5	0.08826963
121	0x3d611408	0.054950744
122	0xbc9e01d3	-0.01928798
123	0x3b541b4d	0.0032364905
124	0xbd57f2b4	-0.052721694
125	0xbd087079	-0.033310387
126	0xbbd8afea	-0.0066127675
127	0xbd4dd7bf	-0.05025458

layers.2.weight f4 [128, 128]
0	0x3b7662a2	0.003759541
1	0xbd7b0125	-0.06128039
2	0x3d90ef73	0.07076921
3	0x3b512489	0.0031912646
4	0x3cba07d7	0.022708816
5	0x3d9721e2	0.073795095
6	0x3d9a4492	0.0753261
7	0x3da94215	0.08264557
8	0xbd4778fa	-0.048699357
9	0xbd1be324	-0.038058415
10	0xbcf45902	-0.029827598
11	0xbce4a6ce	-0.02791157
12	0x3d724f87	0.059157874
13	0x3d9d2230	0.076725364
14	0x3d0eeb02	0.03489209
15	0xbb9b9085	-0.0047474527
16	0x3d9103cc	0.07080802
17	0xbd9cb6e4	-0.07652071
18	0xbd54f131	-0.05198783
19	0xbb969d79	-0.004596409
20	0x3d5d2a26	0.053995274
21	0xbd14d224	-0.03633322
22	0xbd8f5ee4	-0.07000521
23	0xbcec3cda	-0.02883761
24	0xbd298376	-0.041385137
25	0x3c96fa1a	0.018429805
26	0x3d1c7364	0.038195983
27	0x3da9cfd9	0.08291597
28	0xbcbbd7ec	-0.022930108
29	0xbd7062b5	-0.058687884
30	0xbc7af419	-0.0153169865
31	0x3d36ff95	0.044677336
32	0x3d2deea5	0.042463917
33	0x3cbed043	0.023292666
34	0xbd8a5ca1	-0.06755949
35	0xbd2322c7	-0.039828088
36	0x3da5f5f8	0.081035554
37	0xbdb0165c	-0.08598015
38	0xbc5f94e4	-0.013646338
39	0x3c3c8108	0.011505373
40	0xbc95c617	-0.018282933
41	0xbd9ffe07	-0.07812124
42	0xbda9db70	-0.082938075
43	0xbd36b89e	-0.04460966
44	0x3d075a5a	0.03304515
45	0xbd3c0ac2	-0.045908697
46	0x3da2c9ab	0.07948621
47	0xbd41c1ea	-0.04730407
48	0x3d47ec4a	0.048809327
49	0xbd82cb0c	-0.06386384
50	0xbd7f79e0	-0.06237209
51	0xbb5d2435	-0.0033743505
52	0x3d0f795b	0.035027843
53	0xbd1a2051	-0.037628476
54	0x3d17d036	0.0370638
55	0x3d7361c9	0.059419427
56	0xbd1066ea	-0.035254396
57	0x3d45aa8f	0.04825836
58	0x3cf8b7fb	0.030361166
59	0x3cf8884c	0.030338429
60	0xbdab41bb	-0.083621465
61	0xbd2535a8	-0.040334374
62	0x3d6b1dd6	0.0574015
63	0xbd43ba15	-0.047784884
64	0xbc155122	-0.009113582
65	0x3c41f9ad	0.0118393125
66	0xbd618e0a	-0.0550671
67	0xbd1fc7dd	-0.039008964
68	0x3d7a66a7	0.061133053
69	0x3d53dade	0.0517224
70	0x3cb904d7	0.022585316
71	0x3c67f109	0.014156588
72	0xbc09d0a6	-0.008411562
73	0x3d724d68	0.05915585
74	0x3b0a6d30	0.002112221
75	0xbc0fc066	-0.008773899
76	0xbd67bdba	-0.05657742
77	0x3c37736d	0.011196953
78	0xbd9d28cd	-0.07673798
79	0xbd182b10	-0.037150443
80	0xbd5a91a8	-0.053361565
81	0xbd9246bd	-0.071423985
82	0x3db34e41	0.0875516
83	0xbd59dc2a	-0.05318848
84	0xbb4f873b	-0.0031666297
85	0x3d1d9e63	0.038481127
86	0xbcc81e92	-0.02442864
87	0xbd95023f	-0.07275819
88	0x3d9938aa	0.07481511
89	0xbd31d54d	-0.04341631
90	0xbd982120	-0.07428193
91	0x3cf442ef	0.029817073
92	0xbd8755bc	-0.066081494
93	0xbc9bc29d	-0.019013697
94	0xbd22b25b	-0.039720874
95	0xbd955ff4	-0.07293692
96	0x3da2a244	0.07941106
97	0xbd06c467	-0.032902148
98	0xbc36ab45	-0.011149232
99	0x3ab5b5ba	0.0013863363
100	0x3b08c5a1	0.002086975
101	0xbd9221e3	-0.0713537
102	0xbc887ea7	-0.016661955
103	0xbd1d7f6d	-0.0384516
104	0xbcdade69	-0.026717382
105	0xbc621680	-0.01379931
106	0x3c36f529	0.011166849
107	0x3da00c4c	0.078148454
108	0xbcd94773	-0.026523327
109	0xbda45799	-0.080245204
110	0xbd8ca4a4	-0.0686734
111	0x3d23554d	0.03987627
112	0xbd524b77	-0.0513415
113	0xbd6becc3	-0.05759884
114	0xbd2d7350	-0.0423463
115	0x3d2a9d66	0.041654013
116	0xbc561356	-0.0130661335
117	0x3d46008a	0.048340358
118	0x3ca63467	0.02028866
119	0x3d062416	0.032749258
120	0xbcf1a7e9	-0.029499011
121	0x3cde9e5a	0.027175117
122	0xbd9d2a70	-0.0767411
123	0xbbfb9979	-0.0076782075
124	0x3dae34ec	0.08506188
125	0xbda9a7ec	-0.08283982
126	0xbdb1a49c	-0.08673975
127	0xbd954fc0	-0.07290602
128	0x3c8faf6e	0.017539706
129	0xbd2a7458	-0.04161486
130	0x3d98830e	0.07446872
131	0xbc7885fa	-0.015168661
132	0x3d267f2f	0.040648635
133	0x3d1e2b76	0.038615666
134	0x3cee24d9	0.029070305
135	0x3c633518	0.013867639
136	0xbdb1d41d	-0.086830355
137	0xbd7e7708	-0.062125236
138	0x3db3d4f8	0.08780855
139	0xbc875717	-0.01652102
140	0xbcf5eab6	-0.030019145
141	0xbda773ab	-0.08176359
142	0x3d1aab10	0.037760794
143	0x3bfdec0e	0.007749087
144	0xbd8fdfb3	-0.07025089
145	0xbd9e301b	-0.07724019
146	0x3d0f4c44	0.034984842
147	0x3d92657e	0.07148264
148	0x3d003db2	0.031308837
149	0x3d8716f5	0.065961756
150	0xbd2f7e9c	-0.042845353
151	0x3d4dca73	0.0502419
152	0x3d4cd433	0.050007056
153	0x3d8da2c3	0.0691581
154	0x3d4dda1e	0.05025684
155	0x3cfc1524	0.0307718
156	0x3db136e9	0.086530514
157	0x3c22312d	0.00989942
158	0x3c994cf4	0.018713452
159	0xbb8a5f4f	-0.0042227875
160	0xbc69064b	-0.014222692
161	0xbd1e5535	-0.03865548
162	0x3d898f7b	0.0671682
163	0xbd11973a	-0.03554461
164	0x3d2b4a85	0.041819114
165	0xbcdb68d9	-0.026783394
166	0xbd8aca9a	-0.067769244
167	0x3c0ac456	0.008469662
168	0x3b397490	0.0028298236
169	0x3db05ff2	0.0861205
170	0x3d954e0b	0.07290276
171	0xbdb80af1	-0.08986462
172	0x3da30822	0.079605356
173	0x3d597043	0.053085577
174	0xbd3faa76	-0.046793424
175	0xbcf4b1af	-0.029869882
176	0x3b126fc8	0.002234446
177	0xbd181c3c	-0.0371363
178	0x3ce6fa2a	0.02819546
179	0xbd8503a9	-0.06494839
180	0xbd4957b5	-0.04915591
181	0x3bf2a601	0.007405043
182	0xbd891f1f	-0.06695389
183	0x3b34502a	0.0027513602
184	0x3d7c3b8a	0.06158022
185	0x3d54987c	0.051903233
186	0xbd9b4e17	-0.07583254
187	0x3ced4c07	0.028966917
188	0x3ba4891d	0.005021228
189	0xbd2ab0b8	-0.04167244
190	0xbd3f0fde	-0.04664599
191	0xbcf95569	-0.030436235
192	0x3d06d7ac	0.032920524
193	0xbda02562	-0.0781963
194	0x3ce419f6	0.02784441
195	0xbdbc691e	-0.09199737
196	0xbd227cd2	-0.03966982
197	0x3d89a320	0.06720567
198	0xbd1fd97c	-0.03902577
199	0xbd6b5736	-0.057456218
200	0x3d910aeb	0.070821606
201	0xbd978108	-0.07397658
202	0xbdc3ec67	-0.095665745
203	0x3d7e3c6e	0.06206935
204	0xbcea04a8	-0.028566673
205	0xbd9f969e	-0.077924
206	0x3d2dbedf	0.042418357
207	0xbd8206ed	-0.06348977
208	0xbdb7420a	-0.08948143
209	0xbc50f52e	-0.012753768
210	0xbd33f268	-0.04393235
211	0xbc7436e4	-0.014905665
212	0xbdb29171	-0.08719147
213	0xbda24bd3	-0.079246186
214	0x3cdc2bd2	0.026876364
215	0x3cbe812e	0.023254957
216	0xbcd7c0b6	-0.026337009
217	0xbd8055fd	-0.06266401
218	0x3dafffde	0.08593725
219	0xbcc7a6c8	-0.02437152
220	0xbd15a492	-0.0365339
221	0xbba2233c	-0.004948048
222	0x3c5e74e0	0.01357767
223	0x3ccef42e	0.025262918
224	0x3d90c4e3	0.07068803
225	0x3d87ed70	0.066370845
226	0x3d9060e7	0.07049733
227	0x3b77f691	0.0037836174
228	0x3d0bfc53	0.034176182
229	0xbcbafbba	-0.02282511
230	0xbd4ddf54	-0.05026181
231	0xbd4ab674	-0.049490407
232	0x3da2c7b9	0.0794825
233	0x3d2dd237	0.042436805
234	0x3d548364	0.051883116
235	0xbc9e0254	-0.01928822
236	0x3bffcddb	0.0078065223
237	0x3ca3b6af	0.019984571
238	0x3d8d43c1	0.06897689
239	0xbc38ce74	-0.011279691
240	0xbd780f0a	-0.060561217
241	0x3d15777f	0.036490913
242	0xbd05b282	-0.03264094
243	0x3c98ff7c	0.018676512
244	0xbd278467	-0.040897753
245	0xbd62a7ec	-0.055335924
246	0x3d855090	0.06509507
247	0xbda289c4	-0.07936433
248	0xbd541fba	-0.05178807
249	0xbca9edc0	-0.02074325
250	0x3c52537c	0.012837287
251	0x3af5b247	0.0018745147
252	0x3d67b72d	0.056571174
253	0xbd819fc1	-0.06329299
254	0x3c801a62	0.01563758
255	0xbd5e5ff3	-0.054290723

layers.2.bias f4 [128]
0	0xbd3f0948	-0.04663971
1	0xbcdd601a	-0.027023364
2	0x3c12e0b3	0.008964705
3	0xbc895420	-0.016763747
4	0xbd97917d	-0.074007966
5	0x3d598239	0.053102706
6	0x3c1f67d9	0.009729349
7	0xbd3e031d	-0.046389688
8	0xbd4c3029	-0.049850617
9	0xbd9fe26c	-0.078068584
10	0xbbfae6af	-0.007656894
11	0xbcd46bac	-0.025930248
12	0xbc492077	-0.012275807
13	0x3d7fa0c6	0.062409185
14	0xbd023851	-0.03179199
15	0xbd28174a	-0.041037835
16	0xbd7ea3aa	-0.0621678
17	0x3c21feab	0.009887378
18	0xbda53052	-0.08065857
19	0xbbe22dba	-0.0069024237
20	0x3ce74432	0.02823076
21	0xbd387f36	-0.045043193
22	0xbb8928fc	-0.004185794
23	0x3bb09863	0.0053892597
24	0x3d05e80d	0.032692004
25	0x3ca29240	0.019845128
26	0xbc16d286	-0.009205466
27	0x3d450643	0.048101675
28	0xbd8c1fa4	-0.068419725
29	0xbda9529f	-0.08267712
30	0xbd86f00d	-0.06588755
31	0xbd312c90	-0.04325539
32	0x3a9e3b15	0.0012072051
33	0x3b6ff300	0.0036613345
34	0x3cf234d8	0.029566213
35	0xbd3d146d	-0.046162058
36	0xbc522deb	-0.0128283305
37	0xbb987044	-0.004652055
38	0xbd1ac2d7	-0.03778347
39	0x3d732630	0.05936259
40	0xbd12c41b	-0.035831552
41	0xbd98acf0	-0.0745486
42	0x3db405ab	0.087901436
43	0xbb14d950	-0.0022712536
44	0xbd8947df	-0.067031614
45	0x3d04af7e	0.032393925
46	0xbda89076	-0.08230679
47	0xbd87d709	-0.066328116
48	0x3c8b8ef8	0.017035946
49	0x3d9a55b5	0.075358786
50	0xbd0a555b	-0.033772808
51	0xbd8c271e	-0.068433985
52	0xbdb440d5	-0.08801428
53	0xbd300623	-0.042974602
54	0x3d512b64	0.05106677
55	0xbdaa503e	-0.08316086
56	0xbbaf469c	-0.0053489935
57	0xbd5a471a	-0.053290464
58	0x3cae64ca	0.021288294
59	0x3da66e65	0.08126525
60	0x3cbd3d51	0.023100527
61	0x3d2525ee	0.040319376
62	0xbce3fd38	-0.027830705
63	0x3d7368ec	0.059426233
64	0xbcf3cdd7	-0.029761238
65	0x3da4e582	0.08051588
66	0xbc335a17	-0.010946772
67	0xbd8c7fbe	-0.068603024
68	0x3a7b8e22	0.00095960696
69	0xbd15aea2	-0.036543496
70	0x3d93b232	0.072117224
71	0xbd340b6e	-0.043956213
72	0xbb19098c	-0.0023351638
73	0xbd593a31	-0.05303401
74	0xbca7b342	-0.020471219
75	0xbda952d7	-0.082677536
76	0xbca4d056	-0.020118874
77	0x3cd2aa71	0.025716038
78	0xbcd53205	-0.026024828
79	0xbb03e691	-0.0020126442
80	0x3c30f3e9	0.01080034
81	0x3d6432cf	0.055712517
82	0x3ced68d8	0.028980657
83	0xbce85b4f	-0.028363852
84	0x3c9e3f44	0.019317277
85	0xbb27d9cb	-0.0025611992
86	0x3d495196	0.049150072
87	0xbcf445ec	-0.029818498
88	0xbaf38727	-0.0018579707
89	0x3d431d71	0.0476355
90	0x3ca7caf4	0.020482518
91	0x3cf7e651	0.03026119
92	0xbbf376fe	-0.0074299565
93	0x3d725ce4	0.05917062
94	0x3cce92d1	0.025216492
95	0xbcf52c00	-0.029928207
96	0xbd8a2009	-0.067443915
97	0x3d921d18	0.071344554
98	0xbd28bd5d	-0.041196216
99	0x3cb1c0fd	0.02169847
100	0xbc395ad7	-0.011313162
101	0xbc9d30ea	-0.019188363
102	0x3d953ab7	0.072865896
103	0xbd929a52	-0.071583405
104	0x3da6d8b1	0.08146799
105	0xbd88cccb	-0.06679686
106	0x3c83f984	0.01611019
107	0xbc50d885	-0.012746935
108	0x3b8bf19f	0.004270747
109	0x3d95f489	0.07322032
110	0xbd32134f	-0.043475445
111	0x3cb02fa0	0.021507084
112	0x3dade97e	0.08491801
113	0x3d9976ed	0.074933864
114	0x3d78505b	0.060623508
115	0x3cec4846	0.028843056
116	0xbc5904a2	-0.013245733
117	0xbd9d5e1f	-0.07683968
118	0x3cc6a014	0.024246253
119	0xbd29308c	-0.041306064
120	0xbd411a76	-0.047144376
121	0xbc7eadfc	-0.015544411
122	0x3ca314e9	0.019907432
123	0xbd916313	-0.07098975
124	0x3d6be813	0.05759437
125	0xbcd91066	-0.026497077
126	0xbcdc0294	-0.026856698
127	0x3d8ce654	0.06879869

layers.4.weight f4 [4, 128]
0	0x3dafe247	0.08588081
1	0xbd59b978	-0.053155392
2	0x3c64c25e	0.013962356
3	0xbd438933	-0.047738265
4	0xbd1abaeb	-0.037775915
5	0x3c518fef	0.012790664
6	0x3d89494a	0.06703432
7	0x3d26229b	0.040560346
8	0x3cdd533a	0.027017225
9	0xbd038212	-0.032106467
10	0x3da41f4a	0.080137804
11	0x3d4794d5	0.04872592
12	0xbd189426	-0.03725066
13	0x3d1cd53a	0.038289286
14	0x3d1dae87	0.03849652
15	0xbc4bcd7e	-0.01243913
16	0xbd06545f	-0.032795306
17	0x3d293742	0.041312464
18	0x3d558f62	0.052138694
19	0xbc4b0699	-0.01239171
20	0xbc6e8285	-0.0145574855
21	0xbd7182af	-0.05896252
22	0xbd4d90da	-0.05018697
23	0x3cc37e2c	0.023863874
24	0x3dac6c36	0.08419077
25	0xbd458db9	-0.04823086
26	0x3c96d585	0.01841236
27	0x3c73d7b4	0.014882971
28	0xbd04376e	-0.032279424
29	0x3d4fc06e	0.050720625
30	0x3dbf8578	0.09351629
31	0xbd8f9ade	-0.070119604
32	0xbc84c8fa	-0.016209114
33	0x3cb548ba	0.022129405
34	0x3d678931	0.05652732
35	0xbbc56f29	-0.006025214
36	0xbd6f73cb	-0.05846004
37	0x3da78af5	0.08180801
38	0x3bcd8c2d	0.006272814
39	0x3cbaf430	0.022821516
40	0x3d460857	0.048347797
41	0xbcb2fcc4	-0.021849044
42	0xbc9bfd64	-0.019041725
43	0xbd24af3b	-0.040206175
44	0x3ccf1bcc	0.02528181
45	0x3b24871b	0.0025104943
46	0x3cbbef86	0.022941362
47	0xbd78fa16	-0.060785376
48	0x3d906a25	0.070514955
49	0xbd51e9cb	-0.051248353
50	0x3d65e14b	0.05612306
51	0x3dad164d	0.08451519
52	0x3da45827	0.08024626
53	0xbd6b2055	-0.05740388
54	0xbd566285	-0.05234005
55	0xbd8a7ecb	-0.06762465
56	0x3c83ba8a	0.01608016
57	0x3c4039d8	0.011732541
58	0xbd451d25	-0.048123498
59	0x3d5d6c92	0.05405862
60	0x3d035361	0.03206194
61	0xbd3598e9	-0.04433528
62	0x3bbf5908	0.005839471
63	0xbd35ba1b	-0.044366937
64	0xbcd3356d	-0.025782311
65	0x3d892617	0.06696718
66	0xbd81adc9	-0.06331975
67	0xbdab6ab7	-0.083699636
68	0x3db34930	0.08754194
69	0xbd5ba287	-0.053621795
70	0x3d209cfa	0.039212205
71	0xbda9cd8f	-0.0829116
72	0xbdb39da2	-0.087703004
73	0xbcfe7d54	-0.03106562
74	0x3db0ab27	0.08626395
75	0xbd04e282	-0.032442577
76	0x3d082d31	0.033246223
77	0x3bedb216	0.0072538955
78	0x3c289774	0.0102900155
79	0xbd6e19dc	-0.05813013
80	0xbd192698	-0.03739032
81	0x3d824c26	0.063621804
82	0xbd0d18ec	-0.034447595
83	0xbd6eb8c6	-0.058281682
84	0x3da1e4e0	0.079049826
85	0xbd3d1d4c	-0.046170518
86	0xbc8b4fe9	-0.017005878
87	0xbbc6cc24	-0.006066816
88	0xbcc417ee	-0.023937192
89	0xbcb6febf	-0.02233827
90	0x3db0527c	0.08609483
91	0x3d727486	0.059193157
92	0xbdbc9f70	-0.09210098
93	0xbd39d37f	-0.045367714
94	0x3c2739b5	0.0102066295
95	0xbd0107bb	-0.031501513
96	0x3daacb14	0.08339515
97	0xbd9c2218	-0.0762369
98	0xbce865a5	-0.02836878
99	0xbcb39f22	-0.021926466
100	0x3d43dbb1	0.047816936
101	0x3d8dcd41	0.06923915
102	0xbd5e7426	-0.054309987
103	0x3d8069a6	0.06270151
104	0xbb75c451	-0.0037501047
105	0x3c0ca879	0.008585089
106	0x3cf363ee	0.029710736
107	0x3cf3f11b	0.029778054
108	0xbd3a9bd1	-0.045558754
109	0xbdbb635f	-0.09149813
110	0xbca3dee0	-0.020003736
111	0x3bb6df41	0.005580813
112	0xbd0b62c1	-0.034029726
113	0x3cfe12ef	0.031014888
114	0x3b9f4e19	0.004861605
115	0x3db2a4ff	0.08722877
116	0x3d37662e	0.04477518
117	0xbd66a105	-0.056305904
118	0xba513d47	-0.00079818483
119	0x3d5fc9c9	0.054635797
120	0x3d682925	0.056679863
121	0x3da2ac90	0.0794307
122	0xbd87911f	-0.066194765
123	0xbc499f0a	-0.012305984
124	0x3d41a0f2	0.04727263
125	0xba4568bb	-0.00075305597
126	0x3d86740a	0.065651014
127	0x3d083283	0.033251297
128	0x3cd9e610	0.02659896
129	0xbd61b5f7	-0.055105176
130	0xbcd7e9ec	-0.02635666
131	0xbc03d06b	-0.008045296
132	0xbba6a05e	-0.005085035
133	0xbd951cda	-0.072808936
134	0xbd585893	-0.052818846
135	0xbcfb008f	-0.030639915
136	0xbcf35f71	-0.029708596
137	0xbd8f7804	-0.07005313
138	0x3d8d6fb9	0.06906075
139	0xbca74deb	-0.020422896
140	0x3d70aff2	0.058761545
141	0xbd9c7c44	-0.07640889
142	0xbd43ccab	-0.04780261
143	0x3b2dc116	0.0026512793
144	0x3d893a50	0.06700575
145	0x3c87e7bf	0.016589997
146	0x3c036e86	0.008021956
147	0x3c990477	0.018678887
148	0xbc0d418a	-0.008621583
149	0x3c7f1f40	0.015571415
150	0xbd8b21f9	-0.06793589
151	0xbc37dca1	-0.011222036
152	0x3d90e3bd	0.07074688
153	0xbd3ae87d	-0.045631874
154	0x3d153870	0.036430776
155	0x3d2b3309	0.041796718
156	0x3dab5b68	0.08367044
157	0x3d4f30b2	0.05058355
158	0xbc972a70	-0.018452853
159	0xbcaaaf95	-0.020835677
160	0x3da2d07c	0.079499215
161	0xbd3ec4ba	-0.04657433
162	0xbced5dc6	-0.028975379
163	0x3d0ed356	0.034869514
164	0xbd1d4224	-0.038393155
165	0xbd4870de	-0.048935764
166	0xbd037098	-0.0320898
167	0xbc31f0e2	-0.010860654
168	0x3cc5f15f	0.024162946
169	0xbc99c901	-0.018772604
170	0x3d2a9b8a	0.04165224
171	0x3c07bef5	0.008285274
172	0x3d9b770f	0.07591068
173	0xbd429f6c	-0.047515318
174	0x3cfd4877	0.030918343
175	0x3d7c8d42	0.06165815
176	0xbd133614	-0.035940245
177	0xbd055590	-0.032552302
178	0xbd3dfb53	-0.04638226
179	0x3d88c817	0.06678789
180	0xbb4411cc	-0.0029917834
181	0x3dabfb7c	0.08397576
182	0x3d2aa623	0.041662347
183	0x3c37942f	0.011204763
184	0x3d0b44be	0.034001105
185	0x3d97777f	0.07395839
186	0xbdab3954	-0.08360544
187	0x3b7a05ac	0.0038150353
188	0x3d338cdc	0.043835506
189	0x3cc24105	0.023712644
190	0xbce2c17c	-0.027680151
191	0x3d7dad63	0.061932933
192	0x3d9cf48d	0.07663832
193	0xbd91ef93	-0.07125773
194	0xbd809344	-0.06278089
195	0xbd27a0fc	-0.04092501
196	0x3bbc66cd	0.0057495595
197	0x3d5f4f66	0.05451908
198	0x3d6e53bb	0.05818532
199	0x3cacc385	0.021089325
200	0xbb14df75	-0.0022716199
201	0xbdaf416b	-0.08557399
202	0x3c8e6ae6	0.017384958
203	0xbcee9dea	-0.029128034
204	0xbda69d45	-0.081354655
205	0x3c86edef	0.016470877
206	0xbcbae53a	-0.022814382
207	0x3c4cabb9	0.012492114
208	0xbba9737f	-0.005171239
209	0x3d86331b	0.06552716
210	0x3d14e9cd	0.036355782
211	0xbcd45cd8	-0.025923178
212	0xbd4c6e2f	-0.049909767
213	0x3cd7e4a5	0.026354143
214	0xbcf1d91e	-0.029522475
215	0xbd856a55	-0.06514422
216	0x3c1278a8	0.0089398995
217	0x3c2a67a0	0.010400683
218	0xbd9bdb56	-0.076101944
219	0x3da861f7	0.0822181
220	0xbc5cb398	-0.013470553
221	0x3d282bd1	0.04105741
222	0x3d843cb9	0.064568944
223	0xbdaf38ba	-0.085557416
224	0x3cf3a3bf	0.029741166
225	0x3b5d288a	0.0033746087
226	0x3d3b2ca3	0.045696866
227	0x3be4e8dd	0.0069857673
228	0xbd5c34c6	-0.053761266
229	0xbdb13542	-0.08652736
230	0x3d4f0469	0.050541315
231	0xbd275019	-0.04084787
232	0xbccabf24	-0.024749346
233	0xbd61285a	-0.054970123
234	0xbd97b93f	-0.0740838
235	0xbc8a0f9b	-0.016853144
236	0xbdc561f4	-0.09637824
237	0xbd2831b7	-0.041063037
238	0x3d95021a	0.072757915
239	0x3cf4f51c	0.029902034
240	0xbd978e36	-0.074001715
241	0x3ccf904c	0.02533736
242	0xbcb43039	-0.02199565
243	0xbd583b45	-0.0527909
244	0x3d8f2cd6	0.06990974
245	0xbd28af93	-0.041183066
246	0xbd9be2ca	-0.07611616
247	0x3d0d8a63	0.034555804
248	0xbda68de9	-0.08132536
249	0xbc201b2e	-0.009772105
250	0x3d73a908	0.059487373
251	0x3cfaa1c9	0.030594723
252	0x3d96825c	0.07349083
253	0x3d30ced1	0.043165985
254	0xbb5800fd	-0.0032959573
255	0x3d9d55c0	0.07682371

layers.4.bias f4 [4]
0	0xbcd3ad68	-0.025839522
1	0x3c976b1c	0.01848369
2	0x3d6c7985	0.057733078
3	0xbd973597	-0.07383268
