ptdrlhf/ptdrlhf/checkpoints/state_action/checkpoint_supervised_dqn39.pth (torch, 219095 bytes, 6 tensors)

layers.0.weight f4 [128, 290]
000000 c5 f5 7c bb b3 0a 5a bc e4 3a 09 3a 9d 61 d7 bc
       -0.0038598638 -0.013308215 0.00052349106 -0.026291663
000010 67 e1 6c bb bc 69 4b bc 8b be dc 3c fa c2 a9 bd
       -0.0036145092 -0.012415346 0.026946327 -0.08289142
000020 ca 3c ab bc b1 63 85 3d 52 33 40 bd e3 55 c2 3d
       -0.02090301 0.06513155 -0.046923943 0.09489038
000030 59 a9 a8 bc 5e 3a 8b 3d 6b a0 19 3d e4 f9 1a bd
       -0.020588564 0.06798242 0.037506502 -0.03783597
000040 60 b0 6b bd ea da 0f bc 05 a0 57 3d 41 49 1b bd
       -0.05754125 -0.0087802205 0.05264284 -0.037911657
000050 69 a3 de bb 94 b5 12 bd 46 f2 37 3d fc fd 91 3c
       -0.0067943824 -0.035817698 0.044908784 0.017821305
000060 9f cf a3 3c 4a 34 b5 3d 92 52 ad bc d7 ee 8a bc
       0.019996462 0.08847864 -0.021157537 -0.01695959
000070 da b8 e3 bb 3a 6d d4 3c 74 ef 3f bb 5c 5c e3 bd
       -0.0069495263 0.02593099 -0.0029287012 -0.111016005
000080 c8 93 aa bd fd f9 89 3d 55 23 0d 3c 68 39 a8 bd
       -0.08328968 0.067371346 0.008614381 -0.082140744
000090 eb 3b f5 bd 5d ff 91 3d 01 7a 73 3d 20 ad 27 3d
       -0.11974319 0.07128785 0.059442524 0.04093659
0000a0 7a b0 b4 3c 7b 2a 32 bd 76 68 17 bd 4c e4 d1 3c
       0.022056807 -0.043497544 -0.036964856 0.025621556
0000b0 20 bd 74 bd 6f 92 32 bd d5 cc 7c 3d f7 44 d0 3b
       -0.059750676 -0.04359668 0.06171878 0.0063558775
0000c0 73 1b f1 bc 2b 7c c8 bc 4d 5e 72 bb 42 01 aa 3c
       -0.029432034 -0.02447327 -0.0036982477 0.020752553
0000d0 99 4b 1a 3d 2c f8 18 3d a3 ee bc 3c 17 da c4 bc
       0.03766975 0.03734605 0.02306301 -0.024029775
0000e0 e5 0c 84 bd ea 8c 0d 3c 29 c5 8e bd bf 6c c7 3c
       -0.06447772 0.008639554 -0.06971199 0.024343846
0000f0 de fa 60 bc 40 c1 5c 3d a6 d9 8b bd 94 45 01 3a
       -0.013731686 0.053895235 -0.068286225 0.00049313274
000100 a8 de 07 bd bb 03 7c bc c5 b7 21 bc 25 ad 76 bd
       -0.033171326 -0.015381749 -0.009870474 -0.060223717
000110 ae d3 57 3d bc 56 36 bd ed 72 ec bc 13 a7 03 bb
       0.052692108 -0.04451631 -0.028863395 -0.0020088598
000120 99 9e 64 3d f9 b3 a9 3c fb fd 8e 3c d0 8b cd 3c
       0.055815313 0.0207157 0.017455092 0.025091082
000130 04 ef 1a bb 6f 16 84 3b 6b ec 4d 3c 1b f3 24 bd
       -0.0023641 0.0040309946 0.0125685735 -0.040270906
000140 30 f6 a2 3b 03 03 a1 bc a2 6f 57 bd 9d a3 8b 3d
       0.0049731955 -0.019654756 -0.052596696 0.06818316
000150 b9 4a c3 3c 05 f7 e4 bc fe f5 9e bb 08 9c 68 3d
       0.023839341 -0.02794982 -0.004851102 0.056789428
000160 2c df d1 bc b6 67 c0 3c 6b 82 38 3d 0a c9 91 bd
       -0.025619112 0.023486953 0.04504625 -0.07118423
000170 56 52 a3 bd cc ac 50 bd 61 71 87 bd 7c 59 41 3d
       -0.07974689 -0.050946042 -0.06613422 0.04720448
000180 e5 64 84 3d c2 d8 c4 bb fc cd 6d 3d 45 7a 0b bd
       0.064645566 -0.006007285 0.05805777 -0.034052152
000190 45 dc f0 3c 93 7b 57 bd d1 c8 c6 bc 5d 47 f1 bb
       0.029401908 -0.052608084 -0.024265679 -0.0073632435
0001a0 fc 2c 59 bc e4 f9 49 3d 9e 74 9d bd e1 c8 4e 3d
       -0.013255354 0.04931058 -0.076882586 0.05048454
0001b0 11 87 8b bd e4 d3 4c 3d 4a 63 f7 3d 27 3e 12 3d
       -0.06812871 0.050006762 0.12079485 0.035703804
0001c0 1d 84 7c bd 50 d6 86 3d 58 39 39 bd b5 40 e3 3c
       -0.06164943 0.065838456 -0.045220703 0.027740816
0001d0 2c 3a 4e bd 9f 7c 27 3d 7f de 4f bc 1b 1d 4b bb
       -0.050348446 0.040890332 -0.012687325 -0.003099269
0001e0 ad 6e b3 bd 30 2b a3 3d 8a f2 44 3d 87 dd 93 3d
       -0.08761344 0.07967222 0.048082866 0.07219987
0001f0 99 1d 85 bb 25 60 b1 bd 4c 17 6d bd b4 bf 93 3c
       -0.004062366 -0.08660916 -0.057883546 0.018035747
000200 88 bf 25 bd b0 8b 58 bd e0 4d 7c 3d 8a 89 a6 bd
       -0.04046586 -0.05286759 0.061597705 -0.08131702
000210 f3 64 8c 3d 97 72 f8 3c 1e 46 26 bd b2 fa b4 3c
       0.06855192 0.030328078 -0.040594213 0.022092197
000220 02 f4 1b 3d a8 6f 26 bd 3d 33 0f bd 9b 7b 03 3d
       0.0380745 -0.040633827 -0.034960974 0.0321003
000230 bf 38 91 bd b8 fb 9a 3d cd 20 f0 bd c5 4d 5c 3d
       -0.070909016 0.07567543 -0.11725006 0.053785104
000240 88 93 3e 3d da 12 98 bc 44 7b 8e 3d e7 70 53 bd
       0.046527416 -0.018563677 0.06957105 -0.051621344
000250 01 b7 30 bc 26 d1 02 3d 2b cc fa bd fa 6a e4 bd
       -0.010785819 0.03193774 -0.12245973 -0.11153217
000260 c4 0f 20 3d f7 a2 0f bd a1 b6 04 bd 24 33 c7 3d
       0.039077535 -0.035067525 -0.03240073 0.09726551
000270 ac a5 dc bc 81 f2 be bc e3 f1 8f 3c f2 a0 cf bd
       -0.026934467 -0.023308994 0.017571395 -0.1013812
000280 b8 5a f6 3c 14 61 66 3d 61 f0 18 3b 42 70 83 3c
       0.030072555 0.056244925 0.0023336636 0.01604474
000290 dc 9d 98 bd ac 03 44 3d 37 ee 4a 3c f2 b1 12 3d
       -0.07451984 0.047855064 0.012385896 0.035814233
0002a0 0c d5 a7 3c cc 1c f2 3c 1b c4 dd 3c cd 8f ce 3c
       0.02048733 0.029554747 0.02707105 0.025215054
0002b0 24 03 73 3d 6e 09 ad 3d 68 84 ad 39 5d 08 a4 bc
       0.059329167 0.08449064 0.00033095782 -0.02002352
0002c0 5c d4 9d 3d 12 d0 a2 3c 27 22 85 3d a2 5d 8e bc
       0.0770652 0.019874606 0.06500655 -0.017378632
0002d0 ce 62 fa bb 93 88 a4 3d a0 a4 03 bd c2 1a 43 bc
       -0.007641173 0.08033862 -0.03213942 -0.011908235
0002e0 86 8e 0f 3c 26 5c 9a bd 9b c1 df 3c 23 2c 07 bd
       0.008762008 -0.07537107 0.027313998 -0.033001076
0002f0 4f b8 6f bd ae 96 06 3d 4f 1c 68 3b 57 bd 70 39
       -0.05852538 0.032858543 0.0035417264 0.00022958718
000300 38 6d d2 3c 47 85 01 3d fa 9c 8d bb c8 11 71 bd
       0.025686845 0.031621244 -0.0043216916 -0.05885485
000310 c2 88 66 3d 86 d3 7b 3c 17 b1 d7 bd c9 6c 6f 3d
       0.056282766 0.015370255 -0.10531824 0.058453355
000320 54 e0 a0 bc 08 af 21 3d 03 b1 bc 3d 95 6f 87 bc
       -0.019638218 0.039473563 0.0921345 -0.016532699
000330 5b 0b 61 bd a2 80 b6 3b ee 0c e5 3b 91 29 37 bd
       -0.05494247 0.0055695334 0.0069900667 -0.044717375
000340 06 23 b1 3d 3d e8 1b bd 5b 46 fb bc 25 df 04 be
       0.08649258 -0.038063277 -0.030673197 -0.12975748
000350 28 42 92 bd e3 cd 1f bc be fe 38 bd 6e da a3 bc
       -0.071415246 -0.009753677 -0.045164816 -0.020001616
000360 54 f6 cf bc a7 e3 48 3d 37 f4 26 bc 8a 5f f0 bd
       -0.025386013 0.04904523 -0.010190061 -0.11736973
000370 63 4e 78 3d 83 df 05 3d 11 5e 41 bd 06 75 1c 3d
       0.06062163 0.03268386 -0.04720885 0.03819754
000380 3e 1b 8d 3d ea 00 7e bd 04 49 f0 3b b0 1e f4 3c
       0.06889962 -0.06201259 0.007332923 0.02979979
000390 46 c8 46 3c f2 34 80 3d d5 8c 3b bc d2 8f 75 3d
       0.01213271 0.062600985 -0.011447151 0.05995161
0003a0 b2 9d 9f 3c db db 9e bd e3 7b cc 3d 9d 2f f6 bb
       0.019484375 -0.07756778 0.09984567 -0.007513
0003b0 41 fc 5e 3d 2a 19 49 3d b6 05 be 3b ef 16 3b 3d
       0.054439787 0.049096264 0.0057990206 0.045676168
0003c0 33 7a 8a 3d 87 24 63 3c c3 2d 27 bd 86 f0 92 3c
       0.06761589 0.013863689 -0.040815126 0.017936956
0003d0 e4 f5 25 3e 8f 23 cb bb 81 de 4e bd 77 07 31 bd
       0.16207081 -0.0061993073 -0.050505165 -0.04322001
0003e0 ae dc 01 bd 9d ca 81 3b d1 fe 31 bd 82 67 f3 3c
       -0.031704597 0.003960921 -0.043455902 0.029712442
0003f0 c8 dc fd bd e5 ac 17 3b 9c 43 a1 3c 0f 52 c3 3c
       -0.12395626 0.0023143825 0.019685559 0.02384284

layers.0.bias f4 [128]
000000 87 1d 19 3d 7e 2f ef bc 08 97 07 3c 03 52 30 3d
       0.037381675 -0.02919745 0.008275755 0.043046962
000010 06 b7 d9 bc af 6b cd 3c d4 e8 78 3c 39 8c a6 3c
       -0.02657653 0.025075762 0.015192229 0.020330535
000020 46 98 55 bd 68 11 d9 3c bf cc 6a 3c c8 52 a5 3c
       -0.052147172 0.026497558 0.014331042 0.020181075
000030 58 dd 2e 3d df 84 1b bd 0d 19 2c 3d 0d 1a 26 bd
       0.04269156 -0.037968513 0.042016078 -0.040552188
000040 44 74 13 bd b4 ae 00 3d 80 10 5d 3d b7 99 7d bd
       -0.03599955 0.03141661 0.053970814 -0.061914172
000050 8a 38 9e 39 d5 37 12 3c 3c 66 37 3d ac 3b 46 3d
       0.00030178233 0.008924444 0.044775233 0.04839675
000060 ce ac 51 bc 96 c4 37 bd 73 17 cb bc 3c d8 08 bd
       -0.0127975475 -0.044865213 -0.024791455 -0.033409342
000070 77 ec 81 3c 47 8e b3 bc 7b 33 e9 bc ea fd f1 bc
       0.015859826 -0.021918429 -0.02846693 -0.029540021
000080 55 64 2e 3d a7 9f 15 bd 59 c5 3b 3d db ad 56 bd
       0.042576153 -0.03652921 0.045842502 -0.052411895
000090 56 f4 82 3a ad 67 33 bd 04 a5 4f bd ab 11 d3 3c
       0.0009991031 -0.043800045 -0.05069448 0.02576526
0000a0 85 3e 7c 3c 08 a3 0f bd 4b 7f 49 bc e4 00 d0 3b
       0.015395765 -0.035067588 -0.012298415 0.0063477624
0000b0 4a 9b 45 bc 09 f6 ac bb c9 22 80 bd e2 13 96 bc
       -0.01206095 -0.005278353 -0.06256635 -0.018320028
0000c0 59 9f 1b bd 6a ec c4 3b 65 fc 44 3d 81 cd 0f bd
       -0.037993763 0.006009628 0.048092265 -0.035108093
0000d0 ac 92 17 bd 58 6f cb 3c 46 f4 51 3d 39 f0 03 3c
       -0.03700511 0.024833366 0.051258348 0.008052879
0000e0 6a 7b 26 bd da 65 63 bd 17 3c 58 bd dd e9 ca 3b
       -0.04064504 -0.055517055 -0.05279168 0.0061924295
0000f0 77 95 80 3c 49 8a 2c bd ec fe 19 3d 30 46 7a 3a
       0.01569627 -0.042124067 0.037596628 0.0009547202
000100 e1 88 44 bc 2a d3 82 bb 5b 85 79 bd c0 b5 27 3d
       -0.011995525 -0.003992458 -0.060918193 0.040944815
000110 b5 b3 65 3b ea e4 d0 3b b4 a2 44 3d 2d 2e 0a 3d
       0.003504974 0.006374945 0.04800673 0.033735443
000120 ea f3 8a 3c e8 1c 39 3d d8 91 da bc d6 92 43 bd
       0.01696201 0.045193583 -0.026680872 -0.047747456
000130 3a 21 fa 3c f6 0d 18 bd 5f 99 83 bd 6f 26 18 bb
       0.030533422 -0.03712269 -0.064257376 -0.0023216268
000140 3c 49 ee 3a e4 91 a7 bc 74 70 97 39 5a 0e b1 bb
       0.0018179785 -0.020455308 0.00028884748 -0.005403322
000150 0d 56 87 3c 1d a7 21 3d 31 38 9c 3b dd f8 88 3c
       0.016520524 0.039466012 0.0047674407 0.01672023
000160 d9 bf a4 ba d7 7f 07 3d 16 16 5e bb 93 15 57 bd
       -0.0012569382 0.033080902 -0.0033887676 -0.05251081
000170 b5 29 0c ba 73 d6 86 3b 67 d9 2f bd 94 22 3e 3c
       -0.0005346791 0.00411492 -0.04293194 0.011604924
000180 00 44 cc 3c 71 35 42 bd 83 8f 9e bb b6 2e 0c 3d
       0.024934769 -0.047414247 -0.0048388853 0.034224235
000190 2d da 51 bd b6 6a 5a bd 37 ce 87 bc cd d5 f8 3c
       -0.05123346 -0.053324424 -0.016577823 0.030375386
0001a0 d8 b1 36 bd f9 8a 58 bc d9 74 0a 3d 1f 93 c0 3c
       -0.0446032 -0.013216727 0.03380284 0.023507653
0001b0 05 60 58 bb 79 35 ae 3c a3 0b 56 bd c3 6d 4c bd
       -0.0033016216 0.021265732 -0.05225719 -0.049909364
0001c0 bc 7f fa bb 1b 36 3b 3b c4 cc b8 bc b7 f1 05 3d
       -0.0076446217 0.0028566185 -0.022558577 0.03270122
0001d0 25 00 4b bd a9 15 41 bc 5a 04 46 3b 87 8c 3e bc
       -0.049560685 -0.011784949 0.0030214996 -0.011630184
0001e0 c3 42 95 3d 4e bd 55 3d d3 01 9e bc b3 11 8a 3c
       0.072881244 0.05218249 -0.01928798 0.016854143
0001f0 01 81 5b bd b5 0a 19 bd e8 f9 8b bb bf d7 4d bd
       -0.053589825 -0.037363727 -0.0042717345 -0.05025458

layers.2.weight f4 [128, 128]
000000 ea 06 05 3d f3 68 f2 bc 8e 07 57 bd 11 1b a8 3d
       0.032477297 -0.02959106 -0.05249744 0.082082875
000010 a0 3c 54 3d e4 71 9b 3d 80 1f 61 bb 6e dd cb ba
       0.05181563 0.07590082 -0.003435105 -0.0015553662
000020 b6 ff 9f 3d 04 15 a4 3d 68 31 99 3d 6b 66 84 bd
       0.07812445 0.08011821 0.074801266 -0.06464847
000030 61 73 b1 bd 93 e2 b7 3c 20 11 39 3d 40 6b 2a 3b
       -0.08664585 0.022446906 0.045182347 0.0026003867
000040 0d 3c 7a 3d eb d5 ae bd a6 d3 88 bd 30 72 39 bd
       0.061092425 -0.08536895 -0.06680994 -0.045274913
000050 87 a8 41 3d bb ab 43 3d fc e7 c4 3c f3 21 89 bc
       0.04727986 0.047771197 0.0240364 -0.016739821
000060 22 8d 8b 3c 07 34 37 3d d4 d2 0d bd 4a 08 50 bd
       0.01703507 0.04472735 -0.03462489 -0.050789155
000070 61 16 32 bd 5e fb e9 3b fd 95 89 bd 92 22 b4 bd
       -0.043478373 0.007140561 -0.06718061 -0.08795656
000080 7c 84 95 bd 36 d0 67 3d 43 2e 4e 3d fa c6 95 bc
       -0.0730066 0.05659505 0.050337087 -0.018283356
000090 e5 00 3b bb 5e 36 40 bc e4 30 11 3d 5f fd 21 3d
       -0.0028534469 -0.011731712 0.035447016 0.039548274
0000a0 23 3c af bd 00 85 b2 bd e4 d7 78 3d 0b 85 98 bd
       -0.08556392 -0.08716774 0.060752764 -0.07447251
0000b0 f7 82 8b bd 15 4d 81 ba 95 de 66 3d 93 bd 2c 3c
       -0.06812089 -0.0009864891 0.056364615 0.010543245
0000c0 16 22 74 bd e9 00 b0 3c c3 20 ad 3d 22 83 2d 3d
       -0.05960282 0.021484809 0.084535144 0.042361386
0000d0 1a 36 2b 3d 2e af 43 bd d5 3b a1 3c ce ef a3 bc
       0.041799642 -0.047774486 0.01968185 -0.020011809
0000e0 8e 42 5f bb f9 ef 46 bd 67 65 db bb 32 f2 a2 bc
       -0.003406677 -0.0485687 -0.0066954377 -0.019890878
0000f0 49 9d f4 3c 52 4a f7 bc d7 51 9d bc c2 be 4b 3c
       0.029860156 -0.030186806 -0.019204063 0.012435617
000100 03 22 1b 3d 40 49 ca bc 5a e8 54 3d 20 cd ac bd
       0.037874233 -0.024693131 0.0519794 -0.08437562
000110 ce 8f 97 bd e7 98 13 bd 05 ad 70 3d 83 43 06 bd
       -0.074004754 -0.03603449 0.058758754 -0.032779228
000120 d9 91 75 bd ae a4 84 39 0a 2b 32 bd 55 db a9 3d
       -0.059953544 0.00025299698 -0.043498076 0.082937874
000130 6f 2a 79 bd 39 0f 2b bd bf c0 8c b9 59 f0 2d bd
       -0.060831483 -0.041762564 -0.00026846488 -0.04246554
000140 55 7b 9e bc d8 f4 81 3c 39 41 81 bd b8 3f 8f 3d
       -0.019345919 0.01586382 -0.06311268 0.06994575
000150 8a d8 33 bd 72 25 56 3d 89 9c 11 3d a6 0e 8a 3d
       -0.04390768 0.052281804 0.035549674 0.06741075
000160 92 25 64 bd e7 d6 05 bc 4d ef 00 3d bb 35 84 bd
       -0.055699892 -0.0081689125 0.031478215 -0.06455561
000170 c9 85 d9 3c 4c 95 d5 bb 7b d7 90 3d 5d c5 a1 bd
       0.026553052 -0.0065180417 0.0707235 -0.07898972
000180 1f 10 d0 3c ff 68 a4 bd 9f 7c 4b bd f6 87 29 3c
       0.025398312 -0.08027839 -0.049679395 0.010347357
000190 07 33 71 bd d5 9d af 3d df 39 ca bc 1f 6e 37 bc
       -0.058886554 0.08575026 -0.024685798 -0.0111956885
0001a0 d3 51 4c bd 4e 86 ae bd 66 08 24 bd 12 90 9f bd
       -0.04988272 -0.0852171 -0.040047072 -0.07791151
0001b0 8b a5 aa 3c a8 0b 37 3c c4 51 c9 bc 68 fe 3b 3d
       0.02083089 0.011172213 -0.024575122 0.045896918
0001c0 45 ee be bc 45 73 00 3d 8a db 8d 3d fd 46 f2 bb
       -0.023306975 0.03135993 0.069266394 -0.0073937164
0001d0 a4 16 50 bc 17 96 81 bc 24 cc a7 3c 5d a0 4d bd
       -0.01270071 -0.015818639 0.020483084 -0.050201762
0001e0 29 a0 20 bc 77 43 04 3d 45 f0 7b bd ee 15 81 bb
       -0.00980381 0.032290902 -0.061508436 -0.003939382
0001f0 f7 26 1a bc d8 3c 61 bb 19 d9 75 3c 39 79 7f 3d
       -0.009408704 -0.003436854 0.015005373 0.062371466
000200 94 22 1f bd 05 a1 1c 3b 9c 8d 8d 3d 17 4d 43 bd
       -0.038851336 0.0023899686 0.069117755 -0.04768094
000210 a3 31 e0 3c 07 94 9d 3d b8 ac 33 3d 3e 42 77 bd
       0.027367419 0.076942496 0.04386589 -0.060365908
000220 06 2e a3 3d 34 05 37 3a e1 77 3b bd 54 74 9f 3c
       0.07967763 0.00069816713 -0.045768622 0.01946465
000230 57 c3 41 bd b0 5b 40 3d e5 eb 85 3c 46 2d 4a bd
       -0.04730543 0.04696244 0.016347835 -0.049359582
000240 17 4c 84 3d a7 ff 92 bd 16 36 b3 bc 5f 47 03 bd
       0.064598255 -0.07177668 -0.021876376 -0.032050487
000250 6c 96 de bc 8b 8c 0c bd da e2 a7 bd a4 b6 bc bc
       -0.027171336 -0.03431372 -0.081975654 -0.023036309
000260 a3 0f 5c bd 73 51 07 bd 7e e0 af bc ac cd 1b bc
       -0.05372585 -0.03303666 -0.02146935 -0.009509485
000270 98 e8 a8 bd 45 17 c1 bb a5 81 c3 bc 6b 66 b3 bd
       -0.08247489 -0.0058926665 -0.02386553 -0.08759769
000280 30 29 30 3d 7d a2 7f bd 06 cd 87 bc 89 52 26 bd
       0.04300803 -0.06241082 -0.016577255 -0.040606055
000290 b9 c2 7e 3d 25 05 4b bd ae b8 5c 3d 80 54 a5 3d
       0.06219742 -0.049565453 0.05388706 0.08072758
0002a0 f8 c6 95 3d 95 3a 92 bd 8a 4d 8f 3c c6 41 7e bd
       0.07313341 -0.0714008 0.017493028 -0.062074445
0002b0 a5 33 8c 3d 73 25 a7 3d da 0d b0 3d 59 e0 5e 3d
       0.06845788 0.0816144 0.08596392 0.054413173
0002c0 c5 8d 13 bd 5e d7 0b 3d bf bf e0 3c 49 d4 31 bc
       -0.036023874 0.034140937 0.027435182 -0.010853835
0002d0 8d 76 2b 3d f3 f6 95 ba d1 e0 4a bb 75 7e a3 3d
       0.041861106 -0.0011441394 -0.0030956755 0.07983104
0002e0 af e9 73 3d 2e 98 98 3c 76 ec 4e 3d ab 42 a7 3d
       0.05954903 0.018627252 0.050518475 0.08167013
0002f0 0a 85 19 3c 8e b4 44 bd d1 67 8d bd 6e af bd bc
       0.009370098 -0.048023753 -0.06904567 -0.02315494
000300 d8 88 a9 3c 45 20 0b bd 16 57 4e bd 27 c7 48 3d
       0.020695135 -0.03396632 -0.05037602 0.04901805
000310 02 1a 80 3d e6 a1 a1 3d 55 08 81 3d 99 3c ad 3d
       0.062549606 0.07892208 0.06300417 0.08458824
000320 44 b0 1e 3d 6c 10 56 bd 8b 10 4c 3d ed df 06 bd
       0.03874232 -0.052261755 0.049820464 -0.032928396
000330 84 7f 2e bc b8 fd 3d bd 00 8b b3 3c c3 37 6c bd
       -0.010650519 -0.046384543 0.021916866 -0.057670366
000340 9e 5f a6 3d 29 4b 3c bc 23 db 67 bd 40 85 47 3d
       0.08123706 -0.011492529 -0.05660547 0.04871106
000350 ad 45 34 3b 86 eb 04 3c 20 8f aa bd 3f 36 84 3d
       0.002750735 0.008112794 -0.0832808 0.06455659
000360 40 6f c3 bc d6 31 fb 3c d3 5c ba bc f5 66 49 bc
       -0.02385676 0.030663412 -0.02274934 -0.012292613
000370 a3 de 8d bd 59 e3 99 3d 6d d5 bf 3c d1 4c 80 bc
       -0.0692723 0.07514066 0.023417199 -0.015661629
000380 4c 34 82 3d bb e7 db bc f4 06 c3 3c aa 59 49 bd
       0.06357631 -0.026843896 0.023807026 -0.049157776
000390 3c f3 3f bd d6 70 93 bd cf 87 9c 3d f1 df 67 bd
       -0.046862826 -0.07199256 0.07643091 -0.05661005
0003a0 7e ea a2 bd fd a0 2f bd e3 af 68 3c 6d 6a 1f 3d
       -0.07954882 -0.04287814 0.014202091 0.038919855
0003b0 9e 18 20 bc 9d 1f 32 3b 11 f7 b1 bc 68 95 ad 3d
       -0.009771494 0.0027179488 -0.021724256 0.084757626
0003c0 af 2c 06 3c c4 f8 ac bd cd fa 22 3d b5 a8 a4 3d
       0.008189364 -0.08445886 0.039789964 0.08039991
0003d0 80 e5 8d 3d b9 26 6a 3d ff 32 9d bd 04 0e 4d 3b
       0.06928539 0.057165835 -0.07675742 0.0031288872
0003e0 0d 97 48 3d e0 c1 96 bd 1b 75 f6 bb cc d0 ab bd
       0.04897218 -0.073611975 -0.0075212843 -0.08389434
0003f0 e4 a2 3e bc fd bc a0 bd b7 02 99 bd c4 6e 84 3c
       -0.011635516 -0.07848547 -0.07471221 0.016166098

layers.2.bias f4 [128]
000000 17 d4 3b 3d 43 2f 38 3d 15 2a 8b bd f7 78 c5 bc
       0.04585656 0.044966947 -0.06795136 -0.024105532
000010 16 a9 68 3c 50 05 59 3d 7b e9 42 3d 58 43 65 3c
       0.0142004695 0.052983582 0.047585946 0.013993107
000020 75 f5 7c 3c 59 9b 33 bd b3 d3 fb 3a b5 8b 34 bd
       0.015439381 -0.043849323 0.0019212872 -0.044078548
000030 c4 07 14 bd ea c4 94 3d b3 43 b1 bc 1d 3b 30 bd
       -0.03614022 0.07264121 -0.021638727 -0.043025125
000040 e9 fb 8b 3d 4a e9 73 3d 9a 57 87 3d d7 11 b6 3b
       0.068351574 0.059548654 0.066085055 0.005556326
000050 04 57 2a bd 81 f1 96 bd 94 4b 92 3d a3 af 0b 3c
       -0.04158689 -0.07370282 0.07143322 0.008525762
000060 23 45 cc 3c d7 38 f1 bc e9 c3 59 3d 7b 16 5c 3d
       0.02493531 -0.029446049 0.05316535 0.053732377
000070 d8 6a c3 3c bc ca 2a 3d c9 0a 8b 3c fc 31 60 bc
       0.023854658 0.04169725 0.016972916 -0.013683792
000080 1e 55 89 3d 89 c6 82 3d 0c 4a d2 bc b9 df b0 3d
       0.06705688 0.06385524 -0.025670074 0.08636422
000090 19 69 5e 3d 62 99 9f 3d 89 0c a1 3d 4e 83 86 3d
       0.054299448 0.07792927 0.07863719 0.06568013
0000a0 73 f9 95 3d ab cf df bc f0 e8 fe bb bb 01 9a 3d
       0.07322969 -0.027320703 -0.007779233 0.07519861
0000b0 20 33 94 bd 7e c7 50 bd f4 97 3f 3d dc 62 05 3c
       -0.07236314 -0.0509715 0.046775773 0.008141246
0000c0 a7 ce a3 bc 40 43 25 bc f2 74 36 bd db 16 79 3d
       -0.019996 -0.010086834 -0.04454512 0.060812812
0000d0 5b d0 1f bd 3e 2c 8b bd 45 8d bc bd 12 c3 4d 3d
       -0.039017063 -0.06795548 -0.092066325 0.05023486
0000e0 a6 f9 1c 3d 1a 66 63 bc 53 14 a3 3d d1 fa a6 bd
       0.03832402 -0.013879323 0.07962861 -0.08153308
0000f0 58 f7 45 bc c8 c6 7b bd 6e df 8d bd 38 cc 83 bd
       -0.012082897 -0.06146887 -0.069273815 -0.06435436
000100 fb 78 80 bd 64 58 7a bc fa 9c 63 bc de bc af 3d
       -0.06273075 -0.015279863 -0.013892407 0.085809454
000110 8c 80 7e bd 57 2e 08 bd 6b d9 8c 3c 54 7f 92 3d
       -0.06213431 -0.033247318 0.017193517 0.07153192
000120 88 38 fd 3c 73 c2 82 bd f3 a1 a0 3c 58 ca 90 bb
       0.030910745 -0.063847445 0.019608473 -0.0044186525
000130 66 97 46 3d c2 86 2a bc a1 44 15 bc 39 d9 b0 bd
       0.04848423 -0.010408105 -0.009110601 -0.08635182
000140 bc ad bd 3c 9e bd 69 3c e1 0b 45 3d 02 72 e3 3c
       0.023154132 0.0142664 0.04810703 0.027764324
000150 26 38 73 3c 66 f1 a1 3d 4a eb 53 3d 89 19 05 3d
       0.01484493 0.07907371 0.05173806 0.032495055
000160 4a b3 8d 3d 4b 72 b8 bd 74 8a 92 bd e3 ed d8 3c
       0.06918962 -0.09006175 -0.07155314 0.02648062
000170 99 24 8f 3a fa 7a 44 bd 3a 46 7e 3d 92 bd a2 bc
       0.0010920941 -0.047968842 0.062078692 -0.019865785
000180 f6 cb 72 3d b0 c2 96 3d 12 fa 43 3d 8a af ae 3d
       0.059276544 0.073613524 0.047845908 0.08529575
000190 9a f3 55 3d 4b cd 5d 3c 02 a0 96 3d f3 f2 5c 3d
       0.05223427 0.013537715 0.07354738 0.053942632
0001a0 63 12 9f 3d fe 4d a3 3d 37 a1 3a 3d 9f f5 36 3d
       0.07767179 0.0797386 0.045563903 0.044667836
0001b0 91 57 a9 3d 0c 49 a0 3d 95 6e 99 bd 87 59 a0 3d
       0.08268655 0.078264326 -0.07491795 0.07829576
0001c0 83 37 34 3d 84 dd ae bc 13 6a 08 bd f1 81 86 3d
       0.043998253 -0.021345861 -0.033304285 0.06567753
0001d0 81 80 6c 3d fb f7 af 3d 77 ee a1 3d 7f d9 db bc
       0.05773974 0.085922204 0.07906812 -0.026837109
0001e0 d9 92 85 bd 4c 16 8b 3d de 0d e9 bb c5 10 72 3d
       -0.065221496 0.06791362 -0.007112249 0.059098024
0001f0 d7 f6 a7 3d b9 be 2c 3c 3f 5f b4 3d a8 98 8a 3c
       0.08201378 0.010543519 0.08807229 0.016918495

layers.4.weight f4 [4, 128]
000000 58 a8 01 bd 43 a9 b9 bd b7 c9 54 bd 83 b1 9c bd
       -0.031654686 -0.09065487 -0.051950183 -0.07651045
000010 0d 07 ae 3d 27 03 98 bd f1 d0 9b 3d c6 54 b6 bc
       0.084974386 -0.07422476 0.07608212 -0.02225722
000020 9b 80 aa bd c8 c4 52 bb 09 68 13 3d db 93 2e 3b
       -0.08325311 -0.0032160748 0.035987888 0.0026638422
000030 eb 9d 77 bd 88 fe 13 3c 05 12 1e 3d 67 fc 9f 3d
       -0.060453337 0.009032853 0.038591404 0.07811814
000040 fc 77 80 3d f9 40 91 bd f2 95 30 3b 0b 74 3d 3d
       0.06272885 -0.07092471 0.0026944843 0.046253245
000050 fc 0b d8 bc 90 75 9e 3d 51 dc 36 3d e4 96 25 3d
       -0.026372902 0.07737267 0.044643704 0.040427104
000060 0e 95 0a bc c3 1e b9 bd f5 e4 59 bc 26 f4 58 bb
       -0.008458389 -0.090390705 -0.0132992165 -0.0033104508
000070 b6 c8 97 bd a1 45 15 bd 23 92 bc 3d 24 e6 3c bd
       -0.074113294 -0.036443356 0.09207561 -0.046117917
000080 8b f5 47 bd 99 14 a2 3d 62 33 95 bd e5 43 29 bd
       -0.048818152 0.07914085 -0.07285191 -0.041324515
000090 76 bf 89 3c 31 87 88 3c 1c 17 50 3c b2 8e 68 bd
       0.016814929 0.016666027 0.012700822 -0.05677671
0000a0 8e 0f 05 bd 48 b4 bf 3c cf 80 92 3c 68 a2 81 bd
       -0.032485537 0.023401394 0.017883686 -0.06329805
0000b0 50 6d 88 3d 9d 57 57 3d 2d 89 87 3c 88 7b 97 3c
       0.06661475 0.05257379 0.016544903 0.018491521
0000c0 2b 59 82 bb 2e 38 8e bd fb 52 74 bd 46 30 a6 3c
       -0.003977915 -0.06944309 -0.05964945 0.02028669
0000d0 32 18 8d 3d 66 3a 90 3c 5e cf e5 bc 13 37 81 3d
       0.068893805 0.017605972 -0.028052982 0.06309333
0000e0 e0 76 9d bd 40 76 7c bd eb 86 7a bd c5 bb 22 3d
       -0.07688689 -0.06163621 -0.061163824 0.039729852
0000f0 97 a8 89 bd 77 25 c7 bc a5 93 69 3d ec 0e 56 3c
       -0.06721609 -0.024309857 0.05702557 0.013065081
000100 dc 56 f3 3c d8 4e 73 3c 31 08 23 bd 97 64 02 3d
       0.029704504 0.014850341 -0.039802734 0.03183421
000110 3e 3d c2 bb 1f 50 bf 3c d9 2d 95 3d f7 c4 d2 bb
       -0.005927711 0.023353634 0.07284135 -0.0064321714
000120 87 98 87 bb 0f 01 6a bd 51 26 1c 3d 5f 69 7e bd
       -0.0041380557 -0.057129916 0.03812248 -0.06211221
000130 be 1a 8f 3d d7 cd 04 3c 05 42 61 3d dd 2e 7d bc
       0.069875225 0.008105717 0.0549946 -0.015453068
000140 57 ea 41 bd 30 93 88 bd 75 92 13 bd 9d 84 ca ba
       -0.047342625 -0.06668699 -0.036028344 -0.0015450899
000150 ca 74 5a 3d 15 98 0e bd e0 93 a1 3d 9e e4 b1 3b
       0.053334035 -0.034813005 0.07889533 0.0054288646
000160 95 18 8d bd 64 0b 57 bd 11 1a fa bc e5 c5 4d 3d
       -0.06889454 -0.052501097 -0.030530008 0.050237555
000170 11 08 32 3d e3 fb e0 3c 3e 32 5c 3c d7 33 f4 3b
       0.043464724 0.027463859 0.013439713 0.007452469
000180 7b e1 11 3d d6 d2 98 bd 0b ee 0d bd 40 d2 ea bc
       0.035615426 -0.07462089 -0.034650844 -0.028664708
000190 0b 40 01 bd fd 21 b3 bd fd 5c 37 3d b8 13 2c bd
       -0.031555217 -0.08746717 0.044766415 -0.042010993
0001a0 fc 98 33 bd 95 b5 80 3c f3 ba 8e bd d3 5b b6 bc
       -0.04384707 0.015711585 -0.069692515 -0.022260582
0001b0 5a 8d 30 3d ae b2 9c 3c 0f 7d 72 bd b7 a9 93 3d
       0.043103553 0.01912817 -0.059201296 0.07210105
0001c0 b1 63 84 bd 00 d0 b4 3d bd dc 7c bd f9 ef 8b bd
       -0.06464327 0.08828735 -0.06173395 -0.068328805
0001d0 6b aa c7 3c 90 f7 5d 3d b1 d7 6b 3c 7a 6f 10 bc
       0.024373254 0.054191172 0.014394687 -0.008815641
0001e0 a9 bc 21 3d 03 ae 73 3d 0a e8 87 3b 6a 8b 63 bb
       0.03948656 0.059492122 0.0041475343 -0.0034720548
0001f0 c1 91 94 3d d0 4d 9e 3d a3 9a 76 bd d2 7d c6 bc
       0.07254363 0.07729685 -0.060206067 -0.024229918
000200 73 04 14 bd fa 10 71 3d ad 20 91 3d 7f 5d 09 bd
       -0.036137056 0.05885408 0.070863105 -0.03353643
000210 8a c8 03 3d f6 fe 5a 3d 96 2d 99 bd 4c ef a2 3d
       0.03217367 0.053465806 -0.07479398 0.079557985
000220 10 1f 91 3d 6d 61 28 3d 99 03 86 3d 74 2d 24 3c
       0.07086003 0.041108537 0.06543655 0.0100206025
000230 5c bf d4 bb 1d 4c 81 bd 24 d2 1f bd ce bc 6a 3d
       -0.0064925384 -0.063133456 -0.039018765 0.057308964
000240 6f 18 f3 3b 12 50 41 3d fc 29 8c bd da 5f 86 3c
       0.007418684 0.0471955 -0.068439454 0.016403127
000250 94 89 ae bd 45 82 23 bd b4 db 79 3d 5e 8a 95 bd
       -0.08522335 -0.039919157 0.06100054 -0.07301782
000260 c8 30 e2 3c b8 c2 58 3d 56 44 f2 3a 18 32 d4 3c
       0.027611151 0.052920073 0.00184835 0.025902793
000270 27 5b 93 bd 06 f5 96 3a 9e 0a 4f 3d 47 e7 60 3d
       -0.0719512 0.0011517114 0.050547235 0.054908063
000280 1e 6b 38 3d 74 21 46 bd 78 63 19 bd 4a 9a ff 3c
       0.04502403 -0.048371747 -0.037448376 0.0312015
000290 a2 76 d3 bb 95 9d 04 bd b1 ac 99 3d 42 c7 2c 3d
       -0.006453351 -0.032376844 0.075036414 0.042182215
0002a0 76 47 f4 3c 0b 09 de bc 29 67 cc 3c d5 6c 3a bd
       0.029819231 -0.027103921 0.024951534 -0.045513947
0002b0 03 a6 0f bd 64 7b df bb 41 46 05 3d 98 4c 76 bd
       -0.03507043 -0.006820129 0.032537702 -0.06013164
0002c0 e7 9b 2d 3d 2b 6e 48 bd e1 43 68 bd 17 8e be bc
       0.04238501 -0.04893319 -0.05670536 -0.023261113
0002d0 46 49 67 bd f9 2f bd bc 3e 34 84 bd 1a b2 4d 3c
       -0.056466363 -0.023094164 -0.06455277 0.01255467
0002e0 25 6a 9f 3c e8 91 08 bd 93 b1 a1 bd fb c3 64 3d
       0.019459793 -0.033342272 -0.07895198 0.055850964
0002f0 a4 84 03 bd c4 ff 44 3d 36 69 ad bd b1 11 e5 3c
       -0.032108918 0.04809548 -0.08467333 0.027962537
000300 3a 77 c1 bc 4d a5 9a bd 85 ff a7 bc d2 b4 0b 3d
       -0.023616422 -0.0755106 -0.020507583 0.03410799
000310 5d 72 a8 bd 9b 6d 8f bd f6 df ae bd cc 5f f0 bc
       -0.08224938 -0.070033275 -0.08538811 -0.029342555
000320 b1 71 8a 3c 51 69 26 bd 99 e1 ee bc 42 a4 5d bd
       0.016899915 -0.04062778 -0.029160308 -0.054111727
000330 77 1c a3 3d 15 32 0f 3d e6 e3 1e bd c6 5d 69 bd
       0.079644136 0.03495987 -0.03879156 -0.056974195
000340 c2 b6 30 3d c2 55 98 3d 84 72 25 3d 00 44 68 bd
       0.04314304 0.07438232 0.040392414 -0.056705475
000350 0f f0 07 bd 68 4e 23 bd c3 6f 7c bd 4c 5e 86 3d
       -0.033187922 -0.039869696 -0.06163002 0.065609545
000360 03 2e a9 bc 33 1d b8 bd 43 07 57 bd 38 0d a5 3c
       -0.020651823 -0.08989944 -0.05249716 0.020147905
000370 59 cd 63 bd ec ac a0 bd 01 c8 02 bc 6f 2a 53 3d
       -0.055615757 -0.07845482 -0.007982255 0.05155414
000380 fe 71 9f bd 43 16 01 3d 83 83 25 3d 5a 0e 41 3b
       -0.07785414 0.03151537 0.040408622 0.0029458017
000390 a4 c0 33 bb 93 11 f7 3c d7 b2 83 bd 12 db 82 bd
       -0.0027428055 0.030159747 -0.06430595 -0.063894406
0003a0 89 92 ac 3d 6b b1 b3 3d 55 23 0d 3d db 66 98 bd
       0.08426387 0.08774074 0.034457523 -0.07441493
0003b0 71 2a 51 3d e4 37 ad bd fa fd 5c 3d 60 6e 2b bd
       0.051065866 -0.08457926 0.05395315 -0.04185331
0003c0 79 7c 9f 3d 89 f6 14 3d 4d e9 76 3d c8 3d 94 3d
       0.07787413 0.036367927 0.060281087 0.07238346
0003d0 1b 51 53 3c 11 7a a3 bd ff b0 be 3c a9 8e 46 bd
       0.012897755 -0.07982267 0.023277758 -0.048475895
0003e0 e8 28 8e bd 48 7f 85 bd 62 3e 45 bd 87 8a c1 3c
       -0.06941396 -0.065184176 -0.048155196 0.023625625
0003f0 d5 b4 3e bd 15 97 a4 bd ac 2d b6 3d d9 cb ba 3c
       -0.046559174 -0.08036629 0.0889543 0.02280228

layers.4.bias f4 [4]
000000 a3 9a 83 bd 1c 63 5c 3b 32 dd ff bc b7 5f 9c 3d
       -0.06425979 0.003362841 -0.031233404 0.07635444
