ptdrlhf/ptdrlhf/checkpoints/state_action/checkpoint_supervised_dqn73.pth (torch, 219031 bytes, 6 tensors)

layers.0.weight f4 [128, 290]
0.005443322 -0.016627835 0.0017835516 -0.024540836 0.00057522435 -0.00675667 0.021848517 -0.08233061
-0.024219975 0.06354314 -0.04220797 0.08542951 -0.02162293 0.07262346 0.04306129 -0.03393227
-0.0584191 -0.00032713654 0.05436955 -0.032165732 -0.00769978 -0.030640109 0.03886233 0.01558672
0.021749757 0.08934528 -0.018787723 -0.026664676 -0.005889558 0.024775833 -0.010391068 -0.103320666
-0.08490226 0.06965138 0.0020106474 -0.080856174 -0.11914365 0.07264873 0.06070804 0.044332188
0.019795144 -0.051647868 -0.03858501 0.02375745 -0.0603204 -0.042898122 0.06297381 0.007215221
-0.02961817 -0.029200166 -0.0055027725 0.02251714 0.03532766 0.035165235 0.023482682 -0.025096586
-0.06589495 0.0072225113 -0.0707666 0.022954604 -0.018646017 0.055564873 -0.07697106 -0.0010390811
-0.03378394 -0.013779501 -0.0053809797 -0.060346078 0.050685752 -0.046213165 -0.03715314 -0.00011578323
0.049250823 0.020579115 0.02619052 0.031691335 -0.0019621989 -0.0017454656 0.013283604 -0.040753156
-0.0045349635 -0.017690152 -0.053726207 0.07070719 0.021600258 -0.025508275 -0.0007043326 0.05706347
-0.02509457 0.023288645 0.04722019 -0.07261564 -0.07544188 -0.043610893 -0.06695639 0.04160898
0.06723678 0.0028519067 0.04770627 -0.032886505 0.032601334 -0.045215935 -0.025488833 -0.007204817
-0.019686364 0.046223786 -0.077090375 0.055057205 -0.074838825 0.04186676 0.12837587 0.03838065
-0.059179988 0.06475895 -0.04738916 0.02811061 -0.048481792 0.042012103 -0.011680971 -9.5404444e-05
-0.09464331 0.07451574 0.046250314 0.07355704 -0.0014965626 -0.08767843 -0.053413738 0.016116772
-0.041196823 -0.058381356 0.05898707 -0.07757789 0.06902706 0.031080883 -0.037832838 0.022386134
0.040402807 -0.041720066 -0.031433485 0.033610303 -0.07264777 0.06563198 -0.10611074 0.05547245
0.046743944 -0.024499934 0.06872481 -0.051811323 -0.012663681 0.03034629 -0.122937605 -0.10530161
0.041078735 -0.03348909 -0.030202474 0.10610874 -0.02241897 -0.021500716 0.019104544 -0.10084132
0.034843408 0.058254328 0.0013180813 0.023201186 -0.07100042 0.052084878 0.013267154 0.037107818
0.024745956 0.026918506 0.028170403 0.03544834 0.059528656 0.079277456 0.002026491 -0.02248221
0.06944298 0.021959191 0.06726324 -0.018044816 -0.005800469 0.07128649 -0.033592805 -0.014377412
0.0066962466 -0.075562425 0.031141762 -0.041686453 -0.054640733 0.038007386 0.010188094 -0.0021436801
0.024355358 0.03367351 0.00076552003 -0.058460344 0.04688547 0.015434173 -0.103079595 0.05595339
-0.018203186 0.04155145 0.08380733 -0.015202003 -0.048726536 0.00487212 0.007925068 -0.039170623
0.09489988 -0.028530428 -0.031225273 -0.12468716 -0.07277014 -0.009197357 -0.049219966 -0.019645622
-0.024787998 0.049391076 -0.009321529 -0.11431559 0.062240794 0.041348673 -0.040695466 0.039284874
0.06891088 -0.06449711 0.010175827 0.028542632 0.016054032 0.062827535 -0.0048250435 0.060984027
0.011676366 -0.07992415 0.097030155 -0.0034068092 0.05588504 0.04793819 0.008627735 0.045690883
0.0647002 0.014920261 -0.039324235 0.014942525 0.15507196 -0.01646323 -0.051495086 -0.04208246
-0.027853124 0.003206231 -0.04097987 0.031689566 -0.12905654 0.0017410864 0.013527285 0.014371079
00000000: e55d b23b 1937 88bc 10c6 e93a dd09 c9bc
00000010: a7ca 163a 0e67 ddbb a9fb b23c f39c a8bd
00000020: f868 c6bc e822 823d 44e2 2cbd abf5 ae3d
00000030: 9222 b1bc 9cbb 943d 0961 303d 90fc 0abd
00000040: de48 6fbd 8683 abb9 9bb2 5e3d 37c0 03bd
00000050: 704e fcbb f700 fbbc 1b2e 1f3d 715f 7f3c
00000060: 8c2c b23c a8fa b63d b6e8 99bc e16f dabc
00000070: 31fd c0bb b0f6 ca3c 4c3f 2abc c999 d3bd
00000080: 3ce1 adbd 62a5 8e3d 11c5 033b ec97 a5bd
00000090: 9601 f4bd dbc8 943d fea8 783d ab95 353d
000000a0: 6d29 a23c b78c 53bd 510b 1ebd fc9e c23c
000000b0: 8612 77bd f1b5 2fbd 6af8 803d a96d ec3b
000000c0: cea1 f2bc 3035 efbc 9a50 b4bb dd75 b83c
000000d0: bdb3 103d 6c09 103d c15e c03c 5b97 cdbc
000000e0: eef3 86bd d1aa ec3b 14ee 90bd 4b0b bc3c
000000f0: 88bf 98bc fe97 633d 01a3 9dbd c731 88ba
00000100: 0761 0abd 6bc3 61bc ee52 b0bb 732d 77bd
00000110: dd9b 4f3d 044a 3dbd e42d 18bd a6d0 f2b8
00000120: 3bbb 493d 8895 a83c 808d d63c c6ce 013d
00000130: 3c98 00bb 1bc8 e4ba 79a3 593c c8ec 26bd
00000140: 089a 94bb f0ea 90bc 0310 5cbd eece 903d
00000150: 06f3 b03c bbf6 d0bc f6a2 38ba 63bb 693d
00000160: 2193 cdbc d4c7 be3c f569 413d 82b7 94bd
00000170: 4681 9abd 56a1 32bd 6f20 89bd 2e6e 2a3d
00000180: 70b3 893d 0ee7 3a3b a667 433d 00b4 06bd
00000190: fa88 053d 5834 39bd f5cd d0bc 6316 ecbb
000001a0: 4c45 a1bc 2755 3d3d 8fe1 9dbd aa83 613d
000001b0: 1945 99bd 7b7c 2b3d f774 033e 0735 1d3d
000001c0: b766 72bd 57a0 843d 231b 42bd 3948 e63c
000001d0: d894 46bd e214 2c3d 8b61 3fbc df13 c8b8
000001e0: 5ad4 c1bd b59b 983d f870 3d3d 13a5 963d
000001f0: 4f28 c4ba c090 b3bd 5dc8 5abd 5207 843c
00000200: 00be 28bd 4a21 6fbd 6d9c 713d 28e1 9ebd
00000210: 0f5e 8d3d 569d fe3c 9bf6 1abd 2063 b73c
00000220: 6a7d 253d a9e2 2abd 66c0 00bd f5aa 093d
00000230: 5bc8 94bd 0f6a 863d 9650 d9bd 1437 633d
00000240: 9476 3f3d 16b4 c8bc 98bf 8c3d 1c38 54bd
00000250: 547b 4fbc c898 f83c b6c6 fbbd 5fa8 d7bd
00000260: 2d42 283d db2b 09bd 2e6b f7bc 8a4f d93d
00000270: fda7 b7bc 4522 b0bc 2281 9c3c e585 cebd
00000280: f6b7 0e3d 179c 6e3d 78c3 ac3a 6a10 be3c
00000290: ab68 91bd f456 553d 7a5e 593c 5efe 173d
000002a0: 08b8 ca3c 3384 dc3c 9ec5 e63c 4732 113d
000002b0: 52d4 733d 385c a23d e1ce 043b 9d2c b8bc
000002c0: 1f38 8e3d c3e3 b33c 4fc1 893d b9d2 93bc
000002d0: dc11 bebb a7fe 913d 9c98 09bd 3d8f 6bbc
000002e0: 306c db3b 79c0 9abd 021d ff3c 6abf 2abd
000002f0: f6ce 5fbd a2ad 1b3d f7eb 263c fc7c 0cbb
00000300: e384 c73c 3ced 093d 2ead 483a 1d74 6fbd
00000310: fb0a 403d 9ddf 7c3c 651b d3bd 622f 653d
00000320: d91e 95bc da31 2a3d 2da3 ab3d d211 79bc
00000330: 7a95 47bd 4ea6 9f3b 25d8 013c 6071 20bd
00000340: de5a c23d a5b8 e9bc 25cc ffbc fb5b ffbd
00000350: 8308 95bd 83b0 16bc e09a 49bd dbef a0bc
00000360: 3310 cbbc 4c4e 4a3d 54b9 18bc 4b1e eabd
00000370: 34f0 7e3d 3a5d 293d 4ab0 26bd 2de9 203d
00000380: 2621 8d3d 1017 84bd 83b8 263c 3dd2 e93c
00000390: bf83 833c b9ab 803d 661b 9ebb 63ca 793d
000003a0: 3b4e 3f3c 46af a3bd bfb7 c63d c644 5fbb
000003b0: b6e7 643d d65a 443d 585b 0d3c 5d26 3b3d
000003c0: 8a81 843d 1c74 743c 7312 21bd 7ed1 743c
000003d0: 2fcb 1e3e e5dd 86bc 83ec 52bd a85e 2cbd
000003e0: 3c2c e4bc a11f 523b 82da 27bd ebcc 013d
000003f0: 6627 04be 2a35 e43a 8ca1 5d3c ad74 6b3c

layers.0.bias f4 [128]
0.039010238 -0.02919745 0.011867366 0.043046962 -0.020551713 0.031956226 0.00905968 0.02798268
-0.048767075 0.030621596 0.014331042 0.025829354 0.03658967 -0.037968513 0.03709684 -0.04106982
-0.03599955 0.03141661 0.045637928 -0.061914172 0.00030178233 0.008924444 0.039679077 0.043129906
-0.0127975475 -0.03775659 -0.024791455 -0.0375888 0.015859826 -0.021918429 -0.02824281 -0.029540021
0.04192655 -0.03652921 0.051489774 -0.04703708 0.0009991031 -0.043800045 -0.05069448 0.02576526
0.015395765 -0.035067588 -0.01570106 0.0012625164 -0.01206095 -0.005278353 -0.06256635 -0.018320028
-0.04280505 0.0064667747 0.04472535 -0.035108093 -0.03668328 0.024833366 0.051258348 0.008694701
-0.035078272 -0.055517055 -0.05279168 -0.0018200679 0.01569627 -0.03603356 0.039570905 0.0054178284
-0.011995525 -0.0070005753 -0.060918193 0.04875592 -0.002607145 -0.0022673563 0.04800673 0.033735443
0.0135679245 0.047250573 -0.020950733 -0.04470018 0.03653806 -0.03712269 -0.064257376 -0.0023216268
0.000608243 -0.020537792 0.0038410337 -0.005403322 0.022438033 0.039466012 -0.001633339 0.01642267
-0.006602944 0.033080902 -0.0033887676 -0.05251081 0.004591655 0.0019144814 -0.04293194 0.011311034
0.031023284 -0.047414247 -0.011142808 0.034224235 -0.05123346 -0.053324424 -0.013871938 0.036014102
-0.0446032 -0.0065790596 0.041288465 0.023507653 0.006321712 0.026420068 -0.05225719 -0.04619556
-0.0076446217 0.00026067023 -0.022558577 0.03270122 -0.050580714 -0.011784949 0.003432476 -0.011630184
0.078340665 0.06175234 -0.01928798 0.012299006 -0.054940697 -0.04378725 -0.013380151 -0.05025458
00000000: 33c9 1f3d 7e2f efbc 576f 423c 0352 303d
00000010: 115c a8bc 88e4 023d 0d6f 143c ef3b e53c
00000020: fcbf 47bd 24da fa3c bfcc 6a3c 1598 d33c
00000030: 0ddf 153d df84 1bbd dbf2 173d d438 28bd
00000040: 4474 13bd b4ae 003d d6ee 3a3d b799 7dbd
00000050: 8a38 9e39 d537 123c 8786 223d fca8 303d
00000060: ceac 51bc a7a6 1abd 7317 cbbc b7f6 19bd
00000070: 77ec 813c 478e b3bc 775d e7bc eafd f1bc
00000080: 2dbb 2b3d a79f 15bd f1e6 523d f4a9 40bd
00000090: 56f4 823a ad67 33bd 04a5 4fbd ab11 d33c
000000a0: 853e 7c3c 08a3 0fbd 829f 80bc 057b a53a
000000b0: 4a9b 45bc 09f6 acbb c922 80bd e213 96bc
000000c0: 5954 2fbd 3de7 d33b ee31 373d 81cd 0fbd
000000d0: 3541 16bd 586f cb3c 46f4 513d 3874 0e3c
000000e0: 3cae 0fbd da65 63bd 173c 58bd 588f eeba
000000f0: 7795 803c ed97 13bd 1a15 223d 0a88 b13b
00000100: e188 44bc 1565 e5bb 5b85 79bd 4ab4 473d
00000110: a3dc 2abb ed97 14bb b4a2 443d 2d2e 0a3d
00000120: 004c 5e3c d189 413d dfa0 abbc 8917 37bd
00000130: efa8 153d f60d 18bd 5f99 83bd 6f26 18bb
00000140: 7f72 1f3a df3e a8bc dab9 7b3b 5a0e b1bb
00000150: f7cf b73c 1da7 213d c315 d6ba d688 863c
00000160: 825d d8bb d77f 073d 1616 5ebb 9315 57bd
00000170: 9875 963b 56ef fa3a 67d9 2fbd ea51 393c
00000180: 8b24 fe3c 7135 42bd 5390 36bc b62e 0c3d
00000190: 2dda 51bd b66a 5abd 2047 63bc 8683 133d
000001a0: d8b1 36bd 2795 d7bb 181e 293d 1f93 c03c
000001b0: 5d26 cf3b e66e d83c a30b 56bd 8e37 3dbd
000001c0: bc7f fabb 91aa 8839 c4cc b8bc b7f1 053d
000001d0: b92d 4fbd a915 41bc 64f3 603b 878c 3ebc
000001e0: 1271 a03d 06f0 7c3d d301 9ebc c581 493c
000001f0: 7f09 61bd 425a 33bd 6c38 5bbc bfd7 4dbd

layers.2.weight f4 [128, 128]
-0.021540204 -0.004048921 0.040487837 -0.03723869 0.007011861 -0.10714165 -0.07460772 -0.041112516
-0.07280841 0.102513626 0.005073906 0.08179549 0.0011998484 0.011755427 0.009876308 0.084164016
-0.019867806 -0.045599885 0.044634745 -0.078999914 -0.018490994 0.08466977 0.071413435 0.027059224
-0.072679125 -0.0102586225 -0.019013414 0.052511953 0.061013237 -0.08518034 -0.051515672 -0.0012444679
0.0032411576 -0.06306682 0.018073447 -0.09256051 0.029789316 0.0360366 -0.07684379 0.031314343
0.08626085 0.0610873 0.017848862 -0.057735667 -0.065558136 -0.043886174 -0.07382143 0.015641736
0.13869178 0.043118723 -0.024541993 -0.075757094 0.08554568 0.09358244 0.035260204 0.12545529
0.048963536 0.015855722 0.05879619 0.08820594 0.029743494 0.060059085 0.004950833 0.06875204
-0.00010649812 -0.07499138 -0.028769845 -0.081100985 -0.020501414 -0.08939326 0.096904375 0.03917509
0.039069835 -0.026446236 0.07861888 -0.030581694 0.0054591126 -0.030763458 -0.033331092 -0.08309292
0.09767266 -0.016205909 -0.012490425 0.050551962 0.009712146 0.06443388 -0.04152671 0.045710158
0.025944097 0.015144448 -0.07361155 -0.042672712 0.080818266 0.023516191 -0.068191886 0.04672213
0.041003518 -0.061428957 0.00989836 -0.016021524 -0.044459246 0.03170663 0.023760676 0.06893321
0.02288311 -0.014703731 0.08912986 0.047874667 0.0633239 -0.07133952 0.060272574 0.04180395
0.04276628 -0.055574547 0.030381747 -0.069541216 0.006215169 0.0069097984 -0.08412763 0.044516742
-0.041523967 0.06375164 -0.038128983 0.019742193 -0.038623955 -0.005186167 -0.11624458 0.07844233
-0.005656655 -0.03537208 0.062317245 0.03496044 -0.01568425 -0.016632928 -0.05820918 0.020594785
0.005061879 -0.02010516 0.05964758 0.081378 -0.014222537 -0.04117942 -0.007464797 -0.066941336
-0.031609356 -0.05730515 -0.011647472 0.04080998 -0.060070068 0.024944654 0.06685718 -0.02643057
0.040652543 -0.08784548 -0.06309522 -0.008569292 -0.07288824 -0.05786229 0.023399998 0.06194377
-0.027326718 0.05782501 -0.08690565 -0.08529907 0.072184645 -0.0103095295 0.051614262 0.037867986
-0.028141387 0.010003987 0.073118135 -0.011520409 -0.021427942 -0.012984327 0.046037402 -0.055281628
-0.03812017 -0.05194263 -0.05580567 -0.066185124 -0.067312144 0.053521756 -0.016849214 0.015237952
-0.018176788 0.0819854 0.0091434745 0.014558626 -0.0846242 -0.031218855 0.056981917 -0.039312493
-0.081096604 0.024842007 0.08702211 0.00775341 0.05315059 0.038652904 -0.08253517 0.036088493
0.021373736 0.03649866 0.048697844 0.050074555 -0.05247763 -0.0275203 0.00088518916 0.022067163
-0.035242632 -0.011384632 0.023383936 -0.006947402 -0.0603799 -0.04116157 -0.027287988 -0.035236266
0.07811266 -0.011445946 -0.00028562287 -0.07889445 0.025600981 -0.06417627 -0.048544887 -0.09387593
-0.00024968115 -0.07812893 -0.03494059 0.08625316 0.05416225 0.011303689 -0.057852313 -0.09474092
0.01625154 -0.037446823 0.00951494 0.060889646 0.038408417 -0.093263485 -0.07168657 0.018053563
-0.08584641 -0.0873349 -0.07510777 0.024357738 -0.06622951 -0.05997984 0.025592294 0.08230333
0.07557214 -0.033815347 0.036769878 -0.0008490693 -0.04341625 0.005059562 0.045306724 -0.07412577
00000000: 1575 b0bc d0ac 84bb 93d6 253d 9987 18bd
00000010: c1c3 e53b 156d dbbd efcb 98bd 9965 28bd
00000020: 931c 95bd aaf2 d13d 0243 a63b 6584 a73d
00000030: 3b44 9d3a d699 403c 3dd0 213c 2f5e ac3d
00000040: cfc1 a2bc f2c6 3abd ecd2 363d b5ca a1bd
00000050: 6d7a 97bc 5867 ad3d 3541 923d 4eab dd3c
00000060: cbd8 94bd c813 28bc 05c2 9bbc c616 573d
00000070: 04e9 793d 0873 aebd 1902 53bd 6a1d a3ba
00000080: 9a69 543b 2d29 81bd c40e 943c 5d90 bdbd
00000090: b908 f43c 1d9b 133d 4760 9dbd 7843 003d
000000a0: 87a9 b03d ad36 7a3d c737 923c 3c7c 6cbd
000000b0: 5843 86bd fdc1 33bd b12f 97bd 1923 803c
000000c0: 3805 0e3e 429d 303d 4a0c c9bc 8926 9bbd
000000d0: 9332 af3d 26a8 bf3d 016d 103d 5a77 003e
000000e0: fd8d 483d dce3 813c 46d4 703d 51a5 b43d
000000f0: a1a8 f33c 8400 763d 993a a23b dfcd 8c3d
00000100: be57 dfb8 1595 99bd bdae ebbc 4618 a6bd
00000110: 95f2 a7bc d013 b7bd cd75 c63d 0f76 203d
00000120: b107 203d c7a5 d8bc ef02 a13d 7686 fabc
00000130: 5be2 b23b a603 fcbc 2f86 08bd 9f2c aabd
00000140: 9b08 c83d 41c2 84bc a4a4 4cbc 930f 4f3d
00000150: b11f 1f3c e9f5 833d e917 2abd 933a 3b3d
00000160: b788 d43c 6b20 783c a7c1 96bd 95c9 2ebd
00000170: 0c84 a53d 07a5 c03c 30a8 8bbd b45f 3f3d
00000180: 4ef3 273d ee9c 7bbd bb2c 223c 923f 83bc
00000190: e61a 36bd d0de 013d c0a5 c23c db2c 8d3d
000001a0: 5c75 bb3c ebe7 70bc b789 b63d 3a18 443d
000001b0: f6af 813d 741a 92bd 60e0 763d 9e3a 2b3d
000001c0: b22b 2f3d 23a2 63bd 24e3 f83c a06b 8ebd
000001d0: 9ea8 cb3b 976b e23b 1b4b acbd 3057 363d
000001e0: 0915 2abd 3890 823d 232d 1cbd 61ba a13c
000001f0: 2734 1ebd b9f0 a9bb a311 eebd 5fa6 a03d
00000200: 765b b9bb 50e2 10bd 5e40 7f3d ae32 0f3d
00000210: 427c 80bc c741 88bc c06c 6ebd 65b6 a83c
00000220: 1ede a53b 94b3 a4bc 0551 743d 82a9 a63d
00000230: a505 69bc c0ab 28bd 419b f4bb 8a18 89bd
00000240: d078 01bd ceb8 6abd 0ad5 3ebc 5e28 273d
00000250: 080c 76bd bb58 cc3c 6bec 883d ec84 d8bc
00000260: 4883 263d 55e8 b3bd 1138 81bd 3766 0cbc
00000270: 6e46 95bd 0201 6dbd 5ab1 bf3c c0b8 7d3d
00000280: 48dc dfbc ebd9 6c3d 97fb b1bd 47b1 aebd
00000290: 8bd5 933d 4de9 28bc 7a69 533d 761b 1b3d
000002a0: c488 e6bc c3e7 233c f6be 953d 19c0 3cbc
000002b0: a789 afbc 37bc 54bc b791 3c3d fd6e 62bd
000002c0: e523 1cbd ccc1 54bd 7c94 64bd 118c 87bd
000002d0: f3da 89bd a139 5b3d 5d07 8abc 9aa8 793c
000002e0: 7de7 94bc f6e7 a73d 83ce 153c 4e87 6e3c
000002f0: 744f adbd afbe ffbc df65 693d 2306 21bd
00000300: fa15 a6bd 7781 cb3c a638 b23d 5110 fe3b
00000310: 6fb4 593d 8252 1e3d 3308 a9bd 87d1 133d
00000320: f917 af3c 9e7f 153d 6477 473d fa1a 4d3d
00000330: c9f2 56bd 4172 e1bc 0a0c 683a 32c6 b43c
00000340: 945a 10bd 9c86 3abc ab8f bf3c 08a7 e3bb
00000350: ea50 77bd 0999 28bd 0f8b dfbc e753 10bd
00000360: 88f9 9f3d c787 3bbc a7bf 95b9 6a93 a1bd
00000370: 26b9 d13c d96e 83bd 01d7 46bd 0642 c0bd
00000380: a3e7 82b9 0f02 a0bd dd1d 0fbd 7fa5 b03d
00000390: 3cd9 5d3d 1c33 393c 8cf6 6cbd 8707 c2bd
000003a0: f321 853c d761 19bd 8de4 1b3c 6c67 793d
000003b0: 2552 1d3d ed00 bfbd 69d0 92bd 11e5 933c
000003c0: 3ed0 afbd a4dc b2bd 1ad2 99bd e189 c73c
000003d0: 56a3 87bd 6cad 75bd eea6 d13c a68e a83d
000003e0: 91c5 9a3d f681 0abd 039c 163d 1494 5eba
000003f0: 3dd5 31bd afca a53b 8b93 393d 40cf 97bd

layers.2.bias f4 [128]
0.006418154 -0.09489135 0.09436848 -0.07792806 0.08645364 0.06754369 0.069213375 -0.005715099
-0.008753597 0.08874186 -0.015065416 -0.041737746 0.010313859 -0.00042024354 0.061255723 0.06167767
0.0034509404 0.01090119 -0.049398705 0.06035733 0.07957155 -0.03497039 0.064551055 -0.02743448
0.050018072 -0.069395356 -0.05941041 -0.024721654 -0.012024912 0.0010956705 0.08680167 -0.087069236
0.044001494 0.0012426341 -0.057597544 0.072780065 0.07154641 0.013333688 0.041627605 0.058841992
-0.019110415 0.025997596 0.013912979 0.015898645 -0.027074536 0.030536607 -0.011895806 0.007457697
-0.0036327303 0.10946385 -0.0028374204 0.030518642 0.07004116 0.039319463 0.0148914885 0.05225999
0.04086048 0.07582063 -0.017754408 0.032305215 -0.086317204 -0.028542554 0.08112645 0.00930536
0.022992581 0.06430982 0.059344955 0.044238906 0.09635834 0.052574936 -0.0057725585 -0.062252406
-0.029749416 -0.028805213 -0.0009412361 0.0428974 -0.083220005 -0.08479345 -0.057151318 -0.02482445
0.065093346 -0.035684254 -0.03474275 0.008685615 0.02481103 0.07815271 0.056252886 0.027476415
-0.016199017 0.08593751 -0.07536962 0.013976594 -0.016950259 0.014265362 0.026892338 -0.07027115
-0.04062565 -0.031560358 0.031234518 0.053143382 0.071741514 0.012337928 -0.024023265 0.0020336132
-0.00975013 -0.04096815 0.0037980794 0.061080273 0.025038667 -0.05877344 0.012636766 -0.0057427315
0.11164629 -0.06096188 0.020510927 0.03950752 -0.0854747 -0.013373478 0.08010563 0.0174084
-0.08093341 -0.004655056 -0.061734084 0.069230594 -0.049911086 -0.073189996 0.07864693 -0.06959142
00000000: 614f d23b 6556 c2bd 4344 c13d bf98 9fbd
00000010: 9b0e b13d 5954 8a3d bebf 8d3d ba45 bbbb
00000020: 3f6b 0fbc 4bbe b53d efd4 76bc 33f5 2abd
00000030: 76fb 283c 2254 dcb9 48e7 7a3d b9a1 7c3d
00000040: 2c29 623b e89a 323c 4c56 4abd 3f39 773d
00000050: 69f6 a23d 1d3d 0fbd 5833 843d 46be e0bc
00000060: c0df 4c3d 271f 8ebd 5458 73bd 1185 cabc
00000070: 2304 45bc 9a9c 8f3a 13c5 b13d 5b51 b2bd
00000080: e93a 343d e2df a23a 67eb 6bbd b70d 953d
00000090: ed86 923d 8a75 5a3c b581 2a3d 4d04 713d
000000a0: 728d 9cbc e9f8 d43c 43f3 633c e03d 823c
000000b0: 6bcb ddbc e827 fa3c a0e6 42bc b25f f43b
000000c0: 1a13 6ebb 952e e03d 04f4 39bb 3b02 fa3c
000000d0: bd71 8f3d 720d 213d 6efb 733c 920e 563d
000000e0: 525d 273d d947 9b3d b171 91bc 7952 043d
000000f0: 13c7 b0bd 13d2 e9bc a025 a63d 8275 183c
00000100: f05a bc3c deb4 833d b213 733d db33 353d
00000110: 8557 c53d d158 573d bb27 bdbb 61fc 7ebd
00000120: 0cb5 f3bc e9f8 ebbc 49bd 76ba 2fb5 2f3d
00000130: 406f aabd 30a8 adbd 8017 6abd a55c cbbc
00000140: a94f 853d a729 12bd 6a4e 0ebd 1c4e 0e3c
00000150: 8040 cb3c 870e a03d 6d69 663d 3816 e13c
00000160: cdb3 84bc 0100 b03d 635b 9abd 16fe 643c
00000170: 45db 8abc 44b9 693c 524d dc3c 52ea 8fbd
00000180: 1567 26bd 6f45 01bd 88df ff3c e0ac 593d
00000190: 37ed 923d 0525 4a3c 70cc c4bc 5e46 053b
000001a0: 02bf 1fbc 38ce 27bd 33e9 783b 4f2f 7a3d
000001b0: e41d cd3c 6bbc 70bd 700a 4f3c 862d bcbb
000001c0: cfa6 e43d 2ab3 79bd 8806 a83c a3d2 213d
000001d0: 5c0d afbd 6f1c 5bbc 6c0e a43d 109c 8e3c
000001e0: 6ac0 a5bd 7189 98bb e1dc 7cbd c5c8 8d3d
000001f0: 916f 4cbd a3e4 95bd a411 a13d f285 8ebd

layers.4.weight f4 [4, 128]
-0.08720956 0.024981514 0.10010365 0.036432177 0.10076739 0.046004366 -0.10718487 -0.0343681
0.010551399 0.024885196 -0.052583013 -0.016466739 0.09865611 -0.10499609 -0.06277438 -0.0938367
-0.0014313105 0.1048267 -0.067755274 -0.120234035 0.016997604 -0.07281551 -0.025668545 -0.079710186
-0.15200011 0.021958888 -0.058373373 0.037041035 0.080547296 0.013164147 -0.05774508 0.04236284
-0.103434086 -0.08545141 -0.040538188 -0.032926485 0.044592842 -0.05903836 -0.013829582 -0.031875923
0.0015854791 0.0759205 0.03356818 0.039709527 -0.07459247 0.12129395 -0.0590147 -0.14201984
0.00012582849 -0.09747026 -0.0128505 -0.013764499 0.029287143 -0.08349517 0.051968038 0.05610477
-0.027448054 0.11504494 -0.015503337 0.054760113 -0.037903544 0.05962782 0.029857432 0.045196507
0.041155852 0.048952583 -0.059241753 -0.13889204 0.08765916 0.052789845 0.004110835 -0.022478607
0.018787809 -0.048404507 -0.008127476 -0.0023061854 0.057499073 -0.057341788 -0.060253914 0.013421692
0.03181429 0.003181009 -0.101052634 0.02515022 -0.023873001 0.061566096 -0.05184234 0.011072546
-0.09180424 0.058788694 -0.04952286 -0.1137621 0.013485728 0.079573564 0.045874786 0.08479125
-0.06638634 -0.07161958 -0.070761375 -0.08765367 0.042735968 -0.013648276 0.05954668 -0.049809944
0.06882486 0.0010941813 -4.012941e-05 -0.03739102 0.0031163371 -0.06712215 0.06811423 -0.009242415
0.11978631 0.05158896 0.0383282 0.035967372 0.08101342 0.034111165 -0.0057080644 0.07498239
0.0034979396 -0.0049316315 -0.06885275 -0.03560628 0.0016953634 -0.00045172992 -0.087589175 -0.032448083
0.08228099 -0.013146325 -0.04680954 0.054649033 0.060125485 0.033260066 -0.044079714 0.026042165
0.06492026 -0.012315457 -0.09502557 0.12384827 0.05331927 -0.022048011 -0.033482607 -0.10224795
-0.038511444 -0.0656458 0.06893806 -0.0032822832 0.056470606 -0.111739814 0.07113926 -0.07526326
0.054790266 -0.073628776 0.07641204 -0.09462332 0.0706705 -0.06961558 0.05721257 -0.06146474
0.045735087 0.04508572 0.06344931 -0.01636054 -0.077700004 0.036731105 -0.06338563 0.017657159
0.10063664 -0.027523581 0.027494788 0.034423344 0.05725888 -0.079903744 0.053240974 0.020398583
-0.054846916 -0.089685895 -0.12639023 0.0070027956 0.011390289 -0.086285844 -0.08208293 0.021959843
0.03485733 -0.08150805 -0.03660048 -0.06914794 0.0751954 0.026305074 -0.08577157 0.11132155
0.08559403 -0.033223495 -0.085240334 0.030679809 -0.027045978 0.0006532502 -0.011271616 0.018708736
0.0418775 -0.015311655 -0.052303128 0.049198993 -0.042115986 -0.00087297714 -0.08596642 0.042511597
-0.024627715 -0.10538725 0.05987523 -0.03418634 -0.0061088647 -0.0033150327 -0.0038609507 0.06501702
-0.0547996 -0.08177084 0.024185032 -0.14482263 0.075135805 0.093588576 0.078185365 0.08406559
0.048724018 -0.15012382 -0.006652714 0.05694001 0.13407938 -0.029438997 0.07776744 -0.01034297
0.10544963 0.09024331 0.09045668 -0.07243034 -0.06467109 -0.0001707658 -0.11531386 -0.04908534
-0.056767847 0.009524437 -0.04135164 0.08210872 0.039393347 0.028171405 0.05684858 0.07191378
-0.00361047 -0.014646427 0.07912082 0.06012832 -0.05849146 0.036754433 -0.008373864 -0.035643455
00000000: ed9a b2bd 08a6 cc3c 2403 cd3d e839 153d
00000010: 225f ce3d 136f 3c3d be83 dbbd 91c5 0cbd
00000020: c6df 2c3c 0adc cb3c 4961 57bd 41e5 86bc
00000030: 370c ca3d 3108 d7bd db8f 80bd 752d c0bd
00000040: d09a bbba 62af d63d 47c3 8abd 433d f6bd
00000050: 8f3e 8b3c 4c20 95bd d746 d2bc 183f a3bd
00000060: eba5 1bbe 20e3 b33c eb18 6fbd 57b8 173d
00000070: fbf5 a43d 6fae 573c 1b86 6cbd a884 2d3d
00000080: 40d5 d3bd 2601 afbd 5f0b 26bd ecdd 06bd
00000090: fca6 363d 35d2 71bd 7995 62bc 5490 02bd
000000a0: dacf cf3a 357c 9b3d ca7e 093d 75a6 223d
000000b0: f0c3 98bd f668 f83d 66b9 71bd a66d 11be
000000c0: d4f0 0339 7d9e c7bd e78a 52bc 7e84 61bc
000000d0: 97eb ef3c 84ff aabd 70dc 543d 1ece 653d
000000e0: beda e0bc ae9c eb3d b501 7ebc 244c 603d
000000f0: bf40 1bbd 4d3c 743d 9397 f43c f91f 393d
00000100: 0a93 283d 8182 483d 7ba7 72bd b739 0ebe
00000110: a586 b33d 2a3a 583d 2fb4 863b 0e25 b8bc
00000120: e4e8 993c ce43 46bd 1b29 05bc 5f23 17bb
00000130: 2684 6b3d 39df 6abd cfcc 76bd a8e6 5b3c
00000140: b34f 023d 7a78 503b aff4 cebd d607 ce3c
00000150: 5091 c3bc bb2c 7c3d a258 54bd a069 353c
00000160: dd03 bcbd 6acc 703d 7cd8 4abd 1bfc e8bd
00000170: 3ef3 5c3c 77f7 a23d 33e7 3b3d 09a7 ad3d
00000180: 90f5 87bd 49ad 92bd 57eb 90bd c483 b3bd
00000190: e90b 2f3d 059d 5fbc 38e7 733d 8305 4cbd
000001a0: 0cf4 8c3d a26a 8f3a a050 28b8 5427 19bd
000001b0: 763b 4c3b 5677 89bd 797f 8b3d 806d 17bc
000001c0: 8652 f53d f24e 533d 08fe 1c3d 8652 133d
000001d0: 5dea a53d 26b8 0b3d b70a bbbb 5e90 993d
000001e0: b03d 653b 8699 a1bb ac02 8dbd e4d7 11bd
000001f0: f536 de3a 2ad6 ecb9 f461 b3bd 48e8 04bd
00000200: f082 a83d af63 57bc 5cbb 3fbd aad7 5f3d
00000210: 2446 763d b53b 083d ee8c 34bd 6156 d53c
00000220: eaf4 843d c5c6 49bc c49c c2bd 29a4 fd3d
00000230: 4f65 5a3d 089e b4bc 0f25 09bd 6067 d1bd
00000240: 2dbe 1dbd 4e71 86bd 662f 8d3d 931b 57bb
00000250: b94d 673d d8d7 e4bd 76b1 913d a023 9abd
00000260: c26b 603d afca 96bd ea7d 9c3d dfc9 c1bd
00000270: b2bb 903d 9d92 8ebd ba57 6a3d 74c2 7bbd
00000280: b754 3b3d ceab 383d b6f1 813d 8a06 86bc
00000290: 2e21 9fbd 5b73 163d 53d0 81bd bfa5 903c
000002a0: 951a ce3d 2279 e1bc c03c e13c 7eff 0c3d
000002b0: 4a88 6a3d 93a4 a3bd 3513 5a3d ee1a a73c
000002c0: 29a7 60bd 3dad b7bd 716c 01be b577 e53b
000002d0: 569e 3a3c a2b6 b0bd 181b a8bd 21e5 b33c
000002e0: 8fc6 0e3d b1ed a6bd 63ea 15bd 6f9d 8dbd
000002f0: 0c00 9a3d bd7d d73c 01a9 afbd 8efc e33d
00000300: ec4b af3d 5c15 08bd 7c92 aebd 3954 fb3c
00000310: 878f ddbc e13e 2b3a 96ac 38bc 1043 993c
00000320: be87 2b3d bcdd 7abc ce3b 56bd e284 493d
00000330: d081 2cbd 81d8 64ba 2a0f b0bd a420 2e3d
00000340: 10c0 c9bc 45d5 d7bd bb3f 753d fa06 0cbd
00000350: df2c c8bb 0541 59bb 0108 7dbb a527 853d
00000360: 8c75 60bd 7877 a7bd b01f c63c 624c 14be
00000370: cde0 993d 5eab bf3d a61f a03d 942a ac3d
00000380: d692 473d 0fba 19be 03ff d9bb ee39 693d
00000390: 1b4c 093e 0d2a f1bc 8944 9f3d 8f75 29bc
000003a0: faf5 d73d 7cd1 b83d 5a41 b93d 5c56 94bd
000003b0: 4772 84bd 980f 33b9 ac29 ecbd b60d 49bd
000003c0: 6785 68bd 620c 1c3c 5660 29bd 9e28 a83d
000003d0: eb5a 213d b8c7 e63c 0eda 683d 8847 933d
000003e0: a39d 6cbb 91f7 6fbc 190a a23d 1d49 763d
000003f0: be94 6fbd d18b 163d 8832 09bc dffe 11bd

layers.4.bias f4 [4]
-0.02385572 0.061449733 0.052129794 0.025433345
00000000: 126d c3bc b7b2 7b3d 0d86 553d 9759 d03c
