ptdrlhf/ptdrlhf/checkpoints/state_action/checkpoint_supervised_dqn59.pth (torch, 219095 bytes, 6 tensors)

layers.0.weight f4 [128, 290]
000000 3e 67 fd 3a 0d 19 89 bc e0 14 16 3b f9 71 df bc
       0.0019333137 -0.016735578 0.0022900626 -0.027276026
000010 ce a1 cc bb ea 15 23 bc 17 bc bf 3c 2e 06 aa bd
       -0.0062448746 -0.009953955 0.023405118 -0.0830196
000020 d3 e7 9b bc 1d ea 82 3d 56 b3 36 bd e6 76 ae 3d
       -0.01903144 0.0639231 -0.04460462 0.08518772
000030 a4 65 b7 bc ce 6e 94 3d 84 50 1a 3d 75 52 12 bd
       -0.022387333 0.07247697 0.037674442 -0.03572317
000040 cf 41 76 bd b6 90 12 bb 9b 26 60 3d 43 84 1c bd
       -0.060121354 -0.0022364086 0.054724317 -0.038212072
000050 bb 27 96 bb 62 34 05 bd 00 8e 3a 3d 31 49 83 3c
       -0.004582373 -0.03252066 0.045545578 0.016026111
000060 62 d6 b2 3c 58 0d b9 3d ec ed 7d bc 1a 3d e9 bc
       0.021830741 0.09035748 -0.0154986195 -0.028471518
000070 e2 e3 a4 bb 46 16 c8 3c 55 2e 69 bb ea 61 d4 bd
       -0.0050320486 0.024424683 -0.0035580595 -0.10370238
000080 f4 ce ad bd 48 fb 8e 3d ef 5a fe 3b 7f da a6 bd
       -0.08486739 0.06981522 0.007762305 -0.081471436
000090 ea 9c f3 bd 08 e8 92 3d 33 53 7a 3d 9e bd 38 3d
       -0.11895163 0.07173163 0.0611145 0.045102708
0000a0 8d ba a1 3c 42 f6 3f bd 02 1b 1e bd 96 29 c4 3c
       0.019742275 -0.04686571 -0.038599975 0.023945611
0000b0 e6 57 76 bd 5f a1 2f bd 98 94 81 3d ee 10 e4 3b
       -0.06014242 -0.042878505 0.0632717 0.006960026
0000c0 93 c6 f4 bc 24 e0 f9 bc 85 4f a6 bb 01 7d b6 3c
       -0.029879844 -0.030502386 -0.0050753974 0.022276403
0000d0 50 d7 11 3d 39 ea 0f 3d 84 14 e0 3c 4d 81 cd bc
       0.03560573 0.03513548 0.027353533 -0.02508607
0000e0 ae 70 86 bd f9 37 d6 3b c9 0c 93 bd 09 34 be 3c
       -0.06564461 0.006537434 -0.07180173 0.023218172
0000f0 46 73 b0 bc 35 1e 63 3d 71 68 96 bd ab e6 ab ba
       -0.021539342 0.05544873 -0.07344139 -0.0013115009
000100 ff 5e 0a bd eb f2 a1 bc 72 72 10 bc d4 fe 77 bd
       -0.033782 -0.019769153 -0.008816348 -0.060545757
000110 b0 4c 4f 3d d1 2a 3f bd 54 df 1b bd d8 d7 53 b9
       0.050610244 -0.046671692 -0.03805478 -0.00020202936
000120 c9 b9 55 3d 4d 02 a7 3c 46 59 b6 3c c5 e4 ed 3c
       0.05217913 0.02038684 0.022259366 0.02903975
000130 73 36 09 bb 98 db 86 3b 15 13 60 3c 1e 69 28 bd
       -0.0020936995 0.004115533 0.0136764245 -0.041115873
000140 75 3f 0a bb fe 40 90 bc ed 3c 5b bd 46 05 91 3d
       -0.0021094952 -0.017609116 -0.0535249 0.07081084
000150 85 01 af 3c cd db ce bc bc 8d e0 3a 8a f4 68 3d
       0.02136303 -0.025251294 0.0017132084 0.056873836
000160 11 e0 cd bc 6c 9a bf 3c 22 c7 40 3d 55 37 95 bd
       -0.025131257 0.023389064 0.047064908 -0.07285944
000170 92 bd 9a bd ac 2d 45 bd 2f f8 88 bd de 49 27 3d
       -0.07555689 -0.04813926 -0.06687962 0.04084193
000180 e6 9c 8b 3d d7 4d 2a ba 38 90 4b 3d 76 ec 06 bd
       0.068170354 -0.00064965844 0.049698085 -0.03294035
000190 eb 1b 05 3d 48 8a 50 bd e8 be cc bc a3 e4 e8 bb
       0.032497328 -0.050913125 -0.024993375 -0.0071073337
0001a0 cc f5 70 bc 98 7b 3f 3d 8f 62 9f bd 9d 59 65 3d
       -0.01470704 0.046748728 -0.077824704 0.055993665
0001b0 8a f6 8d bd 71 d1 18 3d f9 8b ff 3d 67 1b 1e 3d
       -0.06931789 0.037309114 0.124778695 0.03860035
0001c0 ff fc 72 bd 53 03 85 3d a0 82 44 bd 53 95 e6 3c
       -0.059323307 0.06494775 -0.047976136 0.028147375
0001d0 cc 06 47 bd e3 b1 2b 3d 84 f2 44 bc 18 14 35 3a
       -0.048590466 0.041917693 -0.012020711 0.0006907596
0001e0 2d d9 c0 bd 65 0d 9a 3d 51 e8 3d 3d 3e b1 96 3d
       -0.09416423 0.07522086 0.046364132 0.07358025
0001f0 b1 9d a4 ba 6b 8e b4 bd 48 29 59 bd fa 18 84 3c
       -0.0012559203 -0.088162266 -0.053017884 0.016125191
000200 ff ac 28 bd c7 d5 60 bd 18 86 6e 3d 6c 15 a0 bd
       -0.041180607 -0.054891374 0.05823335 -0.07816586
000210 97 18 8d 3d 4b 48 03 3d 37 a1 1c bd 0d 74 b4 3c
       0.06889456 0.032051366 -0.038239684 0.022027994
000220 76 56 28 3d 1c 2d 2d bd 3b 8b 0c bd 1e d1 08 3d
       0.04109808 -0.042279348 -0.034312468 0.033402555
000230 6f 46 95 bd 00 f7 8b 3d e6 f6 dc bd 47 90 63 3d
       -0.07288825 0.06834221 -0.1078928 0.055557515
000240 7e 12 3e 3d 77 c5 bc bc 30 a6 8d 3d 4b 8e 55 bd
       0.046404354 -0.023043377 0.069164634 -0.052137654
000250 64 95 0e bc 04 0a fa 3c 98 21 ef bd 6c 3d d5 bd
       -0.00870261 0.030522354 -0.116763294 -0.10412106
000260 68 9e 27 3d 8f b5 0a bd 44 13 f3 bc 5e 7a d5 3d
       0.040922552 -0.033864554 -0.029672273 0.1042373
000270 bc 5e b5 bc 57 94 ac bc 6d 0c 9f 3c 68 ea ce bd
       -0.0221399 -0.021066828 0.019415105 -0.10103303
000280 30 2c f7 3c 30 3b 6e 3d 2b ad ba 3b ec 58 93 3c
       0.030172437 0.058161914 0.0056969128 0.017986737
000290 55 77 95 bd e0 57 4e 3d 2c 7c 54 3c e0 f7 16 3d
       -0.072981514 0.050376773 0.012969058 0.036857486
0002a0 6d 4e d3 3c c3 38 d9 3c e4 da e5 3c 0b ec 0c 3d
       0.025794232 0.026516324 0.028058477 0.034404796
0002b0 bd aa 73 3d c2 84 a2 3d bc 7f be 3a f2 33 b9 bc
       0.059489 0.07935478 0.0014533917 -0.022607777
0002c0 7e b5 99 3d 4d 49 c2 3c 7c 44 8b 3d a0 e3 94 bc
       0.0750532 0.023716593 0.06800172 -0.018174946
0002d0 93 a0 c1 bb 19 98 94 3d 4d 0a 0c bd 7f c8 6f bc
       -0.0059090345 0.07255573 -0.03418951 -0.014635204
0002e0 f4 1a bf 3b d8 e7 9a bd 70 0f 01 3d c4 8d 16 bd
       0.0058320705 -0.07563752 0.031508863 -0.036756292
0002f0 78 b9 72 bd ff 4f 23 3d ad 31 99 3b 16 a8 0d bb
       -0.059258908 0.039871212 0.0046751113 -0.002161508
000300 d3 a0 da 3c bb d3 09 3d f6 f0 83 3a eb 35 73 bd
       0.026688015 0.033649188 0.0010066319 -0.059377592
000310 18 ef 52 3d 6d 31 81 3c 81 b7 d4 bd 3d ac 6e 3d
       0.05149755 0.015770638 -0.10386563 0.058269728
000320 a5 3d 95 bc 7c 05 28 3d d1 77 af 3d ad 76 76 bc
       -0.018217871 0.041020855 0.08567775 -0.015042943
000330 9e c9 68 bd 6d aa a8 3b c5 8c d9 3b 55 d6 21 bd
       -0.056832902 0.0051472695 0.0066390955 -0.039511044
000340 94 46 c8 3d 78 36 f6 bc c1 39 00 bd 9e 28 07 be
       0.09779087 -0.03005527 -0.03130508 -0.13199088
000350 7c ff 94 bd 45 e6 18 bc b6 5f 30 bd e8 fa b6 bc
       -0.07275292 -0.009332244 -0.043060027 -0.022336438
000360 ee 67 cc bc 13 d5 4a 3d 80 19 1d bc f2 33 f1 bd
       -0.024951901 0.04951961 -0.009588599 -0.11777486
000370 f9 84 7f 3d 02 2e 1e 3d 36 d6 22 bd ab 0d 21 3d
       0.062382672 0.038618095 -0.03975507 0.039319675
000380 0e a5 8d 3d 35 1b 85 bd 36 01 25 3c 7a 32 ec 3c
       0.06916247 -0.0649933 0.0100710895 0.028832663
000390 bc 7a 81 3c 8a d0 7f 3d e7 ed bc bb 9d 03 77 3d
       0.015805595 0.062454738 -0.005765665 0.06030618
0003a0 14 ce 90 3c fc ed a2 bd b0 65 d2 3d c0 3e 9b bb
       0.01767639 -0.07955548 0.102733016 -0.004737705
0003b0 5e 6b 64 3d 73 7d 42 3d 9e 4a 1d 3c ec 52 43 3d
       0.055766456 0.04748292 0.00960031 0.047686502
0003c0 52 b4 88 3d 65 7c 7a 3c 7d 3d 21 bd 16 8e b4 3c
       0.06675018 0.015288447 -0.03936528 0.022040408
0003d0 9a 69 22 3e 0e 64 a5 bc 9d 49 53 bd 02 d3 2e bd
       0.15860596 -0.020189311 -0.051583875 -0.0426817
0003e0 93 1b de bc d4 3b 53 3b 25 21 29 bd 6f d1 01 3d
       -0.027112758 0.0032231705 -0.041291375 0.031693872
0003f0 a5 cd 04 be 4d 1e b0 3a 1a 7c 2e 3c e1 d8 8a 3c
       -0.12969072 0.0013436765 0.010649705 0.016949119

layers.0.bias f4 [128]
000000 17 5f 20 3d 7e 2f ef bc 2a c3 4b 3c 03 52 30 3d
       0.039153185 -0.02919745 0.012436667 0.043046962
000010 71 b5 bb bc f6 19 00 3d b4 26 08 3c 82 4d e0 3c
       -0.022913666 0.03127476 0.008310009 0.027380709
000020 b4 16 5b bd 36 04 c2 3c bf cc 6a 3c 27 2f 02 3d
       -0.05348845 0.023683649 0.014331042 0.03178325
000030 f1 7d 13 3d df 84 1b bd 3d 60 14 3d 4a 71 39 bd
       0.03600878 -0.037968513 0.036224592 -0.045274056
000040 44 74 13 bd b4 ae 00 3d 3a d7 3f 3d b7 99 7d bd
       -0.03599955 0.03141661 0.046836115 -0.061914172
000050 8a 38 9e 39 d5 37 12 3c 2c 7f 31 3d ac 6f 2e 3d
       0.00030178233 0.008924444 0.04333417 0.042586967
000060 ce ac 51 bc 51 16 1d bd 73 17 cb bc a9 78 1d bd
       -0.0127975475 -0.03835136 -0.024791455 -0.03844515
000070 77 ec 81 3c 47 8e b3 bc 2c a3 db bc ea fd f1 bc
       0.015859826 -0.021918429 -0.026811205 -0.029540021
000080 05 fd 25 3d a7 9f 15 bd 1c a7 4e 3d 32 a3 43 bd
       0.0405245 -0.03652921 0.050452337 -0.047763057
000090 56 f4 82 3a ad 67 33 bd 04 a5 4f bd ab 11 d3 3c
       0.0009991031 -0.043800045 -0.05069448 0.02576526
0000a0 85 3e 7c 3c 08 a3 0f bd 0d 7c 85 bc e2 66 0c 3a
       0.015395765 -0.035067588 -0.016294504 0.0005355907
0000b0 4a 9b 45 bc 09 f6 ac bb c9 22 80 bd e2 13 96 bc
       -0.01206095 -0.005278353 -0.06256635 -0.018320028
0000c0 73 72 26 bd 6e 43 c9 3b 02 ce 37 3d 81 cd 0f bd
       -0.04063649 0.0061420714 0.0448742 -0.035108093
0000d0 67 c3 0c bd 58 6f cb 3c 46 f4 51 3d 15 c0 06 3c
       -0.034366038 0.024833366 0.051258348 0.008224507
0000e0 6f f0 2a bd da 65 63 bd 17 3c 58 bd f9 95 bb bb
       -0.0417332 -0.055517055 -0.05279168 -0.0057246652
0000f0 77 95 80 3c 3d c3 16 bd d3 8b 16 3d 5f 3c 00 3c
       0.01569627 -0.036807287 0.03675444 0.007826894
000100 e1 88 44 bc aa 10 1c bc 5b 85 79 bd af 21 47 3d
       -0.011995525 -0.009525457 -0.060918193 0.048616108
000110 54 27 a6 ba a6 6a c6 bb b4 a2 44 3d 2d 2e 0a 3d
       -0.0012676516 -0.006055194 0.04800673 0.033735443
000120 46 d9 2a 3c a8 a1 4a 3d d8 f8 78 bc 0d 55 39 bd
       0.010427779 0.049470574 -0.015196048 -0.045247126
000130 ef 61 12 3d f6 0d 18 bd 5f 99 83 bd 6f 26 18 bb
       0.035737928 -0.03712269 -0.064257376 -0.0023216268
000140 aa e7 89 bb 7b 46 c7 bc 55 7f aa 3b 5a 0e b1 bb
       -0.0042085247 -0.0243256 0.0052031674 -0.005403322
000150 9b 4f b3 3c 1d a7 21 3d 10 c1 31 bb dd 8f b5 3c
       0.021888545 0.039466012 -0.002712313 0.022163326
000160 9c 29 f4 bb d7 7f 07 3d 16 16 5e bb 93 15 57 bd
       -0.0074512493 0.033080902 -0.0033887676 -0.05251081
000170 08 50 f6 3b 18 fa 12 39 67 d9 2f bd 78 14 df 3b
       0.0075168647 0.00014016812 -0.04293194 0.00680786
000180 03 4c f9 3c 71 35 42 bd d4 bf 43 bc b6 2e 0c 3d
       0.030431753 -0.047414247 -0.011947591 0.034224235
000190 2d da 51 bd b6 6a 5a bd e6 56 2d bc ac 18 19 3d
       -0.05123346 -0.053324424 -0.0105798 0.037377045
0001a0 d8 b1 36 bd a7 1a 01 bc 8b 04 1d 3d 1f 93 c0 3c
       -0.0446032 -0.00787989 0.03833441 0.023507653
0001b0 cd 98 c9 3a 24 b0 f1 3c a3 0b 56 bd 0c f6 49 bd
       0.0015380621 0.029502936 -0.05225719 -0.049306914
0001c0 bc 7f fa bb bf f0 a6 bb c4 cc b8 bc b7 f1 05 3d
       -0.0076446217 -0.005094617 -0.022558577 0.03270122
0001d0 40 dd 3f bd a9 15 41 bc 8a 46 9f 3b 87 8c 3e bc
       -0.04684186 -0.011784949 0.004860704 -0.011630184
0001e0 3f 52 9d 3d 2e 1b 65 3d d3 01 9e bc 45 e2 41 3c
       0.07681703 0.055934124 -0.01928798 0.011833732
0001f0 ee b6 5c bd 97 6a 28 bd 97 0d 71 bc bf d7 4d bd
       -0.053885393 -0.041117277 -0.014712713 -0.05025458

layers.2.weight f4 [128, 128]
000000 e0 87 c0 bc d0 ac 84 bb 21 b9 1d 3d 99 87 18 bd
       -0.02350229 -0.004048921 0.03850663 -0.03723869
000010 e4 e6 95 3b 61 41 d9 bd 70 1d 93 bd 84 59 24 bd
       0.0045746434 -0.10608173 -0.07183349 -0.04012443
000020 97 00 98 bd eb 2c d5 3d 02 43 a6 3b ce f5 a3 3d
       -0.074219875 0.10408958 0.005073906 0.08005868
000030 27 1c 07 3b d6 99 40 3c 75 4b 3d 3c ee 2d aa 3d
       0.0020616145 0.011755427 0.011553635 0.08309542
000040 cf c1 a2 bc f2 c6 3a bd 77 f0 2e 3d b5 ca a1 bd
       -0.019867806 -0.045599885 0.042709794 -0.078999914
000050 6d 7a 97 bc 58 67 ad 3d 3f c7 8f 3d 3d 73 e5 3c
       -0.018490994 0.08466977 0.07020425 0.028009051
000060 cb d8 94 bd d3 46 18 bc 05 c2 9b bc 43 7e 52 3d
       -0.072679125 -0.00929423 -0.019013414 0.051389944
000070 04 e9 79 3d 08 73 ae bd 12 ec 53 bd 6a 1d a3 ba
       0.061013237 -0.08518034 -0.051738806 -0.0012444679
000080 88 ce e4 3a 2d 29 81 bd 65 ed 83 3c 37 76 ba bd
       0.0017456571 -0.06306682 0.01610441 -0.09104579
000090 b9 08 f4 3c 1d 9b 13 3d 47 60 9d bd 78 43 00 3d
       0.029789316 0.0360366 -0.07684379 0.031314343
0000a0 87 a9 b0 3d ad 36 7a 3d 46 3e 9a 3c c3 c3 67 bd
       0.08626085 0.0610873 0.018828522 -0.056583177
0000b0 58 43 86 bd fd c1 33 bd b1 2f 97 bd 19 23 80 3c
       -0.065558136 -0.043886174 -0.07382143 0.015641736
0000c0 0f 24 0e 3e db fd 29 3d 99 ae ce bc 89 26 9b bd
       0.13880943 0.04150186 -0.025229739 -0.075757094
0000d0 26 65 ad 3d 26 a8 bf 3d 01 6d 10 3d 46 76 00 3e
       0.08466558 0.09358244 0.035260204 0.12545118
0000e0 6a fb 43 3d dc e3 81 3c 46 d4 70 3d 58 7a b2 3d
       0.04784719 0.015855722 0.05879619 0.087147415
0000f0 a1 a8 f3 3c cb 60 7d 3d b5 90 86 3b 54 7b 92 3d
       0.029743494 0.061859887 0.004106606 0.07152429
000100 be 57 df b8 33 58 9c bd bd ae eb bc d6 89 ab bd
       -0.00010649812 -0.0763401 -0.028769845 -0.083758995
000110 a2 62 af bc 59 52 af bd cd 75 c6 3d 0f 76 20 3d
       -0.021409336 -0.085606284 0.096904375 0.03917509
000120 74 9e 1a 3d 57 0e ca bc ee fa 9c 3d ad 62 f2 bc
       0.03774877 -0.02466504 0.076650485 -0.029588068
000130 6b 77 e9 3b a6 03 fc bc 2f 86 08 bd 9f 2c aa bd
       0.0071248314 -0.030763458 -0.033331092 -0.08309292
000140 b1 36 c5 3d 41 c2 84 bc 84 05 59 bc 93 0f 4f 3d
       0.09629572 -0.016205909 -0.013245944 0.050551962
000150 78 c8 30 3c e9 f5 83 3d a9 13 1f bd a0 a2 33 3d
       0.010789983 0.06443388 -0.03883711 0.043856263
000160 da 58 de 3c 6b 20 78 3c a7 c1 96 bd 95 c9 2e bd
       0.027141977 0.015144448 -0.07361155 -0.042672712
000170 29 54 a1 3d 7e 3b b4 3c 30 a8 8b bd 15 01 3b 3d
       0.078773804 0.022001024 -0.068191886 0.04565533
000180 9b e6 2b 3d ee 9c 7b bd f4 3e 41 3c 92 3f 83 bc
       0.04196797 -0.061428957 0.011794794 -0.016021524
000190 e6 1a 36 bd d0 de 01 3d c4 8e db 3c ac 2f 8c 3d
       -0.044459246 0.03170663 0.026801474 0.0684503
0001a0 5c 75 bb 3c 8a 52 81 bc 30 43 b4 3d 3a 18 44 3d
       0.02288311 -0.015786428 0.088018775 0.047874667
0001b0 3d 8e 7d 3d f4 ae 94 bd 60 e0 76 3d 70 9b 29 3d
       0.061903227 -0.07259932 0.060272574 0.041408002
0001c0 b2 2b 2f 3d 7d 83 68 bd 24 e3 f8 3c a0 6b 8e bd
       0.04276628 -0.056766022 0.030381747 -0.069541216
0001d0 be d5 9d 3b 97 6b e2 3b c1 29 b0 bd 30 57 36 3d
       0.00481674 0.0069097984 -0.08601714 0.044516742
0001e0 ba 54 30 bd 49 5b 81 3d 23 2d 1c bd 39 26 a9 3c
       -0.04304955 0.063162394 -0.038128983 0.020648109
0001f0 85 3f 2a bd 6b 30 f5 bb a5 ce e7 bd 5f a6 a0 3d
       -0.041564483 -0.0074825785 -0.11318711 0.07844233
000200 76 5b b9 bb 50 e2 10 bd 5e 40 7f 3d ae 32 0f 3d
       -0.005656655 -0.03537208 0.062317245 0.03496044
000210 42 7c 80 bc c7 41 88 bc c0 6c 6e bd 65 b6 a8 3c
       -0.01568425 -0.016632928 -0.05820918 0.020594785
000220 1e de a5 3b 94 b3 a4 bc 05 51 74 3d 82 a9 a6 3d
       0.005061879 -0.02010516 0.05964758 0.081378
000230 a5 05 69 bc c0 ab 28 bd 41 9b f4 bb 8a 18 89 bd
       -0.014222537 -0.04117942 -0.007464797 -0.066941336
000240 d0 78 01 bd ce b8 6a bd 0a d5 3e bc 5e 28 27 3d
       -0.031609356 -0.05730515 -0.011647472 0.04080998
000250 08 0c 76 bd bb 58 cc 3c 6b ec 88 3d ec 84 d8 bc
       -0.060070068 0.024944654 0.06685718 -0.02643057
000260 48 83 26 3d 55 e8 b3 bd 11 38 81 bd 37 66 0c bc
       0.040652543 -0.08784548 -0.06309522 -0.008569292
000270 6e 46 95 bd 02 01 6d bd 5a b1 bf 3c c0 b8 7d 3d
       -0.07288824 -0.05786229 0.023399998 0.06194377
000280 48 dc df bc eb d9 6c 3d 97 fb b1 bd 47 b1 ae bd
       -0.027326718 0.05782501 -0.08690565 -0.08529907
000290 8b d5 93 3d 4d e9 28 bc 7a 69 53 3d 76 1b 1b 3d
       0.072184645 -0.0103095295 0.051614262 0.037867986
0002a0 c4 88 e6 bc c3 e7 23 3c f6 be 95 3d 19 c0 3c bc
       -0.028141387 0.010003987 0.073118135 -0.011520409
0002b0 a7 89 af bc 37 bc 54 bc b7 91 3c 3d fd 6e 62 bd
       -0.021427942 -0.012984327 0.046037402 -0.055281628
0002c0 e5 23 1c bd cc c1 54 bd 7c 94 64 bd 11 8c 87 bd
       -0.03812017 -0.05194263 -0.05580567 -0.066185124
0002d0 f3 da 89 bd a1 39 5b 3d 5d 07 8a bc 9a a8 79 3c
       -0.067312144 0.053521756 -0.016849214 0.015237952
0002e0 7d e7 94 bc f6 e7 a7 3d 83 ce 15 3c 4e 87 6e 3c
       -0.018176788 0.0819854 0.0091434745 0.014558626
0002f0 74 4f ad bd af be ff bc df 65 69 3d 23 06 21 bd
       -0.0846242 -0.031218855 0.056981917 -0.039312493
000300 fa 15 a6 bd 77 81 cb 3c a6 38 b2 3d 51 10 fe 3b
       -0.081096604 0.024842007 0.08702211 0.00775341
000310 6f b4 59 3d 82 52 1e 3d 33 08 a9 bd 87 d1 13 3d
       0.05315059 0.038652904 -0.08253517 0.036088493
000320 f9 17 af 3c 9e 7f 15 3d 64 77 47 3d fa 1a 4d 3d
       0.021373736 0.03649866 0.048697844 0.050074555
000330 c9 f2 56 bd 41 72 e1 bc 0a 0c 68 3a 32 c6 b4 3c
       -0.05247763 -0.0275203 0.00088518916 0.022067163
000340 94 5a 10 bd 9c 86 3a bc ab 8f bf 3c 08 a7 e3 bb
       -0.035242632 -0.011384632 0.023383936 -0.006947402
000350 ea 50 77 bd 09 99 28 bd 0f 8b df bc e7 53 10 bd
       -0.0603799 -0.04116157 -0.027287988 -0.035236266
000360 88 f9 9f 3d c7 87 3b bc a7 bf 95 b9 6a 93 a1 bd
       0.07811266 -0.011445946 -0.00028562287 -0.07889445
000370 26 b9 d1 3c d9 6e 83 bd 01 d7 46 bd 06 42 c0 bd
       0.025600981 -0.06417627 -0.048544887 -0.09387593
000380 a3 e7 82 b9 0f 02 a0 bd dd 1d 0f bd 7f a5 b0 3d
       -0.00024968115 -0.07812893 -0.03494059 0.08625316
000390 3c d9 5d 3d 1c 33 39 3c 8c f6 6c bd 87 07 c2 bd
       0.05416225 0.011303689 -0.057852313 -0.09474092
0003a0 f3 21 85 3c d7 61 19 bd 8d e4 1b 3c 6c 67 79 3d
       0.01625154 -0.037446823 0.00951494 0.060889646
0003b0 25 52 1d 3d ed 00 bf bd 69 d0 92 bd 11 e5 93 3c
       0.038408417 -0.093263485 -0.07168657 0.018053563
0003c0 3e d0 af bd a4 dc b2 bd 1a d2 99 bd e1 89 c7 3c
       -0.08584641 -0.0873349 -0.07510777 0.024357738
0003d0 56 a3 87 bd 6c ad 75 bd ee a6 d1 3c a6 8e a8 3d
       -0.06622951 -0.05997984 0.025592294 0.08230333
0003e0 91 c5 9a 3d f6 81 0a bd 03 9c 16 3d 14 94 5e ba
       0.07557214 -0.033815347 0.036769878 -0.0008490693
0003f0 3d d5 31 bd af ca a5 3b 8b 93 39 3d 40 cf 97 bd
       -0.04341625 0.005059562 0.045306724 -0.07412577

layers.2.bias f4 [128]
000000 58 29 a0 3b 65 56 c2 bd cc 4c c6 3d ab b6 9e bd
       0.004887741 -0.09489135 0.096826166 -0.07749685
000010 3d 2e b9 3d 59 54 8a 3d 8b d3 8b 3d ba 45 bb bb
       0.090420224 0.06754369 0.06827458 -0.005715099
000020 f9 71 28 bc c3 98 b0 3d 74 cd 19 bc e3 17 2f bd
       -0.010281079 0.08622887 -0.009387363 -0.04274739
000030 af bf 17 3c 89 3d 1d bb 70 87 67 3d 95 31 85 3d
       0.0092620095 -0.0023992977 0.056525648 0.06503598
000040 2c 29 62 3b bf 40 57 3c cd e2 3e bd c7 6c 77 3d
       0.0034509404 0.013137995 -0.046603013 0.060406473
000050 9a 23 9e 3d 0a 68 00 bd 58 33 84 3d 46 be e0 bc
       0.07721634 -0.03134922 0.064551055 -0.02743448
000060 d6 5a 4d 3d 27 1f 8e bd 54 58 73 bd 3b 7f a5 bc
       0.050135456 -0.069395356 -0.05941041 -0.02020227
000070 97 5f 9d bc 9a 9c 8f 3a 27 9a b1 3d 5b 51 b2 bd
       -0.01921062 0.0010956705 0.0867198 -0.087069236
000080 09 4d 2e 3d 4a 10 fb 3a 67 eb 6b bd b7 0d 95 3d
       0.042553935 0.0019154635 -0.057597544 0.072780065
000090 8c 95 9b 3d 8a 75 5a 3c de 89 3d 3d 4d 04 71 3d
       0.07596883 0.013333688 0.04627406 0.058841992
0000a0 5c c2 b1 bc d1 b6 e6 3c f0 9d 0f 3c e0 3d 82 3c
       -0.021699123 0.028163346 0.008765683 0.015898645
0000b0 6b cb dd bc bd 8c f0 3c df dc 12 bc 84 ff 19 3b
       -0.027074536 0.029363984 -0.008963793 0.0023498246
0000c0 ae 64 1c bb 28 e1 d9 3d 90 f5 ab bb 3b 02 fa 3c
       -0.002386372 0.10638648 -0.005247779 0.030518642
0000d0 02 84 89 3d 61 da 3b 3d 93 a0 7f 3c 76 02 4b 3d
       0.067146316 0.04586256 0.015602249 0.049562894
0000e0 52 5d 27 3d 52 52 9b 3d b1 71 91 bc d8 d4 15 3d
       0.04086048 0.07584061 -0.017754408 0.036579937
0000f0 13 c7 b0 bd 13 d2 e9 bc a0 25 a6 3d cc 89 d4 3b
       -0.086317204 -0.028542554 0.08112645 0.006486153
000100 b5 be 92 3c a2 d1 7b 3d 2a b6 69 3d d3 0a 23 3d
       0.017913202 0.06147922 0.05705849 0.039805245
000110 92 c6 c5 3d a4 6f 56 3d bb 27 bd bb 61 fc 7e bd
       0.09657015 0.052352563 -0.0057725585 -0.062252406
000120 0c b5 f3 bc b0 01 09 bd 49 bd 76 ba 2f b5 2f 3d
       -0.029749416 -0.033448875 -0.0009412361 0.0428974
000130 40 6f aa bd 30 a8 ad bd 70 26 59 bd a5 5c cb bc
       -0.083220005 -0.08479345 -0.053015172 -0.02482445
000140 06 a1 7d 3d fd 34 0f bd 67 0b 04 bd 9e 75 04 3c
       0.061921142 -0.034962643 -0.032237437 0.008084683
000150 33 cc 9c 3c e6 ab a1 3d 6d 69 66 3d 38 16 e1 3c
       0.019140339 0.07894115 0.056252886 0.027476415
000160 cd b3 84 bc 8a a3 b2 3d 63 5b 9a bd 5e 0b 78 3c
       -0.016199017 0.08722599 -0.07536962 0.015139429
000170 fe 63 a0 bc a6 e9 14 3c 52 4d dc 3c 4f b3 99 bd
       -0.01957893 0.009088909 0.026892338 -0.075049035
000180 14 e5 21 bd 81 f2 f8 bc 88 df ff 3c e0 ac 59 3d
       -0.039525107 -0.030389072 0.031234518 0.053143382
000190 21 b4 8d 3d 05 25 4a 3c cd 36 ec bc 5e 46 05 3b
       0.069191225 0.012337928 -0.028834725 0.0020336132
0001a0 ff 15 7b bc 37 09 37 bd 83 72 3b 3a 6e 2f 85 3d
       -0.0153250685 -0.044686522 0.00071505475 0.06503187
0001b0 69 7f bd 3c 6b bc 70 bd af c3 57 3c cb c2 cc bb
       0.023132043 -0.05877344 0.013169213 -0.006248807
0001c0 a7 c2 e5 3d 2a b3 79 bd c1 60 d2 3c 45 9f 1c 3d
       0.112187676 -0.06096188 0.025680901 0.03823783
0001d0 53 42 a6 bd 7a 10 91 bc 6c 0e a4 3d 94 4c 7a 3c
       -0.08118119 -0.017708052 0.08010563 0.015277047
0001e0 6a c0 a5 bd 71 89 98 bb e1 dc 7c bd 6f e6 8d 3d
       -0.08093341 -0.004655056 -0.061734084 0.06928717
0001f0 c6 68 58 bd a3 e4 95 bd 75 8e a0 3d f2 85 8e bd
       -0.052834295 -0.073189996 0.078396715 -0.06959142

layers.4.weight f4 [4, 128]
000000 b9 eb b5 bd 08 a6 cc 3c 0b be cd 3d fd f2 0e 3d
       -0.08882851 0.024981514 0.100460134 0.0348997
000010 97 00 cf 3d 13 6f 3c 3d 92 12 dc bd 91 c5 0c bd
       0.101075344 0.046004366 -0.107457295 -0.0343681
000020 8c 56 14 3c 05 47 c1 3c 1f 59 58 bd 5f f4 93 bc
       0.0090538375 0.023593435 -0.052819367 -0.018060861
000030 bd cc c7 3d 9b bc d6 bd 17 90 83 bd 25 fa bd bd
       0.097558476 -0.104851924 -0.06423967 -0.09276227
000040 d0 9a bb ba 0c 81 d4 3d 5b 65 8d bd 83 8d f9 bd
       -0.0014313105 0.10376176 -0.06904098 -0.12185194
000050 9c 4e 81 3c f2 a8 93 bd d7 46 d2 bc 18 3f a3 bd
       0.015784554 -0.07209958 -0.025668545 -0.079710186
000060 3f 85 1c be 20 e3 b3 3c eb 18 6f bd 03 d8 10 3d
       -0.15285204 0.021958888 -0.058373373 0.035362255
000070 4c 63 a2 3d 6f ae 57 3c f0 f3 71 bd a8 84 2d 3d
       0.079290956 0.013164147 -0.059070528 0.04236284
000080 ee 2a d7 bd c2 2d ad bd 5f 0b 26 bd ec dd 06 bd
       -0.10506235 -0.08455993 -0.040538188 -0.032926485
000090 84 b6 30 3d 35 d2 71 bd 57 51 7f bc 54 90 02 bd
       0.04314281 -0.05903836 -0.015583358 -0.031875923
0000a0 0c e3 36 b9 54 eb 9b 3d b0 e4 02 3d 75 a6 22 3d
       -0.00017441454 0.07613245 0.031956375 0.039709527
0000b0 f0 c3 98 bd cd 25 f7 3d bc 41 77 bd c4 ad 14 be
       -0.07459247 0.12067757 -0.060365424 -0.14519411
0000c0 56 75 7e bb 5b 7a cc bd 84 4d 6c bc 7e 84 61 bc
       -0.0038827262 -0.09984275 -0.014422778 -0.013764499
0000d0 b8 bc e4 3c 94 9c a9 bd 69 ca 56 3d 2b a8 61 3d
       0.02792202 -0.08281818 0.052439127 0.055092018
0000e0 be da e0 bc 9c 4b e9 3d b5 01 7e bc 37 db 59 3d
       -0.027448054 0.113913745 -0.015503337 0.053187575
0000f0 bf 40 1b bd 4d 3c 74 3d 93 97 f4 3c 8e 85 33 3d
       -0.037903544 0.05962782 0.029857432 0.04382854
000100 db 3b 22 3d b1 06 43 3d c1 7a 6e bd c1 f8 0f be
       0.039607864 0.047613803 -0.058222536 -0.14059736
000110 f0 6c b0 3d 93 35 59 3d 2f b4 86 3b 0e 25 b8 bc
       0.08614528 0.053029608 0.004110835 -0.022478607
000120 e4 e8 99 3c 1e 9e 48 bd 1b 29 05 bc 5f 23 17 bb
       0.018787809 -0.048978917 -0.008127476 -0.0023061854
000130 26 84 6b 3d 39 df 6a bd bb 66 7e bd a8 e6 5b 3c
       0.057499073 -0.057341788 -0.06210969 0.013421692
000140 9c 3a fb 3c db 70 c5 3a 78 db d1 bd 3f b9 c5 3c
       0.030667596 0.0015063541 -0.102469385 0.024136184
000150 a2 69 cd bc 18 4f 7e 3d a2 58 54 bd a0 69 35 3c
       -0.025074784 0.06208715 -0.05184234 0.011072546
000160 dd 03 bc bd 10 46 75 3d 7c d8 4a bd e5 3a eb bd
       -0.09180424 0.05988127 -0.04952286 -0.114858426
000170 2d 79 40 3c 0d 1c a0 3d 33 e7 3b 3d 86 0c ab 3d
       0.011747641 0.0781785 0.045874786 0.08351998
000180 14 fe 8a bd 4a f5 94 bd 57 eb 90 bd c4 83 b3 bd
       -0.06786743 -0.07273348 -0.070761375 -0.08765367
000190 3f 11 29 3d 05 9d 5f bc c1 dd 6e 3d 83 05 4c bd
       0.041276213 -0.013648276 0.05831695 -0.049809944
0001a0 eb ea 89 3d 3b 99 a2 b9 dd 63 f6 ba 85 98 2d bd
       0.0673426 -0.00031013213 -0.0018798072 -0.042381782
0001b0 8d 6c f1 3a 56 77 89 bd d7 83 8c 3d c6 17 28 bc
       0.0018419191 -0.06712215 0.06861084 -0.010259574
0001c0 8c 4a f6 3d f2 4e 53 3d 60 1f 17 3d f9 f2 0c 3d
       0.120259374 0.05158896 0.036895156 0.034411404
0001d0 5b 4e a6 3d 88 00 06 3d b7 0a bb bb 42 96 96 3d
       0.08120414 0.03271535 -0.0057080644 0.07352878
0001e0 b0 3d 65 3b 86 99 a1 bb ac 02 8d bd d2 b7 0e bd
       0.0034979396 -0.0049316315 -0.06885275 -0.034843273
0001f0 46 3b f1 39 2a d6 ec b9 e4 83 b6 bd 48 e8 04 bd
       0.00046011264 -0.00045172992 -0.08911875 -0.032448083
000200 7b 4c a3 3d af 63 57 bc e6 ef 3f bd 18 f2 55 3d
       0.07973572 -0.013146325 -0.046859644 0.05223283
000210 c2 73 77 3d b5 3b 08 3d 88 79 48 bd 61 56 d5 3c
       0.06041313 0.033260066 -0.048944026 0.026042165
000220 34 4d 81 3d 0e cb 61 bc 56 35 cb bd 8b 78 f9 3d
       0.063135535 -0.013781322 -0.099222824 0.12181195
000230 42 77 5e 3d 39 f5 d9 bc 4f 35 13 bd 3a 4a d8 bd
       0.054312952 -0.02660619 -0.03593951 -0.105610326
000240 2d be 1d bd 24 fc 8c bd db ac 87 3d 9d 6f d0 bb
       -0.038511444 -0.068840295 0.066247664 -0.0063609616
000250 ab 2d 62 3d 07 6c f1 bd 76 b1 91 3d a0 23 9a bd
       0.055219334 -0.11788183 0.07113926 -0.07526326
000260 bb 7b 6a 3d af ca 96 bd ea 7d 9c 3d 08 b0 c9 bd
       0.057246905 -0.073628776 0.07641204 -0.098480284
000270 80 6c 8e 3d 9d 92 8e bd e7 4f 62 3d 74 c2 7b bd
       0.069542885 -0.06961558 0.055251982 -0.06146474
000280 90 d5 2f 3d 3d 24 24 3d b6 f1 81 3d 8a 06 86 bc
       0.04292828 0.040073622 0.06344931 -0.01636054
000290 4f 0b a7 bd 5b 73 16 3d 68 84 88 bd bf a5 90 3c
       -0.08156454 0.036731105 -0.066658795 0.017657159
0002a0 b6 7c ca 3d 34 02 e0 bc d9 11 d1 3c 7e ff 0c 3d
       0.09887068 -0.0273448 0.025521206 0.034423344
0002b0 4a 88 6a 3d 27 57 a6 bd d4 1e 4f 3d 80 82 a3 3c
       0.05725888 -0.08122092 0.05056651 0.019959688
0002c0 5a ca 69 bd 0a 26 c5 bd 9d 62 04 be b5 77 e5 3b
       -0.057077743 -0.09626396 -0.12928243 0.0070027956
0002d0 c5 9e 15 3c 08 58 bb bd 62 0a a9 bd c0 94 ab 3c
       0.009132092 -0.0914765 -0.082539335 0.020944953
0002e0 8f c6 0e 3d f1 f1 a4 bd 63 ea 15 bd 77 a3 95 bd
       0.03485733 -0.08053959 -0.03660048 -0.07306569
0002f0 0c 00 9a 3d bd 7d d7 3c 01 a9 af bd 3c cb e1 3d
       0.0751954 0.026305074 -0.08577157 0.11025092
000300 20 6e ab 3d d8 06 13 bd ee 4d bc bd 40 53 e1 3c
       0.08370614 -0.0358952 -0.091945514 0.027505517
000310 30 a7 fa bc 05 51 c9 39 96 ac 38 bc 10 43 99 3c
       -0.0305973 0.00038398072 -0.011271616 0.018708736
000320 be 87 2b 3d b3 33 8d bc ce 3b 56 bd e2 84 49 3d
       0.0418775 -0.017236566 -0.052303128 0.049198993
000330 d0 81 2c bd 81 d8 64 ba 0c b4 b6 bd a4 20 2e 3d
       -0.042115986 -0.00087297714 -0.0892106 0.042511597
000340 e2 80 da bc 57 e8 df bd 88 54 6b 3d d7 14 08 bd
       -0.026672784 -0.10932987 0.057453662 -0.033223
000350 79 16 01 bc 2e 3d 75 bb 01 08 7d bb a5 27 85 3d
       -0.007878893 -0.00374205 -0.0038609507 0.06501702
000360 8c 75 60 bd a6 b3 a9 bd b0 1f c6 3c f0 7f 15 be
       -0.0547996 -0.08286218 0.024185032 -0.14599586
000370 e7 ea 94 3d 35 22 bc 3d a6 1f a0 3d ba ff a8 3d
       0.072713666 0.09186212 0.078185365 0.08251901
000380 cf cd 3c 3d 29 ec 1a be 03 ff d9 bb ee 39 69 3d
       0.046094712 -0.1512915 -0.006652714 0.05694001
000390 f3 9c 08 3e 0d 2a f1 bc a5 5c 9c 3d 8f 75 29 bc
       0.13341121 -0.029438997 0.07634858 -0.01034297
0003a0 64 39 d6 3d 8f bb b6 3d 79 59 b6 3d d4 39 98 bd
       0.10460165 0.08922493 0.08903784 -0.07432905
0003b0 e4 f6 86 bd 98 0f 33 b9 56 f9 ec bd ed 16 53 bd
       -0.065900594 -0.0001707658 -0.115709946 -0.051535536
0003c0 1d b2 6a bd 62 0c 1c 3c 11 93 38 bd 97 d9 a4 3d
       -0.05729877 0.009524437 -0.04506213 0.080493145
0003d0 ca f7 22 3d d4 15 d6 3c 0e da 68 3d d7 62 8f 3d
       0.03978709 0.026133455 0.05684858 0.07001274
0003e0 a3 9d 6c bb 91 f7 6f bc 19 0a a2 3d 8a 7f 62 3d
       -0.00361047 -0.014646427 0.07912082 0.055297412
0003f0 db 15 7e bd d1 8b 16 3d 20 10 2e bc df fe 11 bd
       -0.06203256 0.036754433 -0.010623962 -0.035643455

layers.4.bias f4 [4]
000000 24 64 d0 bc be 40 6e 3d 1f a2 50 3d 51 d3 0b 3d
       -0.025438376 0.05816721 0.05093586 0.034137074
