ptdrlhf/ptdrlhf/checkpoints/state_action/checkpoint_supervised_dqn95.pth (torch, 219095 bytes, 6 tensors)

layers.0.weight f4 [128, 290]
00000000: 9862 0f3b 6db8 95bc 9d74 183b 7cf2 f4bc
00000010: 2cca ddbb 8923 f0bb d134 de3c 7d92 a8bd
00000020: 7d4e bcbc bd6f 833d 7ada 42bd 5f14 b63d
00000030: 1d0e bcbc b39c 9c3d dfc4 1a3d 17a3 1fbd
00000040: 957d 7cbd febd e939 113d 653d 9899 21bd
00000050: ff19 4fbb f594 fdbc 185e 423d 6be9 943c
00000060: 21fc bf3c 91ba bc3d ded7 93bc d19c f2bc
00000070: 153b 74bb 487b bd3c 4b79 18bb 3576 d6bd
00000080: c0c6 b0bd 750f 923d b594 013c d830 a5bd
00000090: 79fb f9bd 83a8 963d 865f 813d 5d43 423d
000000a0: 6b39 983c 9493 3cbd 6311 23bd fc38 be3c
000000b0: 076c 7bbd 4ad1 2bbd 25ae 833d afef 0a3c
000000c0: 3595 ffbc c0ac 03bd 3ca5 cbbb f62e c13c
000000d0: 3559 0d3d aeb7 0c3d bd31 de3c bab0 dabc
000000e0: 2011 89bd 51c2 f83b e353 91bd b4e7 b13c
000000f0: f642 afbc 9101 683d 7292 94bd e40f 2ebb
00000100: 5f26 0ebd 37b0 b0bc 0a72 47bc 1fe2 80bd
00000110: c92c 4a3d 0b27 44bd 45e7 20bd 4427 493a
00000120: ea3f 6a3d 92b9 983c ea4f a73c aac7 fd3c
00000130: 3732 11ba f3f4 ba3b 01e8 3c3c 629d 30bd
00000140: 2117 dd35 5906 83bc 95f7 5fbd 17f6 933d
00000150: 5b0e a43c 8b17 c9bc 20dd 5c3b bcc5 6d3d
00000160: 6f5e dbbc c52c cc3c a336 433d 5e07 93bd
00000170: 215b 9dbd 1805 4fbd ab26 8cbd 47a5 263d
00000180: 4e0d 8c3d addc 38bb 47d4 563d b14a 01bd
00000190: f666 073d 31ae 52bd 40d8 d4bc 46eb 06bc
000001a0: cd32 57bc ea3e 4a3d efa1 9dbd e969 6b3d
000001b0: 72a1 8dbd 6516 243d ac71 013e 9405 233d
000001c0: 36d7 70bd 4287 873d 800d 47bd 7616 f33c
000001d0: 8102 43bd 4dc2 303d 54e2 2cbc c9cf 8c3a
000001e0: e7f9 bfbd 0a2e 9e3d 9849 3a3d 11c7 993d
000001f0: e042 8cba a37b b9bd d73d 5abd 1443 753c
00000200: 5fba 2fbd 9e36 58bd 0806 723d 0fd4 9ebd
00000210: df86 8f3d 9df9 023d e939 1dbd de95 bb3c
00000220: d2ec 2b3d 3f19 33bd b34f 1cbd a4a7 0a3d
00000230: 7729 98bd ad5d 8f3d 5235 e3bd e5fe 693d
00000240: 319c 443d 4379 aabc d264 8c3d ac62 5dbd
00000250: c5d7 d8bb d69a 033d 2148 f2bd 791d d5bd
00000260: e3eb 2b3d 52ce 08bd 79e8 febc 0be2 d63d
00000270: bb61 afbc 79ef bbbc 3398 a53c 2cca d3bd
00000280: c783 eb3c 4b04 753d b5fc 0e3c 330f 883c
00000290: 2a44 99bd d53b 5b3d 91d1 6b3c 83b5 1d3d
000002a0: 7279 dd3c 3510 cf3c 701f f03c b2ef 0a3d
000002b0: 67a6 793d 471b a53d ec13 0a3b 9cd6 bfbc
000002c0: 1cbb 9b3d 1c0d b33c 251c 8d3d a9a7 89bc
000002d0: 3b42 98bb 789e 9b3d 7ab7 02bd c3cc 83bc
000002e0: b9f4 733b 50f8 9dbd 627f 063d 47b9 0ebd
000002f0: 9ffc 7bbd 7670 283d 740f 643b 42ee 58bb
00000300: 4f1a e83c a84f 0e3d 95a5 983a 4541 6fbd
00000310: 2ed2 5b3d 80fd 743c 01a8 d6bd 6dba 6f3d
00000320: 2fb0 88bc 04e6 303d c89c b43d f380 8dbc
00000330: 55a8 63bd b213 763b 8e85 063c d3cf 29bd
00000340: ff14 cb3d 965b 08bd 6884 06bd 570e 0abe
00000350: 290a 98bd 60ec 05bc 6d7e 39bd c277 cebc
00000360: 6db8 cbbc 0e02 493d fbe4 0fbc 1304 fabd
00000370: 42d7 823d c00e 133d a2c9 20bd 81c5 273d
00000380: 21e2 913d af7b 8abd e9ce 293c 727c e23c
00000390: a5c0 813c 5c41 803d 3c77 10bc 3f31 793d
000003a0: 740d a13c 10ea a8bd dbe6 d43d 385b b4bb
000003b0: 331d 6b3d 11d2 3c3d dce5 253c 9fc8 503d
000003c0: cb65 8f3d 3a62 523c fb73 1cbd 4674 be3c
000003d0: ea2b 233e 4364 9fbc 4991 59bd 591c 2bbd
000003e0: 0f0c d6bc 01a7 dc3a fa8c 24bd d5ec 063d
000003f0: e6bb 06be 8b7a ba3a 8b97 3e3c 3712 9b3c
0.0021878835 -0.018276418 0.0023262866 -0.029900782 -0.0067684855 -0.007328455 0.027124794 -0.082310654
-0.022986645 0.06417797 -0.047571637 0.08890604 -0.022955948 0.076470755 0.037785407 -0.038973894
-0.0616432 0.00044582778 0.05596644 -0.03945312 -0.0031601188 -0.030954817 0.047453016 0.018177709
0.023435654 0.09215272 -0.01804727 -0.029615792 -0.003726666 0.023130074 -0.0023265656 -0.10471765
-0.086316586 0.071318544 0.00790899 -0.08065957 -0.12206168 0.0735636 0.06317048 0.047427524
0.018582067 -0.04603918 -0.039811503 0.023220532 -0.06138232 -0.04194764 0.064297 0.008479997
-0.031199077 -0.03214717 -0.006214766 0.023581963 0.034508903 0.034354858 0.027123326 -0.026695598
-0.066927195 0.0075915237 -0.07096078 0.02171693 -0.021394234 0.05664212 -0.07254495 -0.0026559765
-0.034704562 -0.0215684 -0.012173185 -0.06293129 0.049359117 -0.047888797 -0.039283056 0.00076733925
0.05718986 0.018643174 0.020423848 0.030978996 -0.00055387936 0.0057054698 0.011529923 -0.043118842
1.6472515e-06 -0.015994238 -0.054679472 0.07224672 0.020026376 -0.024547359 0.0033701137 0.058049902
-0.026778428 0.024923692 0.047659528 -0.071791396 -0.07683397 -0.050541967 -0.06843313 0.040684965
0.06838475 -0.0028207705 0.052448537 -0.031565372 0.033057176 -0.051435653 -0.025982022 -0.0082348045
-0.01313467 0.049376406 -0.07696902 0.05747405 -0.06915559 0.04006042 0.12641019 0.03980024
-0.05879899 0.06617595 -0.04859686 0.029673796 -0.04760981 0.04315405 -0.010552008 0.0010743077
-0.09373837 0.07723625 0.04548034 0.07508672 -0.0010701083 -0.09056785 -0.05328163 0.014969606
-0.042902347 -0.052786462 0.059087783 -0.07755291 0.070081465 0.03197633 -0.038385306 0.02289861
0.041973896 -0.04372525 -0.038161945 0.03385128 -0.07429784 0.07000289 -0.110941544 0.057127852
0.04800052 -0.020809775 0.068551674 -0.05404918 -0.0066175186 0.032130085 -0.11830164 -0.10406012
0.041973006 -0.033399887 -0.031116711 0.10492333 -0.021408906 -0.022941338 0.020214176 -0.103412956
0.02874936 0.059818547 0.008727242 0.01660881 -0.074837044 0.053523857 0.014393226 0.03850318
0.027035449 0.025276283 0.029311866 0.033919998 0.06094971 0.08061843 0.0021069003 -0.023417763
0.07604048 0.021856837 0.06890134 -0.01680358 -0.004646567 0.07598585 -0.031913258 -0.016088849
0.0037224723 -0.077133775 0.032836325 -0.034844663 -0.061520215 0.041122876 0.003479925 -0.0033100997
0.028332857 0.034743935 0.0011646027 -0.058411855 0.05366724 0.014953017 -0.10481263 0.0585274
-0.016685573 0.04318811 0.08818966 -0.017273402 -0.055580456 0.003754836 0.008210553 -0.041457962
0.09916114 -0.03329047 -0.032841116 -0.13482033 -0.07423813 -0.008174032 -0.045286585 -0.02520359
-0.024868215 0.049074225 -0.008782621 -0.12207808 0.063887134 0.03590274 -0.039254792 0.04095984
0.07123209 -0.06761872 0.010364273 0.02764723 0.01583893 0.06262466 -0.00881749 0.06083798
0.019659735 -0.08247769 0.10395595 -0.005504038 0.057400893 0.046098772 0.0101256035 0.050972577
0.07001837 0.012840802 -0.038196545 0.023248803 0.1593472 -0.019456988 -0.05311707 -0.04177508
-0.026128797 0.0016834439 -0.04017351 0.032940704 -0.13157615 0.0014227194 0.01163281 0.018929584

layers.0.bias f4 [128]
00000000: d3be 253d 7e2f efbc dcc0 563c 0352 303d
00000010: 0820 b0bc 8fde 013d 97a5 173c fd92 e33c
00000020: 4b69 5ebd 03cf c03c bfcc 6a3c f9ce 013d
00000030: 19f1 163d df84 1bbd 3509 173d 8a1c 3dbd
00000040: 4474 13bd b4ae 003d ac92 423d b799 7dbd
00000050: 8a38 9e39 d537 123c 0893 2a3d a7eb 2f3d
00000060: ceac 51bc 2712 1bbd 7317 cbbc a989 1ebd
00000070: 77ec 813c 478e b3bc 9900 f3bc eafd f1bc
00000080: be0e 2f3d a79f 15bd 5ff4 533d d45b 42bd
00000090: 56f4 823a ad67 33bd 04a5 4fbd ab11 d33c
000000a0: 853e 7c3c 08a3 0fbd 9bd4 83bc 8549 943a
000000b0: 4a9b 45bc 09f6 acbb c922 80bd e213 96bc
000000c0: fabe 2bbd 12af ec3b bdce 333d 81cd 0fbd
000000d0: 839b 12bd 586f cb3c 46f4 513d a8a6 ef3b
000000e0: 5c54 2dbd da65 63bd 173c 58bd e48a b9bb
000000f0: 7795 803c f270 13bd 51e5 1e3d ca09 d53b
00000100: e188 44bc ae42 f8bb 5b85 79bd 1ed0 4a3d
00000110: d6b5 81bb c9ab 57bb b4a2 443d 2d2e 0a3d
00000120: 7824 3f3c 8860 473d 8b1c 80bc 18a8 38bd
00000130: f0b4 133d f60d 18bd 5f99 83bd 6f26 18bb
00000140: db05 8cbb 63a1 b0bc e51e 1b3b 5a0e b1bb
00000150: c7b8 b63c 1da7 213d 210e 04bb 3e58 aa3c
00000160: cd23 e5bb d77f 073d 1616 5ebb 9315 57bd
00000170: 3c0f ad3b 98c4 193b 67d9 2fbd eedf 063c
00000180: 86f1 fc3c 7135 42bd 05db 34bc b62e 0c3d
00000190: 2dda 51bd b66a 5abd a199 2bbc e526 153d
000001a0: d8b1 36bd f85b 07bc 54fd 1d3d 1f93 c03c
000001b0: bbae da3a 499a dc3c a30b 56bd a4d3 4abd
000001c0: bc7f fabb 7742 54bb c4cc b8bc b7f1 053d
000001d0: 6433 4bbd a915 41bc 1622 ad3b 878c 3ebc
000001e0: 706f a13d db9f 6b3d d301 9ebc ce8c 443c
000001f0: 251c 64bd b097 2bbd c559 63bc bfd7 4dbd
0.040465187 -0.02919745 0.013107505 0.043046962 -0.021499649 0.03170639 0.009255788 0.02778005
-0.054299634 0.02353621 0.014331042 0.031691525 0.036851022 -0.037968513 0.036874015 -0.046169795
-0.03599955 0.03141661 0.04750316 -0.061914172 0.00030178233 0.008924444 0.041644126 0.042949345
-0.0127975475 -0.03785911 -0.024791455 -0.0387055 0.015859826 -0.021918429 -0.02966337 -0.029540021
0.04273867 -0.03652921 0.051746722 -0.047450855 0.0009991031 -0.043800045 -0.05069448 0.02576526
0.015395765 -0.035067588 -0.01609259 0.0011313414 -0.01206095 -0.005278353 -0.06256635 -0.018320028
-0.041930176 0.0072230184 0.043898333 -0.035108093 -0.03579284 0.024833366 0.051258348 0.007313568
-0.04231678 -0.055517055 -0.05279168 -0.005662309 0.01569627 -0.035996385 0.038792912 0.006501411
-0.011995525 -0.007576308 -0.060918193 0.049514882 -0.003958444 -0.0032908788 0.04800673 0.033735443
0.01166641 0.048676044 -0.01563861 -0.04508218 0.036061227 -0.03712269 -0.064257376 -0.0023216268
-0.004273159 -0.02156133 0.0023669538 -0.005403322 0.022304906 0.039466012 -0.0020150023 0.02079403
-0.006992793 0.033080902 -0.0033887676 -0.05251081 0.005281357 0.0023463126 -0.04293194 0.0082321
0.030876886 -0.047414247 -0.011038546 0.034224235 -0.05123346 -0.053324424 -0.01047364 0.036414046
-0.0446032 -0.008261673 0.03857167 0.023507653 0.0016684154 0.026929038 -0.05225719 -0.049518242
-0.0076446217 -0.003238825 -0.022558577 0.03270122 -0.049609557 -0.011784949 0.0052836044 -0.011630184
0.07882583 0.057525497 -0.01928798 0.011996461 -0.055690903 -0.041892707 -0.013876383 -0.05025458

layers.2.weight f4 [128, 128]
00000000: 940b cabc d0ac 84bb b290 193d 9987 18bd
00000010: 3e66 5b3b 4dbf dabd 64d4 9bbd 1bbe 26bd
00000020: 9b3b 99bd 57d7 d13d 0243 a63b 6235 a33d
00000030: f5c3 d43a d699 403c 998b 1f3c 5ad3 a83d
00000040: cfc1 a2bc f2c6 3abd 9107 2d3d b5ca a1bd
00000050: 6d7a 97bc 5867 ad3d d540 8f3d b127 e13c
00000060: cbd8 94bd cb32 21bc 05c2 9bbc 53a4 513d
00000070: 04e9 793d 0873 aebd bf7c 4ebd 6a1d a3ba
00000080: b5d5 a038 2d29 81bd 85d5 773c e5ab bdbd
00000090: b908 f43c 1d9b 133d 4760 9dbd 7843 003d
000000a0: 87a9 b03d ad36 7a3d a09a 953c 7ac2 6bbd
000000b0: 5843 86bd fdc1 33bd b12f 97bd 1923 803c
000000c0: 5859 0f3e d535 273d 9ddd d3bc 8926 9bbd
000000d0: 5ff1 ad3d 26a8 bf3d 016d 103d aa60 013e
000000e0: d90d 423d dce3 813c 46d4 703d c4a4 b23d
000000f0: a1a8 f33c 1a38 753d aee5 513b 388d 963d
00000100: be57 dfb8 b563 9ebd bdae ebbc 6dfb acbd
00000110: 26ba a8bc f6fa b4bd cd75 c63d 0f76 203d
00000120: e645 183d 6e6d dbbc b831 9c3d 2e09 f7bc
00000130: 8d05 ae3b a603 fcbc 2f86 08bd 9f2c aabd
00000140: c9b2 c23d 41c2 84bc 3112 3fbc 930f 4f3d
00000150: 2d9f 233c e9f5 833d eaf0 2dbd e97c 333d
00000160: 307d d63c 6b20 783c a7c1 96bd 95c9 2ebd
00000170: 01d1 a13d a80d ac3c 30a8 8bbd 5e3b 393d
00000180: 08ad 293d ee9c 7bbd 3e3c 193c 923f 83bc
00000190: e61a 36bd d0de 013d 39ca f03c e6de 8d3d
000001a0: 5c75 bb3c e83e 88bc 0735 b33d 3a18 443d
000001b0: bb8c 7b3d 20e4 95bd 60e0 763d 6261 273d
000001c0: b22b 2f3d 168d 6cbd 24e3 f83c a06b 8ebd
000001d0: 229b 943b 976b e23b d5d1 afbd 3057 363d
000001e0: 41b3 32bd f4d1 7e3d 232d 1cbd ab03 a53c
000001f0: 0d9e 27bd 49fd 09bc ae77 f0bd 5fa6 a03d
00000200: 765b b9bb 50e2 10bd 5e40 7f3d ae32 0f3d
00000210: 427c 80bc c741 88bc c06c 6ebd 65b6 a83c
00000220: 1ede a53b 94b3 a4bc 0551 743d 82a9 a63d
00000230: a505 69bc c0ab 28bd 419b f4bb 8a18 89bd
00000240: d078 01bd ceb8 6abd 0ad5 3ebc 5e28 273d
00000250: 080c 76bd bb58 cc3c 6bec 883d ec84 d8bc
00000260: 4883 263d 55e8 b3bd 1138 81bd 3766 0cbc
00000270: 6e46 95bd 0201 6dbd 5ab1 bf3c c0b8 7d3d
00000280: 48dc dfbc ebd9 6c3d 97fb b1bd 47b1 aebd
00000290: 8bd5 933d 4de9 28bc 7a69 533d 761b 1b3d
000002a0: c488 e6bc c3e7 233c f6be 953d 19c0 3cbc
000002b0: a789 afbc 37bc 54bc b791 3c3d fd6e 62bd
000002c0: e523 1cbd ccc1 54bd 7c94 64bd 118c 87bd
000002d0: f3da 89bd a139 5b3d 5d07 8abc 9aa8 793c
000002e0: 7de7 94bc f6e7 a73d 83ce 153c 4e87 6e3c
000002f0: 744f adbd afbe ffbc df65 693d 2306 21bd
00000300: fa15 a6bd 7781 cb3c a638 b23d 5110 fe3b
00000310: 6fb4 593d 8252 1e3d 3308 a9bd 87d1 133d
00000320: f917 af3c 9e7f 153d 6477 473d fa1a 4d3d
00000330: c9f2 56bd 4172 e1bc 0a0c 683a 32c6 b43c
00000340: 945a 10bd 9c86 3abc ab8f bf3c 08a7 e3bb
00000350: ea50 77bd 0999 28bd 0f8b dfbc e753 10bd
00000360: 88f9 9f3d c787 3bbc a7bf 95b9 6a93 a1bd
00000370: 26b9 d13c d96e 83bd 01d7 46bd 0642 c0bd
00000380: a3e7 82b9 0f02 a0bd dd1d 0fbd 7fa5 b03d
00000390: 3cd9 5d3d 1c33 393c 8cf6 6cbd 8707 c2bd
000003a0: f321 853c d761 19bd 8de4 1b3c 6c67 793d
000003b0: 2552 1d3d ed00 bfbd 69d0 92bd 11e5 933c
000003c0: 3ed0 afbd a4dc b2bd 1ad2 99bd e189 c73c
000003d0: 56a3 87bd 6cad 75bd eea6 d13c a68e a83d
000003e0: 91c5 9a3d f681 0abd 039c 163d 1494 5eba
000003f0: 3dd5 31bd afca a53b 8b93 393d 40cf 97bd
-0.024663724 -0.004048921 0.037491508 -0.03723869 0.003347769 -0.10681019 -0.0760887 -0.040708642
-0.07482072 0.10246151 0.005073906 0.07969166 0.0016232716 0.011755427 0.0097378725 0.08243437
-0.019867806 -0.045599885 0.042243544 -0.078999914 -0.018490994 0.08466977 0.069947876 0.027484747
-0.072679125 -0.00983877 -0.019013414 0.051182102 0.061013237 -0.08518034 -0.050411936 -0.0012444679
7.6692006e-05 -0.06306682 0.015126591 -0.09261302 0.029789316 0.0360366 -0.07684379 0.031314343
0.08626085 0.0610873 0.018262208 -0.057558514 -0.065558136 -0.043886174 -0.07382143 0.015641736
0.13998926 0.040822823 -0.02586251 -0.075757094 0.084933035 0.09358244 0.035260204 0.1263453
0.047376487 0.015855722 0.05879619 0.08722833 0.029743494 0.059867956 0.003202777 0.07351154
-0.00010649812 -0.07733861 -0.028769845 -0.08446393 -0.020596575 -0.088369295 0.096904375 0.03917509
0.037176035 -0.026785579 0.076266706 -0.030155744 0.0053107203 -0.030763458 -0.033331092 -0.08309292
0.09506757 -0.016205909 -0.011662052 0.050551962 0.009986681 0.06443388 -0.04246608 0.043820295
0.02618274 0.015144448 -0.07361155 -0.042672712 0.079011925 0.021002606 -0.068191886 0.045222633
0.04142478 -0.061428957 0.009352742 -0.016021524 -0.044459246 0.03170663 0.029393302 0.0692728
0.02288311 -0.016631559 0.087503485 0.047874667 0.061413508 -0.07318902 0.060272574 0.040864356
0.04276628 -0.057751738 0.030381747 -0.069541216 0.004535095 0.0069097984 -0.08584944 0.044516742
-0.04362798 0.062211946 -0.038128983 0.02014335 -0.040922213 -0.008422204 -0.11741577 0.07844233
-0.005656655 -0.03537208 0.062317245 0.03496044 -0.01568425 -0.016632928 -0.05820918 0.020594785
0.005061879 -0.02010516 0.05964758 0.081378 -0.014222537 -0.04117942 -0.007464797 -0.066941336
-0.031609356 -0.05730515 -0.011647472 0.04080998 -0.060070068 0.024944654 0.06685718 -0.02643057
0.040652543 -0.08784548 -0.06309522 -0.008569292 -0.07288824 -0.05786229 0.023399998 0.06194377
-0.027326718 0.05782501 -0.08690565 -0.08529907 0.072184645 -0.0103095295 0.051614262 0.037867986
-0.028141387 0.010003987 0.073118135 -0.011520409 -0.021427942 -0.012984327 0.046037402 -0.055281628
-0.03812017 -0.05194263 -0.05580567 -0.066185124 -0.067312144 0.053521756 -0.016849214 0.015237952
-0.018176788 0.0819854 0.0091434745 0.014558626 -0.0846242 -0.031218855 0.056981917 -0.039312493
-0.081096604 0.024842007 0.08702211 0.00775341 0.05315059 0.038652904 -0.08253517 0.036088493
0.021373736 0.03649866 0.048697844 0.050074555 -0.05247763 -0.0275203 0.00088518916 0.022067163
-0.035242632 -0.011384632 0.023383936 -0.006947402 -0.0603799 -0.04116157 -0.027287988 -0.035236266
0.07811266 -0.011445946 -0.00028562287 -0.07889445 0.025600981 -0.06417627 -0.048544887 -0.09387593
-0.00024968115 -0.07812893 -0.03494059 0.08625316 0.05416225 0.011303689 -0.057852313 -0.09474092
0.01625154 -0.037446823 0.00951494 0.060889646 0.038408417 -0.093263485 -0.07168657 0.018053563
-0.08584641 -0.0873349 -0.07510777 0.024357738 -0.06622951 -0.05997984 0.025592294 0.08230333
0.07557214 -0.033815347 0.036769878 -0.0008490693 -0.04341625 0.005059562 0.045306724 -0.07412577

layers.2.bias f4 [128]
00000000: 61a6 943b 6556 c2bd fd97 ca3d c1d6 a1bd
00000010: 561c c43d 5954 8a3d 495f 893d ba45 bbbb
00000020: 2337 1bbc 16c9 b33d 76ce 34bc 2bae 2fbd
00000030: d6d4 3a3c f715 35bb c90e 6e3d 0436 8a3d
00000040: 2c29 623b a4d0 5a3c d347 44bd 7da1 773d
00000050: 364d 9f3d 5bc5 ffbc 5833 843d 46be e0bc
00000060: 4d7b 473d 271f 8ebd 5458 73bd 7667 aebc
00000070: c240 8ebc 9a9c 8f3a c028 b13d 5b51 b2bd
00000080: dbe9 2e3d 667a d739 67eb 6bbd b70d 953d
00000090: 2ee6 993d 8a75 5a3c e8f0 353d 4d04 713d
000000a0: 8a0e b2bc 47d8 e83c 9a6a 303c e03d 823c
000000b0: 6bcb ddbc 0070 fd3c 0fab 27bc acdf a33a
000000c0: 4e42 70bb 8b7a dd3d f1d7 5fbb 3b02 fa3c
000000d0: b9bb 883d b1ba 333d 2900 893c 1f1f 513d
000000e0: 525d 273d 2a38 9c3d b171 91bc 4f71 123d
000000f0: 13c7 b0bd 13d2 e9bc a025 a63d 5281 f83b
00000100: e6ec 9c3c 5c9c 813d 2ba1 703d 97a1 253d
00000110: ce37 c73d 1f50 643d bb27 bdbb 61fc 7ebd
00000120: 0cb5 f3bc 2436 03bd 49bd 76ba 2fb5 2f3d
00000130: 406f aabd 30a8 adbd 34d8 60bd a55c cbbc
00000140: e6bc 823d 33e0 0bbd 0a95 07bd 970d 453c
00000150: a4f9 a63c a407 a23d 6d69 663d 3816 e13c
00000160: cdb3 84bc 01e0 b23d 635b 9abd b9b2 913c
00000170: 460f a2bc acd6 1b3c 524d dc3c d985 9abd
00000180: de0a 23bd 4099 ddbc 88df ff3c e0ac 593d
00000190: 0c4c 8d3d 0525 4a3c beb2 e8bc 5e46 053b
000001a0: 9658 71bc 8e59 38bd e211 ad3a dffe 803d
000001b0: 4865 c93c 6bbc 70bd 79a8 643c b8c7 afbb
000001c0: e9aa e73d 2ab3 79bd 0624 c63c 1455 1f3d
000001d0: 2a5d a2bd c2ab 8ebc 6c0e a43d 70d4 6a3c
000001e0: 6ac0 a5bd 7189 98bb e1dc 7cbd d955 8b3d
000001f0: 735b 52bd a3e4 95bd 5751 9f3d f285 8ebd
0.0045364355 -0.09489135 0.09892271 -0.07902289 0.09575717 0.06754369 0.06707627 -0.005715099
-0.009473595 0.087785885 -0.011035552 -0.04289071 0.011403283 -0.00276315 0.05811957 0.06748584
0.0034509404 0.013355408 -0.04792006 0.06045674 0.07778399 -0.031222036 0.064551055 -0.02743448
0.048701573 -0.069395356 -0.05941041 -0.021289568 -0.017364863 0.0010956705 0.086503506 -0.087069236
0.04270349 0.0004109919 -0.057597544 0.072780065 0.075146064 0.013333688 0.0444192 0.058841992
-0.021735448 0.028423442 0.010767603 0.015898645 -0.027074536 0.030937195 -0.010233655 0.0012502572
-0.0036660614 0.10814389 -0.003415581 0.030518642 0.0667643 0.043879215 0.01672371 0.05105507
0.04086048 0.076279 -0.017754408 0.03575259 -0.086317204 -0.028542554 0.08112645 0.0075837756
0.01915593 0.06328651 0.05874745 0.040437307 0.09727441 0.055740472 -0.0057725585 -0.062252406
-0.029749416 -0.032034054 -0.0009412361 0.0428974 -0.083220005 -0.08479345 -0.054893687 -0.02482445
0.06383686 -0.03414936 -0.03310112 0.012027166 0.02038271 0.079116136 0.056252886 0.027476415
-0.016199017 0.087341316 -0.07536962 0.017785417 -0.019782674 0.009511631 0.026892338 -0.07545061
-0.039805286 -0.027050614 0.031234518 0.053143382 0.068992704 0.012337928 -0.028405543 0.0020336132
-0.014730593 -0.04500728 0.0013204182 0.06298613 0.024584427 -0.05877344 0.013956183 -0.0053643845
0.113118954 -0.06096188 0.0241871 0.038899496 -0.07927926 -0.017415885 0.08010563 0.014332876
-0.08093341 -0.004655056 -0.061734084 0.068034835 -0.051356744 -0.073189996 0.07779186 -0.06959142

layers.4.weight f4 [4, 128]
00000000: 56e7 b4bd 08a6 cc3c a4d8 cf3d 61b7 133d
00000010: 2dc4 d03d 136f 3c3d 2b73 e1bd 91c5 0cbd
00000020: 0c3d 2d3c 2691 cb3c f20c 63bd 7635 8abc
00000030: 2b82 c83d 6589 d9bd 4b3e 82bd 155f c4bd
00000040: d09a bbba 5e0b d63d 718a 8cbd ce67 fbbd
00000050: 14a3 903c 26ce 96bd d746 d2bc 183f a3bd
00000060: fc4b 1cbe 20e3 b33c eb18 6fbd dd77 103d
00000070: d0ae a43d 6fae 573c a580 6dbd a884 2d3d
00000080: b7d6 d7bd c84f acbd 5f0b 26bd ecdd 06bd
00000090: b852 333d 35d2 71bd d94f 82bc 5490 02bd
000000a0: 48b4 0a3a 356b 9e3d c17c 043d 75a6 223d
000000b0: f0c3 98bd 6bfb f83d ef3c 76bd 8010 18be
000000c0: 4c9b 05bc a425 d4bd 9cd5 82bc 7e84 61bc
000000d0: d267 ef3c 29d1 aabd 54af 5b3d 8642 673d
000000e0: beda e0bc 62da ec3d b501 7ebc ec6a 5a3d
000000f0: bf40 1bbd 4d3c 743d 9397 f43c 3dc3 393d
00000100: 0b79 243d 1247 423d 4129 73bd cf33 11be
00000110: 8596 b03d 5579 593d 2fb4 863b 0e25 b8bc
00000120: e4e8 993c 9f16 44bd 1b29 05bc 5f23 17bb
00000130: 2684 6b3d 39df 6abd fa98 80bd a8e6 5b3c
00000140: fc89 fe3c 8661 803a 797c d1bd c49a e93c
00000150: 1768 c0bc fce3 813d a258 54bd a069 353c
00000160: dd03 bcbd ca7f 7b3d 7cd8 4abd f865 f1bd
00000170: 2f54 4e3c f634 a33d 33e7 3b3d e40f ae3d
00000180: e97f 8bbd 8a34 9bbd 57eb 90bd c483 b3bd
00000190: 3b83 313d 059d 5fbc b052 763d 8305 4cbd
000001a0: 75f1 8d3d d225 bc3a e981 a1b9 06e0 3abd
000001b0: f5d1 373b 5677 89bd d065 8e3d 1971 0fbc
000001c0: 8fce f83d f24e 533d f00b 1a3d 314f 133d
000001d0: eaac a83d 6f66 0b3d b70a bbbb a827 993d
000001e0: b03d 653b 8699 a1bb ac02 8dbd ece0 0dbd
000001f0: 4e14 07b9 2ad6 ecb9 6329 b5bd 48e8 04bd
00000200: 6e33 a43d af63 57bc 6781 41bd 0f4a 563d
00000210: 648c 753d b53b 083d 1963 44bd 6156 d53c
00000220: 92c3 803d 64e9 68bc 28d4 c7bd 2971 f93d
00000230: 5d43 5f3d 90ef d5bc c49d 17bd 1960 debd
00000240: 2dbe 1dbd 702f 8ebd 6eec 883d f6ef bfbb
00000250: ce67 5e3d 7f6a f1bd 76b1 913d a023 9abd
00000260: 21e8 703d afca 96bd ea7d 9c3d c8de c8bd
00000270: e139 8c3d 9d92 8ebd bebd 633d 74c2 7bbd
00000280: 78b4 303d 31ce 263d b6f1 813d 8a06 86bc
00000290: 18ea a6bd 5b73 163d 8dca 86bd bfa5 903c
000002a0: 15ec ca3d e5d3 e1bc 4a82 c93c 7eff 0c3d
000002b0: 4a88 6a3d cbd1 a7bd 395b 523d 58f0 a43c
000002c0: 21d5 65bd 0d81 c6bd 9d2f 05be b577 e53b
000002d0: 718f 133c 9b6b b9bd c26f aabd f286 a73c
000002e0: 8fc6 0e3d b0cd a7bd 63ea 15bd f8e9 94bd
000002f0: 0c00 9a3d bd7d d73c 01a9 afbd 398a e03d
00000300: 7411 aa3d 2ff8 16bd 45ed bebd c772 e63c
00000310: d41a febc ea01 0dba 96ac 38bc 1043 993c
00000320: be87 2b3d b78d 9bbc ce3b 56bd e284 493d
00000330: d081 2cbd 81d8 64ba 88a3 b4bd a420 2e3d
00000340: 8ff1 e1bc c62a e1bd 47d6 6e3d 991e 1bbd
00000350: b2ad 07bc df8f 83bb 0108 7dbb a527 853d
00000360: 8c75 60bd de4e abbd b01f c63c 1bbd 18be
00000370: bb2e 953d 1f81 bb3d a61f a03d 6240 a83d
00000380: 755e 3f3d 9352 1ebe 03ff d9bb ee39 693d
00000390: 1190 073e 0d2a f1bc 4dc9 9a3d 8f75 29bc
000003a0: 5848 d43d 7ed5 b33d 9354 b53d bccc 94bd
000003b0: c0b8 88bd 980f 33b9 51fd edbd 1bd7 54bd
000003c0: 3949 6fbd 620c 1c3c 8fa9 37bd 8e39 a43d
000003d0: 3207 223d b1d8 d53c 0eda 683d 8c68 8f3d
000003e0: a39d 6cbb 91f7 6fbc 190a a23d e6a3 653d
000003f0: 1682 81bd d18b 163d f307 26bc dffe 11bd
-0.08833186 0.024981514 0.10148743 0.036063556 0.101936676 0.046004366 -0.11008295 -0.0343681
0.010573637 0.024849486 -0.055432267 -0.016871195 0.097904526 -0.10621909 -0.06359538 -0.09588448
-0.0014313105 0.10451387 -0.06862343 -0.122756585 0.017655887 -0.073635384 -0.025668545 -0.079710186
-0.1526336 0.021958888 -0.058373373 0.03527056 0.08041155 0.013164147 -0.057984013 0.04236284
-0.105390005 -0.084136546 -0.040538188 -0.032926485 0.04378006 -0.05903836 -0.015907215 -0.031875923
0.0005291146 0.07735292 0.032345537 0.039709527 -0.07459247 0.12157329 -0.060116705 -0.14850044
-0.008154701 -0.10358742 -0.015970998 -0.013764499 0.02922431 -0.083406754 0.053634003 0.056459926
-0.027448054 0.11565091 -0.015503337 0.053324625 -0.037903544 0.05962782 0.029857432 0.04535221
0.040154498 0.04743106 -0.059365515 -0.1417992 0.08622459 0.053094227 0.004110835 -0.022478607
0.018787809 -0.047873136 -0.008127476 -0.0023061854 0.057499073 -0.057341788 -0.06279178 0.013421692
0.031071655 0.0009794689 -0.102288194 0.02851618 -0.023487134 0.06342313 -0.05184234 0.011072546
-0.09180424 0.061401166 -0.04952286 -0.11787027 0.012593313 0.07969086 0.045874786 0.08499125
-0.06811506 -0.075783804 -0.070761375 -0.08765367 0.04333804 -0.013648276 0.06013745 -0.049809944
0.0693082 0.0014354533 -0.00030805104 -0.0456238 0.0028048728 -0.06712215 0.06953013 -0.008754992
0.12148773 0.05158896 0.03760904 0.035964195 0.08236106 0.034033235 -0.0057080644 0.07478267
0.0034979396 -0.0049316315 -0.06885275 -0.03463833 -0.00012882167 -0.00045172992 -0.088457845 -0.032448083
0.08017622 -0.013146325 -0.04724255 0.05231672 0.05994834 0.033260066 -0.04794607 0.026042165
0.06287302 -0.014215801 -0.097572625 0.12179787 0.054507602 -0.026115209 -0.03701569 -0.10858173
-0.038511444 -0.06942642 0.066857204 -0.005857463 0.054298215 -0.11787891 0.07113926 -0.07526326
0.058815125 -0.073628776 0.07641204 -0.09808117 0.06846977 -0.06961558 0.055600874 -0.06146474
0.04314086 0.040723983 0.06344931 -0.01636054 -0.081501186 0.036731105 -0.06581602 0.017657159
0.0990831 -0.02756686 0.02459826 0.034423344 0.05725888 -0.08194312 0.051356528 0.020134136
-0.05611146 -0.09692583 -0.13006444 0.0070027956 0.009006367 -0.09053727 -0.08322097 0.02045009
0.03485733 -0.08193529 -0.03660048 -0.072711885 0.0751954 0.026305074 -0.08577157 0.10963864
0.0830411 -0.03685778 -0.09322599 0.028130902 -0.031018652 -0.00053790084 -0.011271616 0.018708736
0.0418775 -0.018988473 -0.052303128 0.049198993 -0.042115986 -0.00087297714 -0.088202536 0.042511597
-0.027581004 -0.109944865 0.05830982 -0.037870977 -0.008281158 -0.0040149535 -0.0038609507 0.06501702
-0.0547996 -0.08364652 0.024185032 -0.14915888 0.07284304 0.09155487 0.078185365 0.08215405
0.04672094 -0.15461187 -0.006652714 0.05694001 0.1323855 -0.029438997 0.07557926 -0.01034297
0.10365361 0.08780955 0.08854022 -0.072656125 -0.06675863 -0.0001707658 -0.11620582 -0.051962953
-0.05841944 0.009524437 -0.044839438 0.0801879 0.039557643 0.026104303 0.05684858 0.070023626
-0.00361047 -0.014646427 0.07912082 0.05606451 -0.0632364 0.036754433 -0.010133731 -0.035643455

layers.4.bias f4 [4]
00000000: 366f cfbc b3ee 6e3d cafc 553d 7f02 033d
-0.025321584 0.05833311 0.05224303 0.031984802
