ptdrlhf/ptdrlhf/checkpoints/state_action/checkpoint_supervised_dqn94.pth (torch, 219031 bytes, 6 tensors)

layers.0.weight f4 [128, 290]
00000000: 9514 3a3b e808 96bc b0b7 4839 cf2a a9bc
00000010: aea6 7b3b eb60 cebb 68e3 b43c 7033 a4bd
00000020: e0d1 e1bc af1b 7d3d 0b83 29bd e692 bb3d
00000030: 8d26 b0bc b158 983d 64b9 373d cc29 0cbd
00000040: abe1 6bbd d46f 34bb 5b66 633d 276c fbbc
00000050: b070 5fbc 900e 04bd 9f2f 1a3d 78e5 803c
00000060: f241 bd3c cadb b93d ba90 90bc 0ff4 afbc
00000070: 9f00 dbbb 52f0 bb3c e462 21bc c407 dbbd
00000080: b5db b1bd 01f4 913d 19c5 ea3a 6aac a0bd
00000090: 12e1 fdbd a743 9b3d 104b 813d 6399 3a3d
000000a0: 35b0 973c 5300 4abd 1439 24bd 585f b63c
000000b0: 9bf7 7ebd 9105 2abd 8143 833d 0cbf 1e3c
000000c0: 3cfa fdbc 87f7 e7bc fe36 08bc 6f56 c63c
000000d0: a31b 093d b5a9 0b3d 9389 c93c e97c dcbc
000000e0: d18f 8bbd 1752 243c 3812 8bbd 1286 a73c
000000f0: 3cb1 8fbc 6382 693d 6120 9abd 923e 17bb
00000100: aef8 0fbd 73bb 10bc 971e a9bb d56b 81bd
00000110: 42cd 493d 22a9 48bd 5699 0cbd b04c a13a
00000120: 1227 533d 6896 993c cbf1 c13c f056 ec3c
00000130: 2a12 2339 fe5e 19bb 4b60 2f3c 5491 2ebd
00000140: d299 8dba 7c16 7cbc 4aea 62bd 0b7c 933d
00000150: 4198 a33c 2fe8 cbbc b2cb 58bb e1d2 713d
00000160: 3db7 dcbc 8151 c93c fe3e 463d 8782 8fbd
00000170: d2e3 9bbd d1eb 36bd e029 8dbd 9b21 313d
00000180: 7bd2 8b3d a586 e739 1340 553d a7b8 ffbc
00000190: 72f8 073d 7fc0 3dbd caee e6bc 41f4 0fbc
000001a0: b669 92bc 9cfd 493d 35c7 99bd baeb 5d3d
000001b0: d409 99bd dc80 473d 8f7a 023e c01d 223d
000001c0: 33ad 70bd d35c 883d 2696 47bd 3b68 f63c
000001d0: fd65 40bd 582c 333d 5adf 1cbc fae3 6e39
000001e0: 1a79 bebd a526 9d3d 6064 373d 425b 9a3d
000001f0: 6fe4 8aba bae6 b4bd 5693 5bbd 638c 6f3c
00000200: 5f3c 32bd 9982 72bd 105e 6d3d bf8c 9dbd
00000210: 6b97 903d 47b1 eb3c a6fb 18bd 1c7c c33c
00000220: 3dcb 2a3d f4e0 2fbd 39f3 01bd ab13 103d
00000230: 9764 97bd 2a23 903d 218a e4bd 674c 693d
00000240: e3ce 423d 5b6e ccbc 5b92 883d 8b34 5cbd
00000250: 781e 71bc 1b5a 053d ae9b 04be f85c dcbd
00000260: d6fa 2e3d a69b 02bd ad55 08bd b19e d33d
00000270: 6d85 bfbc 9903 b8bc 6fa9 a93c c09e d3bd
00000280: 7286 063d 8b6a 763d 1e2d 31bb 17f7 b73c
00000290: 3a28 91bd 93f9 573d 123a 773c 4cfc 203d
000002a0: b693 c63c c54f d33c a03a f43c 71d0 fc3c
000002b0: 8636 7b3d cda0 a53d 7f75 783b 8a37 c1bc
000002c0: 64be 903d 1676 ca3c e2d0 8a3d b499 7cbc
000002d0: e1db 85bb 0b14 9b3d 79ba f8bc fe6b 76bc
000002e0: 0d7c b83b 8ba2 9ebd dc22 043d 8a17 20bd
000002f0: bdaf 59bd e2ac 163d dc01 2f3c 262d 5dbb
00000300: cf1d d83c 00cc 103d 64e4 67b9 8a6a 65bd
00000310: 50b0 4b3d d80e 653c be92 d1bd 8a15 583d
00000320: fae4 85bc 4961 363d e8df b03d 1e7a 91bc
00000330: 6c4c 46bd 7940 353b 9812 353c 54d9 21bd
00000340: eaf4 b83d 2f77 07bd ae9b 08bd 8768 fcbd
00000350: 66ad 98bd 276c febb 74e3 4fbd f82a 81bc
00000360: 1d59 bfbc 44fd 443d 8035 fcbb 51b1 e9bd
00000370: 8ec6 823d 753d 1d3d 7b87 33bd dd17 283d
00000380: 88e9 903d b2f0 80bd 2dab 393c 8c73 da3c
00000390: 64f1 853c b8c1 843d 7c79 a9bb 0948 813d
000003a0: cc33 5a3c 68e2 a9bd 15bb c93d 2087 5fbb
000003b0: d648 6e3d 7ae2 403d 9e5d 123c 968f 523d
000003c0: 5308 823d 0cc3 323c d4c9 1abd 7ecd 283c
000003d0: d12a 223e d057 28bc 7c1b 5abd a319 23bd
000003e0: a1e2 debc 7849 103b 6607 20bd 72e0 073d
000003f0: dbf7 03be 7dc9 703b 5810 913c e58c 943c
0.0028393616 -0.018314794 0.00019141915 -0.020650296 0.003839891 -0.0062981746 0.022081092 -0.080176234
-0.027565897 0.06179398 -0.041384738 0.09158878 -0.021502757 0.074387915 0.044854537 -0.034219548
-0.05758826 -0.0027532475 0.055517536 -0.03069122 -0.013637707 -0.03224045 0.03764307 0.01573442
0.023102734 0.090751246 -0.017647136 -0.02147868 -0.0066834236 0.022941742 -0.0098502375 -0.106948406
-0.08684484 0.07126618 0.0017911523 -0.078453854 -0.123964444 0.07581263 0.06313145 0.045556437
0.01851664 -0.049316715 -0.040093496 0.02226226 -0.062247854 -0.041509215 0.0640936 0.009689104
-0.03100311 -0.028316272 -0.008313892 0.024211137 0.033473622 0.034097392 0.024601733 -0.02691503
-0.0681454 0.010029337 -0.06790584 0.020449672 -0.017540567 0.057009112 -0.07525707 -0.0023078066
-0.03514927 -0.008833754 -0.0051611173 -0.063193955 0.049268015 -0.048989423 -0.03432592 0.001230618
0.051550932 0.018748477 0.023674866 0.028850049 0.00015551658 -0.0023402567 0.01070411 -0.042619064
-0.0010803288 -0.01538622 -0.055399217 0.07201394 0.019970061 -0.024890987 -0.0033080396 0.059039
-0.026942844 0.024574997 0.048399918 -0.07007318 -0.07611813 -0.044658486 -0.06892753 0.04324494
0.06827255 0.0004416007 0.05206306 -0.031215979 0.03319592 -0.046326157 -0.028190035 -0.008786262
-0.017872673 0.049314126 -0.07508699 0.054179884 -0.07472578 0.048706874 0.12742065 0.039579153
-0.058758926 0.0665833 -0.048727177 0.030078998 -0.046972264 0.04374346 -0.009574736 0.00022782377
-0.09300442 0.076733865 0.04477346 0.07536937 -0.0010596643 -0.0883307 -0.053607307 0.014620873
-0.043514606 -0.05920658 0.057951033 -0.07692861 0.07060131 0.028771056 -0.037349366 0.02386289
0.04169773 -0.04293914 -0.031726096 0.035175007 -0.07392233 0.07037957 -0.111591585 0.05695763
0.047560584 -0.024954965 0.0666854 -0.053761046 -0.014716737 0.032556634 -0.12950012 -0.1075992
0.042719685 -0.03188672 -0.03328483 0.10333002 -0.023379052 -0.022462653 0.020710675 -0.103330135
0.03284306 0.0601602 -0.0027034949 0.022456689 -0.07087751 0.052728247 0.015089529 0.03930311
0.024240356 0.025794873 0.02981311 0.030861111 0.061331294 0.08087311 0.003791183 -0.023586053
0.07067564 0.02471451 0.067781225 -0.015417505 -0.0040850495 0.07572182 -0.030362355 -0.015040396
0.0056300224 -0.07745846 0.032259807 -0.03908495 -0.053146113 0.036785968 0.010681596 -0.0033748834
0.026381401 0.0353508 -0.00022114959 -0.056009807 0.04972869 0.01398059 -0.10233067 0.052754916
-0.016344536 0.044526372 0.08636457 -0.017758425 -0.048412725 0.0027656837 0.011051796 -0.0395139
0.09031089 -0.033072647 -0.033351593 -0.123246245 -0.07454948 -0.0077643576 -0.050754026 -0.01576756
-0.023357922 0.048093095 -0.0076968074 -0.114107735 0.063855276 0.038388688 -0.043830376 0.041038383
0.070757926 -0.06295909 0.011332315 0.026666425 0.016350456 0.064822614 -0.005171953 0.06312568
0.013318013 -0.08295137 0.09850136 -0.003410764 0.05817493 0.047090985 0.008933453 0.051406465
0.06349244 0.010910761 -0.037790135 0.010302899 0.15836646 -0.010274842 -0.053248867 -0.03981937
-0.027207674 0.0022016447 -0.039069556 0.033173032 -0.12887518 0.003674119 0.017707989 0.01813359

layers.0.bias f4 [128]
00000000: b342 263d 7e2f efbc debd 1b3c 0352 303d
00000010: ec7d a3bc edc3 fe3c ef71 173c f1bc da3c
00000020: acad 53bd bb84 e53c bfcc 6a3c a776 be3c
00000030: 161e 183d df84 1bbd 3cf9 163d baef 34bd
00000040: 4474 13bd b4ae 003d 2c1a 443d b799 7dbd
00000050: 8a38 9e39 d537 123c 54f4 1b3d d97c 2b3d
00000060: ceac 51bc d27b 1ebd 7317 cbbc 5bde 22bd
00000070: 77ec 813c 478e b3bc 0781 dfbc eafd f1bc
00000080: bfc2 2a3d a79f 15bd d28a 513d b01a 43bd
00000090: 56f4 823a ad67 33bd 04a5 4fbd ab11 d33c
000000a0: 853e 7c3c 08a3 0fbd 47fd 89bc 33c6 e939
000000b0: 4a9b 45bc 09f6 acbb c922 80bd e213 96bc
000000c0: 226f 31bd 215d 883b 37f9 2c3d 81cd 0fbd
000000d0: 2469 1bbd 586f cb3c 46f4 513d 357e f83b
000000e0: e0a1 21bd da65 63bd 173c 58bd b845 6eb9
000000f0: 7795 803c 8485 15bd 7291 133d 3046 7a3a
00000100: e188 44bc 1c48 ffbb 5b85 79bd 9906 423d
00000110: 656f 14bb 231c d03a b4a2 443d 2d2e 0a3d
00000120: 121f 403c e81c 393d 0756 bdbc 4987 3cbd
00000130: c143 133d f60d 18bd 5f99 83bd 6f26 18bb
00000140: 0abb 20bb 3e8a 88bc b71b ab3b 5a0e b1bb
00000150: 6753 ae3c 1da7 213d 7a23 65b9 b6af 9b3c
00000160: 590e e8bb d77f 073d 1616 5ebb 9315 57bd
00000170: ca02 b63b 6cd7 be38 67d9 2fbd a311 123c
00000180: aee5 f43c 7135 42bd 0aff 30bc b62e 0c3d
00000190: 2dda 51bd b66a 5abd 37ce 87bc 2970 173d
000001a0: d8b1 36bd 51fe 0dbc 06a4 273d 1f93 c03c
000001b0: daea 2f3b dbe6 c53c a30b 56bd b087 43bd
000001c0: bc7f fabb 6653 31bb c4cc b8bc b7f1 053d
000001d0: 2ae9 58bd a915 41bc 2c61 4a3b 878c 3ebc
000001e0: 7767 a43d 9576 713d d301 9ebc 47f6 303c
000001f0: b79d 60bd 0d55 2cbd f698 3cbc bfd7 4dbd
0.040590953 -0.02919745 0.009505717 0.043046962 -0.019957505 0.031099284 0.0092434725 0.026701422
-0.0516793 0.028017392 0.014331042 0.023249937 0.037138067 -0.037968513 0.036858782 -0.044173934
-0.03599955 0.03141661 0.047876522 -0.061914172 0.00030178233 0.008924444 0.038074806 0.04186711
-0.0127975475 -0.038692303 -0.024791455 -0.039762836 0.015859826 -0.021918429 -0.027283205 -0.029540021
0.04168963 -0.03652921 0.05115778 -0.047632873 0.0009991031 -0.043800045 -0.05069448 0.02576526
0.015395765 -0.035067588 -0.016844405 0.00044588893 -0.01206095 -0.005278353 -0.06256635 -0.018320028
-0.043318875 0.0041614925 0.042229857 -0.035108093 -0.037942067 0.024833366 0.051258348 0.0075834044
-0.039461017 -0.055517055 -0.05279168 -0.00022723421 0.01569627 -0.036504284 0.03602738 0.0009547202
-0.011995525 -0.0077905785 -0.060918193 0.047369573 -0.0022649404 0.0015877526 0.04800673 0.033735443
0.011726158 0.045193583 -0.02311231 -0.046027455 0.035953287 -0.03712269 -0.064257376 -0.0023216268
-0.0024525546 -0.016667482 0.0052218097 -0.005403322 0.021280004 0.039466012 -0.00021852358 0.019004684
-0.0070817885 0.033080902 -0.0033887676 -0.05251081 0.0055545317 9.1000315e-05 -0.04293194 0.008915338
0.029894676 -0.047414247 -0.010802994 0.034224235 -0.05123346 -0.053324424 -0.016577823 0.0369722
-0.0446032 -0.008666591 0.04092791 0.023507653 0.0026842863 0.024157932 -0.05225719 -0.047736824
-0.0076446217 -0.0027057766 -0.022558577 0.03270122 -0.052956738 -0.011784949 0.0030880673 -0.011630184
0.08027547 0.05895098 -0.01928798 0.010800905 -0.05483791 -0.0420733 -0.011511078 -0.05025458

layers.2.weight f4 [128, 128]
00000000: 421d bbbc d0ac 84bb 3ba5 2b3d 9987 18bd
00000010: f768 e03b 2961 dbbd 9664 a1bd 0e7f 26bd
00000020: 28be 96bd f96b cf3d 0243 a63b 1fd2 a83d
00000030: 408a ee3a d699 403c 55c1 f53b 3582 aa3d
00000040: cfc1 a2bc f2c6 3abd 1f53 333d b5ca a1bd
00000050: 6d7a 97bc 5867 ad3d 0571 903d 3304 e33c
00000060: cbd8 94bd bc80 1ebc 05c2 9bbc 7f3d 573d
00000070: 04e9 793d 0873 aebd 9ade 5ebd 6a1d a3ba
00000080: 3fe2 6f3b 2d29 81bd c2c3 9b3c 3d80 c1bd
00000090: b908 f43c 1d9b 133d 4760 9dbd 7843 003d
000000a0: 87a9 b03d ad36 7a3d ea8b 963c 67ce 6ebd
000000b0: 5843 86bd fdc1 33bd b12f 97bd 1923 803c
000000c0: b4b6 0c3e 7935 2f3d 0d1e dbbc 8926 9bbd
000000d0: 2c9d ab3d 26a8 bf3d 016d 103d 2325 fd3d
000000e0: 64ff 453d dce3 813c 46d4 703d 3c34 b13d
000000f0: a1a8 f33c 6a0e 6b3d 18e0 a93b 321c 973d
00000100: be57 dfb8 8d25 9abd bdae ebbc a4c4 a2bd
00000110: 9e6a bdbc 668b bfbd cd75 c63d 0f76 203d
00000120: 1226 1e3d a807 ebbc b9dd a23d 30ea f5bc
00000130: e1d7 4f3b a603 fcbc 2f86 08bd 9f2c aabd
00000140: 37e0 c63d 41c2 84bc f346 71bc 930f 4f3d
00000150: 1783 1b3c e9f5 833d 0a20 3bbd 677c 383d
00000160: e256 cf3c 6b20 783c a7c1 96bd 95c9 2ebd
00000170: 073d a53d 840c c23c 30a8 8bbd 1060 403d
00000180: 6478 2a3d ee9c 7bbd 3681 e33b 923f 83bc
00000190: e61a 36bd d0de 013d cd23 e83c 209f 8a3d
000001a0: 5c75 bb3c 2508 86bc c21f b33d 3a18 443d
000001b0: 84f3 803d 692f 95bd 60e0 763d 7c12 223d
000001c0: b22b 2f3d 3764 63bd 24e3 f83c a06b 8ebd
000001d0: a198 a73b 976b e23b 1c11 a9bd 3057 363d
000001e0: 433d 2dbd b96f 823d 232d 1cbd 2757 a73c
000001f0: 209a 25bd a3b6 04bc d2c2 f7bd 5fa6 a03d
00000200: 765b b9bb 50e2 10bd 5e40 7f3d ae32 0f3d
00000210: 427c 80bc c741 88bc c06c 6ebd 65b6 a83c
00000220: 1ede a53b 94b3 a4bc 0551 743d 82a9 a63d
00000230: a505 69bc c0ab 28bd 419b f4bb 8a18 89bd
00000240: d078 01bd ceb8 6abd 0ad5 3ebc 5e28 273d
00000250: 080c 76bd bb58 cc3c 6bec 883d ec84 d8bc
00000260: 4883 263d 55e8 b3bd 1138 81bd 3766 0cbc
00000270: 6e46 95bd 0201 6dbd 5ab1 bf3c c0b8 7d3d
00000280: 48dc dfbc ebd9 6c3d 97fb b1bd 47b1 aebd
00000290: 8bd5 933d 4de9 28bc 7a69 533d 761b 1b3d
000002a0: c488 e6bc c3e7 233c f6be 953d 19c0 3cbc
000002b0: a789 afbc 37bc 54bc b791 3c3d fd6e 62bd
000002c0: e523 1cbd ccc1 54bd 7c94 64bd 118c 87bd
000002d0: f3da 89bd a139 5b3d 5d07 8abc 9aa8 793c
000002e0: 7de7 94bc f6e7 a73d 83ce 153c 4e87 6e3c
000002f0: 744f adbd afbe ffbc df65 693d 2306 21bd
00000300: fa15 a6bd 7781 cb3c a638 b23d 5110 fe3b
00000310: 6fb4 593d 8252 1e3d 3308 a9bd 87d1 133d
00000320: f917 af3c 9e7f 153d 6477 473d fa1a 4d3d
00000330: c9f2 56bd 4172 e1bc 0a0c 683a 32c6 b43c
00000340: 945a 10bd 9c86 3abc ab8f bf3c 08a7 e3bb
00000350: ea50 77bd 0999 28bd 0f8b dfbc e753 10bd
00000360: 88f9 9f3d c787 3bbc a7bf 95b9 6a93 a1bd
00000370: 26b9 d13c d96e 83bd 01d7 46bd 0642 c0bd
00000380: a3e7 82b9 0f02 a0bd dd1d 0fbd 7fa5 b03d
00000390: 3cd9 5d3d 1c33 393c 8cf6 6cbd 8707 c2bd
000003a0: f321 853c d761 19bd 8de4 1b3c 6c67 793d
000003b0: 2552 1d3d ed00 bfbd 69d0 92bd 11e5 933c
000003c0: 3ed0 afbd a4dc b2bd 1ad2 99bd e189 c73c
000003d0: 56a3 87bd 6cad 75bd eea6 d13c a68e a83d
000003e0: 91c5 9a3d f681 0abd 039c 163d 1494 5eba
000003f0: 3dd5 31bd afca a53b 8b93 393d 40cf 97bd
-0.0228411 -0.004048921 0.041905623 -0.03723869 0.0068484503 -0.10711891 -0.07880513 -0.040648513
-0.07360488 0.10128016 0.005073906 0.082432024 0.0018199161 0.011755427 0.0074998536 0.08325616
-0.019867806 -0.045599885 0.043780442 -0.078999914 -0.018490994 0.08466977 0.07052807 0.027711963
-0.072679125 -0.009674247 -0.019013414 0.05254888 0.061013237 -0.08518034 -0.05441151 -0.0012444679
0.003660336 -0.06306682 0.019014243 -0.09448288 0.029789316 0.0360366 -0.07684379 0.031314343
0.08626085 0.0610873 0.018377263 -0.05830231 -0.065558136 -0.043886174 -0.07382143 0.015641736
0.1374157 0.042775605 -0.026747728 -0.075757094 0.083795875 0.09358244 0.035260204 0.12360599
0.048339263 0.015855722 0.05879619 0.08652541 0.029743494 0.057386793 0.0051841848 0.07378425
-0.00010649812 -0.075266935 -0.028769845 -0.079476625 -0.023122128 -0.0935276 0.096904375 0.03917509
0.038610525 -0.028690174 0.079524465 -0.030018896 0.0031714367 -0.030763458 -0.033331092 -0.08309292
0.09710734 -0.016205909 -0.014726388 0.050551962 0.0094917035 0.06443388 -0.04568485 0.045040514
0.025309984 0.015144448 -0.07361155 -0.042672712 0.08068281 0.023687609 -0.068191886 0.046966612
0.04161872 -0.061428957 0.0069428934 -0.016021524 -0.044459246 0.03170663 0.028337384 0.06768632
0.02288311 -0.016361305 0.08746292 0.047874667 0.06296447 -0.072844334 0.060272574 0.03956841
0.04276628 -0.055515494 0.030381747 -0.069541216 0.0051146303 0.0069097984 -0.082552165 0.044516742
-0.04229475 0.06368966 -0.038128983 0.0204273 -0.04043019 -0.008100185 -0.12097706 0.07844233
-0.005656655 -0.03537208 0.062317245 0.03496044 -0.01568425 -0.016632928 -0.05820918 0.020594785
0.005061879 -0.02010516 0.05964758 0.081378 -0.014222537 -0.04117942 -0.007464797 -0.066941336
-0.031609356 -0.05730515 -0.011647472 0.04080998 -0.060070068 0.024944654 0.06685718 -0.02643057
0.040652543 -0.08784548 -0.06309522 -0.008569292 -0.07288824 -0.05786229 0.023399998 0.06194377
-0.027326718 0.05782501 -0.08690565 -0.08529907 0.072184645 -0.0103095295 0.051614262 0.037867986
-0.028141387 0.010003987 0.073118135 -0.011520409 -0.021427942 -0.012984327 0.046037402 -0.055281628
-0.03812017 -0.05194263 -0.05580567 -0.066185124 -0.067312144 0.053521756 -0.016849214 0.015237952
-0.018176788 0.0819854 0.0091434745 0.014558626 -0.0846242 -0.031218855 0.056981917 -0.039312493
-0.081096604 0.024842007 0.08702211 0.00775341 0.05315059 0.038652904 -0.08253517 0.036088493
0.021373736 0.03649866 0.048697844 0.050074555 -0.05247763 -0.0275203 0.00088518916 0.022067163
-0.035242632 -0.011384632 0.023383936 -0.006947402 -0.0603799 -0.04116157 -0.027287988 -0.035236266
0.07811266 -0.011445946 -0.00028562287 -0.07889445 0.025600981 -0.06417627 -0.048544887 -0.09387593
-0.00024968115 -0.07812893 -0.03494059 0.08625316 0.05416225 0.011303689 -0.057852313 -0.09474092
0.01625154 -0.037446823 0.00951494 0.060889646 0.038408417 -0.093263485 -0.07168657 0.018053563
-0.08584641 -0.0873349 -0.07510777 0.024357738 -0.06622951 -0.05997984 0.025592294 0.08230333
0.07557214 -0.033815347 0.036769878 -0.0008490693 -0.04341625 0.005059562 0.045306724 -0.07412577

layers.2.bias f4 [128]
00000000: 419e be3b 6556 c2bd 4067 c13d 3dab a4bd
00000010: cab4 b13d 5954 8a3d 47d1 933d ba45 bbbb
00000020: bb5a 2ebc 4180 ae3d 8641 57bc d84e 30bd
00000030: 5007 303c 40d3 213b 94fd 7c3d fbb0 7f3d
00000040: 2c29 623b 300d 2b3c 48a8 4ebd 7ae0 813d
00000050: 60eb 9c3d 33f1 04bd 5833 843d 46be e0bc
00000060: 9280 3b3d 271f 8ebd 5458 73bd 4ba7 cdbc
00000070: 57ed 54bc 9a9c 8f3a c007 af3d 5b51 b2bd
00000080: 1d35 3b3d b4af a139 67eb 6bbd b70d 953d
00000090: fc36 903d 8a75 5a3c a7f6 263d 4d04 713d
000000a0: 1d47 9bbc 53dc d33c 0329 703c e03d 823c
000000b0: 6bcb ddbc 22f9 f83c 8a62 53bc 2f68 da3b
000000c0: 1b2a d739 c3f6 e43d 1018 4eba 3b02 fa3c
000000d0: 480b 8a3d d5e8 1f3d 2846 643c def9 473d
000000e0: 525d 273d 56d8 953d b171 91bc 1cd7 023d
000000f0: 13c7 b0bd 13d2 e9bc a025 a63d 5086 eb3b
00000100: 8263 c03c c734 893d 76c2 7b3d 198e 3f3d
00000110: f411 c73d 5d7b 663d bb27 bdbb 61fc 7ebd
00000120: 0cb5 f3bc 7914 e3bc 49bd 76ba 2fb5 2f3d
00000130: 406f aabd 30a8 adbd 30ba 6abd a55c cbbc
00000140: 92b9 873d 1f12 0dbd e014 10bd a8bc 003c
00000150: 2bc1 b33c e78e 9d3d 6d69 663d 3816 e13c
00000160: cdb3 84bc bd9a af3d 635b 9abd 05a4 713c
00000170: 79b9 9cbc 4880 423c 524d dc3c ce64 97bd
00000180: c306 1fbd 01c3 febc 88df ff3c e0ac 593d
00000190: 3a57 8d3d 0525 4a3c bc6a d9bc 5e46 053b
000001a0: 7409 56bc bbe6 2cbd 441a 0b3b c536 783d
000001b0: c7d9 ca3c 6bbc 70bd 14ab 423c 2514 14bc
000001c0: 811b e33d 2ab3 79bd 7046 993c b8e6 173d
000001d0: b779 acbd 943f 85bc 6c0e a43d 2d17 713c
000001e0: 6ac0 a5bd 7189 98bb e1dc 7cbd ff02 8d3d
000001f0: 24d1 45bd a3e4 95bd f6e9 9d3d f285 8ebd
0.005817205 -0.09489135 0.094435215 -0.080404736 0.08677061 0.06754369 0.07217651 -0.005715099
-0.010641749 0.08520556 -0.013138181 -0.04304394 0.010743931 0.0024692565 0.06176527 0.06242464
0.0034509404 0.010440156 -0.050453454 0.06341644 0.07662082 -0.032456588 0.064551055 -0.02743448
0.04577691 -0.069395356 -0.05941041 -0.025104186 -0.012996039 0.0010956705 0.085464 -0.087069236
0.04570495 0.00030839222 -0.057597544 0.072780065 0.070417374 0.013333688 0.04076257 0.058841992
-0.018954808 0.025861895 0.014658215 0.015898645 -0.027074536 0.030392233 -0.0129019115 0.0066652517
0.00041039367 0.111798786 -0.0007861862 0.030518642 0.06740433 0.039040405 0.013932742 0.048822276
0.04086048 0.073166534 -0.017754408 0.031943426 -0.086317204 -0.028542554 0.08112645 0.007187642
0.023484949 0.066995196 0.06146475 0.046766374 0.09720221 0.056269992 -0.0057725585 -0.062252406
-0.029749416 -0.027719723 -0.0009412361 0.0428974 -0.083220005 -0.08479345 -0.05730647 -0.02482445
0.066271916 -0.03444111 -0.035176158 0.007857479 0.021942696 0.07693272 0.056252886 0.027476415
-0.016199017 0.08574436 -0.07536962 0.014748578 -0.019131409 0.011871405 0.026892338 -0.07392274
-0.038824808 -0.031098844 0.031234518 0.053143382 0.06901403 0.012337928 -0.026540153 0.0020336132
-0.013063777 -0.04221223 0.0021225372 0.060599107 0.024762047 -0.05877344 0.0118816085 -0.009038006
0.1108923 -0.06096188 0.018710345 0.037085265 -0.08421653 -0.016265668 0.08010563 0.014714998
-0.08093341 -0.004655056 -0.061734084 0.06885337 -0.048295155 -0.073189996 0.0771064 -0.06959142

layers.4.weight f4 [4, 128]
00000000: 9418 b7bd 08a6 cc3c 83fd cb3d 29f3 0f3d
00000010: 4dd1 cd3d 136f 3c3d a1cb e4bd 91c5 0cbd
00000020: 84bd 243c b9a0 c63c f278 7ebd 6b12 95bc
00000030: 32e4 ca3d f0f2 dbbd 2856 81bd 353a cabd
00000040: d09a bbba 5c81 d53d 90cd 90bd 10df fbbd
00000050: 0e8b 893c cf15 9bbd d746 d2bc 183f a3bd
00000060: ee0b 1dbe 20e3 b33c eb18 6fbd e71b 0b3d
00000070: dc7c a43d 6fae 573c f3b1 74bd a884 2d3d
00000080: d901 d8bd 031d b5bd 5f0b 26bd ecdd 06bd
00000090: bdf3 2e3d 35d2 71bd e47b 98bc 5490 02bd
000000a0: 82bf ecb9 c383 993d 0370 063d 75a6 223d
000000b0: f0c3 98bd ac01 f83d 5a31 7fbd 9eef 12be
000000c0: d191 24bc eaf6 cabd f1dc 64bc 7e84 61bc
000000d0: 17d1 e83c 44af bbbd 0043 533d c80c 643d
000000e0: beda e0bc e4cf ec3d b501 7ebc 4296 543d
000000f0: bf40 1bbd 4d3c 743d 9397 f43c ca88 383d
00000100: a029 253d c242 473d 5cfd 75bd 3e65 11be
00000110: 7684 b13d 6fbd 573d 2fb4 863b 0e25 b8bc
00000120: e4e8 993c 1b77 45bd 1b29 05bc 5f23 17bb
00000130: 2684 6b3d 39df 6abd 2a86 86bd a8e6 5b3c
00000140: 86cd 003d 73c0 113b 8a8b d5bd b2a5 cd3c
00000150: c21a c7bc 6f61 773d a258 54bd a069 353c
00000160: dd03 bcbd b7c2 6d3d 7cd8 4abd fa2e e9bd
00000170: ee42 423c 88e7 a13d 33e7 3b3d a432 ac3d
00000180: 81c1 8dbd 8331 96bd 57eb 90bd c483 b3bd
00000190: 1c51 2f3d 059d 5fbc 57c3 713d 8305 4cbd
000001a0: 970c 8d3d d6e6 9c3a 2675 11ba ca64 34bd
000001b0: 0be9 323b 5677 89bd eff7 893d 5baa 24bc
000001c0: 0de0 f33d f24e 533d ebdc 113d 12a3 113d
000001d0: e8f2 a43d f310 083d b70a bbbb b2aa 973d
000001e0: b03d 653b 8699 a1bb ac02 8dbd e4f4 1ebd
000001f0: 5f87 583a 2ad6 ecb9 eb33 b8bd 48e8 04bd
00000200: 8b06 a53d af63 57bc 27a0 38bd a798 5b3d
00000210: b67a 7b3d b53b 083d 2abb 40bd 6156 d53c
00000220: 8b35 843d fce0 35bc e9e3 cbbd b746 f83d
00000230: d2c4 5a3d 2c37 d1bc 8c6b 0abd 6196 d7bd
00000240: 2dbe 1dbd f7ea 83bd 1892 883d e29a bdbb
00000250: 3184 673d 75a9 e8bd 76b1 913d a023 9abd
00000260: e933 683d afca 96bd ea7d 9c3d 50f8 c2bd
00000270: 986a 913d 9d92 8ebd 7c0e 623d 74c2 7bbd
00000280: c5f6 303d fe43 2f3d b6f1 813d 8a06 86bc
00000290: a1b5 9dbd 5b73 163d 5728 84bd bfa5 903c
000002a0: da16 c73d b1c5 cfbc 04c2 e13c 7eff 0c3d
000002b0: 4a88 6a3d 52f5 a0bd 45cf 503d cd56 683c
000002c0: 50bb 71bd aee4 b7bd ef51 ffbd b577 e53b
000002d0: c29e 403c 027d b5bd f10b a5bd fa14 bf3c
000002e0: 8fc6 0e3d 0505 a7bd 63ea 15bd 04aa 8cbd
000002f0: 0c00 9a3d bd7d d73c 01a9 afbd 8e04 e53d
00000300: fd70 ad3d fbb9 02bd fa6c adbd 04e3 e83c
00000310: f9fd d1bc af43 043b 96ac 38bc 1043 993c
00000320: be87 2b3d 2193 7dbc ce3b 56bd e284 493d
00000330: d081 2cbd 81d8 64ba acf1 b0bd a420 2e3d
00000340: 48e1 bebc df42 d6bd e236 6c3d 9329 0abd
00000350: f213 b9bb a8c4 94ba 0108 7dbb a527 853d
00000360: 8c75 60bd 82ad a3bd b01f c63c 07f4 19be
00000370: 41e0 953d 5306 bf3d a61f a03d 78bc ab3d
00000380: e67d 3b3d c673 1cbe 03ff d9bb ee39 693d
00000390: cf01 093e 0d2a f1bc a90d 9e3d 8f75 29bc
000003a0: 2d16 d73d 873d b83d b100 b63d ccd1 9bbd
000003b0: 1605 82bd 980f 33b9 957c e8bd ced1 43bd
000003c0: 29f4 61bd 620c 1c3c 7228 25bd 157f a73d
000003d0: 27a1 283d 71a9 e83c 0eda 683d 62c2 923d
000003e0: a39d 6cbb 91f7 6fbc 190a a23d 9f54 6b3d
000003f0: 60f4 6abd d18b 163d eb15 39bc dffe 11bd
-0.08940235 0.024981514 0.09960463 0.035144005 0.100496866 0.046004366 -0.11171652 -0.0343681
0.01005495 0.02424656 -0.06212706 -0.018197259 0.09906806 -0.10739696 -0.06315261 -0.09874383
-0.0014313105 0.10425064 -0.07070458 -0.12298405 0.01678994 -0.07572519 -0.025668545 -0.079710186
-0.15336582 0.021958888 -0.058373373 0.033962157 0.080316275 0.013164147 -0.059740018 0.04236284
-0.105472274 -0.08843424 -0.040538188 -0.032926485 0.042712916 -0.05903836 -0.018613763 -0.031875923
-0.00045156112 0.07495835 0.032821666 0.039709527 -0.07459247 0.12109694 -0.062302925 -0.14349219
-0.010044531 -0.09910376 -0.013968692 -0.013764499 0.028420014 -0.09164289 0.051577568 0.05567625
-0.027448054 0.115630895 -0.015503337 0.05190111 -0.037903544 0.05962782 0.029857432 0.045052327
0.0403229 0.04864765 -0.060056075 -0.14198777 0.08667843 0.052670892 0.004110835 -0.022478607
0.018787809 -0.04820929 -0.008127476 -0.0023061854 0.057499073 -0.057341788 -0.065685585 0.013421692
0.031446002 0.0022239953 -0.104270056 0.025103424 -0.024304751 0.060395654 -0.05184234 0.011072546
-0.09180424 0.058047023 -0.04952286 -0.11385913 0.011856778 0.07905489 0.045874786 0.084080964
-0.069216736 -0.07333662 -0.070761375 -0.08765367 0.04280196 -0.013648276 0.05902418 -0.049809944
0.06887167 0.001197065 -0.00055487675 -0.044041432 0.002729955 -0.06712215 0.06736743 -0.0100503815
0.11907969 0.05158896 0.035611074 0.035555907 0.08054143 0.03321929 -0.0057080644 0.074056044
0.0034979396 -0.0049316315 -0.06885275 -0.038807765 0.0008259918 -0.00045172992 -0.089942776 -0.032448083
0.080578886 -0.013146325 -0.04507461 0.053612377 0.061396323 0.033260066 -0.047053494 0.026042165
0.06455525 -0.011101004 -0.0995558 0.12122863 0.05341036 -0.025539003 -0.03379397 -0.105267294
-0.038511444 -0.064413 0.0666849 -0.0057862857 0.056522552 -0.11360446 0.07113926 -0.07526326
0.05669013 -0.073628776 0.07641204 -0.09520018 0.07100409 -0.06961558 0.055189595 -0.06146474
0.043204088 0.04278945 0.06344931 -0.01636054 -0.077006586 0.036731105 -0.06453007 0.017657159
0.097211555 -0.025362821 0.027558334 0.034423344 0.05725888 -0.07859291 0.050978918 0.014180851
-0.059016526 -0.08979164 -0.124667995 0.0070027956 0.011756601 -0.08861734 -0.08058918 0.023325432
0.03485733 -0.08155254 -0.03660048 -0.068683654 0.0751954 0.026305074 -0.08577157 0.11182509
0.084688164 -0.031915646 -0.08468051 0.028428562 -0.025633799 0.0020181944 -0.011271616 0.018708736
0.0418775 -0.015476973 -0.052303128 0.049198993 -0.042115986 -0.00087297714 -0.08639845 0.042511597
-0.023300782 -0.104619734 0.057669528 -0.033731055 -0.0056481296 -0.0011350112 -0.0038609507 0.06501702
-0.0547996 -0.07992078 0.024185032 -0.15034495 0.07318164 0.09327378 0.078185365 0.08385557
0.045774363 -0.15278539 -0.006652714 0.05694001 0.13379596 -0.029438997 0.07717449 -0.01034297
0.105022766 0.089961104 0.088868506 -0.07608375 -0.06348626 -0.0001707658 -0.11351887 -0.047807507
-0.05516449 0.009524437 -0.040321775 0.08178536 0.04116931 0.028401108 0.05684858 0.07165982
-0.00361047 -0.014646427 0.07912082 0.057453748 -0.05736196 0.036754433 -0.01129673 -0.035643455

layers.4.bias f4 [4]
00000000: 809f d3bc d498 783d 7865 603d 309b d03c
-0.025832891 0.060692623 0.05478427 0.025464624
