ptdrlhf/ptdrlhf/checkpoints/state_action/checkpoint_supervised_dqn23.pth (torch, 219095 bytes, 6 tensors)

layers.0.weight f4 [128, 290]
000000 02 7e 00 bd b7 ee 8c 3a a4 c5 25 bd e7 f9 bc 3c
       -0.03137017 0.0010752295 -0.040471688 0.023068381
000010 f9 b6 a9 3c 3f 6b de b9 b4 fd 62 3a 94 ba 6e ba
       0.020717131 -0.00042423044 0.00086590205 -0.0009106782
000020 d7 cd 30 3d 8f 08 65 3d 78 fd 47 3d 51 b2 18 3b
       0.043165054 0.055916365 0.04882571 0.0023299644
000030 92 97 16 3d 5e f5 3a bc 53 9d 2e 3d 05 a5 70 3d
       0.036765642 -0.011411039 0.042630505 0.058751125
000040 e2 58 ce bc 0b 22 c4 bc 1d 38 d4 bc c5 61 1a 3c
       -0.025188867 -0.023942014 -0.025905663 0.009422724
000050 9c 8b f3 bc 64 6b e7 bb 0f b8 b2 bc 8c 10 fa bc
       -0.029729657 -0.0070623625 -0.021816282 -0.030525468
000060 88 56 e3 bc 9b e1 d4 3c a4 59 67 bd cf 13 84 3c
       -0.027751222 0.025986483 -0.056481972 0.016122727
000070 4f 0e 3d 3d 91 14 1f 3a b6 50 ca 3c 93 b9 02 3c
       0.046156224 0.0006068433 0.02469669 0.007978815
000080 a9 1b 31 3c f6 40 6b bc 55 f7 c5 3b fd c0 6f 3d
       0.010809817 -0.01435875 0.006041447 0.058533657
000090 d2 cc 86 3c 19 b5 14 3d 32 8f 4d bd 99 c0 1f 3d
       0.016455088 0.03630552 -0.05018539 0.039002035
0000a0 3e cf 51 3d d3 81 d7 3c 84 48 4d bd 85 35 81 bc
       0.051223032 0.026307022 -0.050117984 -0.01577259
0000b0 4c 88 41 bd 9a 3c 08 3c da 64 67 bb 47 c2 17 3d
       -0.047249123 0.00831523 -0.0035307915 0.03705051
0000c0 35 fd f9 bc 2f bb 32 3d b6 93 60 3d e2 1e 38 3d
       -0.030516246 0.043635543 0.054828368 0.044951327
0000d0 87 41 e7 3c 8e 70 00 3d dc 87 54 bd 16 0e 5e bd
       0.028229488 0.03135734 -0.051887378 -0.054212652
0000e0 f9 88 60 bc fa 67 25 3d d1 81 15 bd 0c f7 51 bc
       -0.013704532 0.040382363 -0.036500756 -0.012815248
0000f0 15 e8 20 3d 84 79 5f 3d 3c a4 68 3c ca 72 af bc
       0.03928383 0.054559246 0.014199313 -0.02141704
000100 6e 97 53 bd b8 c8 d6 bc 78 a5 a4 bc 04 8e 55 3d
       -0.051658086 -0.026218757 -0.020098433 0.05213739
000110 35 bb e1 bc ba af e8 3c ed c3 3e bd 78 38 93 3b
       -0.027555088 0.028404105 -0.046573568 0.0044928156
000120 59 00 21 3c 2b e1 c7 bc 02 ec dc bc 7e 48 6a bc
       0.009826743 -0.02439936 -0.026968006 -0.01429951
000130 a3 3a 1c bd a3 94 a8 3c 38 e8 3e ba f7 a5 62 bd
       -0.038141858 0.020578688 -0.0007282528 -0.055334058
000140 0d 42 ef bc bb 34 09 bd fb 98 ba bc 16 c5 4a 3b
       -0.0292063 -0.033497553 -0.022778025 0.0030940226
000150 55 8d 26 bd 58 3c 55 3c dd 16 aa 3b 49 33 1c bd
       -0.04066213 0.013014875 0.005190714 -0.038134847
000160 70 f2 63 3d dc 95 f5 bc 11 c6 b2 bb 5b bd 1f bb
       0.05565113 -0.029978685 -0.0054557403 -0.002437434
000170 f2 62 2c 3d f2 d0 fa bc eb fc d6 3c aa 33 13 bd
       0.04208655 -0.030617211 0.026243648 -0.035937943
000180 d4 04 53 3d 54 ca 1a 3c 01 25 27 bd 7a 11 59 3d
       0.051518276 0.009447653 -0.040806774 0.052995183
000190 cd 93 46 3d 4a 2f 41 bd 0d ac b9 bb 4a d7 51 bd
       0.048480798 -0.04716424 -0.005666262 -0.051230706
0001a0 48 9d 4d bc 5e e7 1f bd c3 e2 37 bd 28 a9 24 3d
       -0.012549706 -0.03903901 -0.04489399 0.040200382
0001b0 f1 f2 17 3d 61 c2 ca 3c e8 0a 21 bd 11 1c d5 bc
       0.03709692 0.02475089 -0.03931704 -0.02601436
0001c0 fd ba 27 3b 99 3b c0 bc 4a 5d 65 3d 85 ad 6d 3d
       0.0025593631 -0.023465918 0.05599717 0.05802681
0001d0 57 c8 0b bd cd d3 4b bd 51 db ec bc 64 d7 87 bc
       -0.034126606 -0.049762536 -0.028913172 -0.016582198
0001e0 c8 34 f9 bc a8 e7 b7 bc f3 5c 19 3d 57 99 bd 3c
       -0.030420676 -0.02244933 0.03744216 0.023144407
0001f0 ab 20 8e bc c0 20 14 3d 94 8c 2e bd 84 24 95 bc
       -0.017349562 0.036164045 -0.042614534 -0.018205889
000200 99 78 d0 38 2b 23 ce bc 48 64 9b 3c a9 c7 45 bd
       9.940676e-05 -0.025163254 0.018968716 -0.048286114
000210 75 bb 83 3c cc 0c 5c bd 74 40 e5 3c a9 3b 12 3d
       0.016080597 -0.05372314 0.027984835 0.035701428
000220 2a 85 00 bc 03 c9 16 bd f7 c9 79 3c b9 d0 19 bd
       -0.007844249 -0.036812793 0.015245906 -0.03755257
000230 0e e2 30 bd 3f 11 08 3c f7 2b 4f bd c4 a0 64 3d
       -0.043184333 0.008304893 -0.050579038 0.05581738
000240 a7 39 0c 3d b6 6e 6e bd 78 4a 03 bd 4d aa 9a bc
       0.03423467 -0.05821105 -0.03205344 -0.018880034
000250 7e 64 36 bd 5e 0e 67 bd ba 47 c4 bb a5 36 15 bd
       -0.04452943 -0.056410186 -0.005989996 -0.036429066
000260 c9 68 6d 3c 95 ca 1b 3c fe 63 34 3c 3f f4 4f 3d
       0.014490315 0.009508749 0.011010168 0.05077004
000270 81 aa 97 3c 62 a0 3d 3d a4 70 63 3c 65 d1 31 bd
       0.01851392 0.04629553 0.013881836 -0.043412585
000280 6a af 95 bc ca f8 4a 3d 04 56 11 bb 68 c7 9e 3c
       -0.01827212 0.04955367 -0.0022176513 0.019382194
000290 61 b0 03 3d 1c 31 93 bc d6 2c 95 3c 5c 96 7f 3c
       0.03215063 -0.017967753 0.018209856 0.015599813
0002a0 e6 66 f4 3c d4 dc 99 bb 96 50 9b 3c 68 62 2e bd
       0.029834222 -0.004695514 0.018959325 -0.042574316
0002b0 6f e5 ca bb 0a 2f 41 bd 3c 6b 2a 3d 5b 11 98 bc
       -0.0061919014 -0.047164 0.041606173 -0.018562963
0002c0 e7 43 c7 3c f8 34 8e 3b 5f 5f 24 bd 55 6d 9d bc
       0.02432437 0.0043398105 -0.040130015 -0.019217173
0002d0 e2 c9 ba bc d8 ea 41 bd ff 2d 62 bc a6 d9 0c 3c
       -0.022801343 -0.047343105 -0.013804912 0.008596813
0002e0 63 66 c1 3c 67 2e 37 3d aa a8 12 bd ff 04 12 3d
       0.023608392 0.044721987 -0.03580538 0.035649296
0002f0 32 66 14 3d 9d 1d 9f 3c f0 dc 45 bb 2a 89 19 ba
       0.036230274 0.0194233 -0.0030191503 -0.0005856926
000300 cb 6a 49 3c 16 c0 ee bc bc 88 93 b9 2b 9f 31 bc
       0.012293528 -0.029144328 -0.000281399 -0.010841171
000310 dd 24 75 3c 43 c8 b5 3c fb 20 1a bd a2 2f 04 bd
       0.014962402 0.022190219 -0.03762911 -0.03227199
000320 ac db 41 3d 80 d4 db bc 75 d6 04 3d f0 09 3a bc
       0.047328636 -0.026834726 0.032431085 -0.011354908
000330 c5 c1 7c bc 56 48 29 3d 93 a4 df 3c ec 62 70 3c
       -0.015427058 0.04132875 0.027300155 0.014672022
000340 ec 13 7b bc bf 39 03 bd f3 9e 20 bd 8c 25 5a 3d
       -0.015324574 -0.032037493 -0.039214086 0.053258464
000350 df 5b 6f bc 01 54 7c 3b 47 b8 48 bc 20 c0 51 39
       -0.014609306 0.0038502219 -0.012250966 0.00020003365
000360 b9 6b 3d 3d e4 73 be bc 58 82 6a bd 26 9a e2 3c
       0.04624531 -0.02324862 -0.05725321 0.027661394
000370 b5 25 84 3c 30 05 93 bc ab 9b e4 3c e3 fd 09 3c
       0.016131261 -0.01794681 0.02790626 0.008422348
000380 60 a9 5c bd 74 74 8f 3c 57 96 41 3d 41 7f 47 bd
       -0.053872466 0.017511584 0.047262516 -0.048705343
000390 a8 d7 37 3d 66 49 70 bd 7e 19 5e 3d a0 d3 49 bd
       0.0448834 -0.05866375 0.05422353 -0.049274087
0003a0 b2 7a 4a bd 91 69 28 3c 4a 32 d6 3c 5e 11 0a 3d
       -0.049433418 0.010279075 0.026147027 0.03370797
0003b0 f1 fe 75 bc 6e 91 7b bc 31 6e 31 bc 70 1b 80 3c
       -0.015014396 -0.015354497 -0.010829494 0.015638083
0003c0 df 48 4c 3d eb 95 5f bc e9 03 85 3c 28 46 6e bd
       0.049874183 -0.013646583 0.016237216 -0.058172375
0003d0 65 ac fc bc b4 60 25 3d 0f d4 40 3d 33 a6 4a bd
       -0.030843923 0.040375426 0.047077235 -0.049474906
0003e0 35 e9 63 3d 85 9f 34 3d b8 7e cf bc 4f 95 db bc
       0.055642325 0.044097442 -0.025328979 -0.026804594
0003f0 46 72 5a 3c a0 1d 4f 3d 91 b1 62 3b a7 8c 0b bc
       0.013332909 0.050565362 0.00345907 -0.008517421

layers.0.bias f4 [128]
000000 39 2c 69 bc ab 1a 5a bd 96 ed 47 bc 13 18 b0 3c
       -0.014231735 -0.05324809 -0.012202641 0.021495854
000010 29 9a 25 3d 31 df 88 3c 56 97 c7 bb 7e e7 7f 3c
       0.04043022 0.016707988 -0.0060910387 0.015619157
000020 5d 4b 88 3c 81 13 23 bd 73 b5 f1 3b bb e6 1e 3d
       0.016637499 -0.039813522 0.0073763668 0.03879426
000030 f2 c0 75 bd be a4 30 bd 38 ba e9 3c 64 76 68 3b
       -0.05999846 -0.04312586 0.028531179 0.0035470957
000040 61 96 24 bd fe 6a 03 bd f4 32 58 3d 01 27 5a 3c
       -0.040182475 -0.032084458 0.052782968 0.013314963
000050 96 e6 11 bb 63 da 57 3d 70 55 65 3d d5 df f9 3b
       -0.0022262684 0.052698504 0.055989683 0.00762556
000060 7a 76 42 3c f0 72 3d bd a6 41 62 3d 0e b9 56 3d
       0.011869067 -0.04625219 0.05523839 0.052422576
000070 dd b1 d5 3c 1b cd d5 bc b0 a5 24 bb 8c 04 53 3d
       0.026085788 -0.026098778 -0.0025123172 0.051518008
000080 61 6f 0a 3d 9a 3a 48 bd cc 77 6c 3d 8f 32 06 3c
       0.033797625 -0.04888401 0.057731435 0.008190765
000090 10 04 a7 3b d4 90 a7 bc 3a ad 36 bd b3 5b 66 bb
       0.00509692 -0.020454802 -0.044598795 -0.0035149872
0000a0 21 86 32 bd 0a 03 22 3b 57 49 53 3c 3c 49 c3 bc
       -0.043584947 0.002472105 0.012895904 -0.023838632
0000b0 d1 53 10 3d 48 7f bc 3c 98 ea bd 3c ba 20 0b bd
       0.035236184 0.023009911 0.023183152 -0.033966757
0000c0 dd 47 84 3c 68 bd fb b9 21 39 39 3d da 63 2b 3d
       0.016147548 -0.0004801557 0.045220498 0.041843273
0000d0 6a 02 ce bc b5 ea f7 3c 14 52 8e 3b ec 52 03 3c
       -0.025147635 0.030263284 0.0043432806 0.008015376
0000e0 05 5b 45 3d 2f 52 61 3c 77 f7 28 bc bb 70 ad bc
       0.048182506 0.013752504 -0.0103129065 -0.021171918
0000f0 b6 77 f2 bb 4a 09 02 3d 38 2e 16 bc 0d ce b2 3c
       -0.0073995246 0.03174714 -0.009166293 0.021826768
000100 f4 9c 49 3d 81 d1 5f 3b 8c 1d f6 bb 6e cc 32 bd
       0.049221948 0.0034151974 -0.0075108465 -0.04365199
000110 e1 05 8e 3c 78 98 64 bd d7 da 43 3d e7 bf 39 3b
       0.017336788 -0.055809468 0.047816124 0.0028343142
000120 47 9e 19 bc 64 97 1c 3c 8e 21 44 3d b9 9d 07 bd
       -0.009376115 0.009557579 0.047883563 -0.0331094
000130 a9 2f 7e 3b f4 42 d1 3b a8 4e b0 3b 98 e9 46 bd
       0.0038785732 0.0063861553 0.0053804703 -0.048562616
000140 8d 61 ce bc 15 4b 6d 3d 1d 1c 24 bd 99 12 97 bc
       -0.025193 0.057932932 -0.040065873 -0.018441485
000150 29 0d 7b 3c b2 42 1d 3d 76 c6 ef bc b2 77 09 3d
       0.015322962 0.038393684 -0.029269438 0.033561416
000160 1d 1b e3 3c de 61 ad 3b 89 b9 0c 3d 0d c3 ec 3b
       0.02772289 0.0052912077 0.034356628 0.0072254003
000170 69 f5 58 3d 64 a9 60 bc 24 45 e1 bc 74 8c 47 ba
       0.052968416 -0.013712261 -0.02749879 -0.00076121767
000180 fa 71 e4 3c 68 85 c4 3c d2 0f e9 3c 4c 5f 67 bd
       0.02788638 0.023989394 0.028449927 -0.056487367
000190 30 3a 20 bc ba e9 32 3d cb e5 8b 3c fb 9d 7a 3d
       -0.009779498 0.04367993 0.017077347 0.06118582
0001a0 26 a8 37 bd 26 39 c4 3c 3c 49 6b 3d 7e 78 b1 bc
       -0.044838093 0.023953032 0.05744289 -0.0216639
0001b0 99 87 54 3d d9 e6 66 bc 5f b8 69 3d c4 70 36 bd
       0.05188713 -0.014093124 0.057060596 -0.044541135
0001c0 64 68 9d bb 73 f0 0c bc a8 54 b8 3c 60 8c 23 3d
       -0.004803704 -0.008602249 0.022501305 0.039928794
0001d0 b3 37 db ba d1 dd 5f 3c 25 8a 39 3d f8 4a ff bb
       -0.0016724974 0.013663725 0.04529776 -0.0077909194
0001e0 85 f7 54 bd 5c 7c a4 bc 30 73 64 bc c4 07 93 bb
       -0.051993866 -0.02007883 -0.013943478 -0.0044870097
0001f0 d8 d4 63 3d 5e 1b e2 3c 45 6f 9f bc 3e a0 82 3d
       0.055622905 0.02760094 -0.019462237 0.0637822

layers.2.weight f4 [128, 128]
000000 fc 05 5d bd ea 81 66 3d 9f cc f8 3c e6 8a 98 bd
       -0.053960785 0.05627624 0.030371008 -0.07448368
000010 ba b4 e4 3c db 9e 9b bd b9 ac 66 bd 3f 95 aa bd
       0.027918208 -0.07598659 -0.056317065 -0.08329248
000020 80 23 22 bd 56 0e aa 3d 70 8b b5 3d 20 51 1a bd
       -0.039584637 0.083035156 0.08864486 -0.037675023
000030 0c 86 6f ba 73 88 3f 3d 10 b5 99 3d 04 f3 9a 3d
       -0.0009137101 0.046760987 0.07505238 0.07565883
000040 dd 30 a7 bc 7d 93 72 bc 9f 3c e0 3b 5f 08 7a bd
       -0.020409042 -0.014805672 0.006843164 -0.06104314
000050 84 f3 47 bd 1e ff a1 39 c8 aa 0e bc ed 4f e5 3c
       -0.04881622 0.0003089839 -0.00870771 0.027992213
000060 62 a2 f2 3a 0a 0b a7 bd ae 1c 0c bd 63 9f 5a bd
       0.0018511529 -0.081564024 -0.03420704 -0.05337466
000070 0c 18 97 3d 70 1d 2f 3d 04 89 3d 3d dc 6f 22 bc
       0.073776335 0.042752683 0.046273246 -0.009914365
000080 78 e1 a5 3d 6e 09 ae bc 00 fd 0d 3d a5 fb 31 3d
       0.080996454 -0.02124473 0.034665108 0.043452878
000090 d5 0e 8b bd 71 13 93 3c 06 cc 33 bc f6 ad 06 bd
       -0.06789938 0.017953606 -0.010973936 -0.032880746
0000a0 dc 40 26 3d c7 5c 85 3d 68 98 11 3d d4 d9 2b bd
       0.0405892 0.065118365 0.035545737 -0.041955784
0000b0 39 3e 18 3d 52 ce 86 3d f5 1b 90 3d 46 fd 1a 3d
       0.037168715 0.06582321 0.070365824 0.037839197
0000c0 77 93 9f bc 12 ea 6b 3d a9 ae b8 bb 2f 1d 31 3d
       -0.019479496 0.057596274 -0.0056360555 0.043240722
0000d0 82 b3 0e bc c1 b6 74 bb cf c3 12 bc 64 ce 49 bd
       -0.00870979 -0.0037340375 -0.008957817 -0.049269095
0000e0 63 05 a5 37 4e 2d c3 3c 92 33 85 bd ca 64 34 3d
       1.9672041e-05 0.023825314 -0.06503977 0.044041432
0000f0 e9 9a 9d 3b 3c 6a 95 3d ca c6 9b 3d 28 15 44 bd
       0.0048097265 0.07295653 0.076062754 -0.04787174
000100 88 63 16 bd a1 e5 29 3d 0d c3 b7 3d 40 71 a6 3d
       -0.036716014 0.041478757 0.0897275 0.081270695
000110 6f 3b 81 3d 6b 7a 95 bd d0 48 a9 3c 8c 92 b9 bc
       0.06310164 -0.0729874 0.020664603 -0.022652887
000120 20 00 09 bd 47 b0 7e bd 11 ff 71 bd 21 ad c6 ba
       -0.033447385 -0.06217983 -0.05908114 -0.0015157798
000130 d5 9c 11 3c 15 9d f6 bb 42 0e 8b bd 9f e7 9c 3c
       0.008887489 -0.00752605 -0.06789829 0.019153414
000140 48 4e 03 bd 52 22 5e 3c bf 61 39 bd 11 1f 8f bd
       -0.032057077 0.013557987 -0.045259234 -0.06988347
000150 86 a0 c0 bc 21 c1 c1 bc 1d 8f a2 3d 56 32 f2 3b
       -0.023514044 -0.023651661 0.07937453 0.0073912544
000160 9f ca 3a bd 5b 45 b2 3d d1 cc 78 3d c0 cf 7e bd
       -0.04560339 0.08704635 0.060742203 -0.062209845
000170 46 7f 79 bc 73 c2 95 3d 34 b5 01 bd c0 5a 00 bc
       -0.015228098 0.07312479 -0.03166695 -0.0078341365
000180 38 c9 8b 3d 49 d5 94 bd 8a 11 50 bd b0 41 ad bd
       0.06825489 -0.072672434 -0.050797977 -0.084597945
000190 ac 4e 49 3d 7f 6f ea bc f6 91 4f 3d ad 2a a4 3d
       0.049147293 -0.028617619 0.05067631 0.08015952
0001a0 b9 bb 2b bc ff 1c ef 3c ac d5 f5 bc 9b 89 08 bd
       -0.010481768 0.029188631 -0.030009113 -0.033334356
0001b0 aa f4 be bc 4b a7 b0 3d 56 cb 95 3d d9 34 b0 bb
       -0.023310024 0.086256586 0.07314174 -0.0053773937
0001c0 79 7f 50 bd 16 d2 a7 3d 6b e1 50 bd 2d 02 70 3d
       -0.050902817 0.081943676 -0.050996225 0.058595825
0001d0 e7 2c 26 bd a9 ed 23 bd f9 5d 36 bc 09 cd ac bd
       -0.040570166 -0.040021572 -0.011130803 -0.08437545
0001e0 b1 9b 48 3d 01 ce 8d bd d3 ce 8b 3d 59 47 e8 bc
       0.048976604 -0.06924058 0.06826558 -0.028354334
0001f0 f9 0c 76 3d 58 d8 84 3d 95 f3 79 3d 25 d8 5c bd
       0.060070965 0.06486577 0.061023314 -0.05391707
000200 af e8 8c bd 9e 21 2d bd 0e 56 dd bb bc ff eb 3c
       -0.068803184 -0.042268388 -0.0067546433 0.028808467
000210 95 f3 60 bd ab 99 a0 bd f0 60 9c bd fa 56 3f bd
       -0.054919798 -0.0784181 -0.07635677 -0.046713807
000220 74 d9 18 bd d7 52 07 3c 61 63 18 bd f7 c9 8b bc
       -0.037316754 0.008259497 -0.03720415 -0.017064078
000230 16 9c 9f 3d 34 b0 8f 3d 5e d4 21 3c 8a f9 87 bd
       0.07793443 0.0701603 0.009877292 -0.06639393
000240 4f 2a ed bc be 2c a1 bc d3 14 68 bd b0 ca 2a bd
       -0.028950838 -0.019674655 -0.056660485 -0.041697204
000250 61 4c a3 bd 2a 54 07 bb 03 7e b3 bd e2 3f 91 bd
       -0.079735525 -0.002064953 -0.08764269 -0.07092263
000260 8c b7 b3 3a 85 f3 72 bc d5 d9 09 bd 5b 9f a7 bd
       0.0013711317 -0.014828567 -0.033655006 -0.081846915
000270 e5 2d 4a bd e6 53 e4 3c a3 92 5d bd 8b b5 69 3b
       -0.049360175 0.027872037 -0.05409492 0.0035661187
000280 35 78 ec bc f8 9d 88 bd cd 86 ab 3c 0c 33 86 bd
       -0.028865913 -0.06670755 0.020938301 -0.06552705
000290 e8 8f 89 3d c6 61 86 3d fd 64 da bc 01 0a a3 bd
       0.06716901 0.065616176 -0.026659483 -0.079608925
0002a0 16 eb 66 3d 0f 49 b1 3d d8 23 e7 3c fc b5 aa bd
       0.05637654 0.08656513 0.028215334 -0.08335492
0002b0 e7 31 2b 3c 40 41 c6 bc ac 67 9d 3c 51 e3 56 3b
       0.010448909 -0.024201035 0.019214474 0.00327893
0002c0 00 01 5e 3b 6e c3 b0 bc 05 3f 4a 3d 27 5c d9 bc
       0.0033875108 -0.021577563 0.049376506 -0.0265332
0002d0 81 61 8a bd fe d3 4b bd 06 10 93 3d 81 a6 1b bd
       -0.06756879 -0.04976272 0.071807906 -0.038000587
0002e0 93 2a 84 3d 23 b3 a1 bc 3e 57 13 3d 3c 5e aa bd
       0.06453433 -0.01973874 0.035971873 -0.08318755
0002f0 9f 65 ba 3c 66 35 65 3c 1f e6 67 3d 93 70 2a bd
       0.022753535 0.013989782 0.056615945 -0.041611265
000300 16 d0 44 bd f8 7b 4d 3d 3d 13 94 bd 7f 92 5c 3c
       -0.04805001 0.050167054 -0.07230232 0.013462662
000310 c2 c0 b2 bd 03 ab 83 3d 9f 46 20 bd 6e 3c 51 bd
       -0.08728172 0.06429102 -0.03912985 -0.05108302
000320 ee eb b1 3d 1f 1d 9c bc 13 39 68 3c 1d ca 92 bd
       0.08687578 -0.019056855 0.014173764 -0.07167456
000330 ac ef 10 3d 13 b8 b8 bc 32 79 e9 3c 92 56 47 bd
       0.03538482 -0.02254871 0.028500173 -0.048666544
000340 4d 4a 9c bd ba 99 88 bd 80 d9 70 bd a9 e0 09 bd
       -0.07631359 -0.06669946 -0.058801174 -0.03366152
000350 86 6a 1d bd 8a 9a 94 bd 0f b8 e1 bb e3 6d df 3c
       -0.038431667 -0.072560385 -0.0068883966 0.027274078
000360 6b 91 53 bd a7 f3 5d 3c 2b f9 8f 3d 65 ee 89 bd
       -0.051652353 0.013546861 0.07029947 -0.06734923
000370 63 c0 7d 3d ad 2f 94 bd 5b 45 a2 bd 4a d5 bc bc
       0.061951052 -0.07235656 -0.07923385 -0.023050923
000380 7e 43 96 bd 3d b6 9f bd 4b c5 70 bd 6b 85 d7 3c
       -0.07337092 -0.07798431 -0.058781903 0.026308736
000390 e0 c8 02 bd eb 0d b1 bc e4 ef 9a bd 31 2b ed bb
       -0.03192985 -0.021613082 -0.07565287 -0.007237815
0003a0 e2 ae 55 bc 93 3f 17 bd 8c de 92 3d f9 49 aa 3c
       -0.013042184 -0.036925863 0.07171354 0.020787226
0003b0 b5 cc 1e 3d d2 ae 78 3d 97 62 ab bd 4a da 43 3c
       0.038769443 0.060713597 -0.08368414 0.0119539
0003c0 f1 f7 cc bc 40 0d 0a 3d 2f f4 13 bd 59 62 6d 3b
       -0.025020571 0.033704042 -0.036121543 0.003622195
0003d0 52 e1 10 bd a3 b9 8f 3c f6 fe 6b bd 95 d8 aa bd
       -0.035371132 0.017544573 -0.057616197 -0.08342091
0003e0 ff 50 59 3c ca b5 1c 3c eb f8 0c bc fe 90 76 3d
       0.01326394 0.009564826 -0.008604269 0.06019687
0003f0 9b ae 93 3d 20 c2 56 3d 8b 2c a9 bc 3a 4f 05 3c
       0.07211038 0.052431226 -0.020651123 0.008136565

layers.2.bias f4 [128]
000000 34 2c c2 3c 95 fe 78 3c 2d a1 df 3c 4c cd 6b bd
       0.023702718 0.015197416 0.027298534 -0.057568833
000010 fd 84 d8 3b 3d 4a 9e 3d b0 e9 1f bd 59 0c e7 bc
       0.0066076503 0.077290036 -0.03904122 -0.02820413
000020 20 88 3d 3d 46 3e 06 bc 7a 3e ed b9 ce 10 aa bc
       0.046272397 -0.008193558 -0.0004525071 -0.020759966
000030 cc 66 a4 3c 27 42 9d 3d d1 b5 06 bc dd 18 c4 bc
       0.020068549 0.07678633 -0.008222059 -0.023937637
000040 90 b3 8e 3d e3 fd 41 3c de 5b af bd 16 14 9a 3d
       0.069678426 0.0118403165 -0.08562444 0.07523362
000050 f9 59 c2 bc d7 34 93 3d 13 88 6d bd b1 45 2c bd
       -0.023724543 0.07187813 -0.0579911 -0.04205865
000060 5b cb a3 bd 23 d1 99 3d 8c 1b b6 3c 85 75 81 3c
       -0.07997771 0.07510593 0.022229932 0.015803108
000070 87 99 c4 3c 8c 37 2c bd ba 30 35 bc 3a 4a 37 bd
       0.023998989 -0.04204516 -0.011058981 -0.044748522
000080 9e 0f 26 3d 4b 51 4a 3c 2e b3 8b bd 7b 46 ca bc
       0.040542237 0.012348483 -0.06821285 -0.02469181
000090 ef b3 05 3d 1a 45 1d 3d 32 9b 35 bd e3 1e 6f bd
       0.0326423 0.03839598 -0.04433746 -0.058379065
0000a0 f6 36 5d 3c 81 0c 96 3d c5 1e c2 3b 8c 84 86 bd
       0.013501873 0.07326604 0.005924078 -0.0656825
0000b0 f3 00 6a bd 25 29 82 3c 6b b2 69 3d 37 63 a0 3a
       -0.05712981 0.01588876 0.05705492 0.00122366
0000c0 4b b5 e1 bc 3b 67 c7 bc 3e c9 87 bd 66 52 a8 bd
       -0.027552268 -0.024341216 -0.06630181 -0.08218841
0000d0 a3 fa a4 3d f8 a2 a9 bd eb b7 52 bd cb 8b a6 bd
       0.08055618 -0.08283037 -0.05144493 -0.08132132
0000e0 83 fd 33 3d c5 67 ac bd 42 a1 56 bd be 6e b1 3d
       0.04394294 -0.0841823 -0.05239988 0.086637005
0000f0 b5 13 87 bd 9c b5 84 bd cf 0d 98 3d a9 7f 61 3d
       -0.06595556 -0.06479952 0.07424509 0.055053387
000100 27 d1 9b bd 48 9e 1d bd d7 9e 38 bc 0c a0 c4 3c
       -0.07608252 -0.038481027 -0.011268339 0.024002098
000110 76 da 14 bc 91 b3 a3 3c 01 35 91 bd 27 0b 32 bd
       -0.009085288 0.019983085 -0.07090188 -0.043467667
000120 ab 65 86 3d 91 9c 2f bd 05 ad 0b 3c 19 58 88 bd
       0.065623604 -0.042873923 0.008525138 -0.06657428
000130 ac 35 29 bd f2 ad 4c 3d 7e be b0 bd cb 6e 25 bd
       -0.04131095 0.049970575 -0.086300835 -0.040388864
000140 62 a7 fb bc a9 37 9b bd 94 8e a3 3b 26 e7 82 3d
       -0.030719463 -0.07578976 0.004991362 0.06391744
000150 a8 74 a7 bd 5f 3b 1a 3d 92 eb 1c bd 76 a4 a5 3d
       -0.08176547 0.037654277 -0.038310595 0.08088009
000160 29 f4 04 bd 7d 85 88 3d 47 d7 9a 3c a1 23 a4 3d
       -0.03245941 0.06666086 0.01890148 0.08014608
000170 94 43 73 bd bf 98 0d 3d 18 34 03 3c 4f 52 a1 3d
       -0.05939062 0.0345695 0.008008026 0.07877027
000180 1c 32 ba 3d e9 f3 7a bd 62 b1 73 3d c7 7d 52 bd
       0.09091589 -0.061267767 0.059495337 -0.051389482
000190 a3 e4 cf bc c6 ca 2e 3d c5 1f 8f 3c d2 66 a2 3d
       -0.025377577 0.04267385 0.017471204 0.07929768
0001a0 52 e7 a8 3d 51 4f 33 3c a8 38 8f bd d5 72 d2 3b
       0.08247246 0.0109442035 -0.06993228 0.0064223805
0001b0 b6 c2 99 bd f8 ca 30 bd 4d 1e 91 bd 90 d3 9e bd
       -0.07507841 -0.043162316 -0.070858575 -0.07755196
0001c0 7f c1 d4 3c 06 e6 8a 3d 2a 54 8c 3d 71 e2 27 3d
       0.025971172 0.06782155 0.068519905 0.040987436
0001d0 af f3 83 3d 7f bc e9 bc d5 9e 2d bd f2 ca a6 3d
       0.06442963 -0.028532265 -0.042387802 0.081441775
0001e0 23 36 9d bd c1 ed 4f 3d 5b ea 2b bc de 72 70 3d
       -0.076763414 0.05076385 -0.010492886 0.058703296
0001f0 83 2d 86 3d b7 cc 2c bb fe cf c4 b9 a4 d1 0c 3d
       0.065516494 -0.0026367137 -0.00037539 0.034379616

layers.4.weight f4 [4, 128]
000000 d8 e7 ab 3d 08 b2 be bb 3d ba b3 bc b2 63 88 3b
       0.0839383 -0.005819563 -0.021939391 0.004162275
000010 d5 df 55 bd 66 c2 31 3d bc ba 4e 3b eb bf e0 bc
       -0.052215416 0.043398283 0.0031544408 -0.027435264
000020 c6 6e 7d bd 78 da e4 bc 74 be b0 3d ef 53 e8 bb
       -0.06187322 -0.027936205 0.08630076 -0.007090084
000030 a4 c6 df bc d9 46 a6 bd 51 0c 19 bd 94 d2 a8 bd
       -0.027316399 -0.08118982 -0.03736526 -0.082432896
000040 64 41 0b 3d e1 43 99 3a 61 05 59 bd 7c 88 39 bc
       0.03399791 0.0011693203 -0.052983645 -0.011324044
000050 bd a0 97 bd b1 55 f9 bc a0 5b 33 bd df 20 cf 3c
       -0.07403705 -0.030436369 -0.043788552 0.025284229
000060 ea b4 58 bd d9 e4 a4 3d e0 b7 7c 3d 62 a4 7a bb
       -0.052906908 0.08051462 0.061698794 -0.0038244952
000070 26 a2 81 bd 26 f5 1d bd 4a 12 6a 3c b5 c9 a8 3d
       -0.063297555 -0.03856387 0.014286587 0.082415976
000080 59 d0 8d bc df 5d fa bc a2 54 5c 3d e6 41 8e 3d
       -0.017311262 -0.03056234 0.05379165 0.06946163
000090 75 dd 88 3c d4 ba 5e bd 9a d4 d2 3c f9 2c 99 bd
       0.016707161 -0.054377392 0.025736142 -0.07479281
0000a0 46 f4 a1 bd 21 14 24 bd 20 1c 92 3d 83 07 33 3d
       -0.079079196 -0.04005826 0.07134271 0.043708336
0000b0 c3 5e a2 3d 1a 2b 89 3d 46 68 88 bd 91 fa 12 bb
       0.079282306 0.06697674 -0.066605136 -0.0022427181
0000c0 ff 7f 35 bd 58 41 a6 3d 6f 08 9b 3d ac 4e 9b ba
       -0.04431152 0.08117932 0.07569968 -0.0011849008
0000d0 28 69 65 bd f6 34 ab bc b2 7d 69 bd f8 93 72 3c
       -0.056008488 -0.020899277 -0.057004638 0.014805786
0000e0 a6 b4 09 3c e0 86 a3 bd 81 21 6d 3d cc 7c 35 bc
       0.008404886 -0.0798471 0.05789328 -0.011077117
0000f0 19 e8 a8 bc 5b e6 e9 bc 4b 32 8b bc d1 d5 4d 3d
       -0.020618485 -0.028552225 -0.016991755 0.05025274
000100 f9 55 ee 3c 7f 96 e0 3c 87 c9 26 3d 63 48 f8 bc
       0.02909373 0.027415512 0.040719535 -0.030307954
000110 3b 73 0a 3d 02 8b 1e bd 64 48 3d 3d 20 d8 4b bb
       0.0338013 -0.038706787 0.046211615 -0.0031104162
000120 3b b7 96 3d 91 ef 3f 3c cf a7 e7 3b e8 bf 83 bd
       0.07359167 0.011714832 0.007069565 -0.064330876
000130 8a 52 69 bd 94 fc 82 bc ca a7 49 3d ac 6c 71 bd
       -0.05696348 -0.01598958 0.04923228 -0.05894153
000140 54 97 e3 3c 67 c2 1f bd f7 a2 84 bd 67 34 a4 3d
       0.02778212 -0.039003756 -0.064763956 0.080178075
000150 fd c1 a2 bd d9 f9 77 3d e2 c9 a0 bd 7a e3 94 bd
       -0.079471566 0.060541008 -0.07851006 -0.0726995
000160 15 14 07 bd 6a 4b 46 3c 57 2f 94 3d a7 a7 06 3d
       -0.032978136 0.012102941 0.07235592 0.03287473
000170 3b 20 3b bc de 54 4f bd 77 2e a9 bd 99 57 9f 3c
       -0.011421259 -0.050618045 -0.082608156 0.01945095
000180 2f 30 64 3c 15 31 e2 bc 06 ac f7 bc 23 e5 6b 3d
       0.0139275035 -0.027611295 -0.030233394 0.05759157
000190 da 70 23 bd 6d 21 84 bd 21 e9 91 bd 53 ee a7 bd
       -0.039902546 -0.06451688 -0.07124544 -0.081997536
0001a0 6c bc c2 bc 5e 49 32 bd b0 e7 0c bc 3c b8 33 bc
       -0.023771487 -0.043527 -0.0086001605 -0.010969218
0001b0 b1 9a 7a 3c b8 1f dd 3b aa 51 71 bd 44 89 e8 3c
       0.01529567 0.006748166 -0.05891577 0.028385766
0001c0 91 20 32 3b 6a e3 95 3d 4c b7 8a bc 94 bc 99 3a
       0.0027180056 0.073187664 -0.016933106 0.0011729174
0001d0 84 de 20 3d e3 2e c1 3c ba 58 a8 3d 46 f7 d0 3c
       0.039274707 0.023581928 0.08220048 0.025508534
0001e0 08 60 0d 3d ee bc 1c 3d cf f2 20 bd c6 68 1d 3c
       0.03451541 0.038266115 -0.03929406 0.009607499
0001f0 e4 1c 52 bd 04 d1 83 3d e7 3c 21 3b 49 34 d4 3c
       -0.051297083 0.06436351 0.002460295 0.025903838
000200 36 68 90 3d 87 a3 9a bc b9 eb 09 bd 3b e4 b3 bc
       0.07051127 -0.018876804 -0.03367207 -0.021959415
000210 3f 8c 7f 3d 44 1a 06 3c 86 4f d5 3b e9 f6 78 3d
       0.06238961 0.008184973 0.006509724 0.060782347
000220 9a 34 8b bd 39 8d 72 bd ac 47 fb ba 6a 9b 7d bd
       -0.06797142 -0.05921671 -0.001917114 -0.061915793
000230 cc fa 64 3d f4 4f 5b bd a6 09 92 bc 0b d5 49 3d
       0.05590324 -0.053543046 -0.017826866 0.04927544
000240 33 25 1b 3d 0c 65 ff bc fe 18 3e bd 23 9e 3a 3d
       0.037877273 -0.031176113 -0.046410553 0.045560967
000250 f4 a6 09 bd 10 92 a3 3c 4f 01 81 3d 66 dc 86 3d
       -0.033606485 0.019967109 0.06299078 0.065850064
000260 db 57 79 3d 30 66 97 3d 36 f0 47 bd a9 7f d1 bc
       0.0608748 0.073925376 -0.048813067 -0.025573568
000270 be bd ba bc b6 41 f9 3c be 82 97 bd fa e6 33 3c
       -0.022795554 0.030426841 -0.07397984 0.010980362
000280 65 6a ab bd 71 ee 3d 3d 58 1a 9f 3d a4 5d 39 bd
       -0.083699025 0.046369974 0.077686965 -0.04525532
000290 02 af 5d 3d 45 df 49 3d ef 6d 62 bd 83 75 be 3c
       0.05412198 0.049285192 -0.055280622 0.023249393
0002a0 0a 38 20 bd 89 ac 49 3b 63 9d 03 3d 82 c5 84 bd
       -0.039115943 0.0030773005 0.032132518 -0.06482984
0002b0 6a 3d 4d bd c2 93 8b bc 24 83 a1 bc ea 7e 86 3d
       -0.050107397 -0.01703823 -0.019715853 0.06567176
0002c0 b6 2b 0d 3d ce 33 a0 bd 76 f8 8c bd e4 63 fa 3c
       0.034465514 -0.07822381 -0.06883328 0.03056521
0002d0 f4 e6 6f 3d 61 90 aa bd 5c 7c e4 bc 4b 74 3a 3b
       0.058569863 -0.08328319 -0.02789133 0.0028450664
0002e0 79 42 94 bd b6 e4 ac bc 16 d4 1e bd ca 1b 60 3d
       -0.07239241 -0.021105152 -0.03877648 0.054714
0002f0 7d fa 29 3d 55 45 7e 3d 52 d9 8d 3d bf cb 89 3d
       0.04149865 0.06207784 0.06926216 0.067283146
000300 cd 92 59 bc b5 24 aa 3d 36 eb 85 3c 20 8b e0 3c
       -0.013279629 0.083077826 0.016347509 0.02741009
000310 a2 54 c5 3c f9 38 cb bc 98 4c b4 bd d0 d3 80 3b
       0.024088208 -0.02480744 -0.088036716 0.0039315
000320 bd f7 59 bb 66 2f a4 bd ce 5c 64 3c 50 64 e3 3b
       -0.0033259236 -0.08016853 0.013938142 0.0069394484
000330 60 db 9d 3d 95 2e ae bc 7e be d8 3b e1 e4 c2 bc
       0.07707858 -0.021262446 0.0066145053 -0.023790779
000340 be e2 36 3d 0f 75 22 bc 5a 77 98 3d 30 e3 88 3d
       0.044649832 -0.009915604 0.074446395 0.066839576
000350 f1 86 91 3d a8 02 f7 3c 55 18 95 bd 7d 9d a8 3d
       0.07105816 0.030152634 -0.072800316 0.082331635
000360 b0 5b e8 ba 06 c6 61 bd 0b d9 6d bd 1a f1 a8 bd
       -0.001772752 -0.05512049 -0.058068316 -0.082491115
000370 88 fe 29 bd 78 fb 82 bd f7 3e 8a 3d b8 2e a5 bd
       -0.041502506 -0.0639562 0.06750291 -0.080655515
000380 9c b2 03 bc ce 39 57 3c 95 cb 2e 3d 7e 6f 64 bd
       -0.008038189 0.01313634 0.04267462 -0.05577039
000390 c6 e9 a6 bd 1a 0c d3 3c 09 49 3c 3c 24 81 b2 bd
       -0.081500575 0.025762606 0.011492022 -0.08716038
0003a0 45 35 7c 3d df bb 99 bd 5a d1 65 3d c0 6d af bd
       0.06157424 -0.07506537 0.056107856 -0.08565855
0003b0 c5 76 f0 3c a3 65 00 bd ee a4 4f bd 2b 6f b2 3d
       0.029353509 -0.03134693 -0.0506944 0.0871261
0003c0 f5 65 4f bd c4 39 85 3c fc 78 a8 bd ca 7b 4d bd
       -0.050634343 0.016262896 -0.08226201 -0.050166883
0003d0 6c 66 83 bd d4 ca af 3d 58 d5 c2 3c c3 e3 5c 3d
       -0.0641602 0.08583608 0.02378337 0.053928148
0003e0 91 cf e8 bc 47 11 68 3d 25 c0 a9 bd 5e bb f6 ba
       -0.028419288 0.056657102 -0.08288602 -0.001882415
0003f0 38 9d a2 3d 43 9f 0e 3d f0 80 8f bd ab d4 f4 bc
       0.07940143 0.034819853 -0.07007015 -0.029886564

layers.4.bias f4 [4]
000000 4d b9 b2 3d 73 5d 99 bd b3 87 48 3d 58 b6 87 3d
       0.087267496 -0.07488527 0.048957538 0.06626576
