ptdrlhf/ptdrlhf/checkpoints/state_action/checkpoint_supervised_dqn77.pth (torch, 219095 bytes, 6 tensors)

layers.0.weight f4 [128, 290]
0	0x3c8ca332	0.017167661
1	0xbce28984	-0.027653463
2	0x3bc2ec9c	0.005948616
3	0xbcda9b10	-0.026685268
4	0x3bbc453e	0.005745559
5	0x3bb4b79b	0.0055150515
6	0x3ca926d4	0.020648398
7	0xbda5501b	-0.080719195
8	0xbd19ceba	-0.037550665
9	0x3d790c29	0.060802612
10	0xbd1b56d1	-0.03792459
11	0x3da3e9bc	0.08003566
12	0xbcba75c1	-0.022761228
13	0x3db76a47	0.08955818
14	0x3d544c00	0.05183029
15	0xbd05491b	-0.032540422
16	0xbd7fbde9	-0.06243697
17	0x3c880649	0.01660456
18	0x3d781f6a	0.060576834
19	0xbcd9bc7f	-0.02657914
20	0xb9f3066d	-0.0004635336
21	0xbca33dac	-0.019926868
22	0x3d0f67b3	0.035011005
23	0x3c7524b9	0.014962369
24	0x3ce91884	0.028454073
25	0x3dc2c986	0.09511094
26	0xbc806a16	-0.015675586
27	0xbd2dcd28	-0.04243198
28	0xbb613b28	-0.0034367535
29	0x3ca599d7	0.020214958
30	0xbc91fc4c	-0.0178205
31	0xbdbf6bb0	-0.09346712
32	0xbdba034f	-0.09082662
33	0x3d9f229b	0.07770272
34	0xbbe145b2	-0.0068747634
35	0xbd9ba222	-0.07599284
36	0xbe0096af	-0.12557481
37	0x3d9f978b	0.077925764
38	0x3d895203	0.067050956
39	0x3d6a631e	0.05722343
40	0x3c4a198b	0.0123351915
41	0xbd73631a	-0.059420682
42	0xbd33e01d	-0.043914903
43	0x3c9af29d	0.018914515
44	0xbd817ddf	-0.06322836
45	0xbd259cf9	-0.040432904
46	0x3d889557	0.06669109
47	0x3c3fd825	0.011709248
48	0xbd01030f	-0.031497058
49	0xbd2bcc1c	-0.0419427
50	0xbc4d33d5	-0.012524565
51	0x3cec2f5d	0.028831178
52	0x3ce48eb1	0.027900072
53	0x3cf50612	0.029910121
54	0x3cda6e19	0.026663827
55	0xbcfaec09	-0.030630128
56	0xbd90d667	-0.07072144
57	0x3bbc7b31	0.0057519902
58	0xbd972b57	-0.07381313
59	0x3c8ea0aa	0.017410595
60	0xbce6c840	-0.028171659
61	0x3d79e45d	0.0610088
62	0xbdabf1f5	-0.08395759
63	0xbbe0c5e9	-0.00685953
64	0xbd1251c6	-0.035722516
65	0xbc711f97	-0.014717004
66	0xbb946d62	-0.004529641
67	0xbd881049	-0.06643731
68	0x3d2f3bb6	0.042781554
69	0xbd59a295	-0.053133566
70	0xbd53b73c	-0.051688418
71	0x3bae9f39	0.0053290394
72	0x3d469319	0.048480127
73	0x3c944aa2	0.018101994
74	0x3d115614	0.03548248
75	0x3d348da9	0.04408041
76	0x3a864b2c	0.0010245792
77	0xbba173d1	-0.0049271365
78	0x3c48e49e	0.012261538
79	0xbd3917e6	-0.045188807
80	0xbc72b927	-0.014814652
81	0xbc2577c5	-0.010099356
82	0xbd6bd4d0	-0.057576
83	0x3da20f58	0.07913083
84	0x3c6a16b1	0.014287637
85	0xbca35ae7	-0.019940807
86	0x3c48639b	0.012230779
87	0x3d6fc7b8	0.058540076
88	0xbcd120d8	-0.025528356
89	0x3cc4d6ed	0.024028266
90	0x3d5762ad	0.05258434
91	0xbd99ba28	-0.075062096
92	0xbd8e7e7a	-0.06957717
93	0xbd134a3d	-0.03595947
94	0xbd91f00b	-0.07125863
95	0x3cfea0b7	0.031082494
96	0x3d95317d	0.0728483
97	0x3c2c859f	0.010529905
98	0x3d1d8c73	0.03846402
99	0xbce7ff86	-0.028320085
100	0x3d2363d5	0.03989013
101	0xbd17ad98	-0.037030786
102	0xbcf5bccd	-0.029997254
103	0xbbf27857	-0.0073995995
104	0xbcc89571	-0.024485322
105	0x3d43dedc	0.047819957
106	0xbd9ddff7	-0.077087335
107	0x3d8b308f	0.06796371
108	0xbdab87a5	-0.083754815
109	0x3d0813b3	0.03322191
110	0x3e1086c9	0.14113916
111	0x3d401dd4	0.046903446
112	0xbd5cc46c	-0.05389826
113	0x3d7c8817	0.061653223
114	0xbd596a82	-0.05308009
115	0x3cfdadab	0.0309666
116	0xbd2fb3e4	-0.042896166
117	0x3d3c2381	0.045932297
118	0xbbf844f5	-0.0075765797
119	0x3be7f488	0.007078711
120	0xbdd70bf4	-0.10500327
121	0x3d8d54b2	0.0690092
122	0x3d28bb9d	0.041194547
123	0x3da254b2	0.079263106
124	0x3b5e89e3	0.0033956699
125	0xbdb98bbc	-0.09059855
126	0xbd393c8d	-0.04522376
127	0x3c1fd805	0.009756093
128	0xbd3c60cf	-0.04599076
129	0xbd7f71bb	-0.06236432
130	0x3d5eeecb	0.05442695
131	0xbd8c0c02	-0.06838228
132	0x3d90d57c	0.07071969
133	0x3d0a3a47	0.033746984
134	0xbd097234	-0.03355618
135	0x3cbb0bee	0.022832837
136	0x3d4049df	0.04694545
137	0xbd3e4ce5	-0.04646005
138	0xbd0a9ca4	-0.03384079
139	0x3d18eece	0.037337117
140	0xbda15290	-0.07877076
141	0x3d5f2051	0.05447418
142	0xbdc42baf	-0.095786445
143	0x3d7f968a	0.062399425
144	0x3d4d3a7b	0.0501046
145	0xbcf35d93	-0.029707706
146	0x3d873d82	0.066035286
147	0xbd5ac76d	-0.053412843
148	0xbbc0dfe3	-0.0058860644
149	0x3ceb3f79	0.02871679
150	0xbe02abe6	-0.12760887
151	0xbdbecd4a	-0.093164995
152	0x3d4079fd	0.046991337
153	0xbcf3d570	-0.02976486
154	0xbcd8b8d1	-0.026455315
155	0x3df2e094	0.11859241
156	0xbc4ea58c	-0.012612712
157	0xbcca594d	-0.024700785
158	0x3cbf82d7	0.023377819
159	0xbdcf98c0	-0.101365566
160	0x3d1cb4bf	0.03825831
161	0x3d87d2dc	0.06632015
162	0x3c2482ed	0.010040981
163	0x3ceee002	0.02915955
164	0xbd8da6f6	-0.06916611
165	0x3d88bb86	0.06676392
166	0x3c8c7a76	0.017148238
167	0x3d2ef9b2	0.042718597
168	0x3d13d2bd	0.036089648
169	0x3c9bbc81	0.019010784
170	0x3d045423	0.0323068
171	0x3d4b099c	0.04956971
172	0x3d7d5370	0.06184715
173	0x3d9283ed	0.07154069
174	0x3bc3e0b5	0.005977715
175	0xbceb6fdb	-0.02873986
176	0x3d7a3278	0.061083287
177	0x3cce059e	0.025149163
178	0x3d95ae09	0.07308585
179	0xbc8ac788	-0.016940847
180	0x3a309d81	0.0006737337
181	0x3d82a99a	0.06380005
182	0xbcf9f9c8	-0.030514613
183	0xbcb63553	-0.022242224
184	0xbb2aa4df	-0.0026038212
185	0xbda000a2	-0.07812621
186	0x3d2e9493	0.04262216
187	0xbd499935	-0.049218375
188	0xbd5ad434	-0.05342503
189	0x3d495f0d	0.049162913
190	0x3c879752	0.016551647
191	0xbc161083	-0.00915921
192	0x3cd1a93d	0.025593394
193	0x3d250244	0.040285364
194	0x3c3848dc	0.01124784
195	0xbd6997b9	-0.05702946
196	0x3d1d6d97	0.03843459
197	0x3c812087	0.01576258
198	0xbdcd394f	-0.10020696
199	0x3d481944	0.04885222
200	0xbc4e1162	-0.012577387
201	0x3d51beda	0.0512074
202	0x3d9c3360	0.076269865
203	0xbc533e10	-0.012893215
204	0xbd23db0d	-0.040003825
205	0x3a91fa90	0.0011137296
206	0x3c456b10	0.0120494515
207	0xbd023528	-0.031788975
208	0x3de7ce90	0.113186955
209	0xbcb3b5f7	-0.021937354
210	0xbd1091c8	-0.035295278
211	0xbdfb37b0	-0.12266481
212	0xbda07e98	-0.07836646
213	0xbbfafe04	-0.0076596756
214	0xbd5c639e	-0.05380594
215	0xbce4e85d	-0.02794283
216	0xbcc9687d	-0.024585957
217	0x3d511b5d	0.051051486
218	0xbbe37111	-0.006940969
219	0xbdf504b3	-0.11963787
220	0x3d8b56e2	0.06803681
221	0x3d42a736	0.047522746
222	0xbce72c42	-0.028219346
223	0x3d358838	0.04431936
224	0x3d955293	0.072911404
225	0xbd96b672	-0.073590174
226	0x3c863e4f	0.016387133
227	0x3cc6afec	0.024253808
228	0x3cc3c8e1	0.023899497
229	0x3d7ff424	0.06248869
230	0x3b1698af	0.002297919
231	0x3d804b91	0.06264413
232	0x3ba0e0c3	0.004909606
233	0xbdc1fb06	-0.09471707
234	0x3dc5caa1	0.09657789
235	0x3b48365f	0.0030549986
236	0x3d8058ad	0.062669136
237	0x3d321570	0.043477476
238	0x3c7ff597	0.015622518
239	0x3d766aa9	0.060160313
240	0x3d86e9f6	0.06587593
241	0x3c36ae2f	0.011149927
242	0xbd0c6e7c	-0.034285054
243	0x3cc22ac4	0.023702033
244	0x3e151ed7	0.14562546
245	0xbd023926	-0.031792782
246	0xbd675d0e	-0.05648523
247	0xbd1c9012	-0.038223334
248	0xbc9078bb	-0.017635694
249	0xba2e7f61	-0.0006656554
250	0xbd07feb6	-0.033201896
251	0x3d1d7ae3	0.038447272
252	0xbe112003	-0.14172368
253	0xb9d48935	-0.00040538018
254	0x3a08e2dc	0.0005221793
255	0x3ba2ea46	0.004971775

layers.0.bias f4 [128]
0	0x3d3880fe	0.04504489
1	0xbcef2f7e	-0.02919745
2	0x3c2f0d24	0.010684285
3	0x3d305203	0.043046962
4	0xbcfe6668	-0.03105469
5	0x3d1b93d3	0.037982773
6	0x3ae0f468	0.0017162682
7	0x3ca45c5f	0.020063577
8	0xbd806e14	-0.06270996
9	0x3cea4cf8	0.028601155
10	0x3c6accbf	0.014331042
11	0x3cf9dec1	0.030501725
12	0x3d43860c	0.04773526
13	0xbd1b84df	-0.037968513
14	0x3ce67206	0.028130542
15	0xbd1cb351	-0.038256947
16	0xbd137444	-0.03599955
17	0x3d00aeb4	0.03141661
18	0x3d18951c	0.037251577
19	0xbd7d99b7	-0.061914172
20	0x399e388a	0.00030178233
21	0x3c1237d5	0.008924444
22	0x3d3f9981	0.046777252
23	0x3d5a7e26	0.05334296
24	0xbc51acce	-0.0127975475
25	0xbce0b848	-0.027431622
26	0xbccb1773	-0.024791455
27	0xbd34112f	-0.0439617
28	0x3c81ec77	0.015859826
29	0xbcb38e47	-0.021918429
30	0xbcd8336d	-0.02639171
31	0xbcf1fdea	-0.029540021
32	0x3cfbf61e	0.030757006
33	0xbd159fa7	-0.03652921
34	0x3d589104	0.052872673
35	0xbd5af8ee	-0.053460054
36	0x3a82f456	0.0009991031
37	0xbd3367ad	-0.043800045
38	0xbd4fa504	-0.05069448
39	0x3cd311ab	0.02576526
40	0x3c7c3e85	0.015395765
41	0xbd0fa308	-0.035067588
42	0xbcdc5cef	-0.026899783
43	0x3c189c9a	0.0093146805
44	0xbc459b4a	-0.01206095
45	0xbbacf609	-0.005278353
46	0xbd8022c9	-0.06256635
47	0xbc9613e2	-0.018320028
48	0xbd1acaa9	-0.037790928
49	0x3c2de70c	0.010614168
50	0x3d4efb66	0.05053272
51	0xbd0fcd81	-0.035108093
52	0xbd21f34e	-0.039538674
53	0x3ccb6f58	0.024833366
54	0x3d51f446	0.051258348
55	0x3c91351c	0.01772552
56	0xbd140898	-0.03614101
57	0xbd6365da	-0.055517055
58	0xbd583c17	-0.05279168
59	0xba6b8ce8	-0.0008985535
60	0x3c809577	0.01569627
61	0xbce932f8	-0.028466687
62	0x3cf775f0	0.030207604
63	0x3b9a844a	0.004715477
64	0xbc4488e1	-0.011995525
65	0xbc6cab69	-0.014445164
66	0xbd79855b	-0.060918193
67	0x3d5c2773	0.05374856
68	0xbb54211c	-0.0032368368
69	0x3b90ef64	0.004423069
70	0x3d44a2b4	0.04800673
71	0x3d0a2e2d	0.033735443
72	0x3ca9f6dd	0.020747596
73	0x3d575454	0.052570656
74	0xbc9f978d	-0.019481445
75	0xbd13e1b5	-0.036103923
76	0x3cdab219	0.026696252
77	0xbd180df6	-0.03712269
78	0xbd83995f	-0.064257376
79	0xbb18266f	-0.0023216268
80	0xba76accd	-0.00094099046
81	0xbc5b8ba3	-0.013399991
82	0x3c7988fb	0.015230413
83	0xbbb10e5a	-0.005403322
84	0x3c43696c	0.01192699
85	0x3d21a71d	0.039466012
86	0xbc3dc8a8	-0.011583485
87	0x3c3f4e55	0.011676391
88	0x3b4fe9e9	0.0031725115
89	0x3d077fd7	0.033080902
90	0xbb5e1616	-0.0033887676
91	0xbd571593	-0.05251081
92	0xbba531c9	-0.0050413352
93	0x3ba7e353	0.0051235347
94	0xbd2fd967	-0.04293194
95	0x3c727f83	0.014800909
96	0x3cabe757	0.020984335
97	0xbd423571	-0.047414247
98	0xbb880683	-0.004151167
99	0x3d0c2eb6	0.034224235
100	0xbd51da2d	-0.05123346
101	0xbd5a6ab6	-0.053324424
102	0xba2f2108	-0.0006680642
103	0x3d45e392	0.04831273
104	0xbd36b1d8	-0.0446032
105	0xbb9ab80c	-0.004721647
106	0x3cfc5720	0.030803263
107	0x3cc0931f	0.023507653
108	0x3bd75b39	0.006572154
109	0x3cf68a28	0.030095175
110	0xbd560ba3	-0.05225719
111	0xbd429317	-0.047503557
112	0xbbfa7fbc	-0.0076446217
113	0xbb9e11ba	-0.0048238905
114	0xbcb8ccc4	-0.022558577
115	0x3d05f1b7	0.03270122
116	0xbd3cbe65	-0.046080012
117	0xbc4115a9	-0.011784949
118	0x3be1160d	0.0068690837
119	0xbc3e8c87	-0.011630184
120	0x3db38872	0.08766259
121	0x3d5b74f1	0.05357832
122	0xbc9e01d3	-0.01928798
123	0x3b0e7ac5	0.0021740657
124	0xbd49d7d4	-0.049278095
125	0xbd0cd3b0	-0.03438157
126	0xbc0b0104	-0.008484129
127	0xbd4dd7bf	-0.05025458

layers.2.weight f4 [128, 128]
0	0x3b7662a2	0.003759541
1	0xbd7b0125	-0.06128039
2	0x3d90ef73	0.07076921
3	0x3b512489	0.0031912646
4	0x3cba07d7	0.022708816
5	0x3d9721e2	0.073795095
6	0x3d9a4492	0.0753261
7	0x3da94215	0.08264557
8	0xbd4778fa	-0.048699357
9	0xbd1be324	-0.038058415
10	0xbcf45902	-0.029827598
11	0xbce4a6ce	-0.02791157
12	0x3d724f87	0.059157874
13	0x3d9d2230	0.076725364
14	0x3d0eeb02	0.03489209
15	0xbb9b9085	-0.0047474527
16	0x3d9103cc	0.07080802
17	0xbd9cb6e4	-0.07652071
18	0xbd54f131	-0.05198783
19	0xbb969d79	-0.004596409
20	0x3d5d2a26	0.053995274
21	0xbd14d224	-0.03633322
22	0xbd8f5ee4	-0.07000521
23	0xbcec3cda	-0.02883761
24	0xbd298376	-0.041385137
25	0x3c96fa1a	0.018429805
26	0x3d1c7364	0.038195983
27	0x3da9cfd9	0.08291597
28	0xbcbbd7ec	-0.022930108
29	0xbd7062b5	-0.058687884
30	0xbc7af419	-0.0153169865
31	0x3d36ff95	0.044677336
32	0x3d2deea5	0.042463917
33	0x3cbed043	0.023292666
34	0xbd8a5ca1	-0.06755949
35	0xbd2322c7	-0.039828088
36	0x3da5f5f8	0.081035554
37	0xbdb0165c	-0.08598015
38	0xbc5f94e4	-0.013646338
39	0x3c3c8108	0.011505373
40	0xbc95c617	-0.018282933
41	0xbd9ffe07	-0.07812124
42	0xbda9db70	-0.082938075
43	0xbd36b89e	-0.04460966
44	0x3d075a5a	0.03304515
45	0xbd3c0ac2	-0.045908697
46	0x3da2c9ab	0.07948621
47	0xbd41c1ea	-0.04730407
48	0x3d47ec4a	0.048809327
49	0xbd82cb0c	-0.06386384
50	0xbd7f79e0	-0.06237209
51	0xbb5d2435	-0.0033743505
52	0x3d0f795b	0.035027843
53	0xbd1a2051	-0.037628476
54	0x3d17d036	0.0370638
55	0x3d7361c9	0.059419427
56	0xbd1066ea	-0.035254396
57	0x3d45aa8f	0.04825836
58	0x3cf8b7fb	0.030361166
59	0x3cf8884c	0.030338429
60	0xbdab41bb	-0.083621465
61	0xbd2535a8	-0.040334374
62	0x3d6b1dd6	0.0574015
63	0xbd43ba15	-0.047784884
64	0xbc155122	-0.009113582
65	0x3c41f9ad	0.0118393125
66	0xbd618e0a	-0.0550671
67	0xbd1fc7dd	-0.039008964
68	0x3d7a66a7	0.061133053
69	0x3d53dade	0.0517224
70	0x3cb904d7	0.022585316
71	0x3c67f109	0.014156588
72	0xbc09d0a6	-0.008411562
73	0x3d724d68	0.05915585
74	0x3b0a6d30	0.002112221
75	0xbc0fc066	-0.008773899
76	0xbd67bdba	-0.05657742
77	0x3c37736d	0.011196953
78	0xbd9d28cd	-0.07673798
79	0xbd182b10	-0.037150443
80	0xbd5a91a8	-0.053361565
81	0xbd9246bd	-0.071423985
82	0x3db34e41	0.0875516
83	0xbd59dc2a	-0.05318848
84	0xbb4f873b	-0.0031666297
85	0x3d1d9e63	0.038481127
86	0xbcc81e92	-0.02442864
87	0xbd95023f	-0.07275819
88	0x3d9938aa	0.07481511
89	0xbd31d54d	-0.04341631
90	0xbd982120	-0.07428193
91	0x3cf442ef	0.029817073
92	0xbd8755bc	-0.066081494
93	0xbc9bc29d	-0.019013697
94	0xbd22b25b	-0.039720874
95	0xbd955ff4	-0.07293692
96	0x3da2a244	0.07941106
97	0xbd06c467	-0.032902148
98	0xbc36ab45	-0.011149232
99	0x3ab5b5ba	0.0013863363
100	0x3b08c5a1	0.002086975
101	0xbd9221e3	-0.0713537
102	0xbc887ea7	-0.016661955
103	0xbd1d7f6d	-0.0384516
104	0xbcdade69	-0.026717382
105	0xbc621680	-0.01379931
106	0x3c36f529	0.011166849
107	0x3da00c4c	0.078148454
108	0xbcd94773	-0.026523327
109	0xbda45799	-0.080245204
110	0xbd8ca4a4	-0.0686734
111	0x3d23554d	0.03987627
112	0xbd524b77	-0.0513415
113	0xbd6becc3	-0.05759884
114	0xbd2d7350	-0.0423463
115	0x3d2a9d66	0.041654013
116	0xbc561356	-0.0130661335
117	0x3d46008a	0.048340358
118	0x3ca63467	0.02028866
119	0x3d062416	0.032749258
120	0xbcf1a7e9	-0.029499011
121	0x3cde9e5a	0.027175117
122	0xbd9d2a70	-0.0767411
123	0xbbfb9979	-0.0076782075
124	0x3dae34ec	0.08506188
125	0xbda9a7ec	-0.08283982
126	0xbdb1a49c	-0.08673975
127	0xbd954fc0	-0.07290602
128	0x3c85a2f2	0.01631305
129	0xbd2a7458	-0.04161486
130	0x3d960757	0.07325619
131	0xbc7885fa	-0.015168661
132	0x3d21bc12	0.039486
133	0x3d194e8a	0.037428416
134	0x3ce4536a	0.027871806
135	0x3c501905	0.012701278
136	0xbdb41cf8	-0.08794588
137	0xbd8056c8	-0.06266552
138	0x3db3d4f8	0.08780855
139	0xbc90dbfc	-0.017683022
140	0xbcffc075	-0.0312197
141	0xbda773ab	-0.08176359
142	0x3d160ea2	0.03663505
143	0x3bd62076	0.0065346314
144	0xbd8fdfb3	-0.07025089
145	0xbd9e301b	-0.07724019
146	0x3d0a9a9d	0.033838857
147	0x3d92657e	0.07148264
148	0x3d003db2	0.031308837
149	0x3d8716f5	0.065961756
150	0xbd3472fd	-0.044054974
151	0x3d48df81	0.049041275
152	0x3d4cd433	0.050007056
153	0x3d8b2a45	0.06795172
154	0x3d4dda1e	0.05025684
155	0x3cf21f5d	0.02955597
156	0x3db136e9	0.086530514
157	0x3c22312d	0.00989942
158	0x3c8e9a6d	0.01740762
159	0xbb8a5f4f	-0.0042227875
160	0xbc71e0d5	-0.014763077
161	0xbd1e5535	-0.03865548
162	0x3d87182a	0.06596406
163	0xbd162f63	-0.036666285
164	0x3d2b4a85	0.041819114
165	0xbcdb68d9	-0.026783394
166	0xbd8aca9a	-0.067769244
167	0x3c0ac456	0.008469662
168	0x3b397490	0.0028298236
169	0x3db05ff2	0.0861205
170	0x3d92f414	0.071754605
171	0xbdba9544	-0.091105014
172	0x3da30822	0.079605356
173	0x3d597043	0.053085577
174	0xbd3faa76	-0.046793424
175	0xbcf4b1af	-0.029869882
176	0x3aa82073	0.0012827053
177	0xbd1cfbbd	-0.038326014
178	0x3cdcf432	0.02697191
179	0xbd8503a9	-0.06494839
180	0xbd4e8081	-0.05041552
181	0x3bf2a601	0.007405043
182	0xbd891f1f	-0.06695389
183	0x3ac1c340	0.001478292
184	0x3d774f58	0.060378402
185	0x3d54987c	0.051903233
186	0xbd9b4e17	-0.07583254
187	0x3ce73bcb	0.028226754
188	0x3ba4891d	0.005021228
189	0xbd2fb108	-0.04289344
190	0xbd43d46b	-0.04781
191	0xbcfe9378	-0.031076178
192	0x3d06d7ac	0.032920524
193	0xbda2878f	-0.07936012
194	0x3ce419f6	0.02784441
195	0xbdbedc64	-0.0931938
196	0xbd24b373	-0.0402102
197	0x3d8792af	0.066197746
198	0xbd1fd97c	-0.03902577
199	0xbd6b5736	-0.057456218
200	0x3d8e89de	0.0695989
201	0xbd978108	-0.07397658
202	0xbdc65f5e	-0.096861586
203	0x3d795447	0.06087139
204	0xbcf31610	-0.029673606
205	0xbd9f969e	-0.077924
206	0x3d2dbedf	0.042418357
207	0xbd8206ed	-0.06348977
208	0xbdb9d047	-0.09072929
209	0xbc643306	-0.013928181
210	0xbd36fa82	-0.044672497
211	0xbc7436e4	-0.014905665
212	0xbdb4ed0e	-0.08834277
213	0xbda24bd3	-0.079246186
214	0x3cd3b8bc	0.025844924
215	0x3cb52f09	0.022117155
216	0xbce1d83e	-0.027568933
217	0xbd8055fd	-0.06266401
218	0x3dafffde	0.08593725
219	0xbcc7a6c8	-0.02437152
220	0xbd1a5e70	-0.03768772
221	0xbbc972be	-0.0061477115
222	0x3c5e74e0	0.01357767
223	0x3cc519b6	0.024060111
224	0x3d8e624b	0.06952342
225	0x3d87ed70	0.066370845
226	0x3d8dff1e	0.06933425
227	0x3b77f691	0.0037836174
228	0x3d0bfc53	0.034176182
229	0xbcbafbba	-0.02282511
230	0xbd537335	-0.05162354
231	0xbd4fb01e	-0.050705068
232	0x3da2c7b9	0.0794825
233	0x3d2ac599	0.04169235
234	0x3d4fea31	0.05076045
235	0xbc9e0254	-0.01928822
236	0x3bd85770	0.0066022202
237	0x3c998225	0.018738816
238	0x3d8d43c1	0.06897689
239	0xbc4d4c16	-0.012530347
240	0xbd780f0a	-0.060561217
241	0x3d1081e5	0.035280127
242	0xbd05b282	-0.03264094
243	0x3c98ff7c	0.018676512
244	0xbd2c72d7	-0.042101707
245	0xbd62a7ec	-0.055335924
246	0x3d82d545	0.06388334
247	0xbda289c4	-0.07936433
248	0xbd590bdf	-0.052989837
249	0xbcb3b7e2	-0.021938268
250	0x3c52537c	0.012837287
251	0x3a3b2735	0.0007139326
252	0x3d6549b0	0.055978477
253	0xbd842900	-0.06453133
254	0x3c6b4b8e	0.014361275
255	0xbd5e5ff3	-0.054290723

layers.2.bias f4 [128]
0	0xbd3f0948	-0.04663971
1	0xbce75481	-0.028238537
2	0x3c1d25cd	0.009591532
3	0xbc82f084	-0.015983827
4	0xbd975023	-0.07388332
5	0x3d56bde3	0.052427184
6	0x3be92dcf	0.0071160565
7	0xbd3bd818	-0.04586038
8	0xbd4c3029	-0.049850617
9	0xbda6ecaa	-0.08150609
10	0xbc145085	-0.0090524005
11	0xbce9876b	-0.028506955
12	0xbc492077	-0.012275807
13	0x3d807bbf	0.06273603
14	0xbd023851	-0.03179199
15	0xbd2c60c8	-0.042084485
16	0xbd81c599	-0.06336517
17	0x3bebb4cc	0.0071931835
18	0xbda87701	-0.08225823
19	0xbbe4f42d	-0.006987116
20	0x3cd878c8	0.02642478
21	0xbd3d2510	-0.046177924
22	0xbbabddc9	-0.0052449447
23	0x3b9ee3bb	0.004848925
24	0x3d05e80d	0.032692004
25	0x3c9e24e9	0.01930471
26	0xbc1fad25	-0.009745871
27	0x3d401346	0.04689338
28	0xbd8823fe	-0.0664749
29	0xbda93f2e	-0.08264004
30	0xbd8b360e	-0.067974195
31	0xbd234b26	-0.03986659
32	0x3a2ecb54	0.00066678715
33	0x3b1d1cc2	0.002397344
34	0x3cf234d8	0.029566213
35	0xbd414d1c	-0.047192678
36	0xbc522deb	-0.0128283305
37	0xbbe68705	-0.0070351386
38	0xbd2c0635	-0.041998107
39	0x3d681adf	0.05666625
40	0xbd12c41b	-0.035831552
41	0xbd9b2fa3	-0.07577445
42	0x3dbab3cc	0.09116325
43	0xbb384401	-0.0028116705
44	0xbd887876	-0.06663601
45	0x3cf7b360	0.0302369
46	0xbda6a725	-0.08137349
47	0xbd7cb10a	-0.061692275
48	0x3c798ae6	0.01523087
49	0x3d97a3a4	0.07404259
50	0xbd0a555b	-0.033772808
51	0xbd8e8986	-0.06959824
52	0xbdb440d5	-0.08801428
53	0xbd2759da	-0.040857174
54	0x3d56b105	0.052414913
55	0xbdaca448	-0.08429772
56	0xbbaf469c	-0.0053489935
57	0xbd4f63dd	-0.050632346
58	0x3ca9f776	0.020747881
59	0x3da15cca	0.07879026
60	0x3cc2da65	0.02378578
61	0x3d2acfd8	0.04170212
62	0xbce7eaa8	-0.028310135
63	0x3d7878bc	0.060662016
64	0xbcf3cdd7	-0.029761238
65	0x3da46789	0.0802756
66	0xbc010647	-0.007875032
67	0xbd8c7fbe	-0.068603024
68	0x38755770	5.8493984e-05
69	0xbd0d6b8b	-0.03452639
70	0x3d91bfcf	0.07116663
71	0xbd1fed05	-0.0390444
72	0x3b1ead4a	0.0024212175
73	0xbd593a31	-0.05303401
74	0xbc9c8abb	-0.01910912
75	0xbda952d7	-0.082677536
76	0xbca9687b	-0.020679703
77	0x3ccc01c5	0.024903188
78	0xbcd9025e	-0.026490387
79	0x3916c56e	0.00014378663
80	0x3c30f3e9	0.01080034
81	0x3d5ddc4e	0.054165177
82	0x3d00be21	0.03143132
83	0xbcfbdbc6	-0.030744445
84	0x3c8c9c97	0.017164512
85	0xba2b00c8	-0.0006523249
86	0x3d4be60a	0.04977993
87	0xbcfcbcf5	-0.03085182
88	0x3a682c7d	0.0008856727
89	0x3d3a4a6c	0.04548113
90	0x3c9ffdff	0.019530294
91	0x3cec0a16	0.028813403
92	0xbb802a35	-0.0039112815
93	0x3d78d844	0.060753122
94	0x3ccf1b05	0.025281439
95	0xbceb3ecd	-0.02871647
96	0xbd8d009f	-0.06884884
97	0x3d8fd867	0.07023697
98	0xbd28bd5d	-0.041196216
99	0x3cacb01f	0.021080075
100	0xbc266c39	-0.010157638
101	0xbc9d30ea	-0.019188363
102	0x3d99aea2	0.07504012
103	0xbd989c9e	-0.07451747
104	0x3d9e82b9	0.07739777
105	0xbd8b2015	-0.067932285
106	0x3c7f46f2	0.0155808795
107	0xbc40766a	-0.011746982
108	0x3b46ec3e	0.0030353214
109	0x3d9997b6	0.0749964
110	0xbd371307	-0.04469588
111	0x3cb8f9d8	0.022580072
112	0x3daaf1dd	0.08346913
113	0x3d9a2c36	0.07527964
114	0x3d727d7f	0.059201714
115	0x3ce12bb1	0.027486654
116	0xbc4ac277	-0.012375466
117	0xbd9d5e1f	-0.07683968
118	0x3cca86e1	0.024722518
119	0xbd3227ef	-0.043495115
120	0xbd4889b3	-0.048959445
121	0xbc7eadfc	-0.015544411
122	0x3c99b412	0.018762622
123	0xbd916313	-0.07098975
124	0x3d699b4f	0.05703288
125	0xbcc4b230	-0.024010748
126	0xbce5bbb2	-0.028043602
127	0x3d8cc3a0	0.0687325

layers.4.weight f4 [4, 128]
0	0x3dafe247	0.08588081
1	0xbd55277c	-0.05203961
2	0x3c5fe89c	0.013666298
3	0xbd453644	-0.048147455
4	0xbd1933d6	-0.03740295
5	0x3c5902ad	0.013245267
6	0x3d88b467	0.06675034
7	0x3d23f7ae	0.040031128
8	0x3cdd533a	0.027017225
9	0xbd107e6c	-0.035276815
10	0x3da1184b	0.07865962
11	0x3d48c96a	0.04902021
12	0xbd189426	-0.03725066
13	0x3d0555b4	0.032552436
14	0x3d1dae87	0.03849652
15	0xbc424139	-0.011856371
16	0xbd0aef0c	-0.03391938
17	0x3d200540	0.039067507
18	0x3d4f1a23	0.050562035
19	0xbc86e527	-0.01646669
20	0xbc6bbc9d	-0.014388231
21	0xbd6d4a6d	-0.057932306
22	0xbd519a5e	-0.051172607
23	0x3cc7eb80	0.024404287
24	0x3dac6c36	0.08419077
25	0xbd43570e	-0.047690444
26	0x3c9b42d9	0.018952774
27	0x3c24601e	0.010032682
28	0xbd15e10b	-0.03659157
29	0x3d534acc	0.051585004
30	0x3dbeb44e	0.09311734
31	0xbd93bd7b	-0.07213875
32	0xbc805ba4	-0.015668698
33	0x3cb2ea95	0.021840373
34	0x3d678931	0.05652732
35	0xbba84cd2	-0.005136111
36	0xbd6f73cb	-0.05846004
37	0x3da70d4a	0.081568316
38	0x3b5dea49	0.0033861569
39	0x3c8d3983	0.017239338
40	0x3d460857	0.048347797
41	0xbcaa048d	-0.020754123
42	0xbcd43e42	-0.025908593
43	0xbd227890	-0.03966576
44	0x3cd61c2d	0.026136482
45	0xbb4909ad	-0.0030675933
46	0x3c8fc39d	0.01754933
47	0xbd853a2c	-0.06505236
48	0x3d8cff95	0.06884686
49	0xbd4d4b67	-0.050120737
50	0x3d65e14b	0.05612306
51	0x3dafa32f	0.08576047
52	0x3da45827	0.08024626
53	0xbd73c90f	-0.059517916
54	0xbd6a930f	-0.057269152
55	0xbd88676b	-0.066603504
56	0x3c83ba8a	0.01608016
57	0x3c504038	0.012710623
58	0xbd42e67a	-0.04758308
59	0x3d5a4c8b	0.053295653
60	0x3cf1a37c	0.0294969
61	0xbd4d323c	-0.050096735
62	0x3b9d7c9e	0.0048061153
63	0xbd41af7b	-0.04728649
64	0xbcd3356d	-0.025782311
65	0x3d8da6e6	0.06916599
66	0xbd846e9b	-0.06466409
67	0xbdab6ab7	-0.083699636
68	0x3db27693	0.087140225
69	0xbd670da4	-0.056409493
70	0x3d089322	0.03334344
71	0xbdb4c460	-0.08826518
72	0xbdbb8662	-0.09156491
73	0xbcfe7d54	-0.03106562
74	0x3db37544	0.08762601
75	0xbd04e282	-0.032442577
76	0x3d0089a1	0.031381253
77	0x3c03377e	0.008008836
78	0x3c0b93a4	0.008519087
79	0xbd81acfc	-0.06331822
80	0xbd192698	-0.03739032
81	0x3d7540a4	0.0598761
82	0xbd2392c6	-0.039934896
83	0xbd694c96	-0.056957804
84	0x3da08de9	0.07839567
85	0xbd52ccbc	-0.05146478
86	0xbc881664	-0.01661224
87	0xbc2756a5	-0.010213529
88	0xbcf4eda5	-0.029898474
89	0xbcab0a5c	-0.020878963
90	0x3daf6aaa	0.085652664
91	0x3d6c43f3	0.05768199
92	0xbdc77788	-0.09739596
93	0xbd4af73d	-0.04955219
94	0x3c07044b	0.00824077
95	0xbd0f86f9	-0.03504083
96	0x3da743cc	0.08167228
97	0xbd9a480d	-0.07533274
98	0xbce865a5	-0.02836878
99	0xbcc68c53	-0.024236834
100	0x3d3f5e7d	0.04672097
101	0x3d8dcd41	0.06923915
102	0xbd67ae6e	-0.056562833
103	0x3d801edb	0.06255885
104	0xbbfbfccd	-0.0076900483
105	0x3bf3b9a8	0.0074379034
106	0x3cef0de9	0.029181438
107	0x3cfc21ea	0.03077789
108	0xbd366ffe	-0.044540398
109	0xbdc8a5a4	-0.097972184
110	0xbc9b03ca	-0.018922705
111	0x3b3e4d9b	0.0029037956
112	0xbd09f0d4	-0.033676937
113	0x3cf2f41d	0.029657418
114	0x3b27c358	0.0025598612
115	0x3db363ce	0.087592706
116	0x3d3b896b	0.04578535
117	0xbd66a105	-0.056305904
118	0xba4bc019	-0.000777246
119	0x3d6619aa	0.05617682
120	0x3d55836e	0.052127294
121	0x3da2ac90	0.0794307
122	0xbd8592b1	-0.0652212
123	0xbc499f0a	-0.012305984
124	0x3d3a3c97	0.04546794
125	0xbbcb21c5	-0.006199094
126	0x3d842a07	0.064533286
127	0x3d070120	0.032960057
128	0x3cd9e610	0.02659896
129	0xbd664566	-0.056218527
130	0xbce4549a	-0.027872372
131	0xbbfecd1e	-0.0077759167
132	0xbb5c9a52	-0.0033661318
133	0xbd9247f9	-0.07142634
134	0xbd4ded50	-0.050275147
135	0xbcff5675	-0.031169156
136	0xbcf35f71	-0.029708596
137	0xbd88fd7f	-0.066889755
138	0x3d8ee5bf	0.06977414
139	0xbca451dc	-0.020058565
140	0x3d70aff2	0.058761545
141	0xbda46f50	-0.08029044
142	0xbd43ccab	-0.04780261
143	0x3b0649cb	0.0020490761
144	0x3d86ea5d	0.0658767
145	0x3c96717a	0.018364657
146	0x3c19ae8e	0.009379996
147	0x3caa784b	0.020809313
148	0xbc057fa5	-0.008148109
149	0x3c6e61f7	0.014549724
150	0xbd891e1e	-0.066951975
151	0xbc40b743	-0.011762443
152	0x3d90e3bd	0.07074688
153	0xbd3d1f28	-0.04617229
154	0x3d1301c7	0.035890367
155	0x3d39607d	0.045258034
156	0x3daa476c	0.08314404
157	0x3d4bacb2	0.049725242
158	0xbc8aa268	-0.016923144
159	0xbc921ee2	-0.017836992
160	0x3da1b527	0.0789588
161	0xbd3abdea	-0.045591272
162	0xbced5dc6	-0.028975379
163	0x3d0b2e38	0.033979625
164	0xbd1d4224	-0.038393155
165	0xbd410423	-0.047123086
166	0xbcef8f8c	-0.029243253
167	0xbc0a6338	-0.008446507
168	0x3cc5f15f	0.024162946
169	0xbca2b876	-0.019863348
170	0x3d3077a1	0.043082837
171	0x3bfdc895	0.0077448585
172	0x3d9cb707	0.07652097
173	0xbd55a771	-0.052161638
174	0x3ce7552d	0.028238857
175	0x3d86cf13	0.06582465
176	0xbd0f1a70	-0.034937322
177	0xbd09f130	-0.03367728
178	0xbd3dfb53	-0.04638226
179	0x3d87a99a	0.06624146
180	0xbb4411cc	-0.0029917834
181	0x3db050c4	0.08609155
182	0x3d2b179e	0.04177057
183	0x3c26cee6	0.010181164
184	0x3d0b44be	0.034001105
185	0x3d9a7046	0.07540946
186	0xbdac54a8	-0.084145844
187	0x3b83f049	0.004026447
188	0x3d3980fc	0.045289025
189	0x3cdac4cf	0.026705174
190	0xbcdcf826	-0.026973795
191	0x3d812b74	0.06307116
192	0x3d9cf48d	0.07663832
193	0xbd93944a	-0.07206018
194	0xbd828fd3	-0.063750885
195	0xbd27a0fc	-0.04092501
196	0x3b96c67f	0.0046012993
197	0x3d619606	0.055074714
198	0x3d768aa7	0.060190823
199	0x3cb22e9c	0.02175074
200	0xba7774b8	-0.00094396947
201	0xbdaf416b	-0.08557399
202	0x3c834354	0.016023315
203	0xbcee9dea	-0.029128034
204	0xbda7439a	-0.08167191
205	0x3c80bafc	0.015714161
206	0xbcb27260	-0.021783054
207	0x3c5a155a	0.013310755
208	0xbba9737f	-0.005171239
209	0x3d87b533	0.06626358
210	0x3d0febf4	0.03513713
211	0xbcd661f2	-0.02616975
212	0xbd466a99	-0.048441503
213	0x3cecfdf3	0.028929686
214	0xbce067cf	-0.02739325
215	0xbd80eef8	-0.0629558
216	0x3c3e78d2	0.0116254855
217	0x3c119472	0.00888549
218	0xbd9be288	-0.07611567
219	0x3da55a28	0.080738366
220	0xbc35aed7	-0.011089048
221	0x3d31b480	0.04338503
222	0x3d8789cf	0.06618082
223	0xbdb00317	-0.08594339
224	0x3cfc0645	0.030764708
225	0x3b21c207	0.00246823
226	0x3d3b2ca3	0.045696866
227	0x3bf39f30	0.007434748
228	0xbd60b4e4	-0.05486001
229	0xbdb13542	-0.08652736
230	0x3d576fb9	0.05259678
231	0xbd22adcc	-0.039716527
232	0xbcc6e231	-0.024277778
233	0xbd5be992	-0.053689547
234	0xbd98cec1	-0.0746131
235	0xbc924037	-0.017852886
236	0xbdc76e44	-0.097378284
237	0xbd25d5f0	-0.04048723
238	0x3d92dac0	0.071706295
239	0x3d02f0bc	0.031967863
240	0xbd955892	-0.07292284
241	0x3ce19832	0.027538393
242	0xbcafe663	-0.021472162
243	0xbd539ea4	-0.051664963
244	0x3d90f3cc	0.070777506
245	0xbd28af93	-0.041183066
246	0xbd9ed7c3	-0.07755997
247	0x3d0ee9d9	0.034890983
248	0xbd9e00f5	-0.07715026
249	0xbc201b2e	-0.009772105
250	0x3d6fa9e3	0.058511626
251	0x3cfaa1c9	0.030594723
252	0x3d9a32d9	0.0752923
253	0x3d2a9c01	0.041652683
254	0xbb90c409	-0.0044179005
255	0x3d9d4d3c	0.07680747

layers.4.bias f4 [4]
0	0xbce13ffe	-0.027496334
1	0x3ca2f706	0.01989318
2	0x3d69214e	0.056916527
3	0xbd94ccf6	-0.07265656
