ptdrlhf/ptdrlhf/checkpoints/state_action/checkpoint_supervised_dqn78.pth (torch, 219095 bytes, 6 tensors)

layers.0.weight f4 [128, 290]
0	0xbd04ff9b	-0.032470327
1	0xb9d7749f	-0.00041094885
2	0xbd2797bb	-0.040916186
3	0x3cafdb72	0.021466944
4	0x3cbb6eb1	0.02287993
5	0x3b5d3b1d	0.0033757158
6	0x3b01abd9	0.0019786267
7	0xb78f270e	-1.7065115e-05
8	0x3d370d89	0.044690643
9	0x3d66025e	0.0561546
10	0x3d4375e6	0.04771986
11	0x3bbf609f	0.0058403756
12	0x3d1bd057	0.038040485
13	0xbc6edea3	-0.014579448
14	0x3d2d3eba	0.04229615
15	0x3d77d2de	0.060503833
16	0xbccce31e	-0.025010642
17	0xbcbedd87	-0.023298992
18	0xbcd19ce3	-0.025587505
19	0x3c23b896	0.009992739
20	0xbcfba71f	-0.030719338
21	0xbc03b8a2	-0.008039625
22	0xbcbcef76	-0.023063403
23	0xbd035dd5	-0.032071907
24	0xbce3a164	-0.027786918
25	0x3cd49297	0.025948806
26	0xbd7186fd	-0.058966625
27	0x3c8c9f61	0.017165842
28	0x3d3aea09	0.04563335
29	0x3a91df99	0.0011129259
30	0x3cb408a4	0.021976776
31	0x3bb8ef0e	0.005643732
32	0x3c2fe4e5	0.010735725
33	0xbc669af5	-0.014075031
34	0x3bc2b6fb	0.005942223
35	0x3d776bdb	0.060405593
36	0x3c87bcf0	0.016569585
37	0x3d10ebf5	0.035381276
38	0xbd50af10	-0.050948203
39	0x3d22ed4d	0.03977709
40	0x3d4d6a71	0.05015034
41	0x3cd916a0	0.026500046
42	0xbd4c9971	-0.04995102
43	0xbc8375c4	-0.016047366
44	0xbd438a7c	-0.04773949
45	0x3c0d9704	0.008641962
46	0xbb931c55	-0.0044894614
47	0x3d1ad6bd	0.037802447
48	0xbcf8f264	-0.030389018
49	0x3d3423e0	0.043979526
50	0x3d5bce04	0.05366327
51	0x3d3cc46b	0.046085756
52	0x3cdedc92	0.027204785
53	0x3d01ebf0	0.03171915
54	0xbd557724	-0.052115574
55	0xbd62c1c3	-0.055360567
56	0xbc5ae621	-0.013360531
57	0x3d27fc7b	0.04101227
58	0xbd132b0f	-0.035929736
59	0xbc561e99	-0.0130688185
60	0x3d2fe600	0.042943954
61	0x3d610cff	0.054944035
62	0x3c831a4a	0.016003747
63	0xbcb21205	-0.021737108
64	0xbd536144	-0.05160643
65	0xbcc02fe6	-0.02346034
66	0xbcaad922	-0.02085549
67	0x3d505866	0.050865553
68	0xbced13ed	-0.028940165
69	0x3cefcac8	0.029271498
70	0xbd46c906	-0.048531555
71	0x3b9c58c0	0.004771322
72	0x3bedf002	0.007261277
73	0xbcca2d6e	-0.024679866
74	0xbcde581c	-0.027141623
75	0xbc520d63	-0.012820574
76	0xbd1af57c	-0.03783177
77	0x3cb9f7b0	0.022701114
78	0xbad47b10	-0.0016210992
79	0xbd635828	-0.055503994
80	0xbce2d701	-0.027690412
81	0xbd074b6e	-0.03303092
82	0xbcbe9cc2	-0.023268107
83	0x3b82bc56	0.0039897365
84	0xbd27fa67	-0.041010287
85	0x3c4084ae	0.011750383
86	0x3ba9780d	0.005171782
87	0xbd1d1e2a	-0.038358845
88	0x3d63fed7	0.055662956
89	0xbcf91e8e	-0.030410077
90	0xbb9d969e	-0.0048092147
91	0xbac8a811	-0.0015308877
92	0x3d2ee687	0.042700317
93	0xbcf43b41	-0.02981341
94	0x3cd4de30	0.025984854
95	0xbd109839	-0.03530142
96	0x3d4a30ac	0.049362823
97	0x3c19257e	0.009347318
98	0xbd22ecf0	-0.039776742
99	0x3d5ba1fa	0.05362127
100	0x3d45ee0a	0.048322715
101	0xbd3c0e5c	-0.04591213
102	0xbbd8d30e	-0.0066169566
103	0xbd4ff719	-0.05077276
104	0xbc4ab3eb	-0.012371997
105	0xbd19ffb5	-0.037597377
106	0xbd32b35c	-0.04362808
107	0x3d31fbce	0.04345303
108	0x3d110bdf	0.03541171
109	0x3cf23ddb	0.02957051
110	0xbd225f49	-0.039641652
111	0xbccc3b72	-0.02493069
112	0x3b38b66f	0.002818491
113	0xbcc52b3b	-0.024068465
114	0x3d6a6707	0.05722716
115	0x3d6eb57c	0.058278546
116	0xbd095603	-0.033529293
117	0xbd4ada6a	-0.049524702
118	0xbce8ba64	-0.02840919
119	0xbc8fdeaa	-0.01756223
120	0xbcf76d7b	-0.030203572
121	0xbcb88316	-0.022523444
122	0x3d1704ea	0.03686992
123	0x3cbf90b4	0.02338443
124	0xbc96df10	-0.018416911
125	0x3d1175e8	0.035512835
126	0xbd33f5d8	-0.043935627
127	0xbc9b49f1	-0.018956156
128	0xba67af0d	-0.0008838035
129	0xbcb2adcf	-0.021811394
130	0x3caa9bb5	0.0208262
131	0xbd3a7211	-0.04551894
132	0x3c85137e	0.016244646
133	0xbd5d0d48	-0.053967744
134	0x3cddcc89	0.027075069
135	0x3d119273	0.035540055
136	0xbc10b68d	-0.008832586
137	0xbd158035	-0.03649922
138	0x3c766eb4	0.015041042
139	0xbd18ecf0	-0.037335336
140	0xbd312b77	-0.043254342
141	0x3c03da6e	0.008047683
142	0xbd495409	-0.049152408
143	0x3d66e1bf	0.056367632
144	0x3d142c14	0.03617485
145	0xbd5eb24c	-0.054369256
146	0xbd060545	-0.03271987
147	0xbc984ac5	-0.01859034
148	0xbd2074f3	-0.03917403
149	0xbd691cd7	-0.05691227
150	0xbb8d5f1d	-0.004314317
151	0xbd0c56f6	-0.03426262
152	0x3c6d1d18	0.0144722685
153	0x3c254bb7	0.010088853
154	0x3c30af66	0.010784006
155	0x3d49e3a2	0.049289353
156	0x3c96b1e8	0.01839538
157	0x3d30d63e	0.043173067
158	0x3c53dbc0	0.01293081
159	0xbd2f202e	-0.0427553
160	0xbc912e58	-0.017722294
161	0x3d505d41	0.050870184
162	0x39917bf4	0.00027748907
163	0x3c963a9e	0.018338498
164	0x3cffeb0b	0.031240007
165	0xbc4a5e26	-0.012351548
166	0x3c9c8fa4	0.019111462
167	0x3c8deace	0.017323878
168	0x3cf35821	0.02970511
169	0xbb9471a2	-0.0045301476
170	0x3c9f31a2	0.019432846
171	0xbd2b92ea	-0.041888155
172	0xbbc0c30f	-0.005882628
173	0xbd47a8ed	-0.048745085
174	0x3d2a866d	0.041632105
175	0xbc9464c7	-0.01811446
176	0x3cb6e761	0.022327127
177	0x3a06f352	0.0005147952
178	0xbd2875ba	-0.041127898
179	0xbc9620f5	-0.018326262
180	0xbcb3d286	-0.021950971
181	0xbd34fb8b	-0.044185203
182	0xbc482b81	-0.012217403
183	0x3c03b9ea	0.008039931
184	0x3cb97688	0.022639528
185	0x3d3761e8	0.044771105
186	0xbd0e0adb	-0.03467832
187	0x3d124e8c	0.03571944
188	0x3d10f6a6	0.035391472
189	0x3c870f90	0.016486913
190	0xbb8b1bb7	-0.004245247
191	0xba7e792b	-0.00097073865
192	0x3c472c47	0.012156553
193	0xbce92bef	-0.028463332
194	0x3aba86ec	0.0014230884
195	0xbc176143	-0.009239498
196	0x3c7acdaa	0.015307823
197	0x3cbc330f	0.022973565
198	0xbd14c7c3	-0.03632332
199	0xbd142099	-0.0361639
200	0x3d43b85b	0.047783237
201	0xbcd3a1ce	-0.02583399
202	0x3d034415	0.03204735
203	0xbc3cdee6	-0.0115277525
204	0xbc352906	-0.011057144
205	0x3d25db35	0.040492255
206	0x3ce546cd	0.027987862
207	0x3c62a307	0.013832814
208	0xbc8ad0fe	-0.016945358
209	0xbd118688	-0.03552869
210	0xbd253996	-0.04033812
211	0x3d66d407	0.05635455
212	0xbc794f1f	-0.015216618
213	0x3b9dfc2d	0.0048213215
214	0xbc4bcc6d	-0.012438876
215	0xba82a773	-0.0009968117
216	0x3d3b3a60	0.045709968
217	0xbcb50f58	-0.022102043
218	0xbd688f27	-0.056777146
219	0x3ce15652	0.027506981
220	0x3c848ffc	0.016181938
221	0xbca7b3ed	-0.020471537
222	0x3d0048c2	0.031319387
223	0x3c0e70ed	0.008693916
224	0xbd555aee	-0.05208867
225	0x3c819087	0.015815986
226	0x3d410029	0.047119293
227	0xbd496c91	-0.049175803
228	0x3d3a8498	0.045536608
229	0xbd768a86	-0.0601907
230	0x3d5fe72d	0.054663826
231	0xbd4e1559	-0.050313327
232	0xbd4ffade	-0.050776355
233	0x3bbe9763	0.0058163865
234	0x3cb4ba19	0.022061395
235	0x3d0806e3	0.033209693
236	0xbc6c9ef0	-0.0144421905
237	0xbc841158	-0.016121551
238	0xbc3df012	-0.011592882
239	0x3c852319	0.016252087
240	0x3d52204e	0.05130034
241	0xbc860135	-0.016357997
242	0x3c864100	0.016388416
243	0xbd5b85f2	-0.053594537
244	0xbd183924	-0.03716387
245	0x3d2d4ae4	0.04230775
246	0x3d3ddc2b	0.046352547
247	0xbd44f50f	-0.04808527
248	0x3d63624f	0.055513676
249	0x3d336e16	0.043806158
250	0xbcc7031f	-0.02429348
251	0xbcd5f141	-0.026116015
252	0x3c8c815e	0.01715153
253	0x3d4f1342	0.050555475
254	0x3bb746c6	0.0055931536
255	0xbbbe7894	-0.005812714

layers.0.bias f4 [128]
0	0xbc6407ed	-0.013917905
1	0xbd61678a	-0.055030383
2	0xbc7820bd	-0.015144524
3	0x3c8d0d73	0.017218327
4	0x3d259a29	0.04043022
5	0x3c7e2b60	0.015513271
6	0xbc075dc6	-0.008262103
7	0x3c7fe77e	0.015619157
8	0x3c884b5d	0.016637499
9	0xbd2e94f2	-0.042622514
10	0x3c38145b	0.011235322
11	0x3d275543	0.040852796
12	0xbd8186e5	-0.06324557
13	0xbd1e0d6f	-0.03858703
14	0x3ce9ba38	0.028531179
15	0xba18155b	-0.0005801522
16	0xbd249661	-0.040182475
17	0xbd036afe	-0.032084458
18	0x3d4bbd7d	0.049741257
19	0x3c2afca6	0.010436213
20	0xba93d0c2	-0.0011277425
21	0x3d4d3932	0.050103374
22	0x3d5b3b10	0.053523123
23	0x3c05ee18	0.008174442
24	0x3c3e817a	0.011627549
25	0xbd3d72f0	-0.04625219
26	0x3d672661	0.056433085
27	0x3d48bda1	0.04900897
28	0x3cc0964c	0.023509167
29	0xbcd9cbab	-0.026586374
30	0xbab8dcbd	-0.0014103871
31	0x3d4de97f	0.050271507
32	0x3d0a6f61	0.033797625
33	0xbd4d1f5c	-0.050078735
34	0x3d5a90a7	0.053360607
35	0x3c1ce245	0.009575431
36	0x3b7fbc10	0.0039022006
37	0xbcb0f40c	-0.021600746
38	0xbd37f413	-0.0449105
39	0xbaa61a56	-0.0012672644
40	0xbd376adc	-0.044779643
41	0x3aa76dc6	0.0012773804
42	0x3c496b4c	0.012293648
43	0xbcd44240	-0.025910497
44	0x3d07a515	0.03311642
45	0x3cb43fd0	0.022003084
46	0x3cb89bb0	0.022535175
47	0xbd0b20ba	-0.033966757
48	0x3c794d4e	0.015216185
49	0xbb0ab56b	-0.0021165262
50	0x3d393921	0.045220498
51	0x3d1c9a1e	0.038232915
52	0xbcd2fbd6	-0.02575485
53	0x3d0ddd83	0.03463508
54	0x3b8e5214	0.0043432806
55	0x3bed67d0	0.0072450414
56	0x3d435a1e	0.047693364
57	0x3c311e17	0.010810397
58	0xbc28f777	-0.0103129065
59	0xbcbdf915	-0.02319006
60	0xbbcb8d69	-0.0062119258
61	0x3d02094a	0.03174714
62	0xbc162e38	-0.009166293
63	0x3c9a803f	0.01885998
64	0x3d4e81b2	0.050416656
65	0x3b1d4f6d	0.002400364
66	0xbba67f7d	-0.0050811158
67	0xbd3de205	-0.046358127
68	0x3c8e37fd	0.017360682
69	0xbd649878	-0.055809468
70	0x3d3d718f	0.046250876
71	0x3a71646d	0.0009208385
72	0xbc40ce7d	-0.011767981
73	0x3ba1f54f	0.004942573
74	0x3d37bd67	0.044858363
75	0xbd079db9	-0.0331094
76	0x3c00a135	0.007850935
77	0x3b6734da	0.0035279305
78	0x3bcbb123	0.0062161847
79	0xbd46e998	-0.048562616
80	0xbce3e69b	-0.027819922
81	0x3d76a514	0.060216025
82	0xbd27e78e	-0.040992312
83	0xbc82eb49	-0.015981333
84	0x3c941bd0	0.018079668
85	0x3d27086a	0.04077951
86	0xbcfd2e36	-0.030905824
87	0x3d029fe1	0.031890754
88	0x3cbf78b7	0.023372991
89	0x3b7aacea	0.0038250037
90	0x3d10492a	0.035226025
91	0x3becc30d	0.0072254003
92	0x3d58f569	0.052968416
93	0xbc4d2bdc	-0.012522664
94	0xbd0031ae	-0.03129738
95	0xbb002f37	-0.0019559392
96	0x3d0208bf	0.031746622
97	0x3cb3fcf1	0.021971198
98	0x3cf1557f	0.029459713
99	0xbd6c440b	-0.05768208
100	0xbbe24a63	-0.0069058402
101	0x3d2e04f8	0.042485207
102	0x3c779718	0.015111707
103	0x3d757f59	0.0599359
104	0xbd3ead3f	-0.04655194
105	0x3ca72cfb	0.02040719
106	0x3d6b493c	0.05744289
107	0xbccaff66	-0.024779987
108	0x3d574b3d	0.052561987
109	0xbc35c13b	-0.011093433
110	0x3d7abccd	0.06121521
111	0xbd40fb4f	-0.047114667
112	0xbbcf72c5	-0.0063308203
113	0xbc2cf83a	-0.010557229
114	0x3cb3b958	0.021938965
115	0x3d238c60	0.039928794
116	0xbadb37b3	-0.0016724974
117	0x3c5fddd1	0.013663725
118	0x3d399599	0.045308683
119	0xbbff4af8	-0.0077909194
120	0xbd5e22a7	-0.054232266
121	0xbca47c5c	-0.02007883
122	0xbc50e064	-0.012748811
123	0xbbafd5fe	-0.005366086
124	0x3d63d4d8	0.055622905
125	0x3cdb9e89	0.026808994
126	0xbc9f6f45	-0.019462237
127	0x3d84ecaa	0.064904526

layers.2.weight f4 [128, 128]
0	0xbd5da233	-0.054109763
1	0x3d6d5e5a	0.05795131
2	0x3d0745a0	0.033025384
3	0xbd963121	-0.07333589
4	0x3ce4b4ba	0.027918208
5	0xbd992c7e	-0.07479189
6	0xbd61177a	-0.05495403
7	0xbdaa953f	-0.08329248
8	0xbd222380	-0.039584637
9	0x3dad553c	0.08463523
10	0x3dba7eef	0.09106242
11	0xbd1709ec	-0.036874697
12	0x3a9267a2	0.0011169801
13	0x3d471680	0.048605442
14	0x3d99b510	0.07505238
15	0x3d9b65c1	0.075877674
16	0xbca730dd	-0.020409042
17	0xbc72937d	-0.014805672
18	0x3bfffd8a	0.0078122066
19	0xbd6f5c23	-0.058437478
20	0xbd3cc4ae	-0.046086006
21	0x3b495d0e	0.003072563
22	0xbbdd3379	-0.006750521
23	0x3cea6e73	0.02861712
24	0x3b68133b	0.0035411853
25	0xbda70b0a	-0.081564024
26	0xbd0737fc	-0.033012375
27	0xbd558903	-0.052132618
28	0x3d99ea40	0.07515383
29	0x3d2bff56	0.041991554
30	0x3d474f50	0.048659623
31	0xbc153ded	-0.009109003
32	0x3da5e178	0.080996454
33	0xbca43fed	-0.020050013
34	0x3d1a0d07	0.03761008
35	0x3d3fb1d2	0.046800442
36	0xbd889c7a	-0.066704705
37	0x3c97c7b1	0.018527837
38	0xbc3b7b47	-0.011442966
39	0xbce2ab67	-0.027669622
40	0x3d2b2565	0.04178371
41	0x3d87cf26	0.06631307
42	0x3d149ec3	0.03628422
43	0xbd24075f	-0.040046092
44	0x3d210561	0.03931177
45	0x3d82b09c	0.06381342
46	0x3d92f4c2	0.0717559
47	0x3d1afd46	0.037839197
48	0xbc75dc44	-0.015006129
49	0x3d729d9c	0.05923234
50	0xbbb8aea9	-0.0056360555
51	0x3d3c7b3b	0.04601596
52	0xbc1ba78b	-0.009500395
53	0xbb6646e7	-0.0035137476
54	0xbc12c3cf	-0.008957817
55	0xbd3e69e9	-0.046487723
56	0xb9f62244	-0.00046946306
57	0x3cc65e56	0.024214905
58	0xbd853392	-0.06503977
59	0x3d3ca8dc	0.046059474
60	0x3bfbca1b	0.007684005
61	0x3d956a3c	0.07295653
62	0x3d9bc6ca	0.076062754
63	0xbd37b63c	-0.044851527
64	0xbd117ed1	-0.035521332
65	0x3d35b4d1	0.044361893
66	0x3dbac7c8	0.091201365
67	0x3da97b31	0.0827545
68	0x3d81ae57	0.06332081
69	0xbd957a6b	-0.0729874
70	0x3cb5bc87	0.022184623
71	0xbca0f831	-0.019649597
72	0xbd03fbbc	-0.032222494
73	0xbd75ce8c	-0.06001143
74	0xbd669374	-0.056292966
75	0xbac6ad21	-0.0015157798
76	0x3c490fcc	0.012271833
77	0xbb8e39b7	-0.0043403762
78	0xbd84f8ee	-0.06492792
79	0x3c9ce79f	0.019153414
80	0xbcf415ea	-0.029795606
81	0x3c77e2ef	0.015129789
82	0xbd35968f	-0.044333037
83	0xbd8673ad	-0.06565032
84	0xbcb3ade5	-0.021933505
85	0xbcb61509	-0.022226827
86	0x3da5e8c2	0.08101036
87	0x3c189963	0.009313914
88	0xbd29033b	-0.041262846
89	0x3db50c2c	0.08840212
90	0x3d782dec	0.06059067
91	0xbd7ecfc0	-0.062209845
92	0xbc797f46	-0.015228098
93	0x3d9ab66c	0.075543255
94	0xbce6dcdb	-0.028181484
95	0xbbd98f99	-0.0066394326
96	0x3d8d2611	0.06892026
97	0xbd90b345	-0.07065443
98	0xbd4d821a	-0.050172903
99	0xbdaad02e	-0.083404884
100	0x3d51fb71	0.051265184
101	0xbce0a60d	-0.02742293
102	0x3d579af2	0.052638
103	0x3da598de	0.08085798
104	0xbc0fca42	-0.008776249
105	0x3cf72feb	0.030174216
106	0xbcf5d5ac	-0.030009113
107	0xbcf91bf7	-0.030408842
108	0xbcbef95d	-0.023312265
109	0x3dafef9e	0.08590625
110	0x3d9f001a	0.07763691
111	0xbb7b55c5	-0.0038350683
112	0xbd4b07c9	-0.04956797
113	0x3dac55c4	0.08414796
114	0xbd4b615c	-0.049653396
115	0x3d70022d	0.058595825
116	0xbd262ce7	-0.040570166
117	0xbd23eda9	-0.040021572
118	0xbc471255	-0.012150367
119	0xbdaccd09	-0.08437545
120	0x3d51ea6e	0.05124896
121	0xbd8dce01	-0.06924058
122	0x3d8e4115	0.06946007
123	0xbce4e5b1	-0.027941557
124	0x3d760cf9	0.060070965
125	0x3d886259	0.06659383
126	0x3d79f395	0.061023314
127	0xbd562228	-0.052278668
128	0xbd8ce8af	-0.068803184
129	0xbd2d219e	-0.042268388
130	0xbbdd560e	-0.0067546433
131	0x3cebffbc	0.028808467
132	0xbd60f395	-0.054919798
133	0xbda099ab	-0.0784181
134	0xbd9c60f0	-0.07635677
135	0xbd3f56fa	-0.046713807
136	0xbd18d974	-0.037316754
137	0x3c0752d7	0.008259497
138	0xbd186361	-0.03720415
139	0xbc8bc9f7	-0.017064078
140	0x3d9f9c16	0.07793443
141	0x3d8fb034	0.0701603
142	0x3c21d45e	0.009877292
143	0xbd87f98a	-0.06639393
144	0xbced2a4f	-0.028950838
145	0xbca12cbe	-0.019674655
146	0xbd6814d3	-0.056660485
147	0xbd2acab0	-0.041697204
148	0xbda34c61	-0.079735525
149	0xbb07542a	-0.002064953
150	0xbdb37e03	-0.08764269
151	0xbd913fe2	-0.07092263
152	0x3ab3b78c	0.0013711317
153	0xbc72f385	-0.014828567
154	0xbd09d9d5	-0.033655006
155	0xbda79f5b	-0.081846915
156	0xbd4a2de5	-0.049360175
157	0x3ce453e6	0.027872037
158	0xbd5d92a3	-0.05409492
159	0x3b69b58b	0.0035661187
160	0xbcec7835	-0.028865913
161	0xbd889df8	-0.06670755
162	0x3cab86cd	0.020938301
163	0xbd86330c	-0.06552705
164	0x3d898fe8	0.06716901
165	0x3d8661c6	0.065616176
166	0xbcda64fd	-0.026659483
167	0xbda30a01	-0.079608925
168	0x3d66eb16	0.05637654
169	0x3db1490f	0.08656513
170	0x3ce723d8	0.028215334
171	0xbdaab5fc	-0.08335492
172	0x3c2b31e7	0.010448909
173	0xbcc64140	-0.024201035
174	0x3c9d67ac	0.019214474
175	0x3b56e351	0.00327893
176	0x3b5e0100	0.0033875108
177	0xbcb0c36e	-0.021577563
178	0x3d4a3f05	0.049376506
179	0xbcd95c27	-0.0265332
180	0xbd8a6181	-0.06756879
181	0xbd4bd3fe	-0.04976272
182	0x3d931006	0.071807906
183	0xbd1ba681	-0.038000587
184	0x3d842a93	0.06453433
185	0xbca1b323	-0.01973874
186	0x3d13573e	0.035971873
187	0xbdaa5e3c	-0.08318755
188	0x3cba659f	0.022753535
189	0x3c653566	0.013989782
190	0x3d67e61f	0.056615945
191	0xbd2a7093	-0.041611265
192	0xbd44d016	-0.04805001
193	0x3d4d7bf8	0.050167054
194	0xbd94133d	-0.07230232
195	0x3c5c927f	0.013462662
196	0xbdb2c0c2	-0.08728172
197	0x3d83ab03	0.06429102
198	0xbd20469f	-0.03912985
199	0xbd513c6e	-0.05108302
200	0x3db1ebee	0.08687578
201	0xbc9c1d1f	-0.019056855
202	0x3c683913	0.014173764
203	0xbd92ca1d	-0.07167456
204	0x3d10efac	0.03538482
205	0xbcb8b813	-0.02254871
206	0x3ce97932	0.028500173
207	0xbd475692	-0.048666544
208	0xbd9c4a4d	-0.07631359
209	0xbd8899ba	-0.06669946
210	0xbd70d980	-0.058801174
211	0xbd09e0a9	-0.03366152
212	0xbd1d6a86	-0.038431667
213	0xbd949a8a	-0.072560385
214	0xbbe1b80f	-0.0068883966
215	0x3cdf6de3	0.027274078
216	0xbd53916b	-0.051652353
217	0x3c5df3a7	0.013546861
218	0x3d8ff92b	0.07029947
219	0xbd89ee65	-0.06734923
220	0x3d7dc063	0.061951052
221	0xbd942fad	-0.07235656
222	0xbda2455b	-0.07923385
223	0xbcbcd54a	-0.023050923
224	0xbd96437e	-0.07337092
225	0xbd9fb63d	-0.07798431
226	0xbd70c54b	-0.058781903
227	0x3cd7856b	0.026308736
228	0xbd02c8e0	-0.03192985
229	0xbcb10deb	-0.021613082
230	0xbd9aefe4	-0.07565287
231	0xbbed2b31	-0.007237815
232	0xbc55aee2	-0.013042184
233	0xbd173f93	-0.036925863
234	0x3d92de8c	0.07171354
235	0x3caa49f9	0.020787226
236	0x3d1eccb5	0.038769443
237	0x3d78aed2	0.060713597
238	0xbdab6297	-0.08368414
239	0x3c43da4a	0.0119539
240	0xbcccf7f1	-0.025020571
241	0x3d0a0d40	0.033704042
242	0xbd13f42f	-0.036121543
243	0x3b6d6259	0.003622195
244	0xbd10e152	-0.035371132
245	0x3c8fb9a3	0.017544573
246	0xbd6bfef6	-0.057616197
247	0xbdaad895	-0.08342091
248	0x3c5950ff	0.01326394
249	0x3c1cb5ca	0.009564826
250	0xbc0cf8eb	-0.008604269
251	0x3d7690fe	0.06019687
252	0x3d93ae9b	0.07211038
253	0x3d56c220	0.052431226
254	0xbca92c8b	-0.020651123
255	0x3c054f3a	0.008136565

layers.2.bias f4 [128]
0	0x3cd17043	0.025566226
1	0x3c78fe95	0.015197416
2	0x3cc6cf8c	0.024268888
3	0xbd6bcd4c	-0.057568833
4	0x3bf463b7	0.007458176
5	0x3da06a61	0.0783279
6	0xbd23879f	-0.03992426
7	0xbcf0d5df	-0.029398857
8	0x3d2eea36	0.04270383
9	0xbc063e46	-0.008193558
10	0xbb41d8d0	-0.0029578693
11	0xbcbd0214	-0.02307228
12	0x3c9a9d4a	0.01887383
13	0x3d9879c0	0.07445097
14	0xbc18ba0b	-0.0093217
15	0xbccde264	-0.025132366
16	0x3d917c18	0.07103747
17	0x3c176577	0.0092405
18	0xbdb1d310	-0.08682835
19	0x3d9fb802	0.077987686
20	0xbcad37aa	-0.021144707
21	0x3d925962	0.07145955
22	0xbd7512de	-0.059832446
23	0xbd32851c	-0.043583974
24	0xbda3cb5b	-0.07997771
25	0x3d9cbf89	0.0765372
26	0x3c9df99a	0.019284058
27	0x3c6105ee	0.013734324
28	0x3cb98457	0.022646112
29	0xbd2f4750	-0.04279262
30	0xbc6b2ece	-0.014354421
31	0xbd36f654	-0.04466851
32	0x3d2af323	0.04173578
33	0x3c7a8127	0.015289581
34	0xbd8651c5	-0.06558565
35	0xbcc62196	-0.024185937
36	0x3d00cf2d	0.03144758
37	0x3d2e4bda	0.042552806
38	0xbd3e22dc	-0.046419963
39	0xbd61c0ef	-0.055115636
40	0x3c438bae	0.011935158
41	0x3d92f4b7	0.07175582
42	0x3b67af3d	0.0035352253
43	0xbd86848c	-0.0656825
44	0xbd7a0433	-0.06103916
45	0x3c6a86eb	0.0143143935
46	0x3d7542ef	0.059878286
47	0x3aa06337	0.00122366
48	0xbcf39847	-0.029735697
49	0xbcc7673b	-0.024341216
50	0xbd896107	-0.067079596
51	0xbda65c2a	-0.08123048
52	0x3dac0a68	0.08400422
53	0xbdac7a32	-0.084217444
54	0xbd579ca6	-0.052639626
55	0xbd9e1104	-0.07718089
56	0x3d273883	0.04082538
57	0xbdb00cb1	-0.08596171
58	0xbd64529d	-0.05574285
59	0x3db66114	0.08905235
60	0xbd832d3f	-0.064051144
61	0xbd84b59c	-0.06479952
62	0x3d9f61ca	0.07782324
63	0x3d6b8a81	0.057505134
64	0xbd9bd9ea	-0.07609923
65	0xbd101786	-0.035178684
66	0xbc389ed7	-0.011268339
67	0x3cde35a6	0.027125191
68	0xbc15476c	-0.009111267
69	0x3c99ea10	0.018788368
70	0xbd966c63	-0.07344892
71	0xbd300a40	-0.042978525
72	0x3d8a3710	0.067487836
73	0xbd2f9c91	-0.042873923
74	0x3b8048c2	0.0039149234
75	0xbd8bb20a	-0.06821068
76	0xbd16cc75	-0.03681608
77	0x3d446a65	0.04795303
78	0xbdb0be7e	-0.086300835
79	0xbd1dc6ea	-0.038519777
80	0xbd02b80d	-0.031913806
81	0xbd9b37a9	-0.07578976
82	0x3bc19456	0.0059075756
83	0x3d8410e7	0.06448536
84	0xbda774a8	-0.08176547
85	0x3d1a3b5f	0.037654277
86	0xbd26bad2	-0.04070551
87	0x3da1ff29	0.07909996
88	0xbd09d8eb	-0.033654135
89	0x3d82f2de	0.063939795
90	0x3ca34a66	0.019932937
91	0x3d9e5463	0.07730939
92	0xbd734394	-0.05939062
93	0x3d0b2473	0.033970308
94	0x3bca18c7	0.0061675045
95	0x3d9b6286	0.07587151
96	0x3dbd40ab	0.0924085
97	0xbd7af3e9	-0.061267767
98	0x3d6ecca3	0.058300626
99	0xbd5b172e	-0.053488903
100	0xbcefa8a9	-0.029255228
101	0x3d2fba1e	0.042902105
102	0x3ca02ee0	0.019553602
103	0x3d9e0415	0.07715622
104	0x3da674f0	0.08127773
105	0x3c1fbc46	0.009749478
106	0xbd922f90	-0.07137978
107	0x3be99796	0.007128666
108	0xbd99c2b6	-0.07507841
109	0xbd3e9dda	-0.046537258
110	0xbd911e4d	-0.070858575
111	0xbd9ed390	-0.07755196
112	0x3cc3391a	0.02383094
113	0x3d8718c9	0.06596524
114	0x3d89e1d9	0.0673253
115	0x3d199f75	0.037505586
116	0x3d812e26	0.0630763
117	0xbcc9527b	-0.024575463
118	0xbd2d9ed5	-0.042387802
119	0x3da5ef83	0.08102324
120	0xbd9fb900	-0.07798958
121	0x3d5946c4	0.053046003
122	0xbc77e992	-0.015131371
123	0x3d7402f9	0.059573147
124	0x3d8eda3d	0.069752194
125	0xbb1cc5a9	-0.0023921526
126	0xbb41243b	-0.0029471058
127	0x3d0a2d0e	0.033734374

layers.4.weight f4 [4, 128]
0	0x3da50ffe	0.08059691
1	0xbbbeb208	-0.005819563
2	0xbccf2920	-0.025288165
3	0x3b8863b2	0.004162275
4	0xbd4f62e1	-0.050631408
5	0x3d258889	0.040413413
6	0x3b9e7ceb	0.0048366687
7	0xbcd6f665	-0.026240537
8	0xbd7665f2	-0.060155816
9	0xbce4da78	-0.027936205
10	0x3db0e2cb	0.08637007
11	0xbb90ad2a	-0.004415174
12	0xbcd5fd24	-0.026121683
13	0xbda82229	-0.082096405
14	0xbd142dea	-0.0361766
15	0xbda66032	-0.081238165
16	0x3cf954ab	0.03043588
17	0x3b457eed	0.0030135468
18	0xbd5dc5b7	-0.054143634
19	0xbc539b33	-0.01291542
20	0xbd9e15db	-0.07719012
21	0xbd0abdbe	-0.03387236
22	0xbd2b6abd	-0.04184984
23	0x3ca6140d	0.020273233
24	0xbd58b4ea	-0.052906908
25	0x3d9dd840	0.07707262
26	0x3d802cc8	0.06258541
27	0xbbc1c7dc	-0.0059137177
28	0xbd7d9356	-0.06190809
29	0xbd1a182f	-0.03762072
30	0x3c8708a5	0.016483614
31	0x3da49869	0.080368824
32	0xbc8406d8	-0.016116545
33	0xbcffd086	-0.031227361
34	0x3d4d0cfe	0.05006122
35	0x3d8d7daa	0.06908734
36	0x3c92a6eb	0.017901858
37	0xbd6d99b9	-0.05800793
38	0x3cafc438	0.02145587
39	0xbda060e4	-0.078309804
40	0xbd9f5968	-0.07780725
41	0xbd1a81ae	-0.03772133
42	0x3d8bc756	0.0682513
43	0x3d330783	0.043708336
44	0x3d9bc1d1	0.07605327
45	0x3d870ee2	0.065946355
46	0xbd876588	-0.066111624
47	0xbb12fa91	-0.0022427181
48	0xbd2c1754	-0.042014435
49	0x3da64158	0.08117932
50	0x3d9cfae1	0.07665039
51	0xbb9ac7be	-0.004723518
52	0xbd76fce0	-0.060299754
53	0xbcb21341	-0.021737697
54	0xbd6498f7	-0.05580994
55	0x3c7a9624	0.015294585
56	0x3be709e1	0.007050738
57	0xbda0e3b4	-0.07855931
58	0x3d5fe088	0.05465749
59	0xbc7ddeba	-0.015494997
60	0xbcbfa91c	-0.023396067
61	0xbce9e65b	-0.028552225
62	0xbc879d89	-0.01655461
63	0x3d46477e	0.048408024
64	0x3cd67a5f	0.026181398
65	0x3cc27a6b	0.023740014
66	0x3d26c987	0.040719535
67	0xbd0cb6a5	-0.03435387
68	0x3d07bec2	0.033140905
69	0xbd19a640	-0.037512064
70	0x3d375e33	0.04476757
71	0xbb6be624	-0.0035995329
72	0x3d99da37	0.07512324
73	0x3c3fef91	0.011714832
74	0x3bc3dc44	0.0059771854
75	0xbd8065fa	-0.062694505
76	0xbd7c4dc0	-0.061597586
77	0xbc83f8c0	-0.016109824
78	0x3d49a7ca	0.04923228
79	0xbd7dc0af	-0.061951336
80	0x3ced60d6	0.028976839
81	0xbd1fc267	-0.039003756
82	0xbd81904c	-0.063263506
83	0x3d9b5d41	0.07586146
84	0xbda2c1fd	-0.079471566
85	0x3d77f9d9	0.060541008
86	0xbda5bafc	-0.08092305
87	0xbd920628	-0.071300805
88	0xbd022f53	-0.031783413
89	0x3c221db8	0.009894781
90	0x3d97f6dd	0.07420132
91	0x3d02eeb7	0.031965937
92	0xbc3b203b	-0.011421259
93	0xbd4a6e2c	-0.049421474
94	0xbda64b56	-0.08119838
95	0x3c93df9b	0.01805096
96	0x3c5ed0ff	0.013599633
97	0xbce23115	-0.027611295
98	0xbcede285	-0.029038677
99	0x3d6312ae	0.055437736
100	0xbd1cdbcf	-0.038295563
101	0xbd88289d	-0.06648371
102	0xbd9ac9e4	-0.07558039
103	0xbda720d0	-0.08160555
104	0xbcb8f2ea	-0.022576768
105	0xbd2d649c	-0.042332277
106	0xbc0356c4	-0.008016292
107	0xbc154119	-0.009109759
108	0x3c7a9ab1	0.01529567
109	0x3c13f0e4	0.009029601
110	0xbd7151aa	-0.05891577
111	0x3ce88944	0.028385766
112	0x3b3ed06c	0.0029115928
113	0x3d9470e7	0.07248097
114	0xbc80edca	-0.015738387
115	0xb8866dd7	-6.410077e-05
116	0x3d1989dd	0.037484992
117	0x3c9f6dee	0.019461598
118	0x3da858ba	0.08220048
119	0x3ce4d4ee	0.027933564
120	0x3d09d656	0.033651672
121	0x3d109733	0.035300445
122	0xbd25caa8	-0.04047647
123	0x3bfeb5e0	0.007773146
124	0xbd5fc66f	-0.0546326
125	0x3d803ab6	0.06261198
126	0x38ffbb71	0.00012194261
127	0x3cc91de6	0.02455039
128	0x3d966d52	0.0734507
129	0xbc9aa387	-0.018876804
130	0xbcf7dcc1	-0.03025663
131	0xbcb3e43b	-0.021959415
132	0x3d7fa17b	0.06240986
133	0x3c3929b2	0.011301445
134	0x3ba80c8a	0.005128448
135	0x3d741227	0.059587624
136	0xbd88985b	-0.066696845
137	0xbd728d39	-0.05921671
138	0xb7aeaa97	-2.0821853e-05
139	0xbd820012	-0.0634767
140	0x3d601615	0.05470856
141	0xbd4fdcf1	-0.050747816
142	0xbc87962e	-0.016551103
143	0x3d44f04c	0.048080727
144	0x3d2747fd	0.040840138
145	0xbcfe44a5	-0.031038592
146	0xbd313053	-0.043258976
147	0x3d45cf4e	0.048293404
148	0xbd0096e2	-0.031393893
149	0x3cbd9690	0.023143083
150	0x3d7a8c58	0.061169
151	0x3d85660c	0.065136045
152	0x3d7957db	0.0608748
153	0x3d9dd6bb	0.07706972
154	0xbd43e37e	-0.047824375
155	0xbcc051a6	-0.023476433
156	0xbcc71d5a	-0.024305988
157	0x3cec5386	0.02884842
158	0xbd96563b	-0.07340666
159	0x3c5fca9b	0.013659145
160	0xbdaddcc3	-0.084893726
161	0x3d4801e3	0.048829924
162	0x3da56353	0.08075585
163	0xbd34d3b8	-0.044147223
164	0x3d58ca5c	0.05292736
165	0x3d5124fc	0.05106066
166	0xbd571785	-0.052512664
167	0x3cd9b122	0.026573721
168	0xbd256dd1	-0.040387932
169	0x3a528c3a	0.00080317596
170	0x3d124a97	0.035715666
171	0xbd84c582	-0.06482984
172	0xbd47b6a9	-0.048758183
173	0xbc6dada0	-0.014506727
174	0xbc88c3a8	-0.016694859
175	0x3d867eea	0.06567176
176	0x3d03c47e	0.03216981
177	0xbda033ce	-0.07822381
178	0xbd8a3808	-0.06748968
179	0x3d0704a6	0.032963417
180	0x3d76c565	0.060246844
181	0xbda565e3	-0.08076074
182	0xbcee45b4	-0.029085971
183	0x3b6fe929	0.003660748
184	0xbd8e381e	-0.06944297
185	0xbcb7722b	-0.022393307
186	0xbd1215d4	-0.03566535
187	0x3d6dd5c9	0.05806521
188	0x3d34dd7d	0.04415654
189	0x3d7e4555	0.06207784
190	0x3d931261	0.0718124
191	0x3d900da0	0.07033849
192	0xbc518f6a	-0.01279054
193	0x3dad920b	0.08475121
194	0x3c85eb36	0.016347509
195	0x3cef9bba	0.02924906
196	0x3cd74dd3	0.026282227
197	0xbcd50279	-0.026002156
198	0xbdb0258f	-0.08600914
199	0x3b61998f	0.0034423803
200	0xbba67c59	-0.0050807414
201	0xbda42f66	-0.08016853
202	0x3c87c765	0.01657457
203	0x3badc5a7	0.005303103
204	0x3da3b7a3	0.0799401
205	0xbc96ec30	-0.01842317
206	0x3bd8be7e	0.0066145053
207	0xbcb5d42c	-0.022195898
208	0x3d31fdff	0.04345512
209	0xbc22750f	-0.009915604
210	0x3d983d31	0.07433546
211	0x3d8f0a9f	0.06984448
212	0x3d9186f1	0.07105816
213	0x3cf702a8	0.030152634
214	0xbd9048f7	-0.07045167
215	0x3da5bfcd	0.08093224
216	0xbb4279f9	-0.0029674752
217	0xbd58b5e8	-0.052907854
218	0xbd72b5c0	-0.05925536
219	0xbda2415e	-0.07922624
220	0xbd29fe88	-0.041502506
221	0xbd7b3041	-0.061325315
222	0x3d875c7c	0.06609437
223	0xbd9ecdf0	-0.07754123
224	0xbbc2341e	-0.005926623
225	0x3c5739ce	0.01313634
226	0x3d29e6da	0.041479923
227	0xbd57eeef	-0.0527181
228	0xbda3f44a	-0.08005579
229	0x3ce47f94	0.027892865
230	0x3c769d6b	0.01505218
231	0xbdac3c7e	-0.084099755
232	0x3d775087	0.06037953
233	0xbd9c2e3e	-0.076260075
234	0x3d5641b2	0.052308746
235	0xbdb34130	-0.08752668
236	0x3cf076c5	0.029353509
237	0xbd042854	-0.032265022
238	0xbd4fa4ee	-0.0506944
239	0x3db26f2b	0.0871261
240	0xbd46246b	-0.048374575
241	0x3c98d21e	0.01865488
242	0xbdaaeb5b	-0.08345672
243	0xbd40a646	-0.04703357
244	0xbd7b7e88	-0.061399966
245	0x3db44afa	0.08803363
246	0x3cc2d558	0.02378337
247	0x3d5be86e	0.05368846
248	0xbcd9ac2b	-0.026571354
249	0x3d74c809	0.05976108
250	0xbda285c7	-0.07935672
251	0x3a8264f6	0.0009948302
252	0x3da88e04	0.08230212
253	0x3d1aec5b	0.037823062
254	0xbd899f89	-0.06719882
255	0xbcde5cc3	-0.027143842

layers.4.bias f4 [4]
0	0x3db0dadb	0.08635493
1	0xbd9328a5	-0.07185487
2	0x3d3f917f	0.046769615
3	0x3d8553da	0.06510134
