ptdrlhf/ptdrlhf/checkpoints/state_action_reward/checkpoint_supervised_reward100.pth (torch, 221121 bytes, 11 tensors)

layer_norm.weight f4 [4]
00000000: 5c24 813f 1467 813f 099c 803f a756 813f
1.0089221 1.0109582 1.0047618 1.0104569

layer_norm.bias f4 [4]
00000000: 7b41 143c 0d77 243c 6e35 45bc a69d 3abc
0.009048815 0.01003815 -0.012036664 -0.011390125

state_action_layers.0.weight f4 [4, 8]
00000000: e8e7 a93b 14b7 98be 56ee 823e 2f17 063e
00000010: 7bf0 03be c7e9 ae3d 6a53 b4be 75b6 00be
00000020: 8157 9dbd e039 65bc 3525 e5bd dd54 99bd
00000030: 4543 86be 7bbd 8f3e 4ec9 e7bd dd12 f1ba
00000040: 06ea 59bd 06b1 5dbe 2bdf a7be 3e37 453e
00000050: fdf7 393e e562 35bc 80c1 b6bd 69ca 7c39
00000060: a0aa b13d 50ae 583e 8e67 49be 890b b8be
00000070: f7d0 76be cc6a b23d b632 663e 9473 113d
0.005185116 -0.29827178 0.2557246 0.13094781 -0.12884705 0.08540683 -0.3521989 -0.12569602
-0.07682706 -0.013990849 -0.11188737 -0.074868895 -0.26223198 0.2807425 -0.11317693 -0.0018392463
-0.053201698 -0.2164956 -0.3278745 0.19259354 0.18161006 -0.011070942 -0.08923626 0.00024107996
0.08675122 0.21160245 -0.19668409 -0.359463 -0.24103151 0.08711776 0.22480282 0.035510615

state_action_layers.0.bias f4 [4]
00000000: d3a8 9bbc 96a4 b83e 2728 b23e 4688 ad3e
-0.0190014 0.3606307 0.3479626 0.3389303

state_action_layers.2.weight f4 [1, 4]
00000000: 807b af3b 1cb3 703e 9b51 923e 5532 f93e
0.0053552985 0.23505825 0.28577885 0.48671213

layers.0.weight f4 [128, 290]
00000000: 9862 0f3b 6db8 95bc 9d74 183b 7cf2 f4bc
00000010: 2cca ddbb 8923 f0bb d134 de3c 7d92 a8bd
00000020: 7d4e bcbc bd6f 833d 7ada 42bd 5f14 b63d
00000030: 1d0e bcbc b39c 9c3d dfc4 1a3d 17a3 1fbd
00000040: 957d 7cbd febd e939 113d 653d 9899 21bd
00000050: ff19 4fbb f594 fdbc 185e 423d 6be9 943c
00000060: 21fc bf3c 91ba bc3d ded7 93bc d19c f2bc
00000070: 153b 74bb 487b bd3c 4b79 18bb 3576 d6bd
00000080: c0c6 b0bd 750f 923d b594 013c d830 a5bd
00000090: 79fb f9bd 83a8 963d 865f 813d 5d43 423d
000000a0: 6b39 983c 9493 3cbd 6311 23bd fc38 be3c
000000b0: 076c 7bbd 4ad1 2bbd 25ae 833d afef 0a3c
000000c0: 3595 ffbc c0ac 03bd 3ca5 cbbb f62e c13c
000000d0: 3559 0d3d aeb7 0c3d bd31 de3c bab0 dabc
000000e0: 2011 89bd 51c2 f83b e353 91bd b4e7 b13c
000000f0: f642 afbc 9101 683d 7292 94bd e40f 2ebb
00000100: 5f26 0ebd 37b0 b0bc 0a72 47bc 1fe2 80bd
00000110: c92c 4a3d 0b27 44bd 45e7 20bd 4427 493a
00000120: ea3f 6a3d 92b9 983c ea4f a73c aac7 fd3c
00000130: 3732 11ba f3f4 ba3b 01e8 3c3c 629d 30bd
00000140: 2117 dd35 5906 83bc 95f7 5fbd 17f6 933d
00000150: 5b0e a43c 8b17 c9bc 20dd 5c3b bcc5 6d3d
00000160: 6f5e dbbc c52c cc3c a336 433d 5e07 93bd
00000170: 215b 9dbd 1805 4fbd ab26 8cbd 47a5 263d
00000180: 4e0d 8c3d addc 38bb 47d4 563d b14a 01bd
00000190: f666 073d 31ae 52bd 40d8 d4bc 46eb 06bc
000001a0: cd32 57bc ea3e 4a3d efa1 9dbd e969 6b3d
000001b0: 72a1 8dbd 6516 243d ac71 013e 9405 233d
000001c0: 36d7 70bd 4287 873d 800d 47bd 7616 f33c
000001d0: 8102 43bd 4dc2 303d 54e2 2cbc c9cf 8c3a
000001e0: e7f9 bfbd 0a2e 9e3d 9849 3a3d 11c7 993d
000001f0: e042 8cba a37b b9bd d73d 5abd 1443 753c
00000200: 5fba 2fbd 9e36 58bd 0806 723d 0fd4 9ebd
00000210: df86 8f3d 9df9 023d e939 1dbd de95 bb3c
00000220: d2ec 2b3d 3f19 33bd b34f 1cbd a4a7 0a3d
00000230: 7729 98bd ad5d 8f3d 5235 e3bd e5fe 693d
00000240: 319c 443d 4379 aabc d264 8c3d ac62 5dbd
00000250: c5d7 d8bb d69a 033d 2148 f2bd 791d d5bd
00000260: e3eb 2b3d 52ce 08bd 79e8 febc 0be2 d63d
00000270: bb61 afbc 79ef bbbc 3398 a53c 2cca d3bd
00000280: c783 eb3c 4b04 753d b5fc 0e3c 330f 883c
00000290: 2a44 99bd d53b 5b3d 91d1 6b3c 83b5 1d3d
000002a0: 7279 dd3c 3510 cf3c 701f f03c b2ef 0a3d
000002b0: 67a6 793d 471b a53d ec13 0a3b 9cd6 bfbc
000002c0: 1cbb 9b3d 1c0d b33c 251c 8d3d a9a7 89bc
000002d0: 3b42 98bb 789e 9b3d 7ab7 02bd c3cc 83bc
000002e0: b9f4 733b 50f8 9dbd 627f 063d 47b9 0ebd
000002f0: 9ffc 7bbd 7670 283d 740f 643b 42ee 58bb
00000300: 4f1a e83c a84f 0e3d 95a5 983a 4541 6fbd
00000310: 2ed2 5b3d 80fd 743c 01a8 d6bd 6dba 6f3d
00000320: 2fb0 88bc 04e6 303d c89c b43d f380 8dbc
00000330: 55a8 63bd b213 763b 8e85 063c d3cf 29bd
00000340: ff14 cb3d 965b 08bd 6884 06bd 570e 0abe
00000350: 290a 98bd 60ec 05bc 6d7e 39bd c277 cebc
00000360: 6db8 cbbc 0e02 493d fbe4 0fbc 1304 fabd
00000370: 42d7 823d c00e 133d a2c9 20bd 81c5 273d
00000380: 21e2 913d af7b 8abd e9ce 293c 727c e23c
00000390: a5c0 813c 5c41 803d 3c77 10bc 3f31 793d
000003a0: 740d a13c 10ea a8bd dbe6 d43d 385b b4bb
000003b0: 331d 6b3d 11d2 3c3d dce5 253c 9fc8 503d
000003c0: cb65 8f3d 3a62 523c fb73 1cbd 4674 be3c
000003d0: ea2b 233e 4364 9fbc 4991 59bd 591c 2bbd
000003e0: 0f0c d6bc 01a7 dc3a fa8c 24bd d5ec 063d
000003f0: e6bb 06be 8b7a ba3a 8b97 3e3c 3712 9b3c
0.0021878835 -0.018276418 0.0023262866 -0.029900782 -0.0067684855 -0.007328455 0.027124794 -0.082310654
-0.022986645 0.06417797 -0.047571637 0.08890604 -0.022955948 0.076470755 0.037785407 -0.038973894
-0.0616432 0.00044582778 0.05596644 -0.03945312 -0.0031601188 -0.030954817 0.047453016 0.018177709
0.023435654 0.09215272 -0.01804727 -0.029615792 -0.003726666 0.023130074 -0.0023265656 -0.10471765
-0.086316586 0.071318544 0.00790899 -0.08065957 -0.12206168 0.0735636 0.06317048 0.047427524
0.018582067 -0.04603918 -0.039811503 0.023220532 -0.06138232 -0.04194764 0.064297 0.008479997
-0.031199077 -0.03214717 -0.006214766 0.023581963 0.034508903 0.034354858 0.027123326 -0.026695598
-0.066927195 0.0075915237 -0.07096078 0.02171693 -0.021394234 0.05664212 -0.07254495 -0.0026559765
-0.034704562 -0.0215684 -0.012173185 -0.06293129 0.049359117 -0.047888797 -0.039283056 0.00076733925
0.05718986 0.018643174 0.020423848 0.030978996 -0.00055387936 0.0057054698 0.011529923 -0.043118842
1.6472515e-06 -0.015994238 -0.054679472 0.07224672 0.020026376 -0.024547359 0.0033701137 0.058049902
-0.026778428 0.024923692 0.047659528 -0.071791396 -0.07683397 -0.050541967 -0.06843313 0.040684965
0.06838475 -0.0028207705 0.052448537 -0.031565372 0.033057176 -0.051435653 -0.025982022 -0.0082348045
-0.01313467 0.049376406 -0.07696902 0.05747405 -0.06915559 0.04006042 0.12641019 0.03980024
-0.05879899 0.06617595 -0.04859686 0.029673796 -0.04760981 0.04315405 -0.010552008 0.0010743077
-0.09373837 0.07723625 0.04548034 0.07508672 -0.0010701083 -0.09056785 -0.05328163 0.014969606
-0.042902347 -0.052786462 0.059087783 -0.07755291 0.070081465 0.03197633 -0.038385306 0.02289861
0.041973896 -0.04372525 -0.038161945 0.03385128 -0.07429784 0.07000289 -0.110941544 0.057127852
0.04800052 -0.020809775 0.068551674 -0.05404918 -0.0066175186 0.032130085 -0.11830164 -0.10406012
0.041973006 -0.033399887 -0.031116711 0.10492333 -0.021408906 -0.022941338 0.020214176 -0.103412956
0.02874936 0.059818547 0.008727242 0.01660881 -0.074837044 0.053523857 0.014393226 0.03850318
0.027035449 0.025276283 0.029311866 0.033919998 0.06094971 0.08061843 0.0021069003 -0.023417763
0.07604048 0.021856837 0.06890134 -0.01680358 -0.004646567 0.07598585 -0.031913258 -0.016088849
0.0037224723 -0.077133775 0.032836325 -0.034844663 -0.061520215 0.041122876 0.003479925 -0.0033100997
0.028332857 0.034743935 0.0011646027 -0.058411855 0.05366724 0.014953017 -0.10481263 0.0585274
-0.016685573 0.04318811 0.08818966 -0.017273402 -0.055580456 0.003754836 0.008210553 -0.041457962
0.09916114 -0.03329047 -0.032841116 -0.13482033 -0.07423813 -0.008174032 -0.045286585 -0.02520359
-0.024868215 0.049074225 -0.008782621 -0.12207808 0.063887134 0.03590274 -0.039254792 0.04095984
0.07123209 -0.06761872 0.010364273 0.02764723 0.01583893 0.06262466 -0.00881749 0.06083798
0.019659735 -0.08247769 0.10395595 -0.005504038 0.057400893 0.046098772 0.0101256035 0.050972577
0.07001837 0.012840802 -0.038196545 0.023248803 0.1593472 -0.019456988 -0.05311707 -0.04177508
-0.026128797 0.0016834439 -0.04017351 0.032940704 -0.13157615 0.0014227194 0.01163281 0.018929584

layers.0.bias f4 [128]
00000000: 77c8 fb3c 7e2f efbc 2ca9 be3c d47d 5b3d
00000010: 0820 b0bc 3503 2c3d d92d 9d3c 577d 1a3d
00000020: 4b69 5ebd a214 083d 8bf4 c73c 500f 2c3d
00000030: 99f8 f73c df84 1bbd 4b99 3e3d 8a1c 3dbd
00000040: 4474 13bd 4c08 2a3d 2f8f 1b3d b799 7dbd
00000050: da15 353c d3c8 813b 681e 553d a817 593d
00000060: ceac 51bc 2712 1bbd 7317 cbbc a989 1ebd
00000070: 4513 b83b 478e b3bc 9900 f3bc eafd f1bc
00000080: e313 063d a79f 15bd 85df 283d d45b 42bd
00000090: 5700 3d3c ad67 33bd 04a5 4fbd 8380 143d
000000a0: 5786 c83c 08a3 0fbd 9bd4 83bc b87c 383c
000000b0: 4a9b 45bc 09f6 acbb c922 80bd e213 96bc
000000c0: fabe 2bbd 1ef1 723c ff36 5c3d 81cd 0fbd
000000d0: 839b 12bd ca06 093d 4beb 5c3d 0c6a 8d3c
000000e0: 5c54 2dbd da65 63bd 173c 58bd e48a b9bb
000000f0: d992 d53c f270 13bd b537 263d 8d02 833c
00000100: e188 44bc ae42 f8bb 5b85 79bd eb68 5f3d
00000110: d6b5 81bb c9ab 57bb 1e52 6d3d 6b97 f13c
00000120: 35b9 883c 9fc4 1c3d 8b1c 80bc 18a8 38bd
00000130: b0b6 3c3d f60d 18bd 5f99 83bd 6f26 18bb
00000140: db05 8cbb 63a1 b0bc ff35 9dba 5a0e b1bb
00000150: edb5 043d 1a2c 223d 210e 04bb 0d24 483c
00000160: cd23 e5bb 36f3 323d 1616 5ebb 9315 57bd
00000170: 42e9 043c b6e5 a3bb 67d9 2fbd 589d 923c
00000180: 8b92 273d 7135 42bd 05db 34bc f691 193d
00000190: 2dda 51bd b66a 5abd a199 2bbc 9385 363d
000001a0: d8b1 36bd f85b 07bc 3f15 f83c 305f 093d
000001b0: 2590 3f3c 66eb 183d a30b 56bd a4d3 4abd
000001c0: bc7f fabb 7742 54bb c4cc b8bc da6c 2f3d
000001d0: 6433 4bbd a915 41bc 7632 46bb 878c 3ebc
000001e0: c68f 8d3d 22b3 863d d301 9ebc a167 b23c
000001f0: 251c 64bd b097 2bbd c559 63bc bfd7 4dbd
0.030735238 -0.02919745 0.023274027 0.053586796 -0.021499649 0.041995246 0.0191869 0.03771719
-0.054299634 0.033222802 0.0244086 0.04200679 0.030269908 -0.037968513 0.04653291 -0.046169795
-0.03599955 0.04151182 0.037978347 -0.061914172 0.011052573 0.0039607077 0.05203095 0.053001076
-0.0127975475 -0.03785911 -0.024791455 -0.0387055 0.0056175315 -0.021918429 -0.02966337 -0.029540021
0.03273381 -0.03652921 0.04122879 -0.047450855 0.011535726 -0.043800045 -0.05069448 0.03625537
0.02447812 -0.035067588 -0.01609259 0.011260204 -0.01206095 -0.005278353 -0.06256635 -0.018320028
-0.041930176 0.014827995 0.053763386 -0.035108093 -0.03579284 0.03345374 0.05393533 0.017262481
-0.04231678 -0.055517055 -0.05279168 -0.005662309 0.026070999 -0.035996385 0.04058047 0.015992427
-0.011995525 -0.007576308 -0.060918193 0.054543417 -0.003958444 -0.0032908788 0.05793964 0.029491147
0.016689876 0.03827345 -0.01563861 -0.04508218 0.046072662 -0.03712269 -0.064257376 -0.0023216268
-0.004273159 -0.02156133 -0.0011994242 -0.005403322 0.03240006 0.03959284 -0.0020150023 0.012215626
-0.006992793 0.043688975 -0.0033887676 -0.05251081 0.008112254 -0.005001749 -0.04293194 0.017897293
0.04091124 -0.047414247 -0.011038546 0.037492715 -0.05123346 -0.053324424 -0.01047364 0.04456098
-0.0446032 -0.008261673 0.030283568 0.033538043 0.011692082 0.03733387 -0.05225719 -0.049518242
-0.0076446217 -0.003238825 -0.022558577 0.04282842 -0.049609557 -0.011784949 -0.003024248 -0.011630184
0.06912188 0.065771356 -0.01928798 0.02177793 -0.055690903 -0.041892707 -0.013876383 -0.05025458

layers.2.weight f4 [128, 128]
00000000: de39 80bc d0ac 84bb 892a 403d 186d e5bc
00000010: 3e66 5b3b e8c6 c7bd 6161 88bd f0c0 00bd
00000020: 9b3b 99bd f2e6 e43d 0c45 6d3c 4f2e b63d
00000030: 0720 2e3c d699 403c 6571 9b3c 5ad3 a83d
00000040: cfc1 a2bc 39da 14bd be03 523d b5ca a1bd
00000050: 0553 0fbc 191f bf3d bb2a a23d 9d62 163d
00000060: cbd8 94bd cb32 21bc 05c2 9bbc 53a4 513d
00000070: 4ffa 8e3d 0873 aebd bf7c 4ebd 6a1d a3ba
00000080: dbfc 143c 2d29 81bd adf0 c53c e5ab bdbd
00000090: 4b09 233d 1d9b 133d 4760 9dbd a756 263d
000000a0: 50e3 c33d ad36 7a3d a09a 953c 19a4 42bd
000000b0: 5843 86bd fdc1 33bd b12f 97bd 1923 803c
000000c0: 5859 0f3e 8d27 4e3d 6b41 88bc 8926 9bbd
000000d0: 5ff1 ad3d d697 d23d 5d94 353d c934 0b3e
000000e0: d90d 423d dce3 813c 46d4 703d c4a4 b23d
000000f0: 3340 203d 1a38 753d ab7d 4b3c aa46 aa3d
00000100: be57 dfb8 b563 9ebd bdae ebbc af40 9abd
00000110: 26ba a8bc f6fa b4bd 8a58 d93d 3555 453d
00000120: 83eb 3e3d e36e 91bc b831 9c3d 2e09 f7bc
00000130: 7171 6e3c a603 fcbc 2f86 08bd 9f2c aabd
00000140: c9b2 c23d 41c2 84bc ac2d aebb 930f 4f3d
00000150: 6f10 9e3c 157c 963d eaf0 2dbd b7e5 573d
00000160: 307d d63c 93ee c73c a7c1 96bd 95c9 2ebd
00000170: e500 b33d b587 de3c 30a8 8bbd 8d57 603d
00000180: f9a0 4f3d ee9c 7bbd 3e3c 193c fc2d e4bb
00000190: e61a 36bd d0de 013d 39ca f03c bccb a03d
000001a0: 5c75 bb3c e83e 88bc b9b8 c53d f738 6a3d
000001b0: 494f 923d 73de 82bd 60e0 763d 6261 273d
000001c0: b22b 2f3d 168d 6cbd 24e3 f83c 12e7 76bd
000001d0: 229b 943b 976b e23b 27eb 9fbd 3057 363d
000001e0: 108c 0dbd 9242 923d 232d 1cbd 2d2b f23c
000001f0: 0d9e 27bd 49fd 09bc ae77 f0bd 5fa6 a03d
00000200: 765b b9bb 50e2 10bd 5e40 7f3d ae32 0f3d
00000210: 427c 80bc c741 88bc c06c 6ebd 65b6 a83c
00000220: 1ede a53b 94b3 a4bc 0551 743d 82a9 a63d
00000230: a505 69bc c0ab 28bd 419b f4bb 8a18 89bd
00000240: d078 01bd ceb8 6abd 0ad5 3ebc 5e28 273d
00000250: 080c 76bd bb58 cc3c 6bec 883d ec84 d8bc
00000260: 4883 263d 55e8 b3bd 1138 81bd 3766 0cbc
00000270: 6e46 95bd 0201 6dbd 5ab1 bf3c c0b8 7d3d
00000280: 48dc dfbc ebd9 6c3d 97fb b1bd 47b1 aebd
00000290: 8bd5 933d 4de9 28bc 7a69 533d 761b 1b3d
000002a0: c488 e6bc c3e7 233c f6be 953d 19c0 3cbc
000002b0: a789 afbc 37bc 54bc b791 3c3d fd6e 62bd
000002c0: e523 1cbd ccc1 54bd 7c94 64bd 118c 87bd
000002d0: f3da 89bd a139 5b3d 5d07 8abc 9aa8 793c
000002e0: 7de7 94bc f6e7 a73d 83ce 153c 4e87 6e3c
000002f0: 744f adbd afbe ffbc df65 693d 2306 21bd
00000300: fa15 a6bd 7781 cb3c a638 b23d 5110 fe3b
00000310: 6fb4 593d 8252 1e3d 3308 a9bd 87d1 133d
00000320: f917 af3c 9e7f 153d 6477 473d fa1a 4d3d
00000330: c9f2 56bd 4172 e1bc 0a0c 683a 32c6 b43c
00000340: 945a 10bd 9c86 3abc ab8f bf3c 08a7 e3bb
00000350: ea50 77bd 0999 28bd 0f8b dfbc e753 10bd
00000360: 88f9 9f3d c787 3bbc a7bf 95b9 6a93 a1bd
00000370: 26b9 d13c d96e 83bd 01d7 46bd 0642 c0bd
00000380: a3e7 82b9 0f02 a0bd dd1d 0fbd 7fa5 b03d
00000390: 3cd9 5d3d 1c33 393c 8cf6 6cbd 8707 c2bd
000003a0: f321 853c d761 19bd 8de4 1b3c 6c67 793d
000003b0: 2552 1d3d ed00 bfbd 69d0 92bd 11e5 933c
000003c0: 3ed0 afbd a4dc b2bd 1ad2 99bd e189 c73c
000003d0: 56a3 87bd 6cad 75bd eea6 d13c a68e a83d
000003e0: 91c5 9a3d f681 0abd 039c 163d 1494 5eba
000003f0: 3dd5 31bd afca a53b 8b93 393d 40cf 97bd
-0.015652593 -0.004048921 0.046915565 -0.028006122 0.003347769 -0.09754735 -0.066591986 -0.031434
-0.07482072 0.11176862 0.014481794 0.088955514 0.010627753 0.011755427 0.01897497 0.08243437
-0.019867806 -0.036340926 0.0512731 -0.078999914 -0.008747821 0.09332103 0.079183064 0.03671514
-0.072679125 -0.00983877 -0.019013414 0.051182102 0.06981336 -0.08518034 -0.050411936 -0.0012444679
0.009093489 -0.06306682 0.024162615 -0.09261302 0.039803784 0.0360366 -0.07684379 0.040609982
0.09564841 0.0610873 0.018262208 -0.047519777 -0.065558136 -0.043886174 -0.07382143 0.015641736
0.13998926 0.050330687 -0.016632756 -0.075757094 0.084933035 0.10282867 0.044330943 0.13594355
0.047376487 0.015855722 0.05879619 0.08722833 0.039123725 0.059867956 0.012420098 0.08314259
-0.00010649812 -0.07733861 -0.028769845 -0.07531869 -0.020596575 -0.088369295 0.106125906 0.048176963
0.04661132 -0.01775307 0.076266706 -0.030155744 0.014553414 -0.030763458 -0.033331092 -0.08309292
0.09506757 -0.016205909 -0.005315503 0.050551962 0.019294946 0.073478855 -0.04246608 0.052709308
0.02618274 0.024405753 -0.07361155 -0.042672712 0.08740405 0.02716432 -0.068191886 0.054770995
0.050690625 -0.061428957 0.009352742 -0.0069634896 -0.044459246 0.03170663 0.029393302 0.07851359
0.02288311 -0.016631559 0.09654374 0.057183232 0.07144029 -0.06390085 0.060272574 0.040864356
0.04276628 -0.057751738 0.030381747 -0.06027896 0.004535095 0.0069097984 -0.078085236 0.044516742
-0.034557402 0.071416035 -0.038128983 0.029561603 -0.040922213 -0.008422204 -0.11741577 0.07844233
-0.005656655 -0.03537208 0.062317245 0.03496044 -0.01568425 -0.016632928 -0.05820918 0.020594785
0.005061879 -0.02010516 0.05964758 0.081378 -0.014222537 -0.04117942 -0.007464797 -0.066941336
-0.031609356 -0.05730515 -0.011647472 0.04080998 -0.060070068 0.024944654 0.06685718 -0.02643057
0.040652543 -0.08784548 -0.06309522 -0.008569292 -0.07288824 -0.05786229 0.023399998 0.06194377
-0.027326718 0.05782501 -0.08690565 -0.08529907 0.072184645 -0.0103095295 0.051614262 0.037867986
-0.028141387 0.010003987 0.073118135 -0.011520409 -0.021427942 -0.012984327 0.046037402 -0.055281628
-0.03812017 -0.05194263 -0.05580567 -0.066185124 -0.067312144 0.053521756 -0.016849214 0.015237952
-0.018176788 0.0819854 0.0091434745 0.014558626 -0.0846242 -0.031218855 0.056981917 -0.039312493
-0.081096604 0.024842007 0.08702211 0.00775341 0.05315059 0.038652904 -0.08253517 0.036088493
0.021373736 0.03649866 0.048697844 0.050074555 -0.05247763 -0.0275203 0.00088518916 0.022067163
-0.035242632 -0.011384632 0.023383936 -0.006947402 -0.0603799 -0.04116157 -0.027287988 -0.035236266
0.07811266 -0.011445946 -0.00028562287 -0.07889445 0.025600981 -0.06417627 -0.048544887 -0.09387593
-0.00024968115 -0.07812893 -0.03494059 0.08625316 0.05416225 0.011303689 -0.057852313 -0.09474092
0.01625154 -0.037446823 0.00951494 0.060889646 0.038408417 -0.093263485 -0.07168657 0.018053563
-0.08584641 -0.0873349 -0.07510777 0.024357738 -0.06622951 -0.05997984 0.025592294 0.08230333
0.07557214 -0.033815347 0.036769878 -0.0008490693 -0.04341625 0.005059562 0.045306724 -0.07412577

layers.2.bias f4 [128]
00000000: abeb 5f3c 6556 c2bd e7f8 b53d c1d6 a1bd
00000010: 5d65 ae3d 3549 9f3d 49f6 743d ba45 bbbb
00000020: 5527 72b9 5090 bd3d 76ce 34bc 2bae 2fbd
00000030: 2d4f b03c e287 11bc 7d83 423d 6f51 6b3d
00000040: 2c29 623b c65e bd3b d347 44bd 2428 4f3d
00000050: 55ec b13d 5bc5 ffbc 2a73 603d 46be e0bc
00000060: 6e70 573d 271f 8ebd 5458 73bd 7667 aebc
00000070: b836 cdbc 82a9 e2bb 1e25 c53d 5b51 b2bd
00000080: 143a 2d3d 667a d739 67eb 6bbd 270c a23d
00000090: 335a 9e3d 8d15 5d3c 60ff 603d 8efc 8d3d
000000a0: 8a0e b2bc f392 1d3d 8d9e 1239 0569 503c
000000b0: 6bcb ddbc 6dbb a93c 0fab 27bc 3ad4 bab9
000000c0: 4e42 70bb e984 c83d 2cde 40bc 5f18 b13c
000000d0: 8f22 9d3d af36 5f3d bd1b f33b 7412 713d
000000e0: 9561 1e3d 97fb a03d b171 91bc 1cb1 103d
000000f0: 13c7 b0bd 13d2 e9bc 578d 923d ceda 493c
00000100: 0bbf 0f3c 0adf 583d c6a5 463d 44b2 f83c
00000110: 50e9 b33d 568f 393d bb27 bdbb 61fc 7ebd
00000120: 0cb5 f3bc 2436 03bd 49bd 76ba e0a1 593d
00000130: 406f aabd 30a8 adbd 34d8 60bd a55c cbbc
00000140: 1574 5a3d e933 25bd 0a95 07bd 1550 7b3c
00000150: 831b f63c 0919 b73d a11d 3b3d cbe9 093d
00000160: cdb3 84bc a47a c73d 635b 9abd e995 0a3c
00000170: 460f a2bc d6cc 9d3c ec74 123d d985 9abd
00000180: de0a 23bd 4099 ddbc fe07 b23c 4b53 303d
00000190: 737c 9f3d 4ae1 c83b 53f1 aebc 5e46 053b
000001a0: ee7a a8bb 8e59 38bd ad7b 183c dd27 963d
000001b0: 0210 653c 6bbc 70bd f499 c03b b652 9f3b
000001c0: ac9b d33d 2ab3 79bd 8d55 0e3d cafe 453d
000001d0: 2a5d a2bd a390 f5bb d7c9 8e3d a1fc c73c
000001e0: 6ac0 a5bd 7189 98bb e1dc 7cbd 406f a03d
000001f0: 735b 52bd a3e4 95bd f95d b33d f285 8ebd
0.0136670275 -0.09489135 0.08885365 -0.07902289 0.08515427 0.07777635 0.05980519 -0.005715099
-0.00023093571 0.09256041 -0.011035552 -0.04289071 0.021522129 -0.008882495 0.04748868 0.057450708
0.0034509404 0.00577912 -0.04792006 0.05057539 0.08687655 -0.031222036 0.05479733 -0.02743448
0.052597456 -0.069395356 -0.05941041 -0.021289568 -0.025050506 -0.0069171796 0.0962622 -0.087069236
0.042291716 0.0004109919 -0.057597544 0.07912474 0.07732048 0.013493908 0.054931045 0.069329366
-0.021735448 0.03847022 0.0001398271 0.012720351 -0.027074536 0.020719254 -0.010233655 -0.00035634806
-0.0036660614 0.097909756 -0.01177172 0.021618066 0.07672607 0.05449551 0.007419078 0.05885549
0.03866728 0.07860487 -0.017754408 0.035325155 -0.086317204 -0.028542554 0.07155865 0.0123202335
0.008773576 0.05294708 0.048497938 0.030358441 0.08784735 0.04530271 -0.0057725585 -0.062252406
-0.029749416 -0.032034054 -0.0009412361 0.05313289 -0.083220005 -0.08479345 -0.054893687 -0.02482445
0.05333336 -0.04033271 -0.03310112 0.015338917 0.030042415 0.08940322 0.045682553 0.033670228
-0.016199017 0.09740189 -0.07536962 0.008458593 -0.019782674 0.019262712 0.035756037 -0.07545061
-0.039805286 -0.027050614 0.021732327 0.043048184 0.07787409 0.006130372 -0.021355307 0.0020336132
-0.0051416075 -0.04500728 0.00930683 0.07331822 0.013980867 -0.05877344 0.0058777276 0.004862155
0.103324264 -0.06096188 0.034749556 0.04833869 -0.07927926 -0.0074940487 0.06972092 0.024412455
-0.08093341 -0.004655056 -0.061734084 0.07833719 -0.051356744 -0.073189996 0.08758158 -0.06959142

layers.4.weight f4 [4, 128]
00000000: 9f1f b4bd 08a6 cc3c 2d2e ce3d 61b7 133d
00000010: 80f2 ce3d da57 3c3d f019 e4bd 91c5 0cbd
00000020: ce6e 3f3c ed75 c83c f20c 63bd 7635 8abc
00000030: a487 c93d 14cb e7bd de75 84bd 15c9 c7bd
00000040: d09a bbba 2410 d33d 718a 8cbd 6b05 febd
00000050: 58c3 8e3c 26ce 96bd 8ef1 e5bc 183f a3bd
00000060: 4139 1cbe 20e3 b33c eb18 6fbd dd77 103d
00000070: 5b41 a23d 7763 c53b aa9f 6ebd a884 2d3d
00000080: acfb d8bd c84f acbd 5f0b 26bd a926 08bd
00000090: 9e95 303d 16ef 72bd 94ba 80bc 6d72 03bd
000000a0: 48b4 0a3a 1da4 9e3d 1126 fd3c d399 2f3d
000000b0: f0c3 98bd cb06 f73d ef3c 76bd 893c 18be
000000c0: 4c9b 05bc e491 d6bd af9f b4bc cc8f 9dbc
000000d0: ec2b ee3c 6248 aabd 4801 563d c356 663d
000000e0: 4a77 e4bc 6597 eb3d b501 7ebc 8f73 563d
000000f0: bf40 1bbd 4d3c 743d 81b5 e93c 370b 3a3d
00000100: 1ac2 1a3d 1199 3d3d 8197 7ebd 60ff 12be
00000110: 4f93 ae3d c51e 553d 2fb4 863b 0e25 b8bc
00000120: e4e8 993c 9f16 44bd 1b29 05bc 42d0 02bb
00000130: 2684 6b3d 39df 6abd fa98 80bd a8e6 5b3c
00000140: 8254 f53c e429 a5bb 797c d1bd 14f8 013d
00000150: 9805 bebc 3859 813d 34fa 5dbd 4120 3b3c
00000160: dd03 bcbd 7518 7a3d 7cd8 4abd c658 f9bd
00000170: 2f54 4e3c eca8 a33d 3cfa 403d e40f ae3d
00000180: e97f 8bbd 8a34 9bbd 328d 94bd a5a6 b7bd
00000190: 7eab 303d 15e4 a2bc 838c 893d 8305 4cbd
000001a0: 7ea3 923d d225 bc3a 5162 a33a da53 3bbd
000001b0: 4014 bf3a 5677 89bd 7e78 8a3d d568 f9bb
000001c0: e7fe f63d f24e 533d e237 1a3d 6cf9 123d
000001d0: eaac a83d 11c8 0f3d 9d7a dfbb e471 993d
000001e0: b03d 653b 8699 a1bb ac02 8dbd 7a46 0ebd
000001f0: 4e14 07b9 2ad6 ecb9 4ca0 b5bd 48e8 04bd
00000200: 9144 b43d af63 57bc f1eb 21bd 0f4a 563d
00000210: 7c8e 8a3d 0433 283d 0421 25bd 6156 d53c
00000220: 6004 913d 94d2 d2bb 28d4 c7bd 2971 f93d
00000230: d073 7f3d 8ed5 a4bc 6f40 f0bc 11c3 cebd
00000240: 2dbe 1dbd 8d37 7dbd 6eec 883d c4f4 eb3a
00000250: c449 7e3d 7f6a f1bd b621 a13d a023 9abd
00000260: eda7 883d afca 96bd ea7d 9c3d c8de c8bd
00000270: b030 9c3d 1745 81bd b4ca 813d 74c2 7bbd
00000280: 78be 503d 31ce 263d b6f1 813d 68f3 0ebc
00000290: 0d3b 97bd 5e0e 373d d497 6dbd ee3f d03c
000002a0: 15ec ca3d 14c9 a1bc 8b14 043d 5df7 193d
000002b0: 4a88 6a3d 0f0e 98bd 395b 523d 7ae2 e63c
000002c0: 21d5 65bd 6dcb b6bd 8b56 fcbd 2b04 653c
000002d0: a893 893c 5668 a9bd a3ca 9abd 925d e73c
000002e0: f17a 2f3d c11b 98bd 63ea 15bd b76f 85bd
000002f0: 0c00 9a3d bd7d d73c 7afa 9fbd 0dac f03d
00000300: 8d8d b93d bdfb eebc f083 afbd c96d 123d
00000310: 931d bfbc 3376 ea3b 96ac 38bc 1043 993c
00000320: be87 2b3d b78d 9bbc ce3b 56bd 129c 693d
00000330: d081 2cbd 81d8 64ba 88a3 b4bd a420 2e3d
00000340: 310e a3bc 5a84 d6bd 47d6 6e3d 9b39 28bd
00000350: ddd6 e7b9 391d 763b cdc1 733b 0858 953d
00000360: 8c75 60bd 9e6a 9bbd b01f c63c 0537 11be
00000370: bb2e 953d ad8d cb3d 366e b03d 6240 a83d
00000380: 755e 3f3d 9352 1ebe 2987 7d3a b52d 843d
00000390: d889 0f3e 58b3 c3bc 444a 9d3d 8f75 29bc
000003a0: e40f e43d 7ed5 b33d 3fac c53d 08db 84bd
000003b0: 80f9 71bd 980f 33b9 187c debd 2c6f 34bd
000003c0: ecbb 4fbd 620c 1c3c 65b9 17bd dd33 b43d
000003d0: 3207 223d 8350 0b3d ae29 843d e46c 9f3d
000003e0: a39d 6cbb 91f7 6fbc 190a a23d 52c3 823d
000003f0: 1682 81bd d18b 163d f711 1abb dffe 11bd
-0.08795094 0.024981514 0.10067401 0.036063556 0.10104847 0.04598222 -0.1113776 -0.0343681
0.011684133 0.024470294 -0.055432267 -0.016871195 0.098403245 -0.11318031 -0.06467794 -0.0975515
-0.0014313105 0.10305813 -0.06862343 -0.12403377 0.017427132 -0.073635384 -0.028069284 -0.079710186
-0.15256216 0.021958888 -0.058373373 0.03527056 0.07922622 0.00602382 -0.058257736 0.04236284
-0.105948776 -0.084136546 -0.040538188 -0.033239994 0.043111436 -0.05931004 -0.015713967 -0.032091547
0.0005291146 0.07746146 0.03090194 0.042871308 -0.07459247 0.120618425 -0.060116705 -0.14866842
-0.008154701 -0.10477045 -0.0220488 -0.019233607 0.029073678 -0.08314587 0.052247316 0.056235086
-0.027888913 0.115034856 -0.015503337 0.0523563 -0.037903544 0.05962782 0.02852893 0.04542085
0.037782766 0.046288554 -0.062156204 -0.1435523 0.08524191 0.052031297 0.004110835 -0.022478607
0.018787809 -0.047873136 -0.008127476 -0.0019960557 0.057499073 -0.057341788 -0.06279178 0.013421692
0.029947523 -0.005040394 -0.102288194 0.031730726 -0.023196027 0.06315845 -0.05419369 0.011421264
-0.09180424 0.06105848 -0.04952286 -0.12175135 0.012593313 0.07991204 0.047113642 0.08499125
-0.06811506 -0.075783804 -0.07253493 -0.08967332 0.043132298 -0.019884149 0.067162536 -0.049809944
0.0716009 0.0014354533 0.0012465214 -0.045734264 0.0014578179 -0.06712215 0.06761263 -0.007611374
0.120603375 0.05158896 0.03765095 0.0358824 0.08236106 0.035102908 -0.0068200366 0.07492426
0.0034979396 -0.0049316315 -0.06885275 -0.03473518 -0.00012882167 -0.00045172992 -0.08868465 -0.032448083
0.088021405 -0.013146325 -0.039531652 0.05231672 0.06765458 0.041064277 -0.04031469 0.026042165
0.070809126 -0.0064337943 -0.097572625 0.12179787 0.062366307 -0.020121362 -0.0293276 -0.100958
-0.038511444 -0.061820555 0.066857204 0.0018002023 0.062082067 -0.11787891 0.07867758 -0.07526326
0.06672654 -0.073628776 0.07641204 -0.09808117 0.07626474 -0.06312006 0.06337491 -0.06146474
0.050962895 0.040723983 0.06344931 -0.008725025 -0.0738431 0.044691436 -0.058006123 0.025421109
0.0990831 -0.019749202 0.032246154 0.03758942 0.05725888 -0.074245565 0.051356528 0.028184164
-0.05611146 -0.08925519 -0.12321194 0.0139780445 0.01679404 -0.082718536 -0.07558181 0.02824286
0.042841855 -0.07427169 -0.03660048 -0.065154485 0.0751954 0.026305074 -0.078114465 0.11751566
0.09060202 -0.029172773 -0.08570087 0.03574923 -0.023329532 0.0071552037 -0.011271616 0.018708736
0.0418775 -0.018988473 -0.052303128 0.057033606 -0.042115986 -0.00087297714 -0.088202536 0.042511597
-0.019904228 -0.10474463 0.05830982 -0.04107056 -0.0004421984 0.003755404 0.0037194372 0.07292181
-0.0547996 -0.07588695 0.024185032 -0.14181145 0.07284304 0.09939132 0.08614771 0.08215405
0.04672094 -0.15461187 0.00096713245 0.064540304 0.14017427 -0.023889229 0.07680181 -0.01034297
0.111358434 0.08780955 0.09651994 -0.064870894 -0.059075832 -0.0001707658 -0.10863513 -0.044051334
-0.050716326 0.009524437 -0.03704204 0.08798955 0.039557643 0.03401233 0.06453262 0.07784441
-0.00361047 -0.014646427 0.07912082 0.06384911 -0.0632364 0.036754433 -0.0023509243 -0.035643455

layers.4.bias f4 [4]
00000000: 1fc3 d4bc f74b 873d 3e26 2c3d c3a8 2d3d
-0.025971947 0.06606286 0.042028658 0.04239727
