ptdrl_final/scripts/rl/networks/context_door.ckpt (torch, 388055 bytes, 6 tensors)

0.weight f4 [128, 720]
00000000: 7aa2 04bd ed7c 2a3d 2bc3 cbbc a5f5 223d
00000010: 0f93 c4bc a7d7 80bc fa46 ab3c 5883 c83c
00000020: 51be 653c 3e4f 1e3d 7792 273c 2c51 8f3c
00000030: cb34 0e3d 1ad1 cd3b e44f 93bc 49f9 1d3d
00000040: 7d05 9bbc 8a51 1a3d 56d0 883c 1bf1 e73b
00000050: 979f 063d b099 403d f9dc 8b3c d9f3 89bc
00000060: 06b0 413d 7d1c 83bc 046a 43bc f88a 243d
00000070: 4bf4 933b 8f48 493c 58a7 7c3c c23d 03bc
00000080: bbd5 abbc e9b7 8cbc d86a 283a 6cfb a4b9
00000090: df98 573d 315b 9c3c c18c 503d 69e5 03bc
000000a0: 2773 abbb bbe6 803c 40c7 223d aa70 13bc
000000b0: 2e23 273d abf5 8bbb f7b0 023d 56d9 5cbb
000000c0: 7aaa 2c3d 45d9 553d 2c9c e83c 9d46 433d
000000d0: 5b9f 783d 79c7 b03a c5eb ecbc 4863 90bc
000000e0: b02b ad3c 7c0c 133d 0508 08bc 42dc 73bb
000000f0: 302b 38bc 4dc0 f13c 12a7 323c 4d7e 2c3b
00000100: bc55 95bc 0ebc 153c 027c 7b3c f830 233d
00000110: 3d54 a4bc 26a7 f33c a298 813c 3641 debb
00000120: ae5a 943c e7de 87bc 1919 023c 0073 05bc
00000130: 5cc4 f73b b370 a03c 9929 373d 15b4 053d
00000140: 9000 11bb 5441 f23b 4e85 4a3d 35d4 023d
00000150: 87e9 6e3c bbe5 87bb 65ff 543d 7658 5dbc
00000160: 039d cfbc 7b50 c0bc 500e cfbc dab1 d23c
00000170: c57e 4e3c 165e 783c 1a11 833c ea23 aebc
00000180: 80f6 c23c 2dd0 85bc cda0 9fbc 1348 0cbb
00000190: 2081 c0bb 3b54 1b3d e710 5abb 1acd 37bc
000001a0: bbca c73a 5a8c cb3b 1688 af3c ff9f a83c
000001b0: 9835 ae3c ed3f 273d ca02 e93b 0969 273b
000001c0: 9418 27bd ee1b b73c b45b 473c e268 a4bc
000001d0: bf0a 82bc 8a1a 453d 8b98 d83c c94f cbbc
000001e0: 75bb 113c 5765 27bd cb63 973c bd39 efbc
000001f0: 81ce 103c f183 38bc f58e f5bc f866 ed3c
00000200: d434 833c e3c0 debc 7d6c 693c b2ff acbc
00000210: 74f7 d43c 0b84 3b3b 7c36 4c3c 120f 363c
00000220: a10d f63c 036d aebc 9c1d 0a3d 3518 71bb
00000230: 7bea a1bc e77c 5abc ea2e b23b a074 17bc
00000240: 9508 873c 574b c2bb 38fb 733c f828 4ebc
00000250: 78a6 27bd 7735 dab8 cdeb 00bb 1509 24bd
00000260: 8302 c1bc c453 193b ce37 3ebc c1d6 09bc
00000270: 7514 62bc 5a9c 08bd 54d8 903c 88ab 15bd
00000280: b13c 3ebd 0492 a63c d075 05bd fe3b 6bbd
00000290: 26bb 543c 82fa 073c 3440 15bc 2451 30bc
000002a0: 0ac1 4f3c de40 6d3c 3020 3d3d 9d65 223d
000002b0: aa64 a5bc 76f1 f0bb c6a4 bfbc a8e2 c4bc
000002c0: e9b1 e63c 0abf 3cbb bd5d edbb d736 be3c
000002d0: 03f2 e3bc 0c23 243d 434f 75bc a321 df3c
000002e0: 7b6c c93c e0c9 f3bc 04f3 733c daca da3c
000002f0: a4a8 c6bc 5a2d 27bd 2ca1 a1bb 5e0c 26bd
00000300: 95b1 b5bc 1a45 0fbd 6071 0abd ee2c 393b
00000310: 015b bfbc da61 d8bc c216 6bbc 7d88 8ebc
00000320: afa9 b23c c39b 153d 9a64 67bb 6872 803c
00000330: efa7 413c 8305 20bb fcec fbbc 5e8e 31bc
00000340: e217 173d dfeb f7bc 4b52 19bc 15b7 f2bc
00000350: 9688 6ebc 5f67 bebb 0e73 1c3d 6f8a 0abd
00000360: 851c 1fb8 a891 693c d132 793c f9ff c1bc
00000370: fb38 563c f860 c03c 0ebb 833b 3923 c5bc
00000380: 0879 e63c c28d fdbb 3288 d73c 5eb7 98bc
00000390: d0eb 8b3c e9c2 253d c07b 333a 1c9e dc3c
000003a0: 5226 553b 42e9 6cbc 4463 3a3d 8ce8 34bb
000003b0: e7d7 26bc 37f7 893d f3a0 8d3d 4931 f93b
000003c0: 55ae 143d 261c 06bd 9146 efbb 74e1 d1bc
000003d0: 8ad6 8a3c 4f03 923c cfa0 0d3d 0d03 573d
000003e0: 1834 a03c 0635 38bc 09fa e3bb 7887 9ebc
000003f0: 53e8 f83c 6877 213c 3970 d2bc 74a4 b1bc
-0.032381512 0.041623045 -0.024873337 0.039785046 -0.023995904 -0.015727831 0.020907868 0.024476692
0.014022426 0.03864979 0.010227791 0.01749476 0.034718316 0.0062810304 -0.01798243 0.038567815
-0.018923515 0.037675418 0.016700905 0.0070783026 0.03286704 0.047021568 0.017073141 -0.016839908
0.04728701 -0.016004795 -0.011927132 0.040171593 0.004515206 0.012285366 0.015420757 -0.00801033
-0.020975938 -0.017177539 0.00064246124 -0.00031467841 0.052636024 0.019086452 0.050915483 -0.008050301
-0.005232233 0.01573502 0.0397408 -0.008999029 0.040805034 -0.0042712293 0.031907048 -0.0033698878
0.042154767 0.052209157 0.028394781 0.047674764 0.06069885 0.0013487182 -0.028921017 -0.017625466
0.021138996 0.035900578 -0.008302693 -0.0037210141 -0.011240765 0.029510641 0.0109040905 0.0026320398
-0.018229358 0.009139074 0.01534939 0.039841622 -0.0200597 0.029742789 0.015819851 -0.006782676
0.018109646 -0.01658578 0.007940554 -0.008145094 0.0075612497 0.01958499 0.044717405 0.032642443
-0.002212558 0.0073930416 0.049443536 0.031940658 0.014582044 -0.004147259 0.052001376 -0.01350986
-0.025343424 -0.023475876 -0.02527538 0.025719572 0.012603466 0.015159151 0.015999366 -0.02125736
0.023799181 -0.016334618 -0.019485855 -0.0021405264 -0.005874768 0.037922125 -0.0033274235 -0.011218334
0.0015242914 0.0062117996 0.021427196 0.020584105 0.02126579 0.04083245 0.007110928 0.0025544784
-0.040794924 0.022352185 0.01216786 -0.020069543 -0.015874265 0.048121013 0.026439926 -0.024818318
0.008894791 -0.04086813 0.018480202 -0.029202336 0.008838297 -0.011261926 -0.029975394 0.028979763
0.016016401 -0.027191585 0.014247057 -0.021118019 0.025996901 0.002861264 0.012464162 0.0111119915
0.030035796 -0.021292215 0.033719644 -0.003678811 -0.01976513 -0.013335443 0.0054377215 -0.009244114
0.016483584 -0.0059293914 0.014891438 -0.01258301 -0.04093024 -0.00010405009 -0.0019671798 -0.040047724
-0.023560768 0.0023395875 -0.011609985 -0.008413018 -0.013798823 -0.033352233 0.017681278 -0.036540538
-0.0464446 0.020333298 -0.032583058 -0.05743026 0.012984073 0.008299472 -0.0091095455 -0.010761533
0.012680301 0.014480798 0.046173275 0.039647687 -0.020189602 -0.007353003 -0.023394 -0.02403386
0.028161006 -0.0028800392 -0.0072438405 0.023219509 -0.027825361 0.040072486 -0.014972511 0.027237719
0.02458786 -0.029759347 0.014889482 0.026708055 -0.024250336 -0.040814735 -0.0049325433 -0.040539138
-0.022179404 -0.03497801 -0.03379953 0.002825554 -0.023358824 -0.026413847 -0.014348688 -0.017399067
0.021809427 0.0365255 -0.0035307766 0.015679553 0.011819824 -0.0024417348 -0.030752651 -0.010837166
0.03688801 -0.03026384 -0.009357999 -0.029628316 -0.014558932 -0.0058106626 0.038195662 -0.033823427
-3.7935115e-05 0.014255919 0.0152098695 -0.023681628 0.013075109 0.023483738 0.0040201014 -0.024064647
0.028133884 -0.007737846 0.02631006 -0.018642124 0.017080218 0.040469084 0.00068467483 0.026930861
0.0032524061 -0.01445991 0.045504823 -0.002760443 -0.010183311 0.067366056 0.06915464 0.007604752
0.03629907 -0.03274169 -0.0073021133 -0.0256202 0.016948003 0.017823843 0.034577187 0.052493144
0.01955609 -0.0112431105 -0.0069572967 -0.019351706 0.030384218 0.009855129 -0.025688278 -0.021684863

0.bias f4 [128]
00000000: f445 0c3d a745 653d 22a9 133d 3505 5b3c
00000010: 17f8 453c ba80 18bc eeb5 833d eae8 4abd
00000020: 2a48 543c 909d 613d e927 e039 d998 17bd
00000030: d1d7 2fbd 99e5 d93c f380 3db8 c72c 1abc
00000040: aa1a 94bc 6681 283d 67d4 1a3d f6ab 0bbb
00000050: 6b55 8f3c c9b4 75bd 22ce 063d a3c7 a83b
00000060: e79f 3cbd 0d78 f7b5 77da 13bd aa09 7ebd
00000070: 5a5c 8b3c 52ff 1eba c649 a43c 0f12 05bd
00000080: b369 01bd ae12 e1bb 2b3e 3a3d 2fb6 1fbc
00000090: 6d32 0e3d cc7a a93c 377c 863c 5c3f 9b3d
000000a0: 1700 cbbc 6e04 823c cf27 a1bb 0360 a8b9
000000b0: d02d 93bd 7f33 1e3b 7cc3 b53d 1fa6 b1bb
000000c0: 3a2c 153c b43a d33c 2d32 a2bc bb5a 7e3c
000000d0: d284 bf3c 3093 3f3d 68f6 83bd e9cc 273d
000000e0: 719d 4a38 8ee3 4abc c8bc f93c b356 99bc
000000f0: 0929 693c 809b dbb8 a946 b93c 765b 163d
00000100: 2628 12bb fc4a 993d 1ca9 f83c 1722 303c
00000110: 48ec 9e3d 0fe1 9d3d 0c85 78bb e5f7 17bd
00000120: 4d02 f8bc ea83 313d 7736 acbc ffb4 cab8
00000130: 338f f2bc 92e3 c9b7 f25f bcbc 8e5e b83c
00000140: caa5 44b9 651a 243d a558 4c3d f6c0 48bc
00000150: 4c8a 503b 508b fdbc 4780 f13c da42 e73c
00000160: 4c88 33bc c719 cb3b 91f3 0d3d 2731 963d
00000170: 14ea 06bd 1799 2e3d 91f3 a5bc 33a7 453c
00000180: a7d0 753a 2414 95bb 5d0f 88bd 79f1 b8bc
00000190: 2f10 90bc 8a91 dcb7 89f7 c53c e6e3 1bbd
000001a0: f5c3 593c 69f8 aebd 5423 edbc e658 dabb
000001b0: e086 9c3a 9c0b 1dbd df26 9fbb 2b86 a2bd
000001c0: dcb3 bcbb d5e9 d0bc e632 0abd 1641 93bc
000001d0: 17f5 1fbd ab36 113c a4a6 1a3d 9369 b13c
000001e0: 4cdf 7b3c 61cc 813b de5f 8a3c d51d 023d
000001f0: 949d 04bd b77a 55bd 2207 2cbd b819 ac3c
0.0342464 0.05597463 0.03604997 0.013367941 0.012083075 -0.009308035 0.06431185 -0.04953853
0.012956658 0.055081904 0.00042754345 -0.037011 -0.042930428 0.026598739 -4.5181205e-05 -0.00941009
-0.01807912 0.04113903 0.03780022 -0.0021312214 0.017496785 -0.059986863 0.032911427 0.0051507517
-0.046050932 -1.8437873e-06 -0.036097016 -0.062020935 0.01701181 -0.00060652674 0.02005471 -0.032487925
-0.031594943 -0.006868682 0.045469444 -0.009748026 0.03471606 0.020688437 0.016416652 0.07580444
-0.024780316 0.015871253 -0.0049180756 -0.0003211499 -0.071864724 0.002413958 0.08875176 -0.0054214145
0.009104783 0.025784828 -0.019799316 0.0155245615 0.023378763 0.04677123 -0.06443483 0.040966902
4.830718e-05 -0.012383355 0.030485526 -0.0187181 0.014230975 -0.00010471698 0.022616701 0.036708318
-0.0022301762 0.07485005 0.030354075 0.010750315 0.07759911 0.07708942 -0.00379211 -0.037101645
-0.030274535 0.043338694 -0.021022065 -9.665824e-05 -0.029609298 -2.4067038e-05 -0.022994969 0.022506025
-0.00018753778 0.040064234 0.049889226 -0.012253037 0.0031820713 -0.030950218 0.029480113 0.02823012
-0.010957789 0.0061981413 0.03465611 0.07333594 -0.032938078 0.042626467 -0.020257743 0.012063789
0.00093771 -0.00454952 -0.06643555 -0.02257608 -0.017585842 -2.6293816e-05 0.024165886 -0.038059138
0.013291349 -0.08543474 -0.02894751 -0.0066634296 0.0011942051 -0.03834115 -0.0048569287 -0.07935747
-0.0057587456 -0.025502125 -0.033739947 -0.017975371 -0.039052095 0.0088631315 0.037756577 0.021656787
0.015373062 0.0039611314 0.016891416 0.03176673 -0.03237684 -0.052118983 -0.04199899 0.021008357

2.weight f4 [32, 128]
00000000: ccb8 583c 52ba 733d 2ee4 243d ec0a 863d
00000010: 94a1 9a3d d3f2 f8bb 38eb c13d 2511 e1bc
00000020: 9ed5 d63d 4c87 e73d ac9f afbd 59ef 32bd
00000030: 0ff0 3bbc d982 923c 42dc 923b 864e 383c
00000040: 876c 3b3d 5953 febc bcfc 9fbc a744 b2bd
00000050: a223 5abd d9e3 653b 5a5e 0f3d 09c7 e13c
00000060: a385 c53c 6ce6 d83d 7fdc 82bd 4f97 03bd
00000070: eaf5 893d 0c81 38bd 77cd 463d eaf6 a03b
00000080: f052 05bc b680 eb3c 9e58 cc3d a9ad d2bc
00000090: 20f0 883c 3c80 1a3d f657 813d afb9 913d
000000a0: 5994 c9bd 5a67 8c3c f443 d4bd 43d0 d0bc
000000b0: 3c61 b9bd 3f03 fbbc ca67 473b 6f65 893d
000000c0: 1ea5 8b3d a02b 31bd 0698 acbd 8c32 37bc
000000d0: be6a 0dbb fb68 2fbd 29e5 8ebd 29bb b2bb
000000e0: 83d4 fabc 4c7f 0f3d 6922 6e3d cdb2 fcbc
000000f0: 110e f8bc 3c48 62bd 36c0 6b3d 2152 4cbd
00000100: 9c0b a6bd ba03 52bd 72bd 383d 96dd be3d
00000110: 9687 0e3d bf00 b7bc 90f7 dbbd e4a5 163b
00000120: 1b07 95bc e194 9f3d e820 da3c 4925 afbd
00000130: a7fd 20bd 1ba7 63bd d12a efbc 57fd d73d
00000140: ef67 843d 06d7 e03d 84f6 923c 5dc1 11bd
00000150: 5039 90bd 7256 123d 3f32 08bd f4de 913d
00000160: 9ced 4e3d 0b10 b03d 28a1 53bc 3bf0 993d
00000170: 045f 03be 9c12 45bd 41d3 b0bd 2097 d13d
00000180: 32c3 683d a222 76bd 104b c43c 31c5 5a3c
00000190: a7b4 a3bd 2b1d a53d bd39 25bd 2fd0 07be
000001a0: 3980 bcbc 02ad b33c 0728 fbbd a13d 4a3d
000001b0: b1d3 9f3b bda8 9f3c a08d 233d 10c0 ef3c
000001c0: 4940 0ebd 3262 5ebd cc24 a73d af29 873d
000001d0: 05a4 a9bd 1963 2f3d b2a7 a53d 3fd6 333d
000001e0: 1d97 6e3d d9d1 23bd f904 f6bc baba 91bc
000001f0: f1f3 8a3d f7a7 9fbc 4bec 15bd 00d9 e6bc
00000200: dec4 86bd 7f39 9a3d ee81 79bd 8985 b63d
00000210: 4a5c aebd 11bf 04bc a91f 593e 45eb f1bd
00000220: 2f0b 21bc 010a 19bc 93ab bf3d e9d7 e33b
00000230: 5573 27bd faff 7d3d 51cb 393d d453 f63c
00000240: b152 58bd 0b1d 2b3c a1e6 91bd 90e9 cb3c
00000250: ba7c aabc c29a 243e 783c 1dbd c6d9 c339
00000260: 6f99 443d fdb6 6dbe 7670 663c 1801 533b
00000270: cdd9 7b3d 060d b53d 8045 673e a5e6 643c
00000280: a53d cbbc 097a 0b3e 68a6 b3bd eb24 323e
00000290: b692 9bbc 1632 3f3d 68ce 003e f6c8 333c
000002a0: 935f 17be 9dea 89bd 05b6 5abd 2f0b 6dbe
000002b0: fa04 963d 1a06 79bd 2925 69bc baf4 8ebd
000002c0: 41f9 33be bc66 76bd f84d 163e 3ecf 4abc
000002d0: 78fc 813c bbc8 903d 0e32 14bd 2ab0 1b3c
000002e0: bfb1 2d3c 113b 66bd 4415 f43d a00c 123e
000002f0: 8fcc c43d 4778 a03e 81a7 1b3d 6423 753e
00000300: d5de 9a3d f88f 733c 8bfc cd3c a82b b63d
00000310: 3f46 b23c 2535 22bd 02d6 953d 39a7 17bd
00000320: 7790 a13c fbf1 a1bd c200 593c 9700 1b3e
00000330: 6994 99be 0f79 50bc 71bc 91bd 43c5 2f3e
00000340: 02ae 913e 3e0f 803e 2180 3fbd 7865 5cbd
00000350: 7a5d abbd 1b5a 3e3e 231d 393d e23d 9abd
00000360: 0dd0 16bd 96ca 17bc 63a8 e53d 89f0 b13d
00000370: 1e85 963d cf76 d93d b423 b53d 5e58 ff3a
00000380: cac1 3fbc 367f fe3b 78c0 50be a4c7 063d
00000390: 6b1c 00be a451 89bc b9a6 a23c cc9a c0bb
000003a0: e83c 80be 2bc3 c33d e3ae 76b9 7b10 623d
000003b0: 5ee2 513d 479f 9bbc 11dc fb3d 4ef4 ee3d
000003c0: 1b64 f33c 400f 083d d082 cabc 3498 c53d
000003d0: 7b04 6cbd 5587 05bd 0cdf d83c 05ed 83bd
000003e0: 9ad0 dbbd a237 19bb 34af f03b fe9b bcbc
000003f0: a40a 8039 76f1 603d e433 9e3d f08a f5bd
0.013227653 0.05950386 0.04025667 0.06545052 0.0755035 -0.0075973063 0.094686925 -0.027473995
0.10489963 0.11305103 -0.08575377 -0.04368529 -0.011470809 0.017884659 0.004481823 0.01124919
0.045757797 -0.031045603 -0.019529693 -0.08704501 -0.05325664 0.0035078435 0.03500209 0.027560728
0.024111575 0.105908245 -0.063897125 -0.03212672 0.067363575 -0.045044944 0.04853579 0.004912247
-0.00813745 0.028747898 0.0997784 -0.025717573 0.016716063 0.03771995 0.06315605 0.071154945
-0.09842748 0.017139126 -0.103645235 -0.025489932 -0.09051749 -0.030641196 0.0030426853 0.067088
0.06818603 -0.043254495 -0.08427434 -0.011181485 -0.0021578516 -0.042824727 -0.069773026 -0.00545444
-0.030618912 0.03503351 0.058138285 -0.030846978 -0.030280145 -0.05524467 0.057556354 -0.04988301
-0.08107683 -0.051273085 0.045102544 0.09319608 0.034797274 -0.022339223 -0.10740578 0.0022987062
-0.018191865 0.07792068 0.026627019 -0.085520335 -0.0393044 -0.055579286 -0.029195221 0.105463676
0.06465136 0.109785125 0.017939813 -0.035584796 -0.070421815 0.035726972 -0.033251043 0.07122603
0.05051957 0.0859681 -0.012916841 0.075165235 -0.12829214 -0.04811345 -0.086340435 0.10233903
0.056826778 -0.060091622 0.023961574 0.013352678 -0.07993441 0.08062204 -0.040338267 -0.1326301
-0.02301036 0.021933082 -0.12263494 0.04937518 0.0048775305 0.01948964 0.039929986 0.029266387
-0.034729276 -0.054292865 0.08161315 0.065997474 -0.08283237 0.042819116 0.08088626 0.043905493
0.05824958 -0.03999505 -0.030031668 -0.017789233 0.067848094 -0.019489272 -0.0366023 -0.028179646
-0.06580518 0.07530498 -0.060914926 0.089121886 -0.085136965 -0.008102194 0.21203484 -0.11812452
-0.0098293265 -0.009340764 0.09358897 0.0069532287 -0.040881474 0.062011696 0.045359913 0.03006927
-0.052813236 0.010443936 -0.07124067 0.024891645 -0.020811427 0.1607466 -0.038387746 0.00037355552
0.04799789 -0.23214336 0.014064899 0.0032196697 0.061487008 0.08840375 0.22585106 0.013971006
-0.024809668 0.13620771 -0.08771974 0.17396896 -0.018990856 0.046678625 0.12578738 0.010973206
-0.14782552 -0.06734202 -0.053396244 -0.23148797 0.07325168 -0.060796835 -0.014230051 -0.06980272
-0.17575552 -0.06015657 0.1467818 -0.012378512 0.015867457 0.07069536 -0.03618055 0.00950245
0.01060146 -0.056208674 0.119181186 0.14262629 0.09609329 0.31341764 0.03800154 0.23939282
0.07562033 0.014865868 0.025144836 0.088950455 0.021762012 -0.039601464 0.073162094 -0.03702471
0.019722207 -0.07907482 0.01324481 0.15136944 -0.2999604 -0.012724175 -0.071160205 0.17165093
0.2845307 0.2501163 -0.046753053 -0.053807706 -0.083674386 0.1858906 0.045193803 -0.075313345
-0.036819506 -0.009264609 0.11213758 0.086884566 0.07349609 0.10618364 0.088447005 0.0019481292
-0.011703918 0.0077666296 -0.20385921 0.032905236 -0.1251084 -0.016762562 0.01985489 -0.005877828
-0.25046468 0.0955871 -0.00023525539 0.0551915 0.05124127 -0.018996848 0.12297834 0.11667691
0.02971082 0.03321767 -0.02472058 0.09648171 -0.05762146 -0.032599766 0.026473545 -0.06441692
-0.10733147 -0.0023379107 0.0073451046 -0.023023602 0.0002442199 0.054917775 0.07724741 -0.11989391

2.bias f4 [32]
00000000: 65d6 5e3d 4f12 90bd b6fa cfbc 41d4 093d
00000010: 7e5f d23d d1c5 85ba e3bd 533d 404f 21bd
00000020: 0584 963d 8fda 9c3d c71c 29bc d68d 043d
00000030: e9d3 e63c 9049 113e 7df9 e23c 90f1 a43d
00000040: 34ca 303d 2a43 24bd c27b a43d 24f5 23bd
00000050: 2f0d 3b3d c7a9 943d 0680 b5b9 ff0a 693c
00000060: f7ce ac3d 25a7 683d 4177 6dbd 7471 fcbc
00000070: 7f72 a33d 6f59 21bc d53b 6e3c b123 58bd
0.05440368 -0.07034742 -0.025388103 0.033649687 0.1027212 -0.0010206049 0.051694762 -0.03938222
0.073493995 0.07658874 -0.010321802 0.032361828 0.028177219 0.14188218 0.027706856 0.08053887
0.043161586 -0.040103115 0.080314174 -0.040028706 0.04566687 0.07258945 -0.00034618395 0.014223813
0.08437913 0.056800026 -0.057975058 -0.030815817 0.07980823 -0.009847983 0.014540632 -0.052768413

4.weight f4 [4, 32]
00000000: 7119 44bd 69db 433e 220f debe e3eb d8be
00000010: 1858 413e 1648 b2be 1e5b 01bf 64bc 04bf
00000020: af83 9bbe b7fb 9fbc 536d c9bd da48 363d
00000030: d536 893d 097f e3bd ea20 c1be 10c8 353e
00000040: dd35 96be e9a5 56be 75b1 453d 8ecf d9be
00000050: 0f60 90be 5e7e ee3d 10b4 523e 20a2 15bf
00000060: d391 afbe 5487 c73e 4e9c e83d fc6f ad3b
00000070: 64df b23e 9c26 493e 4879 ecbd e4e0 cdbe
00000080: 0988 163e 625d 523e 2473 653e 007d 8e3e
00000090: 8e99 2d3e 8c47 a43e f99a 8cbe 82fe 433e
000000a0: aef0 80be c40f 593e 85c2 0d3e b943 16bf
000000b0: 7d38 543d 125d b83d 8c7b 72be e62a 73be
000000c0: 8e87 d83d 2c87 fcbe faae 123e dba9 10be
000000d0: 4927 663e 71a1 d73c 82ba c7be c390 0f3d
000000e0: a123 ffbe ebd3 ddbe 3ca7 673e e4c7 f3be
000000f0: 23b3 a7be 1213 06bf 33ec 27bd 92c8 653e
00000100: 8e5f 1b3e 21c0 25bf 21be e33d 3e47 123c
00000110: 9bf8 8dbe e124 10bf cd14 d03d 30ca a53e
00000120: fccc c8be e4f3 05bf 34a4 073d fe91 b53c
00000130: 67b1 15bd 24a1 ee3b 10a8 1d3e 457e 46bd
00000140: 4f5b 233e 2035 d83d 43ff b4bb f9aa ba3e
00000150: 6550 e6be 5f7e 5cbe 40b2 b3be 71eb 893c
00000160: 0850 80be a7a5 9d3d 7345 753e 234c b73d
00000170: 86ed cebe 8c25 a2be 2485 37bf e9c8 db3e
00000180: 9859 5ebd c483 17be 25a7 1e3e 163d 4f3e
00000190: 5410 1f3e e16b 583d ddff 443e b614 e5bd
000001a0: 110e c33e 1b2f 96be 7e76 30be 8298 c13e
000001b0: 131f 86be c6e2 67be 9bcf b63e 8541 86be
000001c0: 6978 123e 4ecc b63e 6cd0 3dbd eac2 113d
000001d0: 25f4 963d 66f2 53be 7ddc d13d df96 4c3e
000001e0: 8fc0 c43e 51df 0e3d 0739 93be 24ac 873e
000001f0: 15b5 66bc 5f6c a53e 6bed 9b3e 07bb 6cbe
-0.047875825 0.19126667 -0.4337092 -0.42367467 0.18881261 -0.34820622 -0.5052966 -0.5184996
-0.30373904 -0.019529207 -0.09835305 0.04450307 0.066999115 -0.111082144 -0.37720424 0.17752099
-0.2933797 -0.20961727 0.04826494 -0.42541164 -0.28198287 0.116451964 0.20576501 -0.5845051
-0.34290943 0.38970435 0.11357938 0.0052928906 0.3493606 0.19643635 -0.1154657 -0.4021064
0.14700331 0.20543435 0.22407204 0.27829742 0.16953108 0.32085836 -0.27461985 0.19140056
-0.25183624 0.2119742 0.13843735 -0.58697087 0.051811684 0.09002127 -0.23679942 -0.23746833
0.1057273 -0.49321878 0.14324561 -0.14127295 0.22475924 0.026322098 -0.39009482 0.035050165
-0.4983187 -0.43325743 0.22622389 -0.47613442 -0.32753858 -0.5237285 -0.04099674 0.22439793
0.1517317 -0.6474629 0.111202486 0.008928118 -0.27728733 -0.5630627 0.101602174 0.3238082
-0.3921889 -0.5232527 0.03311558 0.022164341 -0.036546137 0.007282393 0.15396142 -0.048460264
0.159528 0.10557008 -0.0055235936 0.36458567 -0.4498321 -0.21532582 -0.3509693 0.0168359
-0.2506106 0.07697611 0.23952274 0.08950069 -0.4041559 -0.3166927 -0.7168753 0.4292672
-0.054284662 -0.14796358 0.15493448 0.20238146 0.15533572 0.052837256 0.19238229 -0.11185591
0.3809667 -0.29332814 -0.17232701 0.37811667 -0.26195583 -0.22645101 0.35705265 -0.26221862
0.14303745 0.35702747 -0.046341345 0.035586275 0.073707856 -0.20697936 0.10247133 0.19979428
0.3842816 0.03488094 -0.28754446 0.2649852 -0.014081259 0.32309243 0.30454573 -0.2311822

4.bias f4 [4]
00000000: 0e46 3e3e 8f75 003e ce6a 003e 648a 053e
0.18581411 0.12544845 0.12540743 0.13041073
