ptdrl_final/scripts/rl/checkpoint_a_0.pt (torch, 219095 bytes, 6 tensors)

layers.0.weight f4 [128, 290]
00000000: 085a f5be 9664 33bf fc19 af40 d3cd 49bf
00000010: e3bd d1be b0ca 48c0 9ce1 25bf 675e 7c3f
00000020: 4de9 91bf ab38 1040 381d e2bf a49e 3a40
00000030: c533 90c0 1807 c540 7d76 bfbe bf14 4bc0
00000040: 513b 0540 1f88 cb3f ae6b 2140 91b9 7dbf
00000050: 0497 8240 b344 0ac0 bfe3 b3bf 7e8e f9bf
00000060: 6d67 94bf f096 1cbf 800a 643f 21d1 4ec0
00000070: 0357 003f c5a4 38bf ff13 c6c0 5f61 263f
00000080: ba4c 04bf 0535 163f 59f9 13c0 4101 15bf
00000090: 7c39 3fbe 0b00 2840 81c3 dcbd 53e2 7940
000000a0: ed01 f2be cf4d 44bf 90fd 313f d7f5 3d3f
000000b0: 9193 c43e c40e 31bf 33f7 cabf 4a1c 003e
000000c0: ed41 d0bf d1d3 443f 4627 a83f 3a86 45c0
000000d0: 5106 2f3f 78f9 1ebf 1b86 fd3f 852d 1b3f
000000e0: 3286 94bf 96ad 3e3e 579d 043e 12d2 d43f
000000f0: 4b53 383f a686 2d3e a948 21bf afe3 f23d
00000100: 68bf 3bbe 9269 8b3f 80de 2a3e 4fa8 16bf
00000110: 116a da3f db90 05c0 dbe0 88bd 30ea b63e
00000120: 4a83 953f c199 9e3f ac9a 0440 3da9 303f
00000130: 4829 a8be cab3 f0be 7400 9dbf 0165 06c0
00000140: d51a ee3f 4072 b63f db96 143f 6f15 9d3e
00000150: c1bd 24c0 08f6 14bd 49fb cbbf 4968 4e40
00000160: 4a49 9dbe 1c2b f7be 3b76 98be 29cb 173f
00000170: e9eb 21bf 7b53 443e acd1 9c3e 382a 17be
00000180: d12d b3be 7b94 6a3f 3d85 aabd cf21 2a40
00000190: fe94 6fbf 95ca a5bd a969 1640 aeab 773f
000001a0: f072 3cbd 345c cc3e 8b42 f13f 8130 2cbf
000001b0: 2aaa 8e3c 6fd5 6dbf 129f 5d3f fda6 61bf
000001c0: 6f21 01bf b704 ab3f 9917 4d40 f1a3 a4bf
000001d0: 6246 7fbf 96be e03e 9050 3ac0 5996 b6bf
000001e0: dec9 663f fc6c 6540 0485 f93f 2337 04c0
000001f0: fdb1 1440 a992 b3bf 5bf4 c8be 5173 d63e
00000200: 4018 0b40 2173 5840 953d 14c0 6bd8 8bbf
00000210: fc12 35c0 dcda 28c0 79d5 0b40 c970 853d
00000220: 9205 1ec0 84f3 2cbf a077 09bf 5993 1140
00000230: 126c 0f40 a38a ad3f 09fe fbbf ec8d e7bd
00000240: 0c5f b43f 38dc 0540 b0bb 3fbd 7fe8 09be
00000250: 4187 debf 09c4 b83f 3699 23be 73c2 28bf
00000260: d869 1a3e 45b9 2b40 3dee b4bf 2e38 f4bf
00000270: 51b9 a0bf 35eb acbf ab16 0fbf f6dc 17be
00000280: ef0a b6bf 0b07 2340 8bf6 54c0 4c3c 053f
00000290: 4a8e 4fbf 5c52 d6bf 94bf 27be 1547 3a3f
000002a0: 43dc 0ac0 59b3 05bf 6f00 fd3d 1f50 d83f
000002b0: 483d 0cc0 4467 0040 b2a2 3e3f e196 ef3e
000002c0: 9868 a13e 9e4f 2abf 13a2 1f3f 8dc6 df3e
000002d0: 82ed 22bf bd67 0f3f 6527 99bf f2a9 0340
000002e0: c3ab d1be 7fa5 783f d4fd a73f ca65 213e
000002f0: 64d4 1abf 5269 db3e f6ba 0940 f20b 0b40
00000300: d50c aebe 1740 96bf f3b2 50bf e0e7 203f
00000310: 4efd a4bf 58b8 90bf 1f10 4b3f ba15 123f
00000320: e577 05c0 2a0d 843f 1dd9 703f dc69 23bf
00000330: 7e6c c93e e070 0240 99b1 66bf 45be 3d3f
00000340: b02a dbbe eac8 1a3f 1c2e f3bf c894 5dc0
00000350: 21db 41bf d924 73bf 53a9 e33d edd4 843f
00000360: f305 ddbf 681d 0ebe d9a4 f93e 6a2f 143f
00000370: 263e 273f e170 3fbf 1383 afbe 7146 09c0
00000380: d282 213e dce6 e63f e15d 26c0 9a60 2940
00000390: 3355 903f 9327 823e 3a26 b1bf 2df8 a93e
000003a0: 2b2e 8e3f 4e45 1b3f 5996 cc3d e23d 2a40
000003b0: 84db 60bf 3946 053f f899 8abf 3045 97bf
000003c0: 4cb5 1dc0 7ad2 3240 b683 803f b6e4 213f
000003d0: 4477 75c0 16a7 95bf ecd2 9cbf 80bd a33e
000003e0: 77d2 be3f 2d3e 3240 5db2 a9bf b66f 54bf
000003f0: 77c9 bf3f 13fe 8fbf 68d2 fa3e 2963 85bf
-0.4792025 -0.70075357 5.471922 -0.7882969 -0.40965185 -3.137371 -0.6479738 0.98581547
-1.1399323 2.2534587 -1.7665167 2.9159327 -4.5063195 6.157116 -0.37395087 -3.1731412
2.0817454 1.5900916 2.5221972 -0.99111277 4.0809345 -2.160443 -1.4053878 -1.949661
-1.1594063 -0.6116781 0.8907852 -3.2315142 0.5013277 -0.7212642 -6.189941 0.64992326
-0.51679575 0.5867465 -2.312094 -0.5820504 -0.18674272 2.6250026 -0.10779477 3.9044387
-0.47267094 -0.76681226 0.6952753 0.74203247 0.38393834 -0.69163156 -1.5856689 0.12510791
-1.6270119 0.76885706 1.3136985 -3.0863175 0.68369013 -0.6209941 1.9806551 0.6061633
-1.1603453 0.18620905 0.12950645 1.6626608 0.72002095 0.16945896 -0.63001496 0.118598334
-0.18334734 1.0891593 0.1668644 -0.5885057 1.7063619 -2.0869663 -0.06683513 0.35725546
1.1680691 1.2390672 2.0719404 0.6900824 -0.32843995 -0.47012168 -1.2265763 -2.0999148
1.8601938 1.4253616 0.5804269 0.30680415 -2.5740817 -0.036367446 -1.5936061 3.225115
-0.30719978 -0.48275077 -0.29777703 0.5929437 -0.63250595 0.1917247 0.30628717 -0.14762199
-0.34995893 0.91632813 -0.083261944 2.6583135 -0.9358672 -0.0809528 2.350199 0.9674634
-0.04600805 0.39914095 1.8848432 -0.6726151 0.017415125 -0.929038 0.8657085 -0.8814543
-0.5044164 1.3360814 3.2045653 -1.2862531 -0.9971677 0.43895406 -2.9111671 -1.4264632
0.90151775 3.5847769 1.9493718 -2.0658653 2.3233635 -1.4029132 -0.39248928 0.41884854
2.173355 3.382027 -2.3162587 -1.092542 -2.8292837 -2.638358 2.1849043 0.06515653
-2.46909 -0.67559075 -0.5369816 2.2746184 2.240971 1.3557934 -1.96869 -0.11306366
1.4091506 2.091566 -0.046809852 -0.13467596 -1.7385026 1.4434825 -0.15976414 -0.65921706
0.15079439 2.683183 -1.4135205 -1.9079645 -1.2556554 -1.350928 -0.55893964 -0.14830384
-1.4222087 2.5473049 -3.3275478 0.5204513 -0.8107649 -1.6743884 -0.16381675 0.7276471
-2.1696937 -0.5222679 0.12353598 1.6899451 -2.1912403 2.0063028 0.74467003 0.467948
0.3152511 -0.66527736 0.6235668 0.4370617 -0.6364366 0.5601767 -1.1965147 2.0572476
-0.40951356 0.97127527 1.3124337 0.15761486 -0.6048033 0.4285379 2.1520362 2.172604
-0.33994165 -1.1738309 -0.81523055 0.62853813 -1.2889802 -1.1306257 0.79321474 0.570644
-2.0854428 1.0316517 0.9408129 -0.63833404 0.39340585 2.0381393 -0.9011474 0.74118453
-0.42806005 0.6046282 -1.8998446 -3.462206 -0.7572499 -0.949781 0.111162804 1.037748
-1.726744 -0.13878405 0.4875858 0.5788485 0.65329206 -0.74781615 -0.3427969 -2.1449244
0.1577256 1.8039203 -2.59948 2.646521 1.1276001 0.25420818 -1.3839791 0.33197156
1.1107839 0.60652626 0.09989614 2.660027 -0.87834954 0.52060276 -1.0828238 -1.1817989
-2.4641905 2.7940965 1.0040195 0.6323961 -3.8354044 -1.1691616 -1.2251868 0.31980515
1.4907979 2.785045 -1.3257557 -0.8298296 1.4983357 -1.1249412 0.48988652 -1.0420886

layers.0.bias f4 [128]
00000000: 5ee0 a8bf 492a de3f fbb0 04c0 53b5 edbf
00000010: e0b0 28bf be8d 25c0 b26d 1bbe 9a6e 4bbf
00000020: 6ac6 debf 1f89 adbf 3a63 713f 763a 60bf
00000030: 9f4a 5ec0 c3df 63c0 e96d 6a40 dd8f b13f
00000040: 15dd acbf 400b 29c0 f077 18c0 5907 22c0
00000050: 1809 233d b60e 4ebf 06b2 b93e 2a2b 79c0
00000060: f916 07c0 0bb2 293f 430a 47c0 8047 0cc0
00000070: ca57 9ebf dcbc 00c0 49ec 44c0 0d16 29c0
00000080: a3ad 1ac0 bedf 373f b0ce d3be 493f fabf
00000090: 5f45 7abf 5378 3bc0 88d8 8dbf 65f5 f8bf
000000a0: 8251 2fc0 5bcd aabf ca1c e83f 0248 1bbf
000000b0: acfd 46be 86bb 9bbf 9414 e3bf cd5b 0f3f
000000c0: c745 1bbf 693f 1d3d 5e2a 2ac0 9166 92bf
000000d0: 9c77 55bf 999e 1fc0 6c18 633f 7bc9 dbbf
000000e0: d56b aabe 1fba c5bf cc0c 68bf 34df 85c0
000000f0: 3d76 ccbf cfb8 aabf 9435 86bf 3410 2cc0
00000100: f41c c63e 2f0d 42bf 5c72 303f efb8 1cc0
00000110: 1dc0 84c0 2103 33c0 a899 cd3d a8ce d4bf
00000120: 5622 50c0 b7c0 4a3e 3f51 7bc0 cb06 dabf
00000130: f7e9 5941 5a5c 1dc0 c73c 47bf bf5d e9be
00000140: 6fe3 b5be b30c 06c0 2354 c0bf 1861 e43e
00000150: 57af a1be c8d4 503f 4dad cd3f 76d9 1ec0
00000160: b494 49c0 72f3 ebbf 20df f6bf d50b 5dc0
00000170: afbb 9ebe deb1 a1bf 0c20 5ac0 300a 1fc0
00000180: 69b5 d4bf 0d72 1ec0 aa41 e2bf 0c98 93c0
00000190: 1123 f7bf 7359 3f3e 47bb 6fc0 0070 b6bf
000001a0: c123 d3be 4d40 9dc0 c9f1 3fc0 6c62 df3f
000001b0: 3ef9 babf 42b2 86bf fc64 80bf fdd6 87bf
000001c0: 58fc 24c0 2208 1bbf 19a3 d9bf 6c78 3640
000001d0: 371e dbbf b263 98bf 7745 663f b72c 76bf
000001e0: b80d 75bf e8c9 dfbf f0ea 1cbf 10a5 0abf
000001f0: 2971 16c0 c556 943f 5c5e 0d3f 2345 a0be
-1.3193471 1.7356654 -2.073302 -1.8570961 -0.6589489 -2.5867763 -0.15178564 -0.7946564
-1.7404301 -1.3557471 0.9429203 -0.87589204 -3.4733045 -3.5605323 3.6629584 1.3872029
-1.3504969 -2.6413116 -2.3823204 -2.5316985 0.039803594 -0.804912 0.36268634 -3.8932595
-2.1107771 0.66287297 -3.1100013 -2.191864 -1.2370541 -2.011527 -3.0769217 -2.6419709
-2.416848 0.7182578 -0.41368628 -1.9550563 -0.977621 -2.929219 -1.1081705 -1.9449888
-2.7393498 -1.334392 1.8133786 -0.6065675 -0.19432706 -1.2166603 -1.7740655 0.5599945
-0.60653347 0.03839055 -2.658836 -1.1437551 -0.83385634 -2.494055 0.8870914 -1.7170862
-0.33285394 -1.5447425 -0.90644526 -4.1834965 -1.5973583 -1.3337649 -1.0485101 -2.688489
0.38693964 -0.75801367 0.689245 -2.4487875 -4.1484513 -2.797066 0.10039073 -1.6625566
-3.2520957 0.19800077 -3.9268339 -1.7033323 13.61962 -2.4587617 -0.77827114 -0.45579335
-0.3552508 -2.094525 -1.5025676 0.44605327 -0.31579086 0.8157468 1.6068512 -2.4820228
-3.149701 -1.8433669 -1.9286842 -3.4538472 -0.31002566 -1.2632406 -3.408206 -2.4849968
-1.6617862 -2.475711 -1.7676289 -4.6123104 -1.9307576 0.18686466 -3.7458055 -1.425293
-0.41238216 -4.914099 -2.9991324 1.7451911 -1.4607313 -1.052315 -1.0030818 -1.0612484
-2.5779018 -0.60559285 -1.7002898 2.8511 -1.7118596 -1.1905425 0.89949745 -0.9616198
-0.9572406 -1.7483492 -0.61295986 -0.54158115 -2.3506567 1.158898 0.55222106 -0.31302747

layers.2.weight f4 [128, 128]
00000000: 5553 3c3f 2ee9 8d3e a8dd c8bf f2bf 0f3d
00000010: 3eb4 61bf ddfd 21c0 78bd 893b 50f2 f5bf
00000020: 31f6 3b3f d874 2a3f 0d08 c4bf 5d8c dabf
00000030: 2359 893f e2d8 34c0 8f2c 003f 1585 35be
00000040: 46aa 00bf ae05 aa3e 4a9d b3be 6920 a0bf
00000050: f3fc adbf 266b 97bf e3af 113f 69ae 1bbf
00000060: d68c 293e 842d aabf fca7 8fbe 148c 29bf
00000070: 6b1f 8bbf d6f6 86bf cab1 1bbf b49b 023f
00000080: e59c 8bbf 4595 613f 279e 81bf 56bb 933e
00000090: 5551 96bf d738 123f 2728 6d3d 2d52 d93e
000000a0: cd51 0ec0 69aa d9bd eef8 9bbf a0c0 5e3e
000000b0: b814 81be b728 60be 7faa 46bf 0d4e 59bf
000000c0: f3cb 82bf 6ae3 f1bc 4fee f0bf b5ad a2bd
000000d0: 9768 a6be b18d 763f 9a4b 10c0 67e2 a9bf
000000e0: 65dc 7abf 1c29 c8bf 2514 7dbf 4057 f9bf
000000f0: 8ae7 14c0 542a 50be aee2 3abf d4cc 36bf
00000100: 6bb2 e43f c8d7 11be 4f8d 203e 3daa f4bf
00000110: c3b4 1bc0 41ec 01c0 6f1c 52c0 3058 debe
00000120: d88f 34c0 0658 7c3f 2b27 57bf f2fc 85bf
00000130: e344 87bf 33e2 8fbf cac2 91bf ccb4 4cbf
00000140: 192c 97be eb1d 12c0 6a88 47c0 cdbe 00bd
00000150: e6ba 453f 0d35 cfbe d877 89bf c0b2 c1bf
00000160: 8404 f03e a34a 01c0 5f6f c03e 3d47 6cc0
00000170: 223f a53e a400 1bbd ae7d a8bf f96f 81bf
00000180: 5301 bc3e 527e e7be c53d cebf da46 3ebf
00000190: 78d5 5cbf ef10 00c0 b4a6 aabf 1740 3ebf
000001a0: c157 14c0 faf3 afbf 729b a3bf 7d4a dbbf
000001b0: 42da cfbe 1159 1d3d ef79 92bf 5c66 bbbe
000001c0: d7e3 2f3f 1bc8 0c3f ef8f 98bf b8d4 7ebf
000001d0: 9a3f dbbe 1269 aabe 55a2 5c3f 6af6 edbe
000001e0: 9ad9 66be bbf1 3cbe 66f5 afbf 538b 88bf
000001f0: e255 3dbf 0194 66be cf76 93bf 8cf6 b7bc
00000200: 6723 93bf f9d5 edbf 4bc4 86bf f322 7f3e
00000210: ab50 3abf 4678 9dbb 4272 dd3e dae1 31bf
00000220: 9788 06bf 5943 37bf e117 1ebf a2a6 033e
00000230: 23b9 8c3f 449c 873f ad4b cfbe 45a2 0cbf
00000240: b62f 673f b3d5 303f 8536 8cbf e1a2 133f
00000250: 58a8 8cbe 7f37 0dbf 71aa b7bf 5f5b ba3e
00000260: 6046 2e3f b454 43bf 37d5 1ebf 5a3b 96bf
00000270: a96b 6fbf 576b ebbf 0e99 243f bcd2 d5be
00000280: d552 60be dc5b fb3e 1d14 30bf 089f 10bf
00000290: d2ef b93d fa0a a63f 21ce 343f c713 c3be
000002a0: 3e96 973f 4b2b b93f d125 893e 671c f2bd
000002b0: e42b 83bf 02a8 c2be 0489 8bbe 3340 58c0
000002c0: 126b 95bf a8ab b2bf b54e 3a3e 129c 343f
000002d0: b9e4 aebf 57e1 723f d3fc 9ebf cb5c 07bf
000002e0: 2ac3 8fbc 063e a13d 24a6 86bf ce80 86bd
000002f0: f84e 9e3f 6e62 a3be 6144 10bf 9c62 273e
00000300: 9af8 b3bf da15 273f 5ce5 80be b742 803d
00000310: 06df e23d 076e 6f3f 1d5e 603f e147 bd3e
00000320: 602e 163f c6a9 933f cc13 abbe 2096 f33e
00000330: 99df 87be 6dfd f8bd 0743 f03d c517 c3be
00000340: ded6 303c 9714 9d3f c7e1 50be b1a5 f8be
00000350: 3c83 c93e 74e0 fd3e 5bb4 263f 7fd6 1d3f
00000360: 4ce3 a13f 5e3e 093f f54d 02bf 25b7 e9bf
00000370: e115 8cbf ecb3 d2bc da8f cdbf 6b1d 023d
00000380: d122 053f 69d5 a23e f947 adbf 0bfa 3d3f
00000390: f8ca bfbf 909a b3bf d977 f9be 35af 65bf
000003a0: c85d a13e c318 0c40 f00c d93e e1b3 0c3e
000003b0: b083 bbbf 1834 383f 968b a73e 6a2e f63e
000003c0: 2b49 99bf 8a70 edbe 301e 7d3f 9172 1ebd
000003d0: 7431 313f 63b0 e7bf bc48 ac3f 4c7c 74be
000003e0: 096f 2fbf 514a 2e3f 4ac6 a3bf cfda 043d
000003f0: b02e e63e df37 f5be 29c5 2e3e 214b f93b
0.73564655 0.27716964 -1.5692644 0.035095163 -0.8816565 -2.5311196 0.0042034946 -1.9214573
0.73422533 0.6658454 -1.5314957 -1.7074085 1.0730327 -2.8257375 0.5006799 -0.17726548
-0.50259817 0.33207458 -0.3508094 -1.2509891 -1.3592819 -1.1829574 0.56909007 -0.60813004
0.16557631 -1.329514 -0.2805785 -0.6622937 -1.0868963 -1.0544078 -0.6081816 0.51018834
-1.0907255 0.8811839 -1.0126389 0.28853863 -1.174357 0.5711798 0.05789962 0.42445508
-2.2237427 -0.10628206 -1.2185342 0.21753168 -0.2521112 -0.21890531 -0.77603906 -0.8488472
-1.021849 -0.029527385 -1.8822726 -0.07943288 -0.3250167 0.96309954 -2.2546144 -1.3272218
-0.97992545 -1.5637546 -0.98858863 -1.9479752 -2.326632 -0.20328647 -0.73002136 -0.7140629
1.7866949 -0.1424247 0.15678905 -1.9114453 -2.4329078 -2.0300448 -3.2829854 -0.43426657
-2.8212795 0.98571813 -0.8404414 -1.0467818 -1.0567898 -1.1240906 -1.138757 -0.79963374
-0.2952583 -2.283076 -3.117701 -0.03143196 0.7723831 -0.40470162 -1.0739698 -1.5132675
0.46878445 -2.0201805 0.3758497 -3.691848 0.3227473 -0.037842408 -1.3163354 -1.0112296
0.3671976 -0.45213562 -1.61126 -0.7432686 -0.8626323 -2.0010335 -1.3332124 -0.74316543
-2.317856 -1.3746331 -1.2781813 -1.7132107 -0.40596205 0.03841502 -1.1443461 -0.36601532
0.6870703 0.54992837 -1.1918925 -0.99543333 -0.42821962 -0.33283287 0.861852 -0.46477062
-0.22543946 -0.18451588 -1.3746765 -1.0667518 -0.7395917 -0.22517397 -1.1520633 -0.02245643
-1.1495179 -1.8580924 -1.0528654 0.24915676 -0.7277934 -0.0048055975 0.43251234 -0.6948525
-0.5255217 -0.7158714 -0.61755186 0.12856534 1.0993999 1.0594563 -0.40487424 -0.54935104
0.90307176 0.6907608 -1.0954138 0.5767041 -0.27472186 -0.55162805 -1.434889 0.36397836
0.68076134 -0.7630112 -0.6204409 -1.1736863 -0.9352365 -1.8392133 0.6429604 -0.4176234
-0.21906598 0.4909352 -0.6878069 -0.5649266 0.09078945 1.29721 0.7062703 -0.38101026
1.1842725 1.4466337 0.26786664 -0.118218236 -1.0247769 -0.38018805 -0.27252972 -3.3789184
-1.16733 -1.3958635 0.18194087 0.70550644 -1.3663551 0.9487509 -1.2420906 -0.52875966
-0.017549116 0.07873158 -1.0519452 -0.06567536 1.2367849 -0.31911033 -0.5635434 0.1634621
-1.4060242 0.6526772 -0.25174987 0.06262725 0.110776946 0.93527263 0.87643605 0.36968902
0.5866451 1.1536186 -0.3341354 0.47575474 -0.2653778 -0.12157712 0.117315345 -0.38104072
0.010793416 1.2271909 -0.20398627 -0.48563913 0.39357936 0.49585307 0.6511895 0.6165542
1.264749 0.5361079 -0.50900203 -1.8259016 -1.0944177 -0.025720559 -1.6059525 0.031766336
0.5200625 0.31803444 -1.3537589 0.7420966 -1.4983816 -1.4031544 -0.4872425 -0.8972047
0.31516862 2.1890113 0.42392683 0.13740493 -1.4649563 0.7195449 0.32723683 0.48082286
-1.1975454 -0.46374923 0.9887419 -0.038683478 0.69216084 -1.8100704 1.3459697 -0.2387554
-0.685288 0.6808215 -1.2794888 0.032435235 0.44957495 -0.4789419 0.17067398 0.007607833

layers.2.bias f4 [128]
00000000: 94a5 1bc0 3736 1241 a9bc 4640 99e4 8b3f
00000010: 0709 95bf 6cb6 ce40 def0 82bf a413 d2bf
00000020: f6a0 cf3f 5bb7 413e 5e58 4e3f 8762 83be
00000030: 0149 8240 e6ad 1140 e40f 7ebf 15b4 efbd
00000040: 643a a8be 5b88 ed3f 36b8 38bf 1fd7 753e
00000050: 6616 4440 cb94 933f 1880 1abf 1a1f 5f40
00000060: 8253 f43f 40b2 e1bd d3c8 a43f 1641 ef3f
00000070: 5ab7 6441 0587 b13e 779b 3cbe 74dc 0cbf
00000080: 0a23 9c3f 564d 733f e95a 4abc 111d a4bf
00000090: 1922 8d3e 47fd 833f 6802 5fbf e38b 49bf
000000a0: cd87 3bbf ec18 cc40 43b2 fa3f c476 9140
000000b0: 2919 12be 1fbe e9be f91f 0840 3293 3bbf
000000c0: ff9f 6f3f cc62 ed3e 9629 13be be90 ccbf
000000d0: f1f2 2cbf ab4a b23c f2ed fcbe 0d60 69bf
000000e0: 26dd 97be ebb8 cb3f 942a 9e40 da49 fc3f
000000f0: f56d 393f 28a6 cebf c1c7 8e40 ced4 76bf
00000100: 7448 05bf c153 b6bf 3a6b c9bf b5d0 1bbf
00000110: 9235 23bf 7763 4f3f 1d66 16bf 26ba 7cbf
00000120: 03e8 03bf 9d23 86bf c130 b0bd 954c c4bf
00000130: 60ba 1a3f 49f0 51bf ed94 67bf 9adc f6bd
00000140: da96 7840 6e47 bdbf 8f6c f8be 5d58 b5be
00000150: 36e6 88bf 0a35 0ec0 a414 56bf 4c27 2ebe
00000160: 3dcc 37be 496f 0c41 f0e2 983e 1b0c 97bf
00000170: a049 b6bf 752f 1c40 3df8 b140 3f52 85be
00000180: 1f2f b63f 8478 8ebf c826 c13f 20d9 47bf
00000190: ab6a 2b3f 5e7a 763f bf9d 65bf 3010 f6be
000001a0: e5ec 0e3f 9678 7c40 bbd5 3c3f 6b61 3a3f
000001b0: 2770 82bf 8635 e6bf 660d 56bf eece 41be
000001c0: bfb7 813e d150 653f b6ec 9140 c1f4 b9bf
000001d0: 0c01 cabd e8ed 60bf c066 f33e d7d4 97bf
000001e0: 8a04 bcbf 5a3b bb3f 1f1f 8abe 0088 a9bf
000001f0: 50d3 b9bf 407f e5be 6b6d 40bf 9cf4 823e
-2.431981 9.138236 3.105265 1.0929137 -1.164338 6.4597683 -1.0229757 -1.6412244
1.6220996 0.18917601 0.8060359 -0.25661108 4.0714116 2.276239 -0.99243 -0.1170427
-0.3285705 1.8557237 -0.72156084 0.24007843 3.063867 1.1529783 -0.60351706 3.4862733
1.9087985 -0.110203266 1.2873787 1.8691738 14.294764 0.34673324 -0.1841868 -0.55023885
1.2198193 0.9503988 -0.012350776 -1.282137 0.27565077 1.0311669 -0.87113047 -0.78729075
-0.7325409 6.378042 1.9585651 4.5457478 -0.1426741 -0.45652863 2.1269515 -0.7327148
0.9360351 0.4636444 -0.14371333 -1.5981672 -0.675582 0.02176412 -0.49400288 -0.91162187
-0.2966091 1.5915807 4.9426975 1.9710038 0.72433406 -1.6144457 4.461884 -0.96418464
-0.5206368 -1.424431 -1.5735848 -0.60865337 -0.63753617 0.81011146 -0.5874956 -0.9872154
-0.51525897 -1.0479618 -0.08603049 -1.5335871 0.60440636 -0.8200727 -0.9046162 -0.12053795
3.8842072 -1.4787424 -0.48520324 -0.35418978 -1.0695255 -2.2219872 -0.83625245 -0.17007178
-0.17949004 8.777169 0.2986064 -1.1800569 -1.4241219 2.4403965 5.5615525 -0.2603931
1.423313 -1.1130528 1.508996 -0.7806568 0.6695964 0.9628047 -0.89693826 -0.48059225
0.5583022 3.94486 0.73763627 0.728049 -1.0190476 -1.7985084 -0.83614194 -0.18926594
0.253355 0.8957644 4.5601454 -1.4527818 -0.09863481 -0.87863016 0.4753933 -1.1861829
-1.4688885 1.4627488 -0.2697687 -1.3244629 -1.4517612 -0.44823647 -0.7516696 0.25577247

layers.4.weight f4 [4, 128]
00000000: 07a0 d83e f649 c9bd 6944 45be 48d9 6a3f
00000010: e17e 343f 1f46 92be 8483 493f 0965 4e3f
00000020: 767d 33bf 8f9b 823e 0305 463f 83f5 0440
00000030: 665f 98bd 3e92 44be d3fe 5e3f a402 d23f
00000040: 2a71 973f 53b8 6fbe 73b4 c03f 6627 003f
00000050: 9b28 b43e fe67 42bf 8e34 8c3f 80cc 37be
00000060: 65f4 c83d 0a36 50bd cb99 14be b9a5 883f
00000070: 4783 99be 190d 31bf 4932 ee3e 29db 82be
00000080: fe50 8e3f 1e14 47bf 7ccd 06bf 1492 4c3f
00000090: 78db 2a3f c432 2fbf f830 793f 9d37 903f
000000a0: d801 86be ce4c 9abe 6368 e6be b64f 783f
000000b0: 44eb 4a3d 69fb 8c3e e9e3 53be ff6a 9dbe
000000c0: c50a d6be 48d2 543f 44d9 7c3b eb9f 173f
000000d0: 8977 9b3f 4806 c83f b3fd b93f 2b36 473f
000000e0: faa3 b03d 4815 8c3e 36f9 de3c 3d26 cabb
000000f0: 9682 bc3e c8a0 543f 1739 963e f94e 3ebe
00000100: c664 41bf 110b 123f 47b0 be3f dc96 323f
00000110: 2324 033f c6b7 333e 2d53 79be ae2e dc3e
00000120: 0df2 b83f 5d4b 853f 8a96 fbbe a82c 2cbd
00000130: 0767 09bf d3a7 ab3f 92da 83be e943 663d
00000140: 4706 d2be ee13 a13f d249 6c3f eb8f ad3e
00000150: 5bdf 6d3f 9450 023f 4440 1fbf 30a0 933c
00000160: f724 103d 314c a9bd b170 3abf bcfc 303f
00000170: 11a4 c33f 3bbb 88bf 7c8c 8ebe 39e1 dc3e
00000180: b10a ad3e 58d9 6e3f b6da 17bf 4606 643f
00000190: e9bc 7f3f e0ff ccbe a790 743f 84d3 5d3f
000001a0: 22d7 07bf 311b 093f 7a2d 663f dd43 54be
000001b0: 83ad 033f 3333 163f 2f56 393f 1958 0abf
000001c0: 031c dd3e 39e2 013f 13d7 c33e 84b7 243f
000001d0: 8f85 ecbe 47cf 153e 0a7e 32bf 1ba0 063f
000001e0: fa3c 7e3f 4659 c0be cda8 9b3f 6a3b 483f
000001f0: b8c9 a83f b05c f03f c988 213f 704c 623e
00000200: c8e2 8a3e 0cf4 efbd 96ea 53be f817 363f
00000210: fceb 6f3f 9541 69be e5c6 4f3f 24a2 293f
00000220: 9df3 31bf f5a2 803e 0c13 6f3f b222 ff3f
00000230: c710 a4bd b0a4 96bd 8f3d 763f 25b8 993f
00000240: 3c90 653f 5d13 173f d202 903f c11c fc3e
00000250: 1507 8a3e 89f7 d63e 3c0e 563f 03fc d9bd
00000260: 94e9 3abc f766 4f3d e563 7bbf 2e5f 363f
00000270: 5475 99be 6538 12bf 0d54 ec3e e8d8 bbbf
00000280: 9821 a73f be1a 52bf 7dbd c4be fb57 9e3f
00000290: 5721 243f 64cf 49bf 52a7 883f 0ac6 b63f
000002a0: d64d e9be c98b 223d ced5 acbe 84f3 853f
000002b0: 49ab 91bd dcb8 953e abd1 d6be 8e71 a23d
000002c0: 04e7 23bf 35a2 383e 4c60 6ab8 fe53 5d3f
000002d0: 55b5 593f 632a bf3f fd74 963f cd11 1a3f
000002e0: 6b37 0e3f 0c26 953e 254d 5fbe c2f4 e3be
000002f0: a81c bc3e 5b69 573f fd92 c53e 3014 3ebf
00000300: 6514 acbe 95c3 093f ed9f c93f 4314 323f
00000310: 676a 873e 0c2f 2cbf c7df 40bf eea9 063f
00000320: 9fc1 9e3f 5aba 593f d996 10bf b3de 0bbe
00000330: 5e25 91be bc36 703f cbce debe da3e 753c
00000340: e3fd 6bbe 9c9e 883f 8dcb 0f3f f818 8cbe
00000350: f697 2b3f 7622 043f 1cdf f8be 80d6 20bc
00000360: e113 273c 5389 adbd b7e6 0bbf ae44 2e3f
00000370: 1fda c13f 0ab9 89bf ef68 a0be 980b f23e
00000380: 4632 ac3e 6d61 743f 84f1 0fbf b077 923f
00000390: 716e 8e3f 876a 37be c649 8d3f 6154 833f
000003a0: b945 1f3f 9f35 103f e0c3 283f f825 03bf
000003b0: 2c47 e5be 87c2 033f db26 6e3f 7dc6 0bbf
000003c0: ef00 133f a483 073f 6c54 bf3e 8d63 023f
000003d0: 3c3a eabe a4a2 903e 2db1 55be 780e 593f
000003e0: 6c55 d33e 741b c4be a879 443f 6ded 513f
000003f0: 866a 9d3f bf3f 0040 f508 9f3f dbdb 663e
0.4230959 -0.0982856 -0.19264378 0.91737795 0.705061 -0.28569123 0.787163 0.8062292
-0.70113313 0.25509307 0.773514 2.0774848 -0.07440071 -0.19196412 0.8710758 1.6407056
1.183141 -0.23410158 1.5055069 0.5006012 0.3518723 -0.7593993 1.0953538 -0.17949104
0.098122396 -0.050832786 -0.14511792 1.0675575 -0.2998297 -0.6916061 0.4652274 -0.2555783
1.1118467 -0.7776507 -0.52657294 0.799104 0.6674113 -0.6843684 0.97340345 1.1266972
-0.26173282 -0.30136722 -0.45001516 0.9699663 0.049540773 0.2753556 -0.2069241 -0.30745694
-0.41805092 0.83133364 0.003858165 0.5922839 1.2145854 1.5626917 1.4530548 0.7781703
0.08625026 0.27359986 0.027218442 -0.006169109 0.3681838 0.8305783 0.2934043 -0.18584813
-0.75544393 0.57048136 1.4897546 0.69761443 0.51227015 0.17550573 -0.24348135 0.43004364
1.4448868 1.0413624 -0.4913829 -0.042034775 -0.5367283 1.3410591 -0.25752693 0.056217108
-0.41020414 1.2584207 0.9230014 0.33898863 0.9291894 0.509042 -0.62207437 0.01802072
0.035191502 -0.082664855 -0.72828203 0.6913564 1.5284444 -1.0682138 -0.27841556 0.4314058
0.3379722 0.9330039 -0.593181 0.8907207 0.9989763 -0.40038967 0.9553322 0.8665087
-0.5306264 0.53557116 0.8991314 -0.20729013 0.5143663 0.58671874 0.7239713 -0.54040676
0.43185434 0.50735813 0.38250026 0.6434252 -0.46195647 0.14629851 -0.6972357 0.5258805
0.9931179 -0.3756811 1.2160889 0.7821566 1.318656 1.8778286 0.6309934 0.22099471
0.27126145 -0.1171647 -0.20694956 0.71130323 0.9371946 -0.22778924 0.81162864 0.6626303
-0.6951235 0.25124326 0.9338844 1.9932463 -0.080110125 -0.073556304 0.9618768 1.2009321
0.8967321 0.5901392 1.1250861 0.49240687 0.26958528 0.4198573 0.8361547 -0.106437705
-0.011408228 0.050635304 -0.981993 0.7123898 -0.29972327 -0.571173 0.46157876 -1.467557
1.3057127 -0.82072055 -0.38425818 1.23706 0.6411337 -0.7883208 1.0676062 1.4279187
-0.45567197 0.03968409 -0.3375687 1.046494 -0.07112748 0.292426 -0.4195684 0.07931815
-0.64024377 0.18030627 -5.587963e-05 0.86456287 0.85042316 1.493481 1.1754452 0.6018341
0.5555331 0.2913059 -0.21806772 -0.44522673 0.36740613 0.84145135 0.38588706 -0.74249554
-0.3360931 0.5381406 1.575193 0.69562167 0.26448366 -0.6725929 -0.7534146 0.5260304
1.2402838 0.85049975 -0.56480175 -0.13659172 -0.2834882 0.9383352 -0.43517146 0.014968598
-0.23046069 1.0673404 0.5616997 -0.273628 0.6702875 0.51615083 -0.4860772 -0.009816766
0.010197611 -0.08473458 -0.5464892 0.68073547 1.514469 -1.0759594 -0.31330058 0.4727447
0.33632106 0.9546116 -0.562279 1.1442776 1.1127454 -0.1791173 1.1038139 1.0260125
0.62215763 0.5633182 0.6592388 -0.5122981 -0.44780862 0.514687 0.9302804 -0.54599744
0.574233 0.5293524 0.37369096 0.5093315 -0.45747554 0.28249085 -0.20868368 0.847877
0.4127611 -0.38302195 0.7674813 0.8200291 1.2298133 2.0038908 1.2424608 0.22544806

layers.4.bias f4 [4]
00000000: 6cd5 22c1 72af 22c1 f341 26c1 8425 28c1
-10.177105 -10.167833 -10.391101 -10.509159
